results/puzzle_experiment_2/PuzzleBehavior/PuzzleBehavior-23999996.onnx (onnx, 342923 bytes, 6 tensors)

network_body._body_endoder.seq_layers.0.weight f4 [256, 65]
-0.2986834 0.25660953 0.06890676 0.13104175 -0.02575052 0.34016666 0.1484244 0.29942247
-0.14965084 -0.3635163 0.14937449 -0.012591808 0.020679995 0.14836998 0.113041304 0.020968057
0.14513837 0.15845902 -0.117977045 0.086073324 -0.25896487 -0.22966348 -0.054312296 -0.06301731
-0.19012502 0.13379885 -0.12235859 0.2130175 -0.06380507 -0.096441165 -0.22630526 -0.043321095
0.16441868 0.07364023 0.5503047 -0.38344136 -0.061536264 0.019298708 -0.025247714 -0.0768952
0.027054876 0.0044962526 0.22367515 0.4052041 0.05309693 0.04957585 -0.27450505 -0.0151175745
-0.07959128 -0.13609925 0.114860386 -0.085333586 -0.025916345 -0.056051638 0.16346799 0.3285218
-0.16484721 0.01283581 0.01124886 0.06149202 0.11716622 0.24606523 0.2978977 0.08016872
-0.090477295 0.05939444 -0.07232013 -0.28562948 -0.14013857 -0.0069368905 -0.024948845 0.15407203
-0.53019726 0.15191327 -0.043067105 -0.15860647 -0.3301242 0.072808206 -0.017437002 0.00648684
-0.15362187 0.28961456 -0.06797248 0.10468351 -0.18048333 0.4263135 0.2800103 -0.015846018
-0.00013582862 0.102342635 -0.16464011 0.08343046 0.12124892 0.33921906 -0.0546176 -0.18022233
0.12335237 0.05799075 -0.015539417 -0.07615734 0.1280328 0.16722098 0.2948469 -0.057864357
0.12340322 -0.1273226 -0.08780197 0.04898409 -0.46957555 0.08806693 -0.6336051 -0.1761401
0.031629793 0.085590586 0.011108582 0.09010588 -0.0029743286 -0.017850386 -0.6046241 0.19679697
-0.2317042 -0.1688069 0.49853235 -0.06814091 -0.08722824 -0.018476522 -0.11830544 -0.039752256
-0.09200842 -0.15065992 0.1191659 -0.057910386 -0.03879857 0.2728688 0.01769498 0.2534674
0.21883035 -0.12431702 0.23069152 0.12512873 0.035385136 -0.17876156 -0.123835005 -0.095191956
0.25365376 -0.025600277 -0.05262174 0.065187454 -0.023336694 0.007564624 -0.27724358 -0.050762467
0.06303715 0.08971406 0.06056504 0.13950384 0.6889609 -0.14755106 0.019537985 -0.013739471
-0.27376997 -0.1686888 0.12764277 0.06098089 -0.5661614 -0.018841822 -0.0153570855 0.2881893
-0.34378192 0.08949923 0.12590216 0.048059575 0.21774012 0.055210162 0.06321315 -0.19363625
0.028356872 -0.15425745 -0.17418593 -0.010379164 -0.45785692 0.00030613356 -0.15689334 0.37064937
0.09579891 0.01892654 -0.07496718 0.1656056 0.02709037 0.14327247 0.060357567 0.09794527
-0.18418044 0.065774165 0.08030969 -0.73885626 -0.031904656 -0.11703762 0.22625202 -0.025588011
0.034565948 -0.27870387 -0.08977493 0.18877718 -0.40268284 -0.17188069 -0.1096818 0.012029656
-0.015255344 -0.13053402 -0.032763783 -0.11046077 0.096844964 -0.22833452 0.087074555 -0.24646969
-0.3852515 0.13250938 -0.40441886 -0.002701376 0.11772944 0.44935247 -0.21011376 -0.09786807
-0.15900294 -0.2891521 -0.031573568 0.08052327 0.122847594 -0.28490207 -0.109794065 -0.68045926
0.23783758 -0.17515424 -0.2558851 -0.022939768 -0.06866486 -0.18731853 0.024566201 0.04493997
-0.2989392 0.14974901 -0.026953815 0.09383437 -0.061495587 -0.14959225 -0.07059463 -0.15328473
0.12276686 -0.31279123 0.2218621 0.036027707 -0.018937116 0.08670971 0.22549915 0.13286379
00000000: 08ed 98be 5362 833e fd1e 8d3d cf2f 063e
00000010: c1f2 d2bc 532a ae3e 91fc 173e e74d 993e
00000020: 123e 19be cf1e babe a0f5 183e df4d 4ebc
00000030: 1869 a93c 4dee 173e 3382 e73d 34c5 ab3c
00000040: 279f 143e 1543 223e f39d f1bd 3647 b03d
00000050: 0b97 84be e72c 6bbe 9276 5ebd 380f 81bd
00000060: 22b0 42be 9102 093e 2497 fabd 4221 5a3e
00000070: 3cac 82bd f282 c5bd 91bc 67be 7671 31bd
00000080: 5f5d 283e b0d0 963d c5e0 0c3f 6d52 c4be
00000090: 730d 7cbd 5318 9e3c 4bd4 cebc 3b7b 9dbd
000000a0: 30a2 dd3c 4d55 933b 190b 653e e976 cf3e
000000b0: 2b7c 593d 0c10 4b3d ed8b 8cbe b4af 77bc
000000c0: c100 a3bd 9a5d 0bbe ec3b eb3d 60c3 aebd
000000d0: 844e d4bc 6796 65bd 2764 273e 0234 a83e
000000e0: b5cd 28be 4a4d 523c 234d 383c 0edf 7b3d
000000f0: d8f4 ef3d 86f8 7b3e 0c86 983e 7f2f a43d
00000100: 294c b9bd 9647 733d 941c 94bd 073e 92be
00000110: 7c80 0fbe db4e e3bb 8561 ccbc 0fc5 1d3e
00000120: 02bb 07bf 278f 1b3e 2267 30bd bc69 22be
00000130: 0a06 a9be 781c 953d 0bd8 8ebc 8f8f d43b
00000140: 0d4f 1dbe 5c48 943e 2835 8bbd 4f64 d63d
00000150: 9fd0 38be c345 da3e 835d 8f3e 82cf 81bc
00000160: 386d 0eb9 0499 d13d 6b97 28be 97dd aa3d
00000170: 5b51 f83d 1fae ad3e b4b6 5fbd 348c 38be
00000180: 2ba0 fc3d b587 6d3d 0a99 7ebc 61f8 9bbd
00000190: 081b 033e fa3b 2b3e 2cf6 963e 2d03 6dbd
000001a0: d4ba fc3d db60 02be 85d1 b3bd 8ba3 483d
000001b0: 356c f0be 6f5c b43d f233 22bf 125e 34be
000001c0: 3e8e 013d 1e4a af3d c500 363c 6e89 b83d
000001d0: f4ec 42bb f93a 92bc a5c8 1abf 2585 493e
000001e0: de43 6dbe b7db 2cbe a23f ff3e 768d 8bbd
000001f0: b8a4 b2bd 135c 97bc 1f4a f2bd 43d3 22bd
00000200: e96e bcbd 9846 1abe 400d f43d 7133 6dbd
00000210: 40eb 1ebd 76b5 8b3e 10f5 903c 7bc6 813e
00000220: 1015 603e ec99 febd 663a 6c3e bf21 003e
00000230: 01f0 103d 450d 37be 359d fdbd 00f4 c2bd
00000240: e8de 813e acb7 d1bc e589 57bd 0081 853d
00000250: 982c bfbc aae0 f73b dff2 8dbe 4eec 4fbd
00000260: 9f19 813d 01bc b73d 0c13 783d 18da 0e3e
00000270: be5f 303f a017 17be 200e a03c 851b 61bc
00000280: 942b 8cbe c2bc 2cbe c9b4 023e 19c7 793d
00000290: f4ef 10bf 2a5a 9abc 499c 7bbc 8c8d 933e
000002a0: 2f04 b0be 5f4b b73d 7fec 003e 1eda 443d
000002b0: 44f7 5e3e 0d24 623d e575 813d 9548 46be
000002c0: ac4c e83c aaf5 1dbe cc5d 32be 5e0d 2abc
000002d0: 396c eabe 8d80 a039 a6a8 20be c1c5 bd3e
000002e0: 3832 c43d d50b 9b3c 6588 99bd 8494 293e
000002f0: a0ec dd3c 05b6 123e 7f39 773d 8897 c83d
00000300: cc99 3cbe 9bb4 863d 6879 a43d af25 3dbf
00000310: 75ae 02bd 6bb1 efbd 9cae 673e f39d d1bc
00000320: 0695 0d3d 46b2 8ebe ebdb b7bd ce4e 413e
00000330: 722c cebe 7e01 30be daa0 e0bd 0918 453c
00000340: 8df1 79bc b6aa 05be 5133 06bd 4239 e2bd
00000350: a756 c63d 86d0 69be 2554 b23d 8d62 7cbe
00000360: af3f c5be 8ab0 073e fd0f cfbe 9209 31bb
00000370: 221c f13d 8711 e63e 1028 57be 0e6f c8bd
00000380: abd1 22be be0b 94be 4953 01bd 62e9 a43d
00000390: 8597 fb3d afde 91be b6db e0bd 9432 2ebf
000003a0: b28b 733e a25b 33be 5f03 83be 2eec bbbc
000003b0: 2aa0 8cbd 6ed0 3fbe 0f3f c93c f912 383d
000003c0: 8f0e 99be ce57 193e 3fce dcbc 3c2c c03d
000003d0: cce2 7bbd b62e 19be eb93 90bd acf6 1cbe
000003e0: 316d fb3d 2c26 a0be d12f 633e ca91 133d
000003f0: 0322 9bbc dc94 b13d 40e9 663e 720d 083e

network_body._body_endoder.seq_layers.0.bias f4 [256]
0.020288173 -0.08020953 -0.06631704 -0.057974003 0.033864085 -0.0037073898 0.087503426 0.019660007
0.015211491 0.074029945 0.054613534 0.06870287 0.052599244 -0.059089456 -0.19344541 0.032515645
-0.015580937 0.01865021 0.04056603 0.023682594 0.1051076 0.06058823 0.0018619946 -0.05229611
-0.025516484 0.03343583 0.0783989 -0.13757317 0.053597763 -0.037129488 0.05774968 0.07192533
0.09642278 0.13792257 0.020352999 -0.12714238 0.04743996 0.054266743 0.024101252 0.12715128
-0.04992892 -0.0064709154 -0.018649003 -0.013127467 0.054908466 0.08010465 0.023857133 -0.012858523
0.054900084 -0.04832891 0.07978541 -0.099766314 0.009991396 -0.05947398 0.007509741 0.10026789
0.06650639 0.08011663 0.10219598 -0.071376726 -0.01135589 0.11152622 -0.124113664 0.05821443
0.0295353 0.06732793 0.12617259 -0.004201668 -0.0144423 -0.05746775 -0.06310165 0.013287104
-0.0140901115 -0.03262822 0.020470751 -0.0084443325 -0.009490669 0.059164014 0.019375984 -0.06434958
0.082752295 -0.012344695 0.002539154 0.049277306 0.07064959 -0.12745537 -0.056101102 0.11328312
-0.014081446 0.041527927 0.14641695 -0.08541519 0.09734122 -0.017415605 0.05476588 0.002102638
0.1288968 -0.052459896 -0.0051417993 0.041210428 0.02882251 0.04155906 0.011375971 -0.081219
0.076263085 -0.067943476 -0.0074045546 0.04836458 0.015097921 0.12732792 -0.04595473 0.0356559
0.09961124 0.09705202 -0.11487918 0.038317714 -0.022384752 0.01842511 0.06345867 0.09795393
0.031019062 0.04781778 -0.000608273 -0.02573293 -0.0040379846 0.013467843 -0.087013386 -0.021614583
0.06847129 0.018529449 0.02483002 -0.0065566385 -0.012203016 -0.033014834 -0.09729535 -0.089718305
0.0043636495 -0.065543905 -0.10751472 -0.06104768 0.13865955 -0.04091912 -0.0152136665 0.11512019
0.045329973 -0.043617565 0.007417475 -0.025293691 -0.18219005 0.0063716643 0.063678026 0.026953742
-0.034818463 -0.008273125 0.07432743 -0.015407255 0.13451149 0.0781323 0.08693453 -0.007694699
0.052541103 0.023689212 0.05446782 -0.07587304 0.11555731 0.08232576 0.041609284 0.06939872
0.07084565 -0.013383471 0.06549651 -0.04978954 -0.013719971 0.046020526 0.113407336 -0.020070422
0.030051684 0.089577064 0.03639536 0.039434165 0.025701812 0.0033409651 -0.037413877 0.10860059
0.14497429 0.0032906937 -0.13609491 -0.030386068 0.15955642 -0.016940758 0.068900496 -0.029940223
0.04456888 0.04719615 -0.014140344 0.07466322 0.14136863 0.1811964 0.10876165 0.04022555
-0.09829383 0.08604896 0.0068584834 0.08727531 0.01687216 0.07095041 -0.08999821 0.008219577
0.06903339 -0.06497514 -0.02063826 0.060661275 0.19393885 0.13135758 0.09628417 0.015519563
-0.045151062 -0.04741638 -0.009407581 0.06788494 -0.06136663 -0.007740767 -0.0513046 0.06487782
0.023840483 -0.028059058 -0.03727795 0.0005560979 0.0013077249 0.08367816 -0.030563047 0.0032300737
-0.039616562 0.033234935 0.11916663 0.01896116 0.048059322 0.018162582 0.007775781 -0.0006159527
-0.024837282 0.04189302 0.093609385 -0.04277703 -0.009485923 0.07032764 -0.035363182 -0.08218562
0.044153433 -0.01848111 0.1158937 0.11301998 -0.046935014 -0.043930795 0.061127685 -0.032598894
00000000: 6233 a63c e544 a4bd 3ad1 87bd 2676 6dbd
00000010: 11b5 0a3d aef7 72bb ff34 b33d 060e a13c
00000020: 9e39 793c 039d 973d 71b2 5f3d 17b4 8c3d
00000030: 4e72 573d c907 72bd 8e16 46be 202f 053d
00000040: 3047 7fbc 53c8 983c 9128 263d 0002 c23c
00000050: a742 d73d 5d2b 783d 2c0e f43a 7234 56bd
00000060: f207 d1bc 02f4 083d 9a8f a03d fbdf 0cbe
00000070: 5489 5b3d 1715 18bd ee8a 6c3d 964d 933d
00000080: 4e79 c53d 933b 0d3e 55bb a63c 9d31 02be
00000090: 6750 423d ce46 5e3d fd6f c53c f233 023e
000000a0: 4482 4cbd f909 d4bb cbc5 98bc 9614 57bc
000000b0: b3e7 603d e80d a43d 0970 c33c 8eac 52bc
000000c0: e9de 603d 89f4 45bd 8866 a33d 4852 ccbd
000000d0: f4b2 233c fd9a 73bd 4614 f63b 4059 cd3d
000000e0: 8134 883d 3014 a43d 204c d13d f62d 92bd
000000f0: 0e0e 3abc dc67 e43d 4e2f febd 4172 6e3d
00000100: 03f4 f13c 3ae3 893d 6333 013e 25ae 89bb
00000110: 669f 6cbc 4e63 6bbd 703b 81bd 27b2 593c
00000120: 36da 66bc 2ba5 05bd 47b2 a73c 195a 0abc
00000130: c07e 1bbc f755 723d 62ba 9e3c b6c9 83bd
00000140: 097a a93d 6741 4abc ef67 263b 00d7 493d
00000150: bbb0 903d a983 02be 45ca 65bd fb00 e83d
00000160: deb5 66bc 3019 2a3d 53ee 153e 29ee aebd
00000170: d55a c73d 2cab 8ebc 3052 603d 69cc 093b
00000180: 86fd 033e 30e0 56bd 8a7c a8bb 44cc 283d
00000190: 2f1d ec3c d539 2a3d 4862 3a3c 2656 a6bd
000001a0: d22f 9c3d f325 8bbd e8a1 f2bb f019 463d
000001b0: 455d 773c 4062 023e 073b 3cbd ec0b 123d
000001c0: fa00 cc3d 36c3 c63d c745 ebbd 09f3 1c3d
000001d0: 3a60 b7bc 42f0 963c 9ff6 813d 129c c83d
000001e0: b01b fe3c 94dc 433d 8374 1fba decd d2bc
000001f0: 1251 84bb 3aa8 5c3c 1334 b2bd 1111 b1bc
00000200: ad3a 8c3d 12cb 973c 5368 cb3c 12d9 d6bb
00000210: 29ef 47bc 903a 07bd c942 c7bd 3bbe b7bd
00000220: f2fc 8e3b e23b 86bd ad30 dcbd 220d 7abd
00000230: c5fc 0d3e cf9a 27bd be42 79bc 22c4 eb3d
00000240: ecab 393d 55a8 32bd 4a0e f33b b734 cfbc
00000250: 0790 3abe 65c9 d03b a069 823d 18ce dc3c
00000260: ce9d 0ebd 008c 07bc fb38 983d b66e 7cbc
00000270: 61bd 093e d403 a03d bb0a b23d d023 fcbb
00000280: 5735 573d e10f c23c a619 5f3d 5363 9bbd
00000290: 50a9 ec3d 689a a83d 7f6e 2a3d eb20 8e3d
000002a0: 8617 913d 5946 5bbc 0923 863d 1ef0 4bbd
000002b0: bbc9 60bc 0580 3c3d 1b42 e83d ba6a a4bc
000002c0: f32e f63c 2e74 b73d 4d13 153d b885 213d
000002d0: 9b8c d23c 18f4 5a3b 4b3f 19bd fc69 de3d
000002e0: 2474 143e aea8 573b 775c 0bbe 34ec f8bc
000002f0: c262 233e 58c7 8abc b41b 8d3d 3345 f5bc
00000300: dc8d 363d c050 413d e7ac 67bc 08e9 983d
00000310: f0c2 103e 8d8b 393e 6ebe de3d 8cc3 243d
00000320: 474e c9bd 703a b03d 21bd e03b 66bd b23d
00000330: 7c37 8a3c 734e 913d fb50 b8bd 68ab 063c
00000340: 6161 8d3d b011 85bd 9111 a9bc f577 783d
00000350: e897 463e 9a82 063e a330 c53d c445 7e3c
00000360: 52f0 38bd ae37 42bd 4122 1abc 4207 8b3d
00000370: 935b 7bbd 43a6 fdbb c624 52bd aade 843d
00000380: 1e4d c33c 1cdc e5bc c4b0 18bd 19c7 113a
00000390: f767 ab3a 755f ab3d 5b5f fabc a5af 533b
000003a0: fa44 22bd 5b21 083d a20d f43d 6f54 9b3c
000003b0: dad9 443d b2c9 943c fbcb fe3b e377 21ba
000003c0: 8e77 cbbc 0498 2b3d 47b6 bf3d f836 2fbd
000003d0: d86a 1bbc f007 903d fcd8 10bd ef50 a8bd
000003e0: 3bda 343d b265 97bc ad59 ed3d 0577 e73d
000003f0: ee3e 40bd c7f0 33bd 0661 7a3d 6b86 05bd

network_body._body_endoder.seq_layers.2.weight f4 [256, 256]
-0.084471025 -0.11976975 0.050260812 -0.047975235 -0.059945717 0.2301829 0.13368073 -0.30981213
-0.06743541 0.028284479 -0.11435425 -0.18468747 0.20696646 -0.29937863 -0.1873122 -0.20962775
0.0069315997 0.02711672 -0.292157 0.19695832 0.6165825 -0.047676962 0.15562794 -0.030971901
-0.12451369 -0.19839783 0.090475544 -0.32227352 -0.059172515 0.015350558 0.31298935 -0.04691274
0.24847406 0.3348371 -0.080641 -0.092608966 0.45998946 0.17384823 0.22052495 -0.005712173
-0.07019876 -0.23452838 -0.03112055 -0.0069504455 0.0458033 0.06856175 0.30127567 -0.031573635
-0.024397789 -0.040711757 0.26967776 -0.067116946 -0.21678723 0.16295119 -0.12958203 0.13766176
-0.2007192 0.019998932 0.27898723 -0.13027404 -0.18015465 0.062058076 -0.1272781 -0.2110756
-0.26669404 -0.15412447 0.38065943 -0.11152027 -0.052296765 -0.25905704 -0.049444467 -0.11313423
0.29657167 -0.62814313 -0.01796284 -0.056371886 -0.22853306 -0.16293427 -0.029249256 -0.11369215
0.024092112 0.029740503 -0.09657597 -0.05003645 -0.029247785 -0.02131998 -0.036880728 -0.08659817
-0.16746725 -0.006230567 0.14148085 -0.04094803 0.12756504 -0.07438421 -0.024651797 -0.22669356
0.25645357 -0.04375162 -0.14542617 -0.03405697 0.006801399 0.21732979 0.06610761 -0.13883579
-0.071996935 -0.15130961 0.0057668895 0.042660873 0.01663415 0.10917826 -0.23706079 0.2824288
0.10939105 -0.033804234 -0.22884488 -0.039714314 -0.17108335 -0.13554566 -0.028264826 0.057047583
-0.07901354 -0.110562004 -0.13221562 -0.17769477 -0.16495009 -0.052779935 -0.25383875 -0.12030275
0.130064 -0.12796547 0.2205812 -0.22896437 -0.001279052 -0.012268513 -0.08514612 -0.100161605
0.056722004 -0.06924714 -0.14366464 -0.06519581 0.08291938 -0.4162752 -0.21881455 0.1562705
-0.12625271 -0.1810572 -0.020272044 -0.009907043 -0.20476478 0.11407226 -0.25638947 -0.21250556
-0.32673085 -0.26909482 0.02733129 0.07851486 0.07142627 0.25598785 0.08214419 -0.16667092
0.13588133 0.09923698 0.10087181 -0.1655392 0.06955923 0.08163366 0.13807625 -0.012528844
-0.1284858 -0.060572553 0.067733936 -0.04890175 -0.13049129 0.17083721 -0.109235935 -0.2523549
0.08630546 0.32264107 0.11536786 0.3817596 -0.08131223 0.015213949 -0.017475775 0.088762306
-0.104043216 -0.1669864 -0.10163925 0.03542651 0.3140467 0.07467427 0.025929533 -0.33207637
0.15434435 0.0055963863 -0.31605297 0.07778866 -0.032027904 0.35078508 0.10752131 0.0233513
-0.11995835 0.16047044 -0.22480318 0.18709137 0.07228956 -0.07227308 0.10680203 -0.09967249
0.17275943 -0.20626357 -0.27238062 0.011776019 0.37987375 0.20949693 -0.30703425 -0.11133296
-0.0880828 -0.02707006 0.025916168 0.03407747 -0.29466468 0.039682753 -0.4173192 0.2811064
-0.062315553 -0.11347678 -0.09209423 0.020407999 -0.2387011 0.25844476 -0.1223795 0.057188995
-0.2562649 -0.17227829 0.24880163 -0.056647915 -0.0075291824 -0.116383076 0.19473106 -0.18616964
-0.23708719 0.0032673418 0.25195947 -0.17654903 0.040817514 0.18524623 -0.16474335 -0.18202128
0.05731378 -0.17875265 -0.04188265 0.31221992 -0.04427778 -0.10660695 -0.030934554 -0.024630126
00000000: 25ff acbd d849 f5bd 48de 4d3d ae81 44bd
00000010: a489 75bd 11b5 6b3e 9ae3 083e b29f 9ebe
00000020: 941b 8abd dab4 e73c 9032 eabd b61e 3dbe
00000030: 04ef 533e 2848 99be c5ce 3fbe a8a8 56be
00000040: 7922 e33b e223 de3c 9a95 95be 71af 493e
00000050: 5ad8 1d3f eb48 43bd ee5c 1f3e c9b8 fdbc
00000060: 0901 ffbd cd28 4bbe 3e4b b93d 0901 a5be
00000070: e15e 72bd e880 7b3c 2440 a03e 9327 40bd
00000080: fc6f 7e3e c56f ab3e 1c27 a5bd c5a9 bdbd
00000090: bd83 eb3e 4505 323e 4bd1 613e 2e2d bbbb
000000a0: 5ec4 8fbd 3528 70be 86f0 febc 90c0 e3bb
000000b0: 3e9c 3b3d 1a6a 8c3d ce40 9a3e 5b53 01bd
000000c0: dfdd c7bc 5fc1 26bd 3413 8a3e 9c74 89bd
000000d0: 79fd 5dbe addc 263e 27b1 04be 34f7 0c3e
000000e0: 5589 4dbe cdd4 a33c 6ad7 8e3e 8f66 05be
000000f0: 767a 38be 9c30 7e3d 3155 02be 3424 58be
00000100: 1f8c 88be ced2 1dbe cbe5 c23e bd64 e4bd
00000110: 2235 56bd 20a3 84be 4886 4abd ebb2 e7bd
00000120: 3ed8 973e fdcd 20bf ce26 93bc 35e6 66bd
00000130: 9204 6abe 3ed8 26be 239c efbc 6ed7 e8bd
00000140: d25c c53c 5ba2 f33c 9fc9 c5bd 05f3 4cbd
00000150: 0d99 efbc 3da7 aebc 3f10 17bd 625a b1bd
00000160: 897c 2bbe c929 ccbb 5be0 103e 1fb9 27bd
00000170: 69a0 023e c056 98bd 91f2 c9bc 5b22 68be
00000180: e24d 833e e634 33bd 99ea 14be 527f 0bbd
00000190: 45de de3b b38b 5e3e 6d63 873d f82a 0ebe
000001a0: 2173 93bd e8f0 1abe 2df8 bc3b 2bbd 2e3d
000001b0: 5744 883c da98 df3d 10c0 72be 829a 903e
000001c0: 6a08 e03d 4f76 0abd 5056 6abe 7aab 22bd
000001d0: 7930 2fbe 7bcc 0abe a38b e7bc baaa 693d
000001e0: dad1 a1bd 556e e2bd 8863 07be 9ef5 35be
000001f0: ade8 28be c62f 58bd 27f7 81be 4a61 f6bd
00000200: 7f2f 053e 6109 03be 0ae0 613e a375 6abe
00000210: dda5 a7ba e001 49bc 1761 aebd 8721 cdbd
00000220: 5555 683d 72d1 8dbd d31c 13be 6185 85bd
00000230: a3d1 a93d 0622 d5be ec10 60be 6005 203e
00000240: 6448 01be 0f67 39be 8f11 a6bc 2651 22bc
00000250: dcad 51be b89e e93d 7b45 83be 0f9b 59be
00000260: 4449 a7be ccc6 89be dfe5 df3c 66cc a03d
00000270: f047 923d d710 833e 373b a83d c8ab 2abe
00000280: 7a24 0b3e c23c cb3d e195 ce3d 1c83 29be
00000290: 1275 8e3d 8c2f a73d dc63 0d3e c845 4dbc
000002a0: c891 03be ed1a 78bd 17b8 8a3d 344d 48bd
000002b0: 829f 05be f3ef 2e3e 17b7 dfbd a934 81be
000002c0: ebc0 b03d 3631 a53e fc45 ec3d ff75 c33e
000002d0: 0787 a6bd ed43 793c 5b29 8fbc 03c9 b53d
000002e0: 9c14 d5bd 7cfe 2abe 3d28 d0bd 631b 113d
000002f0: bbca a03e d3ee 983d 2c6a d43c ea05 aabe
00000300: 720c 1e3e e461 b73b b2d1 a1be a94f 9f3d
00000310: b12f 03bd 1a9a b33e 2234 dc3d 3a4b bf3c
00000320: b9ac f5bd 5d52 243e ce32 66be e194 3f3e
00000330: 8d0c 943d e903 94bd 06bb da3d 1721 ccbd
00000340: d9e7 303e c236 53be 7975 8bbe 34f0 403c
00000350: d07e c23e 5d86 563e 9833 9dbe 8902 e4bd
00000360: c164 b4bd 08c2 ddbc 254e d43c d194 0b3d
00000370: 4ade 96be 628a 223d ddaa d5be 2eed 8f3e
00000380: 983e 7fbd 8466 e8bd e69b bcbd ad2e a73c
00000390: 106e 74be df52 843e 1aa2 fabd 023f 6a3d
000003a0: 2735 83be b869 30be dbc5 7e3e a507 68bd
000003b0: 5cb7 f6bb 405a eebd 9467 473e 41a3 3ebe
000003c0: fcc6 72be e620 563b d500 813e 45c9 34be
000003d0: 4430 273d 30b1 3d3e 7bb2 28be c963 3abe
000003e0: dbc1 6a3d ef0a 37be 248d 2bbd 4adb 9f3e
000003f0: 9e5c 35bd bf54 dabd 766a fdbc 1ec5 c9bc

network_body._body_endoder.seq_layers.2.bias f4 [256]
0.15114188 -0.006538478 -0.054575577 0.014155236 -0.05214974 -0.021113392 0.16560136 0.18961214
-0.045723528 0.13669112 0.06178482 0.057003517 -0.14016451 0.058528926 -0.039422836 0.047750466
-0.015964665 -0.07183379 0.10969852 -0.017296946 -0.008874789 -0.03564186 0.0044540153 -0.002616083
0.026687177 0.09710782 0.041960754 -0.032907188 0.027437977 -0.029814709 0.057545017 -0.041128483
-0.015928404 0.09981237 0.062009223 0.020636586 -0.015150432 -0.009787948 0.06737855 -0.061173
-0.023370016 -0.13517956 -0.025169563 -0.0690348 0.14432102 0.011115183 -0.044545654 0.10153491
0.1284628 0.008802423 0.14740486 0.057759542 0.0038139832 -0.0018981263 0.08750871 -0.052146483
0.03693754 0.004343767 -0.020864882 -0.09716883 -0.0015830316 0.03837336 0.021368422 0.027654935
-0.050781477 0.040766038 0.12694095 0.01410068 -0.10012028 0.15566352 -0.043629188 0.12717082
-0.0160608 0.085980676 -0.045600444 0.060011867 0.0697502 -0.028921682 0.06270662 0.0032872825
-0.0119429575 0.06040974 0.076115265 -0.02998393 0.037106253 0.029439736 0.0012344859 -0.19484207
0.008932067 0.18534882 0.062148463 -0.03595685 0.00073412556 0.061295774 0.011090286 -0.017219849
-0.01517056 0.03513071 0.19052114 0.0042017 -0.028117558 -0.019196294 -0.098243415 6.533532e-05
0.13073653 -0.013613626 0.0066145128 0.09219499 0.15618908 -0.025802111 0.1491067 0.048381947
0.01924694 0.116869584 -0.02355411 0.08830432 0.1994071 0.013102843 0.022763375 -0.036823906
0.04090073 -0.0355681 0.010728697 0.014270456 0.024519319 0.072635636 -0.029318418 -0.1442347
-0.07300202 -0.06071837 -0.13950531 0.025016317 -0.07715914 0.01075547 0.11161382 -0.029653378
-0.0356129 -0.009634808 0.04267801 -0.017427232 0.119275674 0.047163658 -0.021708773 0.014051561
0.044867493 0.057737067 0.014760971 0.08734655 0.032108422 0.040732104 0.0016564492 0.06175272
0.111361906 0.031874113 0.07811689 -0.025123626 0.043213196 0.08033028 0.008535893 0.0116781
0.044510968 -0.11381747 -0.05581484 0.067562096 0.027670898 0.030808264 0.04501944 0.13303979
0.07506836 0.055290166 0.031892758 -0.017333988 -0.0719451 -0.057831395 -0.040212408 0.041590896
0.0010269677 -0.048101306 0.010388136 0.071036756 0.079044655 0.111647345 0.17659017 0.014635914
-0.058316417 -0.025635848 0.1291577 0.0031374488 -0.00079877145 -0.033335574 0.111656055 0.14016113
0.101268806 -0.062189028 -0.04166197 -0.018695278 0.027750775 0.07538918 -0.026375808 -0.033468634
0.034458976 -0.105157755 -0.05235712 0.09502281 0.0061525344 0.0662244 -0.011786614 -0.027222123
-0.065463565 -0.010193506 0.004913685 0.026518974 0.124265574 -0.11627008 0.04183487 0.022994092
0.11063901 0.019548599 -0.11112519 -0.009730876 -0.049895197 -0.071675844 0.11708227 0.0796829
-0.08691361 0.035192773 -0.040372435 0.116645895 -0.044045255 0.026785875 -0.061343778 0.0057527334
0.06522775 -0.09718476 -0.036841515 0.08331412 -0.009282311 -0.0072848517 0.0042402106 0.009287285
-0.04192738 0.0693885 -0.014364295 0.035456214 0.041007124 -0.07444698 0.08538302 -0.02121848
0.10404678 0.017706215 -0.07973612 0.062049724 0.049132008 -0.00086092536 -0.0016687373 -0.07253519
00000000: f0c4 1a3e bb40 d6bb a48a 5fbd 5deb 673c
00000010: f79a 55bd fef5 acbc 6793 293e af29 423e
00000020: 9848 3bbd c2f8 0b3e 1412 7d3d 857c 693d
00000030: 4987 0fbe 07bc 6f3d d779 21bd fe95 433d
00000040: 54c8 82bc 981d 93bd 9ea9 e03d 53b2 8dbc
00000050: 9067 11bc 33fd 11bd fdf2 913b 9772 2bbb
00000060: 119f da3c 77e0 c63d 0adf 2b3d b0c9 06bd
00000070: 9cc5 e03c fa3d f4bc 53b4 6b3d 5776 28bd
00000080: 497c 82bc 6e6a cc3d 62fd 7d3d 0f0e a93c
00000090: 8439 78bc a15d 20bc c4fd 893d 8a90 7abd
000000a0: 7a72 bfbc 836c 0abe 6630 cebc 1e62 8dbd
000000b0: e4c8 133e 751c 363c 8175 36bd 89f1 cf3d
000000c0: c18b 033e 0a38 103c 4df1 163e 4595 6c3d
000000d0: 05f4 793b 8dca f8ba c437 b33d 8d97 55bd
000000e0: d14b 173d 2956 8e3b d4ec aabc 7400 c7bd
000000f0: ba7d cfba 622d 1d3d d40c af3c 9a8c e23c
00000100: 3d00 50bd 4afa 263d cffc 013e 8a06 673c
00000110: dd0b cdbd 4266 1f3e 85b4 32bd 1139 023e
00000120: f091 83bc a316 b03d 88c7 3abd 01cf 753d
00000130: 31d9 8e3d 2aed ecbc 546c 803d 736f 573b
00000140: 65ac 43bc 3470 773d 52e2 9b3d dca0 f5bc
00000150: bafc 173d 9a2b f13c 79ce a13a ae84 47be
00000160: ce57 123c 15cc 3d3e 638f 7e3d 7d47 13bd
00000170: 5572 403a 4711 7b3d 08b4 353c a410 8dbc
00000180: f18d 78bc 38e5 0f3d f917 433e 6aae 893b
00000190: cb56 e6bc 8c41 9dbc d833 c9bd a204 8938
000001a0: ccdf 053e b00b 5fbc 8ebe d83b bad0 bc3d
000001b0: 08f0 1f3e f35e d3bc 6daf 183e 262c 463d
000001c0: c2ab 9d3c 5259 ef3d 8df4 c0bc e5d8 b43d
000001d0: 6031 4c3e 4fad 563c 427a ba3c aad4 16bd
000001e0: 8687 273d dbaf 11bd 6bc7 2f3c a1ce 693c
000001f0: bddc c83c fec1 943d 2e2d f0bc 43b2 13be
00000200: 1582 95bd d3b3 78bd 7bda 0ebe 05ef cc3c
00000210: 9c05 9ebd b637 303c c995 e43d a4eb f2bc
00000220: d5de 11bd 50db 1dbc 23cf 2e3d 8ec3 8ebc
00000230: ce46 f43d ae2e 413d 99d6 b1bc 8538 663c
00000240: fac6 373d b47d 6c3d 00d8 713c bfe2 b23d
00000250: 1f84 033d b5d6 263d 361d d93a 6cf0 7c3d
00000260: b611 e43d 6e8e 023d bffb 9f3d 10d0 cdbc
00000270: 5200 313d 3484 a43d 21da 0b3c 8055 3f3c
00000280: 2251 363d 2219 e9bd 1a9e 64bd ff5d 8a3d
00000290: 14ae e23c 9d61 fc3c 4e66 383d 953b 083e
000002a0: 71bd 993d f177 623d fba1 023d 0200 8ebc
000002b0: f457 93bd 9de0 6cbd c4b5 24bd 375b 2a3d
000002c0: 519b 863a e005 45bd 0033 2a3c b87b 913d
000002d0: 2ae2 a13d 5da7 e43d 0ed4 343e 79cb 6f3c
000002e0: 32dd 6ebd 4502 d2bc eb41 043e a89d 4d3b
000002f0: a564 51ba e28a 08bd eeab e43d 6686 0f3e
00000300: 0566 cf3d ecb9 7ebd bea5 2abd d726 99bc
00000310: 9855 e33c a465 9a3d 1412 d8bc 6816 09bd
00000320: db24 0d3d f35c d7bd 6b74 56bd 529b c23d
00000330: 339b c93b a9a0 873d a41c 41bc ee00 dfbc
00000340: c311 86bd aa02 27bc fa02 a13b 523e d93c
00000350: f37e fe3d 021f eebd 0a5b 2b3d 1b5e bc3c
00000360: b596 e23d 6224 a03c 9b95 e3bd 416e 1fbc
00000370: e85e 4cbd c9ca 92bd d4c8 ef3d ca30 a33d
00000380: c3ff b1bd 4c26 103d 915d 25bd 0be4 ee3d
00000390: cc68 34bd 0d6e db3c 9d43 7bbd 6d81 bc3b
000003a0: 2096 853d ce08 c7bd 21e7 16bd 98a0 aa3d
000003b0: d614 18bc c4b5 eebb 77f1 8a3b b229 183c
000003c0: 0bbc 2bbd 8f1b 8e3d 3858 6bbc 893a 113d
000003d0: 16f7 273d a977 98bd 4bdd ae3d 61d2 adbc
000003e0: 7a16 d53d a00c 913c b14c a3bd da27 7e3d
000003f0: a53e 493d b9af 61ba 88b9 daba 548d 94bd

action_model._discrete_distribution.branches.0.weight f4 [7, 256]
-0.26116884 0.028439749 0.020968718 0.04423177 -0.15343852 -0.026446534 -0.2872915 -0.25010166
0.011425278 -0.07645665 0.052159145 -0.1818019 0.11032862 -0.12636727 -0.101426855 0.019628214
-0.08235736 -0.08955294 -0.08736987 -0.14989476 0.056177992 -0.08545169 -0.09077771 -0.005712167
-0.43674055 -0.033539597 0.1014716 -0.16256903 0.006754461 0.010182941 -0.020739889 0.09849777
-0.049551338 -0.15790252 0.014162058 -0.02564609 0.1051255 -0.099944 0.035745107 -0.19151306
0.11547321 -0.1792184 -0.06471776 -0.018857585 -0.40064502 0.011075523 -0.122948326 -0.15488094
-0.3976884 -0.17614745 -0.3078691 -0.21209407 0.21110502 -0.054163184 0.053239074 -0.06809901
-0.10559944 -0.070616305 -0.062017985 0.09205778 0.122796446 -0.19305742 0.08314765 -0.099154435
-0.09959306 -0.17634702 -0.37022775 -0.015910104 0.052167993 -0.39745328 0.08764127 -0.07585287
0.19670385 -0.20252563 -0.078630276 -0.22029133 -0.13296476 0.22786644 0.098384924 0.056663696
-0.024918027 0.12024288 -0.38312617 0.22886273 0.008093036 -0.025267491 -0.067669146 0.010105717
-0.33265573 -0.026017599 -0.043271787 -0.1981297 -0.25430298 -0.15481436 0.21635723 -0.01392674
0.04488051 -0.14939989 -0.35236403 -0.024226075 -0.2073776 -0.061733536 -0.04551679 -0.02117571
-0.33417907 -0.022583967 0.14122361 -0.23937753 -0.30298412 -0.10682047 0.06581285 -0.21742576
0.05700677 -0.3243537 -0.022239933 -0.16592234 -0.273208 -0.052636787 0.049580924 -0.15777463
-0.3597941 -0.050100844 -0.1420912 -0.0725351 0.051976617 -0.04629849 -0.21161364 -0.17063671
-0.044472404 -0.21054995 0.088574834 0.031340446 0.041951746 -0.10757974 -0.06357598 -0.0522095
-0.059775725 0.047422223 0.04948744 -0.010185209 -0.058360126 -0.38514125 -0.012580938 -0.12570505
0.061398555 -0.053486772 0.21809977 -0.15049073 -0.09543267 -0.1167698 0.089038536 -0.20008363
-0.11781946 -0.16061275 -0.044711366 0.009551957 -0.0004423847 -0.18882795 0.06308985 -0.13845687
-0.11030834 0.07242174 0.060992397 -0.1810183 -0.12587832 0.10486032 -0.095510796 -0.16185902
-0.081066675 -0.0861746 -0.013670157 -0.0986752 -0.052357595 -0.26368675 -0.13162024 0.0049132383
0.007521706 -0.03239679 -0.15937668 -0.107409455 0.0005818184 -0.15079379 -0.23063284 -0.41943103
-0.094643615 -0.059928082 -0.5045526 -0.12536639 -0.038246494 -0.09059456 -0.12853368 -0.4011373
-0.3236249 0.021473546 -0.0508946 0.04923661 -0.018171836 -0.22403792 0.11132154 -0.02983436
-0.1779194 -0.04547801 0.025416877 -0.23662739 -0.25258756 -0.17864925 0.13503371 -0.047715854
-0.010593003 -0.32255962 0.0008698509 0.053840052 -0.24565782 0.37573534 -0.32482314 0.14826587
-0.13873757 -0.121348664 0.065457314 -0.12465245 -0.19508395 -0.11022442 -0.02378225 -0.0777025
-0.0011785359 0.16794758 -0.18078777 0.06243252 -0.22506313 -0.30531895 -0.09270596 0.039213877
0.17644526 0.07007709 0.11284676 -0.20802741 0.06928989 -0.18633896 0.11701861 -0.08001151
0.17865166 -0.18701243 0.16099937 -0.033656918 -0.038822327 -0.056874175 -0.16326548 0.123353094
0.27758116 -0.10853376 0.24441312 -0.25404862 -0.2338988 -0.19726253 -0.003913125 -0.19400166
00000000: ecb7 85be 7afa e83c 97c6 ab3c 5f2c 353d
00000010: fd1e 1dbe 67a6 d8bc df17 93be 530d 80be
00000020: 1731 3b3c 4e95 9cbd d4a4 553d 472a 3abe
00000030: f9f3 e13d 6c66 01be e2b8 cfbd 59cb a03c
00000040: faaa a8bd 8867 b7bd f9ee b2bd 037e 19be
00000050: e51a 663d 4c01 afbd aae9 b9bd 212d bbbb
00000060: 759c dfbe d160 09bd 58d0 cf3d 7f78 26be
00000070: 8754 dd3b 5ad6 263c b3e6 a9bc 33b9 c93d
00000080: 58f6 4abd 33b1 21be fa07 683c c017 d2bc
00000090: 0a4c d73d 71af ccbd 7669 123d 001c 44be
000000a0: 387d ec3d 0785 37be bf8a 84bd 397b 9abc
000000b0: 5821 cdbe 1c76 353c 55cc fbbd 1c99 1ebe
000000c0: d09d cbbe ff5f 34be 05a1 9dbe 302f 59be
000000d0: ea2b 583e 37da 5dbd 3711 5a3d 7e77 8bbd
000000e0: 8544 d8bd 489f 90bd 9206 7ebd ca88 bc3d
000000f0: b47c fb3d d8b0 45be 5149 aa3d 7b11 cbbd
00000100: 72f7 cbbd 5094 34be 7e8e bdbe e855 82bc
00000110: 1bae 553d ff7e cbbe 447d b33d c058 9bbd
00000120: bc6c 493e e162 4fbe e908 a1bd 0d94 61be
00000130: ea27 08be d255 693e 097e c93d 3118 683d
00000140: e420 ccbc e641 f63d 1d29 c4be fe5a 6a3e
00000150: a798 043c c5fd cebc 1f96 8abd 7392 253c
00000160: da51 aabe dc22 d5bc c23d 31bd 83e2 4abe
00000170: 0034 82be a887 1ebe c08c 5d3e fb2c 64bc
00000180: a0d4 373d 49fc 18be 0f69 b4be c375 c6bc
00000190: cb5a 54be 4edc 7cbd d06f 3abd af78 adbc
000001a0: 8519 abbe 0302 b9bc ec9c 103e 621f 75be
000001b0: bc20 9bbe b1c4 dabd e3c8 863d dca4 5ebe
000001c0: ee7f 693d b011 a6be 8530 b6bc 8ce7 29be
000001d0: ebe1 8bbe ac99 57bd 5e15 4b3d ac8f 21be
000001e0: ef36 b8be 8b36 4dbd 5b80 11be 488d 94bd
000001f0: 6fe5 543d 7ca3 3dbd 3fb1 58be 64bb 2ebe
00000200: b228 36bd 689a 57be b966 b53d d75e 003d
00000210: 98d5 2b3d c452 dcbd 2034 82bd a1d9 55bd
00000220: 64d7 74bd ce3d 423d 58b3 4a3d dddf 26bc
00000230: 070b 6fbd 3c31 c5be 4720 4ebc d3b8 00be
00000240: 0d7d 7b3d f214 5bbd 8c55 5f3e 3e1a 1abe
00000250: 3472 c3bd 0125 efbd d659 b63d b9e2 4cbe
00000260: 544b f1bd ab77 24be 4423 37bd d07f 1c3c
00000270: dfef e7b9 1d5c 41be 4035 813d a3c7 0dbe
00000280: 57e9 e1bd d951 943d 2ad3 793d dc5c 39be
00000290: 3fe6 00be 02c1 d63d 2a9b c3bd 5fbe 25be
000002a0: 4906 a6bd 4f7c b0bd cbf8 5fbc 3916 cabd
000002b0: eb74 56bd f301 87be 75c7 06be 3bff a03b
000002c0: a578 f63b 7fb2 04bd a433 23be 7df9 dbbd
000002d0: 2c85 183a b069 1abe 042b 6cbe aabf d6be
000002e0: 83d4 c1bd 2677 75bd 5c2a 01bf 0c60 00be
000002f0: 5ba8 1cbd a489 b9bd 559e 03be de61 cdbe
00000300: 2ab2 a5be 4ae9 af3c db76 50bd 54ac 493d
00000310: 1add 94bc 326a 65be 8cfc e33d 3067 f4bc
00000320: 8130 36be 2647 3abd 0e37 d03c 734e 72be
00000330: 2853 81be d4ef 36be 4746 0a3e b371 43bd
00000340: 468e 2dbc 8926 a5be b506 643a 6387 5c3d
00000350: b98d 7bbe 6260 c03e 384f a6be 02d3 173e
00000360: 3911 0ebe a685 f8bd 7c0e 863d c949 ffbd
00000370: 16c4 47be 57bd e1bd fed2 c2bc 7d22 9fbd
00000380: 1a79 9aba 73fa 2b3e 6e20 39be 3eb9 7f3d
00000390: f376 66be c452 9cbe 9fdc bdbd bb9e 203d
000003a0: 11ae 343e 9484 8f3d 341c e73d 2305 55be
000003b0: dce7 8d3d a4cf 3ebe 74a7 ef3d 13dd a3bd
000003c0: 76f0 363e 3080 3fbe 05dd 243e d6db 09bd
000003d0: 2904 1fbd e5f4 68bd 112f 27be 8ca0 fc3d
000003e0: 1e1f 8e3e f346 debd 6f47 7a3e a912 82be
000003f0: 2b83 6fbe 30ff 49be ac39 80bb 5fa8 46be

action_model._discrete_distribution.branches.0.bias f4 [7]
-0.20662853 -0.008588496 -0.13548411 0.055685546 0.03442251 0.06069253 -0.0075984723
00000000: 6e96 53be c3b6 0cbc 59bc 0abe 8716 643d
00000010: 9efe 0c3d bb98 783d 9bfc f8bb
