results/puzzle_experiment_7/PuzzleBehavior/PuzzleBehavior-21499968.onnx (onnx, 342923 bytes, 6 tensors)

network_body._body_endoder.seq_layers.0.weight f4 [256, 65]
00000000: 21d2 933e 5afa 46be 3ce6 313d c748 5fbe
00000010: 8da4 a53d f33c eebc cac1 1e3e 4c5c c43d
00000020: 2031 0dbe 47be a4be a8f0 f73d 6bec 193d
00000030: 9c4b 643e 46e5 223e 2202 9a3e 051b 39be
00000040: 2da6 88be 6a86 3e3d 0046 3abe a97c efbd
00000050: 104a 013e cc5a 97be 2d51 283d 655c 973d
00000060: 8042 8cbc 0553 91b9 4a44 553c f914 503e
00000070: bb32 37bd f3fa d83c 73fb 3d3e c9af 3c3c
00000080: 535a 2d3e cdac 1b3d f2f6 983d 07c5 65bd
00000090: 97ab 62be 3a5e d4bb 97ef b8bd f54f 193e
000000a0: 02b0 913d dfdb 45be db2e 22be 5991 0d3d
000000b0: 319b ee3e 58e4 233e f203 6e3e 0047 abbd
000000c0: 42f9 b1be 94e0 2f3e 360d 25bc 9a5d 3cbd
000000d0: f763 823d cdce 403e f83d 243e e97c 7d3d
000000e0: 0d7b 023e f200 aa3d 2670 edbc fb42 b33d
000000f0: 5fd5 373d 8021 59be ebdb 903e abcd 0b3d
00000100: 4983 04bd 28af dcbb bbbb dcbd 53c5 48bc
00000110: 2d44 d7be 7fde e6bd fd8f 14be d721 ef3d
00000120: 3c8b dc3d a941 5cbe e16d f23c b9ad 5f3e
00000130: ad9f 9d3e 1577 93be 3226 a23d 5730 b7bd
00000140: c8a2 263e f055 823e 9bfc 49be f55e b63d
00000150: 7552 dcbc 1d85 a93e 4614 8c3d 4a70 2e3e
00000160: a80c a23c 0a7c 913d 1447 db3e 833c 8c3e
00000170: 49ad 26be 90fc 913d f5fd dfbd 1790 0d3d
00000180: 7e4c 913c d963 6b3d ee15 053e 5b33 b93c
00000190: fd95 a73e 0f58 febd cf5f a33c 1112 e1bd
000001a0: 5310 81be cc07 5e3e b34e cb3d 4614 0c3e
000001b0: ab4d 81be 5dd9 c1bd 38f3 1b3e 3718 043e
000001c0: dbf6 883d f7d5 17be a533 26bd c506 c93c
000001d0: f404 533e 3db8 e5bc 3663 223e c916 c13b
000001e0: a368 1c3e 4c9e 0bbe 801e 47bb fa33 533b
000001f0: ad51 dd3c bfa6 23bc f069 593d e284 f83d
00000200: 8d01 f3bd 772f 31be 4a5b bc3d 1983 4fbe
00000210: 3dec 0dbe 9748 81bd 8d9e 9f3c 815b 60be
00000220: 13a9 233c cfea 29be 09a0 803e 33bc 953d
00000230: 5d7b 8e3d 732c 84be e670 d0bd bab9 b73e
00000240: d555 32be 6796 9c3b 0599 123e 1cbe 143e
00000250: 281f ca3d 014d 303e aa73 dabd 1e00 0bbe
00000260: a987 693d 2594 21be 872c 583e 8f0d 9e3d
00000270: 9bee 8cbe 0e0b a93e 762b 74be 62b4 8b3d
00000280: eb99 db3c be29 bdbd 6d6b 683d 8a3e 883c
00000290: 675c f03d f6b3 013e 644a 4e3e c8ce 5fbd
000002a0: 5197 203c 7a7a 2abd 8e04 053d 1c24 edbd
000002b0: eb12 e83d d54b cbbe 2ea0 813e a688 503e
000002c0: 524d 1ebe d12d bf3e 40bd 143c 3684 2d3d
000002d0: 70a9 b1bd 0324 993d 7ee0 8e3e 9483 07be
000002e0: 7262 713d c923 0e3e 7664 25bd 35ba 103f
000002f0: d6a1 8c3d 9ad3 84be c8d6 933c 29cf 9dbd
00000300: 06d9 0b3f 1bb4 a63d 6993 1abe 5ffa 763d
00000310: abdf 8d3d d9f2 013e fffb 84bd 1a25 ff3c
00000320: 1f4b 9dbd 4375 563e 8091 fabb fbbb 01bf
00000330: 1de9 873d ee26 9d3e 5fc8 7f3e cd9d fd3b
00000340: 8774 8a3d 6a6b 3cbe 8ed6 57bd c5ae 453e
00000350: 0ae9 b5bd fc03 d03d 242c e4bd a0d0 85bd
00000360: 37ba c9be 85c4 1d3d 2539 853e f137 033e
00000370: d4b8 693e 0f57 43be 1809 273e 158c 0c3e
00000380: eb1e 21be 2e81 0ebd a86b 3b3d c700 843c
00000390: 4e20 163d bb0e 4a3d 78d4 153e 6215 de3d
000003a0: ad2d a7bd e9cb b0bd 3f3f ab3d f9f2 cebd
000003b0: 1095 c6bd e537 733d effa 403e ee7a ac3d
000003c0: 6e59 2cbe bab6 fd3d b833 d63d d873 9c3e
000003d0: 701a 9f3d 4505 a03d 9984 8f3c c4c5 99bd
000003e0: 4b1c f43e 924d 46be 8232 1b3e e7d7 29be
000003f0: 11f2 1b3d 8aaa a63d 5c58 093e d347 85bd
0.28871253 -0.19431439 0.04343246 -0.21805106 0.08088026 -0.029081797 0.15503612 0.09587917
-0.13788271 -0.3217642 0.121064484 0.03757898 0.22294468 0.15907773 0.30079752 -0.18076713
-0.26689282 0.046514906 -0.18190765 -0.11693699 0.12625909 -0.2956146 0.04109304 0.0739067
-0.017121553 -0.0002771841 0.01301677 0.203205 -0.044726115 0.02648685 0.18552952 0.01151652
0.16928987 0.038006593 0.07468976 -0.056096103 -0.22135769 -0.0064809592 -0.09030073 0.14971907
0.07113649 -0.19322155 -0.15838186 0.034562442 0.46602777 0.16005075 0.23243693 -0.083631516
-0.3476048 0.17175514 -0.0100739505 -0.045987703 0.06366723 0.18828888 0.16039264 0.0618867
0.12742253 0.083009616 -0.02898414 0.0875301 0.04488122 -0.21204185 0.28292784 0.034131687
-0.032351766 -0.0067347474 -0.10777994 -0.012254077 -0.42044201 -0.112729065 -0.14508052 0.11676376
0.10768744 -0.21509422 0.02959341 0.21843614 0.30785885 -0.2880179 0.079174414 -0.08944767
0.16273034 0.2545619 -0.19725268 0.0890483 -0.026894787 0.3310937 0.06839804 0.17035022
0.019781426 0.07103737 0.42827666 0.27389917 -0.1627704 0.071282506 -0.1093711 0.034561243
0.01773667 0.05746827 0.12996647 0.022607496 0.3273162 -0.124191396 0.019943146 -0.10989774
-0.25207767 0.21682662 0.0992712 0.13679609 -0.25254568 -0.09465287 0.152295 0.12899862
0.06687709 -0.14827715 -0.040576596 0.02453936 0.20607358 -0.028041953 0.15858158 0.005892609
0.1527429 -0.13634604 -0.003038317 0.0032227025 0.027016485 -0.009988486 0.053079545 0.121347204
-0.1186553 -0.17303263 0.091970995 -0.20264854 -0.13859649 -0.063126735 0.019484783 -0.21909906
0.009989041 -0.16593479 0.25122097 0.07311287 0.069571234 -0.25815162 -0.10177784 0.35883886
-0.17415555 0.0047786715 0.14316185 0.14525646 0.09869224 0.17216875 -0.106665924 -0.13574263
0.05701414 -0.15779169 0.21110736 0.0771743 -0.27525792 0.33016247 -0.23844704 0.06821515
0.026806792 -0.09236477 0.056743074 0.016631383 0.11736374 0.12666306 0.20145565 -0.05464056
0.009801702 -0.04162071 0.032475047 -0.11579153 0.11331733 -0.39706293 0.2531752 0.20364627
-0.15459183 0.37339643 0.009078324 0.042362414 -0.08674896 0.07477572 0.2790565 -0.13233787
0.058931775 0.13880838 -0.04037901 0.5653413 0.06866805 -0.2594269 0.018046752 -0.07705528
0.54628026 0.08139821 -0.15095295 0.060297366 0.06927427 0.12690295 -0.06493377 0.031145621
-0.07680344 0.2094317 -0.0076467395 -0.5067746 0.0663626 0.30693763 0.2497878 0.0077397586
0.06760507 -0.1840035 -0.05269485 0.1930495 -0.08882339 0.1015701 -0.11141232 -0.06533933
-0.39399883 0.038517494 0.2602016 0.12814309 0.22824413 -0.19076179 0.16312063 0.13725312
-0.1573445 -0.034791164 0.045756966 0.016113652 0.036651902 0.049330454 0.14631832 0.10843922
-0.08163009 -0.08632643 0.083616726 -0.10104937 -0.096964 0.059379477 0.18845724 0.084218845
-0.1683099 0.12388368 0.10459083 0.30557132 0.077687144 0.07813505 0.017519282 -0.07508424
0.47677836 -0.19365528 0.15155986 -0.16586266 0.03807265 0.081379965 0.13412613 -0.0650784

network_body._body_endoder.seq_layers.0.bias f4 [256]
00000000: dd4c 353d dfa2 e93c a011 ab3c 6a07 b73d
00000010: 109f 90bd 661f 843d 0ae8 c63d e083 b73d
00000020: b136 013c 70cb ae3d fcd6 f93c 1bcf 9d3c
00000030: 515d d13d 08df ee3d 1fb6 a83d 965d 6c3d
00000040: 9811 10ba 56d2 143c 15e4 ddbc e63c 1e3d
00000050: d1d7 a2bc 950b 3abd db72 1f3d 21cb c13d
00000060: 75f6 fe3d ead3 383e e9a5 8fbc 53d6 933c
00000070: 6e44 0d3c f26f e43d bd04 8abd 0303 59bc
00000080: e33a f7bc d56f bb3d 11e1 8e3d 5d7e 63bd
00000090: 6d3a 773c dc30 f63d 6c7b 373d 64c9 1b3e
000000a0: 33d7 3f3d 0a08 843d f583 a73d f7ac 773d
000000b0: c1ba 863d cb22 d63a 7487 1e3d 97bf aa3d
000000c0: f322 e13d b5a0 b43d c8d6 f03d f859 9a3d
000000d0: 88df 8abd a992 38bd 212a 633d 7144 d63b
000000e0: a3e6 5a3d bd7f aa3d e069 e2bc a450 c23d
000000f0: cd95 e03d 9dca a43d bbd5 1fbd 3f57 753d
00000100: 57b0 3fbc 3aab 783d f995 da3d ad6c e0bc
00000110: 94ce 683c 3ebf eebd aaf3 9abc 93b5 b93d
00000120: a1d6 81bd 5ca1 473d 17bc 853d 047d b33c
00000130: ee30 2d3d b31e 503c 91a9 3d3d a683 de3c
00000140: 46fa 1a3d 3e22 3abd 5c20 f4bc fd44 a23d
00000150: 69fa 493d 6e8b 10ba a132 673d f8e3 913d
00000160: 9b11 c23b 9a64 ea3d ef50 d83d 37b2 aabc
00000170: a4b8 b03d 25c4 793c f7ae ae3d 95be a13d
00000180: 8487 6d3d 40c5 9fbd f4a0 873d e998 073e
00000190: 024d 84bb a5ab 88bc 1a91 353c c3e7 7ebd
000001a0: acd1 993c 6182 aa3c 4fe7 963d c689 173e
000001b0: 7073 b33d ce64 2c3d afb1 153e 02bb 6d3d
000001c0: 47d4 58bd 1690 863d 8452 423c 7641 40bd
000001d0: 3c1b f43d 7e75 d7bb bc0a 33bb 882c 82bd
000001e0: e5b4 d93d 7848 053d 78b8 cbbc 1843 23bc
000001f0: 0ea7 63bd 44bb bdbd 8d5a 83ba 3bdf d73b
00000200: e863 8fbc f6d9 733d ef54 28bc d05a 643d
00000210: d860 39bd 5640 a93d f548 d73d a0ea 2a3c
00000220: 064c 833d 19d1 85bd 20d6 2cbd d772 133e
00000230: fd46 30bd b16a 24bd 441b 79bd c90b 063e
00000240: 7e00 793d d26f d53c cba5 34bd 2e84 a73d
00000250: 8145 9dbd 65aa b9bc 33d8 c43d 21c3 88bd
00000260: 325d 723d 1bdb 383d bd7e 77bd 7e77 673d
00000270: fdb8 973d f502 153e 17b2 85bd b9f2 4a3d
00000280: 924b 3abd f810 be3d 7afc 513d dd88 153c
00000290: cd62 4bbd bd9f 1b3d b81a a73d 07ef 6d3c
000002a0: 6b87 c43c 729a bd3d a748 933d d753 85bc
000002b0: 2f4c 453d 5565 2bbb df3b 28bd de5f 133d
000002c0: b068 123e c1e8 103d 32f8 073c 4cab 8bbc
000002d0: 5001 543c 1d66 b43d 760f 803d 32a1 6a3d
000002e0: fe4a e43d f03b 27bd 6a99 31bd 0b04 903d
000002f0: ab4c c73c e4fc 12bd bed8 a93b 4ae1 c03d
00000300: 4940 1d3e bd54 c83c af9b 103d 539d 7f3d
00000310: 6d3d da3d b417 863d 8f15 1c3e 70b9 8f3d
00000320: 1a5d 823c 2503 6f3c dd01 453d e456 8cbc
00000330: 4538 5abd 7773 ffbc a9a8 e33d 309a 1a3d
00000340: 783c 3f3b e482 033e f30a d43d 8068 533d
00000350: b64c 023d fbe0 28bb b68e 103d a5a6 823c
00000360: 103c 25bd e805 203d 7084 3abd e92b 3f3d
00000370: b4bc 3abc 8e40 463c 8c19 a93d 1886 cbbc
00000380: 5612 ee3c 834a c13c b49a a53d 623f 64bd
00000390: 5984 b03d d9bf e43c 5b23 9b3d 3895 113d
000003a0: 63ea 963d 1b5a dcbc 33a1 ebbd d2f1 7b3d
000003b0: 57ae 543d fb78 3cbd e7ff 723d 8ccc 0cbd
000003c0: 6c85 e53d 48dc c13d f296 073d 9233 b53d
000003d0: 6275 ad3d 2e79 febc 5211 c03d cd7f 30bd
000003e0: 115d 41bd c034 ba3d 24f1 8fbc 5d9a 4fbd
000003f0: 0be1 993d dc12 7aba de75 96bd a749 373d
0.044262756 0.028520046 0.020882428 0.08936961 -0.07061589 0.06451301 0.09712227 0.089607
0.007886575 0.085348964 0.03049802 0.019263795 0.10222877 0.116636336 0.08237862 0.057706438
-0.0005495786 0.009083351 -0.027086297 0.038632296 -0.0198783 -0.0454212 0.038927894 0.09462572
0.12449352 0.18049589 -0.017535167 0.018046534 0.008622272 0.111541644 -0.06739185 -0.013245347
-0.030179447 0.0915219 0.06976522 -0.05554043 0.015089613 0.12021038 0.04479544 0.15213543
0.04683609 0.06446846 0.08179466 0.060467687 0.06578589 0.0016337273 0.038703397 0.08337324
0.10992994 0.08819715 0.11759716 0.075366914 -0.067809165 -0.04506174 0.0554601 0.0065389206
0.05344261 0.083251454 -0.027638376 0.09488037 0.10966072 0.08046458 -0.03902219 0.059897657
-0.011699758 0.06071017 0.10673136 -0.02739557 0.014209408 -0.1165757 -0.018915016 0.09067836
-0.06339765 0.04873787 0.06530016 0.021910198 0.04228299 0.012702632 0.04630429 0.027162384
0.037836336 -0.045442812 -0.029800586 0.07923315 0.049311075 -0.00055139407 0.056444768 0.0712356
0.005922509 0.114449695 0.10562312 -0.020836933 0.086289674 0.015244518 0.08529466 0.07897679
0.057990566 -0.07801294 0.06622496 0.13241924 -0.0040375004 -0.016683409 0.011081958 -0.062232744
0.018776737 0.020814123 0.07368337 0.1479865 0.08762252 0.042088322 0.14618562 0.058039673
-0.05293682 0.06570451 0.011860494 -0.04693743 0.11919257 -0.0065752855 -0.002731963 -0.0635615
0.10630206 0.032539815 -0.024868235 -0.009964727 -0.055579238 -0.09264234 -0.0010021493 0.0065878904
-0.017503694 0.059534036 -0.010274156 0.055750668 -0.045258373 0.08264224 0.10511962 0.0104319155
0.06410985 -0.06534023 -0.042196393 0.14399277 -0.04303645 -0.04014081 -0.06081702 0.13090433
0.060791485 0.026054297 -0.044103425 0.08179508 -0.076792724 -0.022664258 0.09611549 -0.06677843
0.05917091 0.04513083 -0.0604236 0.05651044 0.074083306 0.1455191 -0.065281086 0.049547885
-0.045482226 0.0928058 0.05126617 0.009126869 -0.04965477 0.037994135 0.08159393 0.014522321
0.023990354 0.09257974 0.07191592 -0.01627533 0.048168357 -0.0026152928 -0.041072723 0.035980098
0.14297748 0.03537822 0.0082989205 -0.017049454 0.012939766 0.08808539 0.06252949 0.057282634
0.11147116 -0.040828645 -0.043359198 0.07032021 0.02432855 -0.035885707 0.0051833084 0.094179705
0.15356554 0.024454469 0.03530472 0.062405895 0.10656247 0.0654749 0.15242599 0.07017791
0.015913535 0.014588152 0.04809748 -0.017131276 -0.05327632 -0.031182988 0.11116154 0.0377447
0.002918033 0.128429 0.10353651 0.05161333 0.03181144 -0.0025768864 0.03529235 0.015948603
-0.040340483 0.039068133 -0.04553646 0.046672735 -0.011397529 0.012100352 0.08256826 -0.024844214
0.029061478 0.0235951 0.08086148 -0.05572451 0.08618993 0.027923511 0.07575103 0.035542697
0.073689245 -0.026898434 -0.11505356 0.061509915 0.051924076 -0.046013813 0.05932608 -0.03437476
0.11207089 0.094658434 0.033102937 0.08847727 0.084696546 -0.031063642 0.093783036 -0.04309063
-0.047207896 0.090920925 -0.01757104 -0.05068432 0.07513627 -0.00095395534 -0.073467 0.044747975

network_body._body_endoder.seq_layers.2.weight f4 [256, 256]
00000000: 59e7 8d3e 092b 5a3d 48c9 0f3e 6402 8d3c
00000010: e0db 073e 397b 5e3e fabd 29be 793b 373d
00000020: b3db 67bd 2e40 383e 2635 843e b024 1b3d
00000030: ac54 20be b557 663e 2eb6 46bd 2a9c 1e3d
00000040: be21 12be 1888 af3d 88f8 dabd db20 9abe
00000050: beb8 bab9 084b e2bd e9fe 693e 3e60 3f3e
00000060: 4b5a 69be 4fc9 00be af63 acbb be43 eebd
00000070: 9fb4 b8bd 851d 123e c26a 5cbd 7494 833e
00000080: dbd3 4fbe 5656 493e a59d 40bd e6c1 e7bc
00000090: 0432 083e bd2e 25be 637f 743e 7601 8cbe
000000a0: ad52 3f3d 3f53 743e 849c a1bd 671d 59be
000000b0: 0980 103e 8241 4fbd 075c 55be 92bd 0dbe
000000c0: dc66 6bbe 2d30 723e f0d7 5e3d 25dc 18be
000000d0: 72e6 4abe 7de4 1abe 4dd2 47be ba6a fb3d
000000e0: fa36 d9bd f1a9 41be 5ea7 c6bd 7198 86bc
000000f0: 0508 633d 073e 7c3d c3eb 30bd c331 953d
00000100: f4d4 90bd 9500 7dbe 12c1 583e f768 2b3e
00000110: 2b18 013e 5182 05be 14e8 1c3e bb80 af3d
00000120: 1549 92bd 9f47 3cbe 52a0 19bd 1b32 bc3d
00000130: a017 453d 17ed 5ebe 8cbe 46bd 9d30 773c
00000140: 883a d33d 2019 92be bdcd 67be 4b25 61be
00000150: 4a42 033e 0fca bd3d c2bb b13d 4100 cb3d
00000160: 5768 64be 1421 e63d c66f 543e 4c2d 3d3d
00000170: 2dcb 033e cda0 85bd 47f9 983d d52f 0bbc
00000180: 5312 f8bd 6f19 6b3d 6e01 5e3d 3ca5 043e
00000190: 3e65 223e 1ec3 c53c 9aa6 42be e89d 053e
000001a0: 356d 96be 5a63 1dbd 78c9 1bbd f977 c6be
000001b0: f0cb fd3c 9d3f 893d ee3a 9a3d 96c9 babd
000001c0: 2e43 68bd 378b 4cb9 810a 27bd 5283 e93c
000001d0: 3e59 8c3e 938e 7f3d 4b46 223d 7828 5abd
000001e0: 1d46 ebbc 2342 27be 80e6 ac3d 6eea 0f3e
000001f0: 2c23 1e3d 4b21 bebd 9c3c 3bbe 4ec2 023e
00000200: d2da 90be d28f 8fbe 2e26 183e c03e bb3d
00000210: 3d36 9c3c 4466 133c 3c7c 8bbc 7939 73be
00000220: f213 ec3d 790c 05be 8e76 473a 395c 7dbd
00000230: 5d07 d6bc 9886 8e3c f91c 7fbe 3c02 103d
00000240: 97f5 4dbd e313 343e 7648 1b3d f22c 373e
00000250: d4a0 a83d 1131 b43b 8920 d6bd 9a8f 8f3c
00000260: b16b 9e3d 1a64 993d 1b3b fcbc 91f3 5a3e
00000270: eee2 5abd ba8d 1bbe 0800 8d3d 792e dfbd
00000280: 91a5 183e 8f14 a9be a352 673c bbe2 08be
00000290: 10cf 2fbe 0875 353e 40e4 983e 4f25 98be
000002a0: 4716 01be 3f85 723b 9b8f bfbd 71dd f1bd
000002b0: e4e5 b7bd 39ce 30be 9692 613d 7503 423e
000002c0: 0d65 1abe 250b 2e3e fc96 cdbb e520 d4bd
000002d0: 3b8e 16be 7a18 8c3e 733d ac3d 8f81 be3d
000002e0: e3a1 363d e9f4 19be a3f7 70bd 4f52 683e
000002f0: 1b60 f2bd 5e1d 923d 09bd 10be 1aa0 4ebc
00000300: 0d81 28be 54e8 383e d720 773e 58fc 8c3c
00000310: db11 40bc 8122 283e 7e9b 263e a681 363d
00000320: 0ac3 14bd ab1d 94be 0350 d7bd 6080 2dbd
00000330: 5438 173e 2110 c9bd 34ea a63e 1dab babd
00000340: ab6d d0bd f546 9b3e 7a06 933c 1410 993d
00000350: 6811 2fbe b75f 273d ac3f 4abc f1fd 893d
00000360: e748 5b3c ca56 06be f569 913c beae 13bb
00000370: c881 7abd 5f2e 7abe ee20 b03c 4848 7f3d
00000380: cb76 e03d ceaf 623b 982e 3c3e 9716 b23c
00000390: e149 05bd 2b0b 1dbd 2109 d2be e427 bcbd
000003a0: c22c 2cbd bdb4 77bd 7497 3cbe 19d6 7f3b
000003b0: 08d7 6dbd cd81 bbbd 13f1 d83d d64b f1bd
000003c0: 4053 833e 38f4 3a3e 6910 823d 5bae d53d
000003d0: 2b89 25bc 9cbc 1abe c49d 0bbe 6611 03be
000003e0: b2de abbd 2150 563e 1047 94bd 85b8 8d3d
000003f0: 568c 47be 1371 34be 75f2 853e 8ec4 47be
0.27715567 0.053263698 0.14041626 0.017213054 0.1326747 0.21726693 -0.16576377 0.044734452
-0.056606006 0.17993233 0.258218 0.037876785 -0.156573 0.22494395 -0.048513584 0.03872315
-0.14270684 0.0857088 -0.10691935 -0.30103192 -0.00035614328 -0.11049467 0.22851147 0.18689057
-0.2278835 -0.12576793 -0.0052609066 -0.116340145 -0.09018826 0.14269073 -0.05381275 0.25699198
-0.2029566 0.19661841 -0.04702534 -0.0282907 0.1330033 -0.1613111 0.23876719 -0.27344865
0.046709705 0.23859881 -0.07891181 -0.21202622 0.14111342 -0.050599582 -0.20835887 -0.13841847
-0.22988456 0.2365119 0.054405153 -0.14927728 -0.1981447 -0.15126224 -0.19513817 0.12276216
-0.10606189 -0.18912484 -0.096998915 -0.016430112 0.05542757 0.06158259 -0.04319359 0.07284882
-0.070718676 -0.24707253 0.211674 0.1673926 0.12606876 -0.13037993 0.15322906 0.08569475
-0.071428455 -0.18386696 -0.03750641 0.09189244 0.048118234 -0.2177013 -0.048521563 0.015087274
0.10313898 -0.28534794 -0.22637077 -0.21986882 0.12818256 0.09267055 0.0867839 0.09912158
-0.22305427 0.11236778 0.20745763 0.046185777 0.12870474 -0.06524811 0.07469421 -0.008495291
-0.1211287 0.057397302 0.054200582 0.12953657 0.15858933 0.02414089 -0.19008866 0.13048518
-0.29380193 -0.038424827 -0.038033932 -0.38763407 0.030981034 0.067015864 0.07530771 -0.09120481
-0.056704693 -0.00019506818 -0.0407815 0.028505001 0.27411836 0.06239183 0.039617818 -0.05326125
-0.028719956 -0.16333823 0.08442402 0.14054272 0.03860776 -0.09283694 -0.1828484 0.12769434
-0.28291947 -0.28039414 0.14858314 0.09142828 0.019068832 0.00899655 -0.017027013 -0.23752393
0.11527242 -0.12993039 0.00076089136 -0.06185553 -0.026126558 0.017398164 -0.24913396 0.03515838
-0.05028304 0.17585711 0.0379109 0.17888239 0.082338005 0.0054990132 -0.10455424 0.01752453
0.07735384 0.07489796 -0.030789902 0.21381976 -0.053439073 -0.15190783 0.068847716 -0.10897536
0.14906909 -0.33023497 0.014118823 -0.13367741 -0.17168832 0.17720425 0.2986164 -0.29715964
-0.12606154 0.003700569 -0.093535624 -0.11809815 -0.08979395 -0.17266168 0.055071436 0.18946631
-0.1507761 0.16996439 -0.0062741023 -0.10357837 -0.14702694 0.27362424 0.08410158 0.09302055
0.04458798 -0.15034832 -0.058829915 0.22687648 -0.11834737 0.071345076 -0.14134611 -0.012611413
-0.16455479 0.18057376 0.24133621 0.01721017 -0.011723007 0.16419412 0.16270253 0.044557236
-0.036318816 -0.28928885 -0.10513308 -0.042358756 0.14767581 -0.098175295 0.32600558 -0.091146685
-0.101771675 0.30327573 0.017947424 0.0747377 -0.17096484 0.040862765 -0.012344282 0.067378886
0.0133840805 -0.13119045 0.01775072 -0.0022534574 -0.061158925 -0.24431752 0.021500077 0.062324792
0.10960158 0.003458965 0.18377149 0.021739287 -0.03254116 -0.03834073 -0.4102259 -0.09187296
-0.042034872 -0.0604751 -0.1841715 0.0039037524 -0.058066398 -0.09155617 0.10592856 -0.11782043
0.25649452 0.18257225 0.06350786 0.10433646 -0.010103504 -0.15111011 -0.13634402 -0.12799606
-0.08392085 0.20929004 -0.072401166 0.0691996 -0.19487128 -0.1762126 0.26161543 -0.19508573

network_body._body_endoder.seq_layers.2.bias f4 [256]
00000000: 06ef e43c ba23 7f3e 2d86 6f3e a4af 08bc
00000010: 2c58 9abd 6cbb 13bd 99f7 cebd a3e3 47bc
00000020: 4097 01bc 41b6 c0bd dc88 25bc e06f a43d
00000030: 38e7 debc cee7 8fbd b4cf 6fbd 1f70 9abd
00000040: a6b7 b1bd a2c7 413b 6341 173e c7d8 29bd
00000050: 78ba 1f3d f180 79bd 7569 5a3c 8aeb 86bd
00000060: 68e3 c83d 4e08 ddbb b713 383b 05ad ddbd
00000070: 7eab bfbd 0f46 a83d f325 72bc 4cd4 53bd
00000080: 34ac b0bc 7d1e af3b 52de b6bd 4e1a 22bd
00000090: f1ea 103e 080b fd3c 6da9 033e 6d9d edbb
000000a0: 641a d7bb 6eeb 83bc c38a 5cbc 6a00 e63d
000000b0: 45de 73bd c828 be3d 3cad bcbc a171 8bbb
000000c0: 010b 923d f7f0 603d 23fc 843d 9897 b5bb
000000d0: f0cc 37bd 44a3 9a3a c36a edbc 3c67 3d3d
000000e0: 06cd 67bd 2796 6cbc dd67 73bd dab6 e5bc
000000f0: db05 853d efeb aabd dbde 2eba 7222 c4bc
00000100: a7d2 1a3d 058f 943d 2d10 17bc 593d fabb
00000110: b11a 3c3c 038c fe3d 7ae1 fb3b a539 ed3d
00000120: 26b3 42bd 9363 7a3d 5505 7a3d 447b 6f3d
00000130: 63db 303d 3cfe e43d db94 f8bc fd93 153d
00000140: 0303 933b 73bf d63b 9e2e 6bbc b83c 6c3d
00000150: 167e 82bc a662 223d b34b 54bd 5538 443d
00000160: 3f1e aebc 32fe cb3d c8e3 4a3d 4e85 e6bd
00000170: 8c0e e13d e6ae 2ebb 6571 a7bc bcc5 243c
00000180: 2a5a afbb 1835 933d 1719 7a3c fd77 4d3e
00000190: 4ef6 583c 42b6 053e eb5e 16bd e6f1 37bd
000001a0: 1815 aebd fe33 803d 8dfe a5bd d3ea 333d
000001b0: 960a f1ba 02df fa3d bf02 363d 3c29 d7bb
000001c0: 934b 1bbc 18e7 7c3d 1c9f 0c3e a34b 0d3d
000001d0: ea82 0ebd cd7c 853c e7bf c0bb 52ae ef3c
000001e0: 2389 1bbd 007e f5ba c27a 96bc 3288 f73c
000001f0: 6c31 d73c 580d 94bc 2924 4dbc 9d35 86bd
00000200: df9c 1d3d 15da 5bbd ff98 0e3e 24fb a93a
00000210: f0a7 b6bd 6402 c2bc 40ec 09bc ad81 70bd
00000220: 2664 663c 6f03 0a3d 4943 03bd 69d5 a83d
00000230: 331e b1bd b6a5 053e 0414 3e3d c4e2 36bc
00000240: 90a3 80bd 4a5e 833c 6114 5abc 912a e8bc
00000250: 449b 323d 0d39 73bd d3b3 463d 5a93 15bd
00000260: 065d 04bd c212 8c3d 30a2 06bd 3559 edba
00000270: be87 35bd 54e5 8abd 1b8e 013d 7f85 ecbd
00000280: cc54 92bd 7575 a4bd d971 113c 0ec6 61bd
00000290: f8f0 6bbc 5db4 a5bd f241 b03c fc5e 89bd
000002a0: 9b68 a63c c398 103c ec36 113d edd8 1d3e
000002b0: 2591 57bd 3137 ec3b fab5 763d 15a9 a9bc
000002c0: a4af c33b b63f 5f3d b3a9 a23d 6dbd 55bc
000002d0: 10c4 be3d 1a9b a0bc 5f51 ee3c e6ef a93d
000002e0: 0b62 783d 4a5e 9b3c 3345 65bd af03 ae3c
000002f0: fc1e 9dbd 4293 7cbd 467d febb 152a 9fbc
00000300: a071 30bc 47db 493c ba82 5fbd b73e 603c
00000310: 0d59 e6bb 86d4 d53c 34d0 a23d f7d9 5abb
00000320: 3e69 4a3d 6946 673d 899b 8b3d a33c 7dbd
00000330: dd94 15bb 9735 543d 3252 c4bb 333a 9dbb
00000340: 5cff be3d 1aca 4ebd 7aaf 7dbd 740b e1bc
00000350: b892 c8bc fbf6 3bbb 8a7a cabc 0910 2ebd
00000360: ac0d f4bc 1f72 a53d d5a4 fb3c 7758 753d
00000370: 8d06 65bd 0d8c 863d fb3a 263b 3b24 8ebd
00000380: 523c ec3d c3e0 54bd 384d d5ba 0f28 1dbd
00000390: 2d06 f33c ae53 c7bd da92 e03c 5d19 0c3c
000003a0: f37b c93c c969 d63d 782e 98bd 1324 80bd
000003b0: 948d 61bd 9a7f 93bc a63d 78bd f37a f63d
000003c0: a0d9 9f3c 6a9f 063d adc4 b2bc 4b1a a83c
000003d0: 60ed 843c 9acf aabc afa6 f1bd 7a58 e53d
000003e0: 43ca 333d 0811 9abd c36d 06bd b5d9 ee3b
000003f0: c2c8 a1bd c37b 4b3e b6ed e03c cd4a 38bd
0.027946007 0.24915972 0.23391028 -0.008342657 -0.07536349 -0.03606741 -0.10105819 -0.012200269
-0.007909596 -0.09409762 -0.010103431 0.08029151 -0.027209863 -0.07026635 -0.05854769 -0.07540917
-0.08677606 0.0029568453 0.14771037 -0.0414665 0.03899619 -0.060913984 0.013330807 -0.06587894
0.09808999 -0.0067453748 0.0028087923 -0.108240165 -0.093588814 0.082164876 -0.014779556 -0.051716134
-0.021566488 0.0053442107 -0.08929123 -0.039575867 0.14152123 0.03088905 0.128576 -0.0072514326
-0.0065644253 -0.016103473 -0.013460818 0.11230548 -0.059538145 0.09285122 -0.023031823 -0.004255489
0.07131005 0.054917302 0.06493404 -0.005541753 -0.044873178 0.0011797925 -0.028981572 0.04624103
-0.05659201 -0.014440096 -0.059425224 -0.028041292 0.064952575 -0.08345782 -0.00066707813 -0.023942206
0.03779855 0.07253841 -0.009220165 -0.0076367077 0.011480973 0.12429049 0.007686791 0.115832604
-0.04753413 0.061130118 0.06104024 0.058467165 0.043177973 0.11181304 -0.030344417 0.036518086
0.004486443 0.0065535842 -0.014354376 0.057675093 -0.015929263 0.03964486 -0.051830005 0.047905285
-0.021254657 0.09960593 0.049533635 -0.112558946 0.10989103 -0.002665454 -0.020439813 0.010056909
-0.0053513246 0.07187861 0.015264771 0.20065303 0.013242317 0.13057807 -0.036711615 -0.044908427
-0.08500117 0.06259917 -0.08105192 0.043925118 -0.0018389996 0.122495666 0.044436213 -0.006566195
-0.0094784675 0.061743826 0.1373257 0.03449596 -0.034792818 0.016294861 -0.0058822515 0.029257927
-0.03797258 -0.0018729568 -0.018369082 0.03021631 0.026268683 -0.018072769 -0.012520828 -0.06553195
0.038479682 -0.053674776 0.13925551 0.0012968522 -0.0891875 -0.02368278 -0.008418143 -0.05871742
0.014061963 0.03369468 -0.03204659 0.0824383 -0.08648338 0.13051495 0.046405807 -0.011162464
-0.06281197 0.016036171 -0.013310523 -0.02834061 0.043605104 -0.05938058 0.048511337 -0.03651748
-0.032315277 0.06839515 -0.032869518 -0.0018108251 -0.044318907 -0.06782022 0.031629663 -0.115489
-0.0714508 -0.08030216 0.008877241 -0.05512052 -0.014400713 -0.08091042 0.02151582 -0.0670757
0.020313552 0.008825484 0.03545277 0.15414782 -0.052628655 0.0072087278 0.06023214 -0.020710507
0.0059718657 0.05450412 0.07942524 -0.013045651 0.0931474 -0.019605208 0.029091535 0.0829771
0.060640376 0.018965859 -0.055974197 0.02124199 -0.076719254 -0.061663873 -0.0077663986 -0.019429246
-0.010769278 0.012320346 -0.05456803 0.013686827 -0.0070296586 0.026102316 0.07949868 -0.0033394077
0.049416773 0.056463633 0.06816775 -0.061825406 -0.0022824325 0.05180892 -0.0059912438 -0.0047981977
0.0932605 -0.050485708 -0.061934926 -0.027471282 -0.024484023 -0.0028681147 -0.024716634 -0.04249576
-0.029791676 0.080784075 0.030718246 0.05989882 -0.05591445 0.06569681 0.0025364745 -0.06940504
0.11534943 -0.051972162 -0.0016273623 -0.03836828 0.02966603 -0.097327575 0.027413774 0.008550969
0.024595236 0.10469396 -0.07430738 -0.062568806 -0.05506666 -0.018005181 -0.060605668 0.120351695
0.019512951 0.032866873 -0.021822298 0.02052035 0.01622647 -0.020850945 -0.117993705 0.11198516
0.043894064 -0.0752278 -0.03281952 0.0072891363 -0.0789962 0.1987143 0.0274571 -0.04499321

action_model._discrete_distribution.branches.0.weight f4 [7, 256]
00000000: 6389 c5bd a062 d3be 742a 633e 1f73 ae3c
00000010: 782a db3d a1aa b3bd efdd 163e e186 0d3e
00000020: fd8c 393c b20c 5d3e bd65 6a3c f351 9ebd
00000030: 0a04 35be 6307 ae3d 5055 223c aa1e e43d
00000040: a8b9 fe3d 3cc2 ae3d 0ed9 5fbe a38e 05bd
00000050: d5ec 89bd 6e18 973d c753 fabc d05e 823d
00000060: c796 99bc 27d6 87bd 730b a63d 9341 23bc
00000070: 2bc9 973d 772e 1cbe 35d2 fd3d 629f c3bd
00000080: ff88 693d f840 80bd cd9d 503d 82b6 983d
00000090: 60a9 82ba ace2 013e 3025 8cbe c70d 0dbe
000000a0: 1cc0 9ebd 1695 d7bb 0281 753d 7f8e 803d
000000b0: 4b5b 203e 8c8d 473d 75f7 f2bd e096 03bc
000000c0: 8b53 75be 5129 3e3d d832 e9bc e518 65be
000000d0: d14a ccbc 7c0d 7cbd c5c3 0a3e dfda 61bd
000000e0: 70d0 bdbd f651 1b3e cd63 7abb 328a 4ebc
000000f0: 58af 95be a3e3 babd 1a57 a63d d536 afba
00000100: b190 71bd f754 1c3d 54a4 abbd 6d2b 31bd
00000110: 12c9 7b3d 3828 9dbc 4899 b1bd b2f4 8ebe
00000120: e3fe 743d d840 fdbd 1c50 dfbb 7a1b f5bc
00000130: 0e1a 203e 6696 75be 61b5 acbd 200e adbd
00000140: d575 743d 9b39 e2bd 95ca ebbc 5a55 16bd
00000150: 0c07 8c3d 67aa 13be f8ce 053e cf8a 69bd
00000160: 8254 3c3d c186 53be 54c6 a8bc 3477 523e
00000170: ec10 0dbd 428e 9bbc 6288 e5bb 2463 9ebc
00000180: 86c6 fcbd a2f6 0fbd 033b 0abe b508 46be
00000190: ea11 4cbd dfdb a8be c861 43bc 8542 ef3d
000001a0: 4250 d63c a4f5 e73d 58c6 d33d 60b8 3cbd
000001b0: 1b97 af3d e556 ad3c 66b3 adbd 41be 0dbe
000001c0: d695 e8bc db96 43be ff80 e23b e8e8 a5bd
000001d0: 4efd c93d 6bc0 3ebd 7f7e 92bb 36c3 813d
000001e0: 8dea 07bd 57f7 e93c aa48 b6bd 0793 ecbb
000001f0: fcd4 98bd 9a0d 8abd 7d58 3ebd 4767 f83c
00000200: 0e5c cabd 81a8 c6bb 8083 47be f200 bb3c
00000210: ec5b de3d 34d2 c438 d6ab 83bc 0156 3c3c
00000220: b85a 933d f079 b23b 4e0d 183c 64a4 06be
00000230: 61a7 423d d282 6bbe 7aae c2bd ff6c 5a3d
00000240: bd8e 76bc ca4a e8bd 0790 13be 810d 12be
00000250: 044f 203e 5eb9 6abd 6451 26be 2244 113e
00000260: e0ee b33d d15c a8bd ee25 99bd 5a4e 033d
00000270: 5346 a9bc 1824 303e f65e 8cbd 7131 333e
00000280: b1cf e1bd 9707 503e 5655 a03c 7909 a83d
00000290: 2e9f bc3d b532 193e d2a3 c93d 94ac 473e
000002a0: 6c73 abbe 0d91 913d b175 06be ae2e 96be
000002b0: 2c64 4d3e 743a 95bb 49de fabd c679 83be
000002c0: 0f7e c0bd 97b7 04bc 32d1 e93d 0c62 9a3d
000002d0: 4842 fabd e181 1bbd f9bc 5abb a849 14be
000002e0: caab 31be 1d4e 353d db58 213e d539 48be
000002f0: 1d2c 013d a8b7 11bb 1839 2b3d 065c 0fbe
00000300: bd72 95bd bde8 aebb 42bd d6bd d207 173e
00000310: a43e 1ebe 0508 c4bd a86b 12bd 5002 69bc
00000320: 9711 c0bd 71af 32be 76c7 653d 5483 753e
00000330: 217a abbc 7ded acbe 73f8 023e f0e3 803c
00000340: 572d afbd 6917 04bd fd10 123d c15c 4b3d
00000350: d023 1c3c f495 a7bd 0c07 56bd 6b17 1abe
00000360: dcb2 abbb bb04 3cbe 88a8 913b 847c 81be
00000370: e7b4 363d 8dca 78bb 164a 45be 3b4a 9ebc
00000380: 71c8 3e3d c683 15bd 515a fbbd f12d 1dbd
00000390: 0152 45be 6054 333e 11c4 79be 605b 2c3c
000003a0: 7804 94bd f1be a8be 184e 053d a47d c03d
000003b0: 747a 45be 188f 303e d76c 3d3e c9ec 5f3c
000003c0: 4cb1 c6bc 58d2 3dbe 8b7e 3f3d cc8d 41bd
000003d0: d7fe 3bbc d741 99bd cb34 703e 4281 91bd
000003e0: ffd3 843d 1dd7 ef3d 837d d93a 3cac 62bc
000003f0: 84e5 5b3e 0907 aabe be4d c3bd 23dd 223e
-0.09645345 -0.41286182 0.22184163 0.021295128 0.1070146 -0.08772779 0.14733098 0.13820983
0.011325118 0.21586874 0.014306483 -0.07730474 -0.17677322 0.08497503 0.009908035 0.11138661
0.12437755 0.08533141 -0.21860144 -0.032606732 -0.06734625 0.073777065 -0.030557526 0.0636574
-0.018748654 -0.06632643 0.081076525 -0.009964365 0.074114166 -0.152521 0.123936094 -0.09551884
0.057015415 -0.06262392 0.05093174 0.074566856 -0.000996869 0.12684125 -0.27372122 -0.13774787
-0.07751486 -0.0065790517 0.059937485 0.06277179 0.15659826 0.048718974 -0.11863605 -0.008031577
-0.2395765 0.04642612 -0.028466627 -0.22372778 -0.024938019 -0.061536297 0.13551243 -0.055140372
-0.09268272 0.15167984 -0.0038206459 -0.0126061905 -0.2923534 -0.091254495 0.08122082 -0.0013367782
-0.05897588 0.038166966 -0.083809525 -0.043254305 0.061471052 -0.019184217 -0.08671814 -0.27921063
0.05981339 -0.123658836 -0.0068149697 -0.029920328 0.15634939 -0.23983154 -0.08433033 -0.0844996
0.059682686 -0.110461436 -0.028783122 -0.03670249 0.068372816 -0.14420472 0.13067234 -0.057017144
0.04597903 -0.20656873 -0.020602383 0.20553285 -0.034439966 -0.018988732 -0.0070047835 -0.019334383
-0.12342553 -0.035147317 -0.13499074 -0.19339259 -0.04982177 -0.32980248 -0.011925168 0.116826095
0.026161317 0.11326149 0.103405654 -0.04607427 0.08573743 0.021159599 -0.08481483 -0.13842107
-0.02839176 -0.19100516 0.00691235 -0.08101064 0.09862767 -0.046570223 -0.004470646 0.06336062
-0.03318267 0.028560324 -0.08900578 -0.0072196755 -0.074624985 -0.067408755 -0.046471108 0.030322684
-0.09880839 -0.0060625677 -0.19483757 0.0228276 0.108573765 9.385162e-05 -0.016073149 0.011495114
0.071950376 0.005446665 0.009280516 -0.13148648 0.047522906 -0.22999123 -0.09505935 0.053326603
-0.01504868 -0.1134239 -0.14410411 -0.14262964 0.15655142 -0.057305686 -0.16241986 0.14186147
0.08785796 -0.08220828 -0.07477938 0.032057144 -0.020663416 0.17201269 -0.0685405 0.17499329
-0.11025942 0.20315395 0.019571941 0.08204932 0.092100486 0.1496075 0.09845699 0.19499427
-0.33486497 0.07107744 -0.13130833 -0.2933249 0.20057744 -0.0045540873 -0.12249429 -0.25678843
-0.09399044 -0.008100412 0.11416854 0.07538232 -0.122196734 -0.03796566 -0.0033376797 -0.14481223
-0.17350689 0.044263948 0.15756552 -0.19553311 0.03153621 -0.0022234712 0.041802496 -0.13999948
-0.07297275 -0.005337803 -0.10485317 0.14749077 -0.15453583 -0.09571842 -0.0357472 -0.014221743
-0.09378355 -0.17449738 0.056098424 0.23975879 -0.020932259 -0.3377494 0.12790088 0.01573369
-0.0855357 -0.03224889 0.035660733 0.049649004 0.009530023 -0.08182898 -0.052252814 -0.15047996
-0.0052398276 -0.1836118 0.0044451393 -0.2529031 0.044606116 -0.0037962527 -0.19266543 -0.019322505
0.046577875 -0.036502622 -0.12273086 -0.03837389 -0.19269563 0.17512655 -0.243912 0.010519832
-0.07227415 -0.32958177 0.03254518 0.09398964 -0.19284993 0.17242086 0.1849855 0.013667294
-0.024254464 -0.18537271 0.04675154 -0.04725437 -0.011474333 -0.07483261 0.23457639 -0.07104732
0.064857475 0.117109515 0.0016593192 -0.013835009 0.21474272 -0.33208492 -0.095363125 0.1590467

action_model._discrete_distribution.branches.0.bias f4 [7]
00000000: 1875 c8be c7f6 7e3c 94ab e2bc d658 a73b
00000010: bc08 403d 9537 9b3c 36c1 bf3c
-0.39151835 0.015561766 -0.027669705 0.0051070256 0.04688333 0.018947402 0.02340756
