results/puzzle_experiment_5/PuzzleBehavior/PuzzleBehavior-30499972.onnx (onnx, 342923 bytes, 6 tensors)

network_body._body_endoder.seq_layers.0.weight f4 [256, 65]
0	0xbf2c6282	-0.6733781
1	0xbc0d12f1	-0.008610473
2	0xbed210a4	-0.4102832
3	0xbe7f9401	-0.24958803
4	0x3a730797	0.00092708453
5	0x3e33ad0e	0.17546484
6	0x3e2e85aa	0.17043176
7	0xbe698c24	-0.22807366
8	0x3e8c8a48	0.2744925
9	0xbf836636	-1.0265567
10	0xbe042866	-0.12906036
11	0xbda68c3c	-0.08132216
12	0x3ea44860	0.32086468
13	0x3e0ecead	0.13946028
14	0x3d6fb183	0.058518898
15	0x3d239f19	0.03994665
16	0xbe82d890	-0.2555585
17	0x3d1c1342	0.038104303
18	0x3c804d5d	0.01566189
19	0x3e4d5469	0.20051731
20	0xbe023dd7	-0.12718903
21	0x3dff7cfd	0.124750115
22	0x3d075efd	0.033049572
23	0xbdaf3901	-0.085557945
24	0xbb7d4c15	-0.0038650085
25	0xbbf537d8	-0.0074834637
26	0xbe0bbe72	-0.13646868
27	0xbed4c37e	-0.415554
28	0x3e5ea926	0.21744213
29	0xbe9e6bde	-0.3094167
30	0xbe269991	-0.16269518
31	0x3e577d56	0.21043906
32	0x3e417091	0.18890597
33	0x3d9acf13	0.075590275
34	0xbdb52829	-0.088455506
35	0xbe276614	-0.16347533
36	0xbe3bf9ac	-0.18356961
37	0x3d4846f8	0.048895806
38	0x3cd26460	0.025682628
39	0xbdc168d9	-0.09443826
40	0x3d186188	0.037202388
41	0x3dc323d8	0.09528321
42	0x3e5e19b6	0.21689495
43	0xbf0d5a1e	-0.5521563
44	0xbe23e769	-0.16006245
45	0xbe610d9c	-0.21977848
46	0xbd20cae7	-0.039256003
47	0x3e858fca	0.26086265
48	0x3dc205ef	0.09473788
49	0xbd88d5f6	-0.06681435
50	0xbdd9dee6	-0.10638218
51	0x3d2aa529	0.041661415
52	0xbe00180c	-0.12509173
53	0xbddc6c3a	-0.1076283
54	0x3e6ec269	0.23316349
55	0xbd206ef6	-0.03916832
56	0x3e34cf5b	0.17657225
57	0xbe64fb95	-0.22361596
58	0xbde2ea27	-0.11079817
59	0x3d86b46d	0.06577382
60	0xbdadddc8	-0.08489567
61	0xbe770949	-0.24124636
62	0xbf7d2d6e	-0.98897445
63	0xbcd172ae	-0.025567379
64	0x3e2336a8	0.15938818
65	0xbf6fcd12	-0.9367229
66	0x3c2f3719	0.010694289
67	0xbe597abb	-0.21238224
68	0x3d8d6e24	0.06905773
69	0xbe5da08a	-0.21643272
70	0x3dfbf539	0.12302632
71	0x3e1ba084	0.1519795
72	0x3d02af4d	0.03190546
73	0x3ea85b1c	0.3288201
74	0xbeedbe83	-0.4643441
75	0x3c2454ed	0.0100300135
76	0x3e84528b	0.25844225
77	0xbea3dd27	-0.32004663
78	0x3e1ab2ae	0.15107223
79	0xbe300790	-0.17190385
80	0x3da87761	0.08225895
81	0xbb92e1bd	-0.0044824765
82	0x3e036dea	0.12834898
83	0xbeb38361	-0.35061172
84	0x3e19101e	0.14947554
85	0x3dc7fa9e	0.09764598
86	0xbe18eb38	-0.14933479
87	0x3e2e902c	0.17047185
88	0xbe0003de	-0.12501475
89	0x3e96cf68	0.29455113
90	0xbe9542a8	-0.29152417
91	0x3ec1fc33	0.37887725
92	0x3e301900	0.17197037
93	0xbda3b8cd	-0.07994232
94	0xbe538ee5	-0.20659979
95	0xbcff1d43	-0.031141883
96	0x3df01608	0.11722952
97	0x3e31da1c	0.17368358
98	0x3e26acaa	0.16276804
99	0xbe103826	-0.14083919
100	0xbda07efc	-0.0783672
101	0xbf0ab73e	-0.54185855
102	0x3e49d260	0.19709158
103	0xbdaf8e73	-0.08572092
104	0xbecea222	-0.40358073
105	0x3d45eaf9	0.04831979
106	0xbe246c59	-0.16056956
107	0xbc047c00	-0.0080862045
108	0xbf7709d1	-0.96499354
109	0x3ddaa759	0.1067645
110	0xbda6fbde	-0.081535086
111	0x3d8495b9	0.0647387
112	0x3dbb08a2	0.09132506
113	0x3e5dfd3c	0.21678632
114	0xbb326457	-0.0027220452
115	0x3e557d5d	0.20848604
116	0xbe6aaff8	-0.22918689
117	0xbbbb4637	-0.0057151574
118	0xbdabaf38	-0.0838303
119	0xbed7fc79	-0.4218481
120	0x3d457667	0.04820862
121	0x3d88c704	0.06678584
122	0xbf25c8bd	-0.6475943
123	0x3d9b5900	0.07585335
124	0xbe5910a8	-0.2119776
125	0xbde21c57	-0.11040562
126	0xbc0b7c42	-0.008513512
127	0xbf943d8a	-1.158128
128	0xbed1978a	-0.40935928
129	0x3d30bc56	0.04314836
130	0x3e9013a8	0.28139997
131	0x3dd48787	0.10377412
132	0x3e93ae03	0.28843698
133	0xbe92aee5	-0.2864906
134	0x3dcc5c66	0.09978561
135	0xbdde4829	-0.10853607
136	0x3d9da8b1	0.07698191
137	0x3e6bb08b	0.23016565
138	0x3d09d14c	0.033646867
139	0xbc9c88bc	-0.019108169
140	0xbd96baa7	-0.0735982
141	0xbe03e34c	-0.12879676
142	0x3ee64bd7	0.44979736
143	0x3dfdf98c	0.12401113
144	0x3e05279b	0.1300339
145	0x3de36de4	0.11104944
146	0x3e1fd4b6	0.15608487
147	0x3e975799	0.2955902
148	0xbd41c79e	-0.04730951
149	0xbd0521e8	-0.03250304
150	0x3e2ed3e8	0.17073023
151	0x3ed81896	0.42206258
152	0xbe13cf5d	-0.14434572
153	0x3ebade24	0.36497605
154	0xbe268868	-0.16262972
155	0xbcb5081c	-0.022098593
156	0x3c202e1d	0.009776619
157	0x3e2b6742	0.16738608
158	0xbed37a3f	-0.41304204
159	0xbd1477aa	-0.036246933
160	0xbe371617	-0.1787952
161	0xbcc8ca5f	-0.02451056
162	0xbd8c2187	-0.06842332
163	0x3dde5c51	0.10857452
164	0xbc4972ea	-0.012295464
165	0x3e45b1e2	0.19306138
166	0x3e2de070	0.16980147
167	0xbde7c8af	-0.11317574
168	0x3e252ad8	0.16129625
169	0x3d3739c1	0.044732813
170	0x3dcb02f7	0.09912675
171	0x3d9b12a1	0.075719126
172	0xbe954f69	-0.29162148
173	0xbe4868d0	-0.19571233
174	0xbd4d1f01	-0.050078396
175	0x3df9f07f	0.12204074
176	0x3e8375b7	0.25675747
177	0xbeae78ae	-0.34076446
178	0xbefe2d1f	-0.496438
179	0x3d23de43	0.040006887
180	0x3db04469	0.08606798
181	0xbe8a0ce1	-0.2696295
182	0xbe240512	-0.16017559
183	0xbdf96e11	-0.121791966
184	0x3d72bd6c	0.059262678
185	0x3e4d7d64	0.20067364
186	0xbe1c472e	-0.15261528
187	0xbe2e735b	-0.17036192
188	0x3d1351a1	0.03596652
189	0x3e1cd7a9	0.15316643
190	0xbedaedb2	-0.42759472
191	0xbd3dc845	-0.04633357
192	0xbf031411	-0.51202494
193	0xbf3d9cbc	-0.7406728
194	0x3d9032aa	0.070409134
195	0x3de3822b	0.11108812
196	0x3e9830ec	0.29724824
197	0x3e91d699	0.28484038
198	0x3e2783ef	0.16358922
199	0xbe04a79f	-0.12954567
200	0xbd54c466	-0.051945113
201	0xbe0e78c5	-0.13913257
202	0x3cb78156	0.02240054
203	0xbed608f8	-0.41803718
204	0x3d952089	0.07281596
205	0xbe7cea01	-0.2469864
206	0x3e556464	0.20839077
207	0x3e4e5409	0.20149244
208	0xbd821bf5	-0.06352989
209	0xbd9677e3	-0.07347085
210	0xbdf98cf4	-0.12185088
211	0xbe20bc7a	-0.15696898
212	0xbe84e830	-0.25958395
213	0x3e482721	0.19546176
214	0x3b661bd3	0.00351118
215	0x3e8ad465	0.2711517
216	0xbef6acbc	-0.4817866
217	0xbe90c5c9	-0.28275898
218	0x3ccd4a76	0.02505992
219	0x3c6c9011	0.014438645
220	0x3e99608d	0.29956475
221	0xbedc5982	-0.4303704
222	0xbe574670	-0.21022964
223	0xbe5f8a57	-0.21830116
224	0x3f0bd6b5	0.5462449
225	0x3e2f089d	0.1709313
226	0xbe0a342a	-0.13496462
227	0xbdc37ee6	-0.09545688
228	0xbe317cc8	-0.17332757
229	0xbe06b84b	-0.1315624
230	0x3dcd2de9	0.10018522
231	0xb9a5fea1	-0.00031660966
232	0x3cd00c99	0.025396632
233	0x3dd4191b	0.10356351
234	0x3e9a4926	0.30133933
235	0x3d091381	0.033465866
236	0x3dc81804	0.097702056
237	0xbc1c64df	-0.009545534
238	0x3d5ff210	0.05467421
239	0x3e391c3e	0.1807718
240	0xbd79d43f	-0.06099343
241	0xbe07db57	-0.13267265
242	0x3f09b385	0.5378955
243	0xbb8a9594	-0.004229257
244	0x3d08ddf1	0.033414785
245	0x3cbdd695	0.02317361
246	0x3e85f53d	0.26163664
247	0xbe23d61e	-0.15999648
248	0x3e82be6e	0.2553591
249	0x3ca11a82	0.01966596
250	0x3dd60dd4	0.10451856
251	0x3c998e7f	0.018744705
252	0x3e6fb835	0.23410113
253	0xbc6db3a1	-0.014508159
254	0xbdcc37ba	-0.099715665
255	0x3e5621c3	0.20911317

network_body._body_endoder.seq_layers.0.bias f4 [256]
0	0x3d8d30cb	0.06894072
1	0x3b9e0795	0.004822681
2	0xbd03a1fb	-0.0321369
3	0x3e2b410e	0.16724035
4	0xbda33107	-0.079683356
5	0x3e725a6a	0.23667303
6	0x3dcf244a	0.101143435
7	0xbc805ca1	-0.015669169
8	0x3d8d016a	0.06885035
9	0xbd3a2131	-0.04544181
10	0xbd381113	-0.04493816
11	0x3e4368d0	0.19082952
12	0xbcc94d02	-0.024572853
13	0x3e1aa470	0.1510179
14	0xbc4ef189	-0.012630829
15	0xbe577007	-0.21038829
16	0x3dcbd223	0.0995219
17	0xbd0fb9af	-0.03508919
18	0xbdda970b	-0.106733404
19	0xbcf9e110	-0.030502826
20	0xbda694e5	-0.08133868
21	0x3dc9009b	0.098145686
22	0xbdae7716	-0.085188076
23	0xbe1ef614	-0.15523559
24	0xbd2aea62	-0.04172743
25	0x3dfc5db6	0.123225614
26	0xbc88c6fc	-0.016696446
27	0x3e32d8cd	0.17465515
28	0x3db90452	0.09034027
29	0xbd3285cf	-0.04358464
30	0x3e19c9b9	0.15018357
31	0x3e4adf22	0.19811681
32	0xbc5744e0	-0.01313898
33	0xbe1010d8	-0.14068925
34	0x3debc26b	0.11511692
35	0x3c7fb2c3	0.015606585
36	0xbd2d0311	-0.042239252
37	0x3cf26ce5	0.02959294
38	0xbb7c6c9d	-0.0038516887
39	0xbb8325bd	-0.0040023015
40	0x3dd30930	0.10304487
41	0x3d0d349e	0.034474008
42	0xbe70d6f2	-0.23519495
43	0x3c6c3640	0.014417231
44	0xbbb6b12e	-0.0055753207
45	0x3dedf307	0.116186194
46	0xbd6882ee	-0.05676549
47	0xbdacdddf	-0.08440756
48	0xbaf9d63f	-0.0019061043
49	0x3c3a4332	0.01136856
50	0x3c285d99	0.010276222
51	0xbd3909ca	-0.04517535
52	0xbdec9833	-0.11552467
53	0x3de03ca6	0.10949068
54	0x3e2e029d	0.16993184
55	0x3c3a09e4	0.011354897
56	0x3dfcbd7e	0.1234083
57	0x3c3d9e6b	0.011573414
58	0xbd288f39	-0.041152213
59	0x3e2d2660	0.1690917
60	0xbd82ff3a	-0.06396337
61	0x3e4c5998	0.19956052
62	0x3d705416	0.05867394
63	0x3e29c3eb	0.16578643
64	0xbe1535e5	-0.1457134
65	0xbc448e1b	-0.011996771
66	0xbdd31816	-0.103073284
67	0xbe0cfa02	-0.13767245
68	0x3dd3f897	0.10350149
69	0xbc893051	-0.016746672
70	0x3d83ba31	0.064319976
71	0xbda238e3	-0.079210065
72	0xbdd9a829	-0.10627777
73	0xbc94c6fc	-0.01816129
74	0xbe34d3a5	-0.17658861
75	0x3d9bfd21	0.0761664
76	0xbd0d25d6	-0.03445991
77	0x3c035c1f	0.008017569
78	0xbd2da224	-0.042390957
79	0xbc22907c	-0.009922143
80	0x3e37ab78	0.17936504
81	0xbbea8925	-0.007157462
82	0x3d92dbe4	0.07170847
83	0xbd9ebb24	-0.07750538
84	0xbdf9f1de	-0.12204336
85	0x3d83bfc5	0.064330615
86	0x3dcfec1f	0.101524584
87	0xbce70652	-0.028201256
88	0x3defca37	0.11708491
89	0x3d23b0ea	0.03996364
90	0xbd5785c6	-0.05261781
91	0xbca4bf77	-0.020110829
92	0xbdfb6ea9	-0.12276966
93	0x3e3df61d	0.18550916
94	0xbdf8b7a6	-0.12144403
95	0xbb480da3	-0.0030525706
96	0x3c8a2054	0.016861118
97	0x3da90df4	0.082546145
98	0x3dff46b4	0.124646574
99	0x3dd88681	0.105725296
100	0x3d606e44	0.054792657
101	0x3e442e87	0.19158374
102	0xbe000ea8	-0.12505591
103	0x3ddcbed0	0.10778582
104	0x3d0d4acd	0.034495164
105	0xbe10301d	-0.14080854
106	0x3ce0dfd7	0.027450485
107	0x3d96859c	0.07349703
108	0x3da7ab28	0.08186942
109	0x3dc5a2a0	0.09650159
110	0x3e0940ec	0.13403672
111	0xbcd6e7dd	-0.026233608
112	0x3e258f0e	0.16167852
113	0xbc73b824	-0.0148754455
114	0x3d22488f	0.03961998
115	0x3e66c801	0.22537233
116	0x3de10bfb	0.10988613
117	0x3d11863e	0.035528414
118	0xbda6eaef	-0.08150279
119	0x3d83bd68	0.06432611
120	0x3c329c54	0.010901529
121	0xbd18c7e0	-0.03729999
122	0x3dcdba14	0.10045257
123	0x3e1b19ea	0.15146604
124	0x3d25c85b	0.040474277
125	0x3c30d56e	0.010793073
126	0x3e039aef	0.12852071
127	0xbc97b020	-0.0185166
128	0x3d94a9c8	0.07258946
129	0x3e108dde	0.14116618
130	0xbd49979a	-0.049216844
131	0x3d45e7b0	0.048316658
132	0x3d9e32cf	0.07724535
133	0x3d80e012	0.06292738
134	0xbce79469	-0.02826901
135	0xbd67d32d	-0.056597877
136	0xbe836c52	-0.2566858
137	0xbd67bbb3	-0.05657549
138	0xbdab60ef	-0.08368098
139	0x3c9f039e	0.019410904
140	0x3c99c2a9	0.018769579
141	0x3d7586f0	0.05994314
142	0xbe3a1f63	-0.18176036
143	0x3de6d56c	0.11271176
144	0xbe08de0f	-0.13365959
145	0x3d2c5360	0.0420717
146	0xbd23c44b	-0.03998212
147	0xbce2e28d	-0.027695918
148	0xbcccbdb6	-0.024992805
149	0x3e324f04	0.17412955
150	0xbc9be386	-0.01902939
151	0xbd2bbe42	-0.04192949
152	0x3d005847	0.031334188
153	0xbda0a423	-0.078438066
154	0x3dbcd4e1	0.09220291
155	0x3c721588	0.014775641
156	0xbbde15ae	-0.0067774868
157	0x3dd96835	0.10615579
158	0xbba5bd33	-0.0050579547
159	0x3cf40d9d	0.029791648
160	0xbcdb5147	-0.026772154
161	0xbce526fd	-0.027972693
162	0xbd5bbf69	-0.05364934
163	0xbd0d7cc4	-0.034542814
164	0x3cff1cc6	0.03114165
165	0x3be4ab6b	0.0069784424
166	0x3cf08b9a	0.029363442
167	0xbc0655bf	-0.008199154
168	0x3d91afb9	0.071135946
169	0xbd4e0449	-0.050297055
170	0x3c81a6cb	0.015826603
171	0xbdabe92c	-0.083940834
172	0xbe28d3fc	-0.16487116
173	0x3d27efff	0.041000362
174	0x3dbb3059	0.09140081
175	0x3d46c71b	0.048529726
176	0x3c5dfc94	0.013548989
177	0xbc240ff3	-0.010013568
178	0x3e113d23	0.14183478
179	0x3cfbb5cb	0.030726334
180	0x3c202297	0.009773872
181	0xbdfb2c10	-0.12264264
182	0x3e34f66a	0.17672125
183	0xbd27f831	-0.04100818
184	0xbddc015f	-0.10742449
185	0xbe7a1ed4	-0.24425822
186	0x3c0a7815	0.008451481
187	0x3d8f6556	0.0700175
188	0xbd0aa21d	-0.03384601
189	0xbcd8aba3	-0.02644903
190	0x3d7f17ac	0.062278435
191	0xbe085839	-0.13314904
192	0x3e0aa494	0.13539344
193	0xbd32682e	-0.043556385
194	0x3d038893	0.03211267
195	0x3c1c9a9f	0.009558349
196	0xbc303236	-0.010754159
197	0xbcb315ee	-0.021861043
198	0xbcdb0564	-0.026735969
199	0xbd680b8a	-0.05665163
200	0x3df9af9b	0.12191697
201	0x3d82b983	0.0638304
202	0x3cf07317	0.029351754
203	0x3c65d872	0.014028655
204	0x3cd5bca7	0.026090933
205	0xbe44b84e	-0.19210932
206	0x3d6d9671	0.0580048
207	0xbdb12883	-0.08650305
208	0x3de145d8	0.1099965
209	0x3df091d0	0.117465615
210	0x3dec9188	0.115511954
211	0xbdc84704	-0.0977917
212	0xbc41a8de	-0.011820046
213	0x3d6ce108	0.057831794
214	0x3e27b459	0.16377391
215	0xbda615f6	-0.081096575
216	0x3e0abed3	0.13549356
217	0x3d8bb09a	0.068207934
218	0x3d86ab5e	0.065756544
219	0x3d60af46	0.054854654
220	0xbbaa06e0	-0.005188808
221	0xbd5daf41	-0.054122213
222	0x3e180c3a	0.14848414
223	0xbd523cf1	-0.05132765
224	0x3d092f1f	0.033492204
225	0x3ca6f54b	0.020380637
226	0x3d9405d2	0.07227673
227	0x3d2459eb	0.040124815
228	0x3cba6d25	0.022757122
229	0xbcc262f9	-0.023728834
230	0x3e7517d3	0.2393487
231	0xbd6c5ae3	-0.057703864
232	0x3dbacaa5	0.091206826
233	0xbc3b391e	-0.011427192
234	0x3df376be	0.11887883
235	0xbd936748	-0.07197434
236	0x3dddfcf2	0.10839261
237	0xbdee24bc	-0.116281
238	0x3d212944	0.039345995
239	0x3b4c3d3d	0.003116443
240	0x3ccbf73a	0.02489816
241	0xbd7a3ad0	-0.061091244
242	0x3c451539	0.012028986
243	0x3d71c75b	0.05902801
244	0x3cfd687a	0.030933607
245	0x3cccaed8	0.024985716
246	0xbd58ef60	-0.05296266
247	0x3aa2eb6a	0.0012429778
248	0x3dca3385	0.09873108
249	0x3dfd886e	0.123795375
250	0xbc1ff880	-0.009763837
251	0x3b923141	0.004461438
252	0x3c800b71	0.015630456
253	0x3d788370	0.060672224
254	0xbd0bc6fe	-0.03412532
255	0xbd4d20dd	-0.05008017

network_body._body_endoder.seq_layers.2.weight f4 [256, 256]
0	0x3df4e482	0.11957647
1	0xbdd19f3b	-0.10235449
2	0xbd9ae6e8	-0.07563573
3	0x3d6c6dd1	0.057721917
4	0xbdee24b5	-0.11628095
5	0x3da27cac	0.079339355
6	0x3d3909c1	0.045175318
7	0x3ea2e0da	0.31812173
8	0x3e8873a5	0.2665073
9	0xbd5a0b8d	-0.053233672
10	0xbec11c01	-0.37716678
11	0x3c25a70b	0.010110627
12	0xbe4f7d08	-0.2026254
13	0xbe9bcbef	-0.30429026
14	0xbec5bae9	-0.38619164
15	0x3cf459e1	0.029828014
16	0x3ea9fd0a	0.33200866
17	0xbe470afd	-0.19437785
18	0xbda0df39	-0.07855076
19	0x3e607835	0.21920855
20	0xbe9abd33	-0.30222473
21	0xbd935bf0	-0.0719527
22	0xbd2be9f0	-0.041971147
23	0x3e2db6d4	0.16964275
24	0xbe9d12f3	-0.3067852
25	0x3e9807e8	0.29693532
26	0xbd5eaf8c	-0.054366633
27	0x3e4f5570	0.20247436
28	0xbe79bb29	-0.24387802
29	0xbdc21f69	-0.09478647
30	0xbe230c6d	-0.15922709
31	0x3cfc0ec1	0.030768754
32	0xbe92a157	-0.28638718
33	0x3dd6bf8b	0.10485753
34	0xbe2caa8d	-0.16861935
35	0xbe61760a	-0.22017685
36	0xbe853842	-0.26019484
37	0xbf290e51	-0.6603747
38	0x3db3bf3f	0.08776712
39	0xbda1b9cc	-0.07896766
40	0x3e947a61	0.28999618
41	0xbec9b71d	-0.39397517
42	0xbc5ab406	-0.013348585
43	0xbec80f7d	-0.39074317
44	0x3cc92714	0.024554767
45	0xbe969408	-0.29409814
46	0xbe9e9e24	-0.30980027
47	0xbdea16a5	-0.114301
48	0x3e22f163	0.15912394
49	0xbcfce458	-0.030870602
50	0xbdc12db4	-0.09432545
51	0xbdbb2c22	-0.09139277
52	0xbc8759fd	-0.016522402
53	0x3ca32c98	0.019918725
54	0xbdfbfd79	-0.123042054
55	0xbe35b1d5	-0.17743619
56	0x3e380043	0.1796885
57	0x3cc24d50	0.023718506
58	0xbe15a4ee	-0.14613697
59	0x3eab77ff	0.33489987
60	0x3e996e97	0.29967186
61	0x3d23ec1c	0.040020093
62	0xbe419e2e	-0.18907997
63	0x3ef05d40	0.46946144
64	0xbebf9580	-0.37418747
65	0xbeb4f23a	-0.35341054
66	0xbec2acf7	-0.38022587
67	0xbe007aac	-0.12546796
68	0xbd3bd951	-0.045861546
69	0xbba2cf51	-0.0049685617
70	0x3e79321d	0.24335523
71	0xbeeebdbc	-0.4662913
72	0xbdaccc87	-0.08437448
73	0xbe9d6692	-0.30742317
74	0xbd7386ba	-0.059454657
75	0xbe2a287c	-0.16617006
76	0x3e885212	0.26625115
77	0xbd7baa11	-0.061441485
78	0xbe49cfd1	-0.19708182
79	0xbe72dc20	-0.23716784
80	0xbe54ddfa	-0.20787802
81	0xbba4a939	-0.0050250557
82	0x3db72295	0.08942143
83	0xbe79c7b3	-0.24392585
84	0xbc1976db	-0.009366716
85	0xbe63d5c4	-0.22249514
86	0x3e3a7e90	0.18212342
87	0x3e8966c5	0.2683622
88	0xbe8c451a	-0.2739647
89	0xbda83604	-0.08213428
90	0x3de96a41	0.113972194
91	0xbecb410b	-0.3969806
92	0xbdf72cea	-0.120691136
93	0x3ed265bb	0.4109324
94	0xbdb43221	-0.08798624
95	0xbf15fd9b	-0.58590096
96	0xbd494803	-0.04914094
97	0x3dd90e38	0.10598415
98	0xbd8fe5bc	-0.0702624
99	0x3d8d062b	0.06885942
100	0x3e23205f	0.15930317
101	0xbd1434aa	-0.036183037
102	0x3e25617a	0.16150466
103	0xbe7c32f1	-0.24628808
104	0x3e1b7f81	0.15185358
105	0xbe11811f	-0.14209412
106	0x3df34817	0.118789844
107	0xbf049651	-0.51791865
108	0xbe8eb7b7	-0.27874538
109	0x3eadf114	0.3397299
110	0x3e7f7519	0.24947013
111	0xbcc724ec	-0.024309598
112	0x3e902d75	0.2815968
113	0xbeaec416	-0.34133977
114	0x3ea1586a	0.31512767
115	0x3e58dec6	0.21178731
116	0x3e27c759	0.16384639
117	0xbe3f97c8	-0.18710244
118	0xbebc6121	-0.36792853
119	0xbe4e2a2d	-0.20133276
120	0xba9a574e	-0.0011775286
121	0xbc0508c8	-0.008119769
122	0xbea2ea75	-0.31819502
123	0x3bc0c1be	0.005882471
124	0x3c842f85	0.01613594
125	0xbf79f9ea	-0.97646964
126	0xbddee551	-0.108835824
127	0xbe9c4e02	-0.30528265
128	0x3e6c83af	0.23097108
129	0x3e46e84a	0.19424549
130	0xbe9fa25b	-0.31178555
131	0xbdcfb339	-0.10141606
132	0x3e4bf485	0.19917496
133	0x3eb01611	0.34391835
134	0xbcae226a	-0.021256644
135	0xbdb49f68	-0.08819467
136	0xbd98b823	-0.07456996
137	0xbee7bef8	-0.45262885
138	0x3daa3845	0.08311514
139	0xbe17e084	-0.1483174
140	0xbda3c659	-0.07996816
141	0xbcc83b33	-0.02444229
142	0x3b164c84	0.002293379
143	0x3f4c58d0	0.7982302
144	0x3d5dc4d1	0.054142777
145	0xbea7f195	-0.328015
146	0xbe3832f0	-0.17988181
147	0xbed5f338	-0.41787124
148	0xbe3efe8e	-0.18651792
149	0xbe3b0e6f	-0.18267225
150	0x3e82b7c4	0.25530827
151	0x3e38062f	0.17971109
152	0x3d94c83a	0.07264753
153	0xbeab8206	-0.33497638
154	0x3ef02760	0.4690504
155	0x3cbdbd5d	0.023161585
156	0xbd1b5f2d	-0.037932564
157	0x3e6d7bdf	0.23191784
158	0x3e1f493e	0.15555283
159	0x3e4b9bef	0.19883703
160	0x3d801282	0.0625353
161	0xbe690c8c	-0.22758693
162	0x3de83515	0.113382496
163	0x3eaf7d23	0.3427516
164	0x3cfb5c3f	0.030683635
165	0xbdacc1ca	-0.084354
166	0xbdd4b167	-0.10385399
167	0xbe7093a7	-0.23493825
168	0x3ca83a7a	0.020535696
169	0xbe9747b7	-0.29546902
170	0xbeb346dd	-0.35015002
171	0x3e65ccf9	0.22441472
172	0xbe9ac676	-0.3022954
173	0x3da8b30b	0.08237275
174	0x3e53c6a3	0.20681243
175	0xbdb1f51b	-0.08689328
176	0xbe4e66d3	-0.20156412
177	0xbdfd9349	-0.12381608
178	0xbe4c48c9	-0.1994964
179	0x3ea4c3f6	0.32180756
180	0xbf147e55	-0.5800527
181	0x3e167261	0.1469207
182	0xbea3c331	-0.31984857
183	0x3e948078	0.29004264
184	0xbdfd0a14	-0.12355438
185	0xbd29cf9e	-0.041457765
186	0xbe57944b	-0.21052663
187	0xbda5ebe5	-0.08101634
188	0x3e672ced	0.22575732
189	0xbd700c35	-0.05860539
190	0x3f178823	0.59192103
191	0x3e35c8ab	0.1775233
192	0x3c61a0af	0.01377122
193	0x3e64ff58	0.22363031
194	0x3e0167e6	0.1263729
195	0x3e848e7e	0.25889963
196	0x3e1d40db	0.15356772
197	0xbe8efdb8	-0.27927947
198	0xbe108578	-0.14113414
199	0xbed5dca4	-0.41769898
200	0x3e3b5f73	0.1829813
201	0x3e131641	0.14363958
202	0xbd8f703c	-0.07003829
203	0xbe48578b	-0.19564645
204	0xbeecc97e	-0.46247476
205	0xbed253ad	-0.41079465
206	0xbe8e1ea7	-0.2775776
207	0x3c3e5b32	0.011618422
208	0x3dfbd1a7	0.122958474
209	0x3d2c94d1	0.04213411
210	0xbdf13eab	-0.11779531
211	0xbef00b74	-0.46883738
212	0xbce8c199	-0.028412627
213	0x3ed5bbb6	0.41744775
214	0xbe4549c7	-0.19266425
215	0x3da542fd	0.080694176
216	0x3e80104d	0.25012437
217	0xbdc5bab4	-0.096547514
218	0x3dace1ba	0.084414914
219	0xbeed9ddf	-0.4640951
220	0x3e36be86	0.17846116
221	0x3eb5f48b	0.35538134
222	0x3f1e1e85	0.6176532
223	0x3cb5d3e6	0.022195768
224	0xbe64b78b	-0.22335641
225	0x3df55381	0.11978818
226	0xbe6b7ee0	-0.22997618
227	0xbd97001f	-0.0737307
228	0x3e78a3ce	0.24281237
229	0xbdbbb6fd	-0.091657616
230	0x3eed0347	0.46291563
231	0xbe945494	-0.28970778
232	0xbe2b86ea	-0.16750684
233	0xbdec66ea	-0.11543067
234	0xbe54de0a	-0.20787826
235	0x3e03caf6	0.12870392
236	0x3ee08694	0.43852675
237	0x3e38cd39	0.18047036
238	0x3e883bf3	0.26608238
239	0xbe096d3f	-0.1342058
240	0x3e262ad6	0.16227278
241	0xbe4fc096	-0.2028831
242	0xbea917a3	-0.33025846
243	0x3df18fd9	0.11795015
244	0xbf0310d3	-0.51197547
245	0xbecb258e	-0.3967709
246	0x3e5ab907	0.21359645
247	0xbe84464e	-0.25834888
248	0xbeb4db73	-0.35323676
249	0xbdbbdcde	-0.091729864
250	0xbe581893	-0.21103124
251	0x3c218fc4	0.009860937
252	0x3e0fc243	0.14038949
253	0x3e5b6b9d	0.2142777
254	0xbdf4229e	-0.11920665
255	0xbe202c88	-0.15641987

network_body._body_endoder.seq_layers.2.bias f4 [256]
0	0xbc07cb29	-0.008288183
1	0xbd93483f	-0.07191514
2	0xbe3b9ed7	-0.18322311
3	0xbde7d882	-0.113205925
4	0xbde9b5ce	-0.114116296
5	0x3c716828	0.014734305
6	0x3c9f7f3d	0.019469852
7	0x3deb5d31	0.11492384
8	0x3d88e64f	0.06684553
9	0xbdf31b29	-0.11870415
10	0xbd93d1a5	-0.07217721
11	0xbdb60d7d	-0.088892914
12	0x3df9fc56	0.122063324
13	0x3dc6eccb	0.097131334
14	0xbd8bbb67	-0.068228535
15	0xbe434b1f	-0.19071625
16	0x3d0a2944	0.03373076
17	0xbe2586dc	-0.16164726
18	0xbdd4e618	-0.103954494
19	0xbd3f0dd2	-0.04664404
20	0xbcae40c2	-0.021271113
21	0xbca56964	-0.020191856
22	0xbd45d6eb	-0.048300665
23	0xbdc94f20	-0.09829545
24	0xbdbe66a3	-0.0929692
25	0xbe124cce	-0.14287111
26	0xbe186bf6	-0.14884934
27	0x3dfeb28a	0.124363974
28	0xbe8c5ae3	-0.2741309
29	0x3de5a765	0.112135686
30	0x3d76cd49	0.06025437
31	0x3dada73c	0.08479163
32	0xbd8c73b5	-0.06858007
33	0x3eb072aa	0.34462482
34	0xbcfb105c	-0.03064745
35	0xbd849ea7	-0.06475573
36	0xbd132f5e	-0.035933845
37	0x3d88d40f	0.06681072
38	0x3d22b4a1	0.039723042
39	0x3d51222d	0.051057983
40	0x3ce965bc	0.028490894
41	0xbb18eea1	-0.0023335593
42	0x3ddf9d7d	0.109187104
43	0x3cea2afd	0.028584952
44	0xbdd66635	-0.10468713
45	0x3c10a4f9	0.008828395
46	0xbe6af914	-0.22946578
47	0xbc6e0ae7	-0.0145289665
48	0xbdca4c7b	-0.09877869
49	0xbde94180	-0.11389446
50	0xbda4ff87	-0.080565505
51	0x3a1b50a1	0.00059247954
52	0xbe114218	-0.14185369
53	0xbc09caab	-0.008410136
54	0xbe1dfeab	-0.1542918
55	0x3d593ff7	0.053039517
56	0xbdd62ead	-0.104581214
57	0x3e1e3400	0.15449524
58	0x3d9a300f	0.07528698
59	0x3d8fd39b	0.070227824
60	0x3d52561f	0.051351663
61	0x3eacfb5a	0.33785516
62	0xbd2ed342	-0.04268194
63	0xbd86769d	-0.065655924
64	0x3d874623	0.066051744
65	0xbb843a69	-0.0040352833
66	0xbdb1658d	-0.086619474
67	0x3e85a5fc	0.261032
68	0x3d16c589	0.036809478
69	0xbdcc78ee	-0.09984003
70	0x3e1b5ce6	0.15172157
71	0xbdcead30	-0.10091627
72	0x3dd61f53	0.10455193
73	0xbdb13343	-0.086523555
74	0xbde7a78c	-0.11311254
75	0xbd39484b	-0.04523496
76	0xbcf768ff	-0.030201433
77	0xbdbfa99a	-0.09358521
78	0xbc4d63e0	-0.012536019
79	0xbd7f0909	-0.062264476
80	0x3a0c2f3e	0.0005347616
81	0xbc5be7f2	-0.013421999
82	0x3d10e6ec	0.035376474
83	0xbe186e71	-0.1488588
84	0x3dbca893	0.092118405
85	0x3d3bcf2a	0.045851864
86	0xbdd09d34	-0.10186234
87	0x3d5a0a20	0.053232312
88	0x3bfefacd	0.0077813626
89	0xbe89a4ea	-0.26883632
90	0xbe392a9a	-0.18082657
91	0x3d9b8d15	0.07595269
92	0x3db901db	0.09033557
93	0xbcb91901	-0.02259493
94	0xbdf67e88	-0.12035853
95	0xbe8c1c9a	-0.2736557
96	0x3d928a1e	0.0715525
97	0xbd8e8b83	-0.069602035
98	0x3d5fd49a	0.054646112
99	0x3d192f65	0.037398715
100	0xbc431933	-0.011907863
101	0xbd24aeda	-0.040205814
102	0xbe3ce7cc	-0.18447798
103	0xbe5648bb	-0.20926182
104	0xbda383a3	-0.07984092
105	0x3daeaca2	0.08529021
106	0x3df06008	0.117370665
107	0xbd353325	-0.04423823
108	0x3d88206d	0.0664681
109	0xbcfd6162	-0.030930225
110	0x3d32a884	0.04361774
111	0xbd7e5a0a	-0.062097587
112	0xbe96d414	-0.29458678
113	0x3c0e9a27	0.008703745
114	0x3d81a7d5	0.063308395
115	0x3dc19414	0.09452072
116	0x3e6bf568	0.23042834
117	0x3dfd71cf	0.12375223
118	0xbcd6e917	-0.026234193
119	0xbc4beb75	-0.012446274
120	0x3e181563	0.14851908
121	0x3d9c7301	0.07639123
122	0xbd0ae59a	-0.03391037
123	0x3e277637	0.16353689
124	0x3dbb3e8c	0.09142789
125	0xbd932846	-0.07185416
126	0x3dcffa75	0.10155193
127	0xbd1b0fcf	-0.037856873
128	0xbd8ed4a4	-0.06974152
129	0x3b9333e1	0.0044922684
130	0x3d8348fe	0.064104065
131	0xbd9c6b84	-0.076376945
132	0x3e069062	0.13141015
133	0xbda3ba74	-0.079945475
134	0xbdab8e77	-0.083767824
135	0xbd83b141	-0.06430293
136	0x3c17fa9b	0.009276058
137	0x3c60854f	0.013703658
138	0xbe2b2343	-0.1671267
139	0xbe057498	-0.13032758
140	0xbe0f5409	-0.139969
141	0xbdbfc5f9	-0.09363932
142	0xbde1357c	-0.109965295
143	0xbd0bc3d3	-0.0341223
144	0x3bfe6b32	0.0077642435
145	0xbdfbbf99	-0.12292404
146	0x3c9d78a4	0.019222565
147	0xbe146f42	-0.14495566
148	0xbe4b21d6	-0.19837126
149	0x3da0ce69	0.078518696
150	0x3dbe9588	0.093058646
151	0xbdb20557	-0.08692425
152	0x3d84b92e	0.06480633
153	0xbcaa0332	-0.020753477
154	0xbde8a591	-0.11359704
155	0xbd9fd2dc	-0.0780389
156	0x3e1ebc4d	0.15501519
157	0x3e83fb96	0.25777882
158	0xbe8f4186	-0.27979678
159	0xbdb29103	-0.08719065
160	0x3b11d948	0.0022254754
161	0x3e0c4e9e	0.13701865
162	0x3d209f9c	0.039214715
163	0xbcf10f27	-0.02942617
164	0x3d294776	0.041327916
165	0x3d0a67ac	0.033790275
166	0xbdc864c0	-0.097848415
167	0xbcec443f	-0.028841136
168	0xbd05020c	-0.032472655
169	0x3e01a8eb	0.12662093
170	0x3e5f67d3	0.2181695
171	0xbdbd9c56	-0.09258334
172	0xbe397bf6	-0.18113694
173	0xbdddb0e0	-0.10824752
174	0xbc4ff9e6	-0.012693858
175	0x3e09b857	0.13449226
176	0x3d88d164	0.06680563
177	0xbd46f585	-0.04857399
178	0x3cf88ae9	0.030339675
179	0xbd1f5120	-0.038895726
180	0xbca44d5a	-0.020056415
181	0xbdfc1727	-0.123091035
182	0xbcc675c8	-0.024226084
183	0xbd7ce42d	-0.061741043
184	0xbb9e8f3e	-0.004838853
185	0x3d08dbb1	0.03341264
186	0xbdbcf001	-0.092254646
187	0xbd4fb9b7	-0.05071422
188	0xbd24001b	-0.040039163
189	0xbe00121c	-0.12506908
190	0xbd209bba	-0.039211012
191	0xbdf3081a	-0.118667796
192	0x3d28b769	0.04119054
193	0x3d710d29	0.05885044
194	0x3c110ea9	0.008853593
195	0x3e5b7779	0.21432294
196	0xbd99df34	-0.07513276
197	0x3d84a498	0.06476706
198	0x3e101394	0.14069968
199	0x3d703f72	0.058654256
200	0xbe0eee5a	-0.13958111
201	0x3c9220c8	0.017837897
202	0xbe066d78	-0.13127697
203	0xbe28a5c2	-0.16469482
204	0xbe2a29c7	-0.166175
205	0x3d71789a	0.058952905
206	0xbccf8c2d	-0.025335396
207	0x3ca8b45c	0.020593815
208	0xbd6cb7dd	-0.057792533
209	0xbd9f2437	-0.07770579
210	0x3d17b76f	0.03704017
211	0xbdb43e59	-0.08800954
212	0x3cc8952a	0.02448519
213	0xbe07351f	-0.13203858
214	0xbcf17040	-0.02947247
215	0xbdd51a64	-0.10405424
216	0xbc86f098	-0.016472146
217	0x3cb7d224	0.02243907
218	0xbe4668d5	-0.19375928
219	0x3cf8b764	0.030360885
220	0x3e42f4fa	0.19038764
221	0x3d8a4ad8	0.067525566
222	0xbd55e601	-0.052221302
223	0xbd519835	-0.051170547
224	0x3cf20cf2	0.029547188
225	0xbd02df7f	-0.031951424
226	0xbe0d31ed	-0.13788576
227	0xbe0407d6	-0.12893614
228	0x3d536949	0.05161408
229	0xbd172478	-0.036900014
230	0x3e4f8e21	0.20269062
231	0xbd244169	-0.040101442
232	0x3e44ae93	0.1920722
233	0xbc6b9e35	-0.014380981
234	0xbe665c01	-0.22496034
235	0x3d85f8b9	0.06541581
236	0x3d3d6774	0.04624124
237	0x3e660314	0.22462112
238	0x3ce0737c	0.027398817
239	0xbbc9d0d9	-0.00615893
240	0xbe08feec	-0.13378495
241	0xbdce9835	-0.10087625
242	0x3e3e1fad	0.18566771
243	0xbd5c49b0	-0.05378121
244	0xbe3bf724	-0.18355995
245	0xbd5cc34a	-0.05389718
246	0xbd487ed5	-0.04894908
247	0x3d6357a9	0.05550352
248	0xbe22c767	-0.15896378
249	0xbe119356	-0.1421636
250	0x3df87324	0.12131336
251	0x3b9108ba	0.004426089
252	0xbd8ee926	-0.06978063
253	0xbe4a9acf	-0.19785617
254	0xbde45a44	-0.11150029
255	0xbda36950	-0.07979071

action_model._discrete_distribution.branches.0.weight f4 [7, 256]
0	0xbd7679e1	-0.060174827
1	0x3e4eaca7	0.20183049
2	0xbdbc0e63	-0.091824315
3	0xbc46afcb	-0.012126873
4	0x3e5e47c5	0.21707065
5	0xbe548300	-0.20753098
6	0xbc84bb94	-0.016202725
7	0xbc9d254b	-0.019182822
8	0xbc0e1861	-0.008672805
9	0x3dbfc4c8	0.09363705
10	0xbe2ede94	-0.17077094
11	0xbe555d73	-0.2083643
12	0xbe7ba42d	-0.24574347
13	0xbdced4d9	-0.10099191
14	0x3bf01b11	0.0073274453
15	0x3d8a562a	0.06754716
16	0xbe154f78	-0.14581096
17	0xbde845e9	-0.11341459
18	0xbdb1de60	-0.08684993
19	0xbdbd0eac	-0.09231314
20	0xbe8b7a00	-0.27241516
21	0x3e26a1a8	0.16272604
22	0x3dfad43e	0.12247513
23	0xbdb71852	-0.089401856
24	0xbd45df4a	-0.04830865
25	0x3e272dc4	0.16326052
26	0x3ec025bc	0.3752879
27	0xbdf837fa	-0.12120052
28	0x3e9b7e18	0.3036964
29	0xbec8bedc	-0.39208114
30	0x3e318264	0.17334896
31	0x3e99bb73	0.30025825
32	0x3dcb323c	0.09921691
33	0xbf132009	-0.57470757
34	0xbd977b97	-0.0739662
35	0xbde2cf70	-0.11074722
36	0x3e53b6b1	0.2067516
37	0xbe3c33e2	-0.18379167
38	0x3e8c9250	0.27455378
39	0x3c705161	0.01466784
40	0x3e409f94	0.18810874
41	0x3e09ad49	0.1344501
42	0x3ec703c6	0.38870066
43	0x3d486e5b	0.04893337
44	0xbd58d12d	-0.05293386
45	0x3daed3dc	0.08536503
46	0x3c63d6df	0.01390621
47	0x3ea3ceea	0.319938
48	0xbe3f54a4	-0.18684632
49	0x3db5237e	0.0884466
50	0x3de87a31	0.11351431
51	0x3deff845	0.117172755
52	0xbd0b537e	-0.03401517
53	0x3e0430ea	0.12909284
54	0x3ece4bb7	0.4029214
55	0x3ce7638b	0.028245708
56	0x3e2a4798	0.16628873
57	0x3cc24b89	0.023717659
58	0x3e083842	0.1330271
59	0x3e77552c	0.24153584
60	0xbe986283	-0.29762658
61	0xbefc249f	-0.4924669
62	0x3e4a7fd9	0.19775333
63	0x3e240fbc	0.16021627
64	0xbde39126	-0.11111669
65	0x3e22f2e1	0.15912963
66	0x3d3abeab	0.04559199
67	0xbee154ac	-0.44009912
68	0x3e1a6200	0.15076447
69	0x3e875610	0.26432848
70	0xbeff2ef4	-0.4984051
71	0xbd295ac9	-0.041346345
72	0xbd54acb9	-0.051922534
73	0x3e0cb183	0.1373959
74	0x3c3bb06c	0.0114556365
75	0xbd902363	-0.070379995
76	0xbe5267c1	-0.20547391
77	0xbe066d47	-0.13127623
78	0xbe45d1d6	-0.19318327
79	0x3dfa116f	0.122103564
80	0xbe144c36	-0.14482197
81	0x3d08a25b	0.03335796
82	0x3ba32ae3	0.0049794777
83	0xbcfae7c6	-0.030628096
84	0x3cd50758	0.026004478
85	0x3ea356cb	0.31902155
86	0xbd7974f1	-0.06090254
87	0xbeb6c187	-0.35694525
88	0x3d5bfa99	0.053705785
89	0x3e405f0b	0.18786256
90	0x3b30079a	0.002686
91	0xbde10d9f	-0.10988926
92	0x3dff3110	0.1246053
93	0x3c7c70f9	0.015407794
94	0x3e7ca152	0.24670914
95	0x3e3b5062	0.18292382
96	0x3e651874	0.2237261
97	0x3e5d52d4	0.21613628
98	0xbe9eccd3	-0.31015643
99	0x3e89d8b2	0.26923138
100	0x3e3f0f92	0.18658283
101	0xbddd51a6	-0.10806589
102	0x3d9e041a	0.07715626
103	0x3e85eb9a	0.26156312
104	0x3e1c30f6	0.15253052
105	0x3dabad13	0.08382621
106	0xbd6d8c5a	-0.057995178
107	0x3ecbe4be	0.39822954
108	0xbe1f60e3	-0.15564303
109	0x3eb34f54	0.3502146
110	0x3d8e3a7f	0.06944751
111	0xbd2004a7	-0.039066937
112	0x3e561d0b	0.20909517
113	0x3d71c60c	0.059026763
114	0x3dc39574	0.0954999
115	0xbdf50937	-0.11964648
116	0xbec32b44	-0.38118947
117	0xbd4ef53d	-0.050526846
118	0xbdbbea69	-0.091755696
119	0x3e36168e	0.17782041
120	0xbecfb036	-0.40564126
121	0xbde3509f	-0.11099362
122	0xbde32eae	-0.11092888
123	0xbee14717	-0.4399955
124	0xbe042d0e	-0.12907812
125	0xbca8f0e2	-0.020622674
126	0xbe29a7f8	-0.16567981
127	0x3e43472b	0.19070117
128	0x3d7998c1	0.060936693
129	0xbe07d515	-0.13264878
130	0x3e255ab3	0.1614788
131	0x3e796ad5	0.2435716
132	0xbe37b453	-0.17939882
133	0xbdfd9056	-0.123810455
134	0xbc582a25	-0.013193642
135	0xbd9e25cd	-0.07722054
136	0xbd42608c	-0.047455356
137	0x3ead105e	0.3380155
138	0x3e4539e0	0.19260359
139	0x3dad363e	0.084576115
140	0xbd98525d	-0.074375845
141	0xbe4011e1	-0.1875682
142	0x3dad53a4	0.08463219
143	0x3e0415c4	0.12898928
144	0xbf139532	-0.5764953
145	0x3ca1d9b1	0.019757124
146	0xbe38731b	-0.18012659
147	0x3dd1caff	0.102437966
148	0x3d543b31	0.05181426
149	0x3c2fcdab	0.010730187
150	0xbdf6e418	-0.12055224
151	0x3d32f929	0.04369465
152	0xbc140343	-0.009033981
153	0xbe609b2b	-0.21934192
154	0xbca03c15	-0.0195599
155	0xbceaa34f	-0.028642325
156	0xbea06149	-0.31324223
157	0xbe8922a8	-0.26784253
158	0x3e93beef	0.28856608
159	0xbdb74a77	-0.0894975
160	0xbe50e0e3	-0.20398287
161	0xbd13bb3f	-0.036067244
162	0x3dc72f99	0.097258754
163	0x3f0acb1f	0.5421619
164	0xbd0f03ad	-0.034915615
165	0xbe73dadc	-0.23813957
166	0xbe151921	-0.14560367
167	0xbeaa1631	-0.33220056
168	0x3dd7d77c	0.10539147
169	0xbe7488d6	-0.23880324
170	0xbf13df8f	-0.57763
171	0x3d885272	0.0665635
172	0xbd4c1551	-0.049825016
173	0xbd4af32a	-0.049548306
174	0xbdb2f36e	-0.08737837
175	0xbe52f1c9	-0.20600046
176	0xbeaa354c	-0.33243787
177	0x3e343723	0.17599158
178	0xbcc7a7dd	-0.024372036
179	0xbbd030f3	-0.0063534915
180	0xbdfd9d0c	-0.1238347
181	0x3c26e69c	0.0101868175
182	0x3e1abda4	0.15111405
183	0xbd88611e	-0.06659149
184	0x3d85a2a4	0.06525162
185	0x3d3b8907	0.045784976
186	0x3ad8706a	0.0016512994
187	0xbca5d1b4	-0.020241596
188	0x3e8421b7	0.25806972
189	0x3db9a442	0.09064533
190	0x3cc5e07e	0.024154898
191	0xbdae5c48	-0.08513695
192	0xbd116a3f	-0.035501715
193	0x3d64c7e0	0.05585468
194	0x3e12f32f	0.1435058
195	0xbe8eb9f6	-0.27876252
196	0x3d1bcc22	0.038036473
197	0xbe19d9cc	-0.15024489
198	0xbe4de9a7	-0.20108663
199	0xbd994018	-0.07482928
200	0xbd822fc4	-0.06356767
201	0xbde5e140	-0.11224604
202	0x3e2d7af9	0.16941442
203	0x3e4880d2	0.19580391
204	0x3e7a68dc	0.24454063
205	0xbf0243de	-0.5088481
206	0xbe3d7f5e	-0.18505618
207	0xbd861fa3	-0.06549003
208	0xbe07702b	-0.13226382
209	0xbe2654e3	-0.16243319
210	0x3e5b5b6b	0.21421592
211	0xbe079457	-0.13240181
212	0x3e4ea6b8	0.20180786
213	0x3e043a82	0.12912944
214	0x3aefa108	0.0018282244
215	0x3dae0fc0	0.08499098
216	0xbdb204e5	-0.0869234
217	0xbde2a485	-0.11066536
218	0x3d870468	0.06592637
219	0x3cac14ec	0.02100607
220	0xbe27a7c7	-0.16372596
221	0xbe1352b9	-0.14387025
222	0x3e5a6306	0.21326837
223	0xbcd09697	-0.025462432
224	0x3df1cd77	0.118067674
225	0x3e4946b8	0.19655883
226	0xbdba3f51	-0.09094108
227	0x3e413da7	0.18871175
228	0x3deb7c14	0.114982754
229	0x3d22e474	0.03976865
230	0xbea04615	-0.31303468
231	0xbd8a6f00	-0.06759453
232	0xbecab5cf	-0.39591834
233	0xbd569245	-0.052385587
234	0x3d8b92a8	0.06815082
235	0xbe033b31	-0.12815548
236	0x3e707aad	0.23484297
237	0xbeaaedf0	-0.33384657
238	0xbded58d1	-0.11589206
239	0x3d38248b	0.044956725
240	0x3e5d4726	0.21609172
241	0xbd431834	-0.047630504
242	0xbea82e2d	-0.3284773
243	0x3e48071a	0.19533959
244	0x3cd6112f	0.02613124
245	0xbdc1e93c	-0.09468314
246	0x3e5e0e51	0.21685149
247	0xbd1b4ae2	-0.03791321
248	0x3dbf78ae	0.0934919
249	0x3d93f392	0.07224192
250	0xbeffc414	-0.49954283
251	0xbc969bb0	-0.018384784
252	0x3b3e3a12	0.0029026312
253	0xbbe59f84	-0.007007541
254	0xbeff645a	-0.4988125
255	0x3c050235	0.008118202

action_model._discrete_distribution.branches.0.bias f4 [7]
0	0xbed1c45e	-0.4097013
1	0x3cc7dda5	0.02439768
2	0xbe5f0fad	-0.21783324
3	0x3d2fe795	0.042945463
4	0x3d6bec27	0.05759826
5	0x3e027f47	0.12743865
6	0x3db70de4	0.08938196
