results/puzzle_experiment_5/PuzzleBehavior/PuzzleBehavior-29499972.onnx (onnx, 342923 bytes, 6 tensors)

network_body._body_endoder.seq_layers.0.weight f4 [256, 65]
000000 03 95 23 bf 14 92 1a bc 35 7f c5 be c0 fd 59 be
       -0.6389925 -0.009434242 -0.38573614 -0.21288204
000010 97 07 73 3a 2a b0 35 3e aa 85 2e 3e 14 61 4d be
       0.00092708453 0.17742983 0.17043176 -0.20056564
000020 f6 13 91 3e e0 ae 81 bf 08 5e 08 be c6 2a 3a bd
       0.2833554 -1.0131493 -0.1331712 -0.04545095
000030 62 0f a8 3e ad ce 0e 3e 8e 87 5e 3d 19 9f 23 3d
       0.32824236 0.13946028 0.054328494 0.03994665
000040 d3 94 6b be 78 49 2c 3d 19 42 44 3c 19 4b 4c 3e
       -0.2300599 0.042062253 0.0119786495 0.19950522
000050 a6 6e d8 bd 2f 06 15 3e fd 5e 07 3d bf e2 ae bd
       -0.105679795 0.1455314 0.033049572 -0.08539342
000060 15 4c 7d bb f2 3e 15 bd f1 98 1c be cc ed d0 be
       -0.0038650085 -0.036436982 -0.15292718 -0.40806425
000070 0c 7e 5f 3e db 3c 93 be 36 8a 26 be 56 7d 57 3e
       0.21825427 -0.28757367 -0.16263661 0.21043906
000080 4c 68 3f 3e 13 cf 9a 3d 4b 9d a5 bd 23 af 22 be
       0.1869213 0.075590275 -0.08086642 -0.15887122
000090 ba 96 28 be 91 91 39 3d 22 53 8b 3d 0b 4c a3 bd
       -0.16463748 0.04530484 0.06802966 -0.079734884
0000a0 88 61 18 3d 20 a5 ba 3d b6 19 5e 3e 09 dc 0a bf
       0.037202388 0.09113526 0.21689495 -0.54241997
0000b0 f7 e7 17 be da e8 49 be a6 e3 31 bd 5a e6 8e 3e
       -0.14834581 -0.19717732 -0.043429993 0.2791012
0000c0 a7 d9 dc 3d f6 d5 88 bd ac d1 d9 bd 29 a5 2a 3d
       0.107837014 -0.06681435 -0.10635695 0.041661415
0000d0 50 cc d7 bd 5b 84 ca bd 3d 7b 87 3e 77 12 35 bd
       -0.105370164 -0.09888526 0.2646121 -0.044207063
0000e0 a8 a7 29 3e 4e a7 5b be 27 ea e2 bd 4e 38 87 3d
       0.16567862 -0.2145054 -0.11079817 0.06602536
0000f0 c8 dd ad bd 9a 39 76 be a5 f0 79 bf c6 87 81 bc
       -0.08489567 -0.24045411 -0.9763282 -0.015811812
000100 60 7f 25 3e aa d3 6b bf 74 4d 19 3c 2d 76 53 be
       0.16161871 -0.9211985 0.009356845 -0.20650549
000110 52 13 b4 3d 8a a0 5d be 59 93 dc 3d 84 a0 1b 3e
       0.087927476 -0.21643272 0.10770292 0.1519795
000120 54 cc 3a 3d b5 ed a9 3e 90 38 f1 be 2d 23 fe 3a
       0.04560502 0.3318917 -0.47113466 0.0019389145
000130 93 e5 91 3e 17 f7 af be ae b2 1a 3e 33 68 41 be
       0.28495464 -0.34368202 0.15107223 -0.18887405
000140 61 77 a8 3d 80 05 84 3c 81 74 10 3e ff 3d b9 be
       0.08225895 0.016115904 0.14106943 -0.36180112
000150 38 5c 19 3e 50 b2 d6 3d 4a 40 1f be 2c 90 2e 3e
       0.14976585 0.10483229 -0.15551868 0.17047185
000160 c1 00 08 be 68 cf 96 3e f0 5b 9e be de 48 bb 3e
       -0.13281538 0.29455113 -0.30929518 0.3657903
000170 84 a6 27 3e 3d 62 a8 bd 51 69 59 be 18 2d d6 bc
       0.16372114 -0.082218625 -0.21231581 -0.02614455
000180 08 16 f0 3d 9b f8 22 3e aa ac 26 3e 09 72 07 be
       0.11722952 0.15915148 0.16276804 -0.13227095
000190 4f a5 92 bd 42 64 06 bf 12 c5 47 3e 43 8d 82 bd
       -0.07160436 -0.5249673 0.1950877 -0.063746
0001a0 cd cc cf be f9 ea 45 3d 25 80 26 be 00 7c 04 bc
       -0.40585938 0.04831979 -0.16259821 -0.0080862045
0001b0 5b 25 70 bf 1c f4 f0 3d a7 e4 b7 bd c4 bc 75 3d
       -0.93807 0.1176531 -0.08979159 0.059994474
0001c0 a5 aa cc 3d ff c2 79 3e 57 64 32 bb 25 7e 55 3e
       0.09993485 0.24390791 -0.0027220452 0.20848902
0001d0 f8 af 6a be 61 85 21 3b 50 08 9d bd 6a 4e d5 be
       -0.22918689 0.002464615 -0.07667601 -0.41661388
0001e0 dd 41 3c 3d 38 78 5a 3d c8 0c 27 bf 00 59 9b 3d
       0.04596125 0.053337306 -0.6525388 0.07585335
0001f0 69 b9 4e be 57 1c e2 bd 3c 4a cf 3a aa ac 91 bf
       -0.20187916 -0.11040562 0.001581497 -1.1380818
000200 5f ce d1 be 59 7a 44 3d c4 65 95 3e e7 f9 de 3d
       -0.4097776 0.047968242 0.29179204 0.10887509
000210 dc d4 92 3e f2 22 9c be 66 5c cc 3d 6e a2 ce bd
       0.28678024 -0.3049541 0.09978561 -0.10089575
000220 b1 a8 9d 3d fb f7 53 3e c2 85 c0 3c 64 1f 97 3a
       0.07698191 0.20700066 0.02350128 0.0011529741
000230 95 4e 84 bd 9d 85 04 be 99 fc ec 3e 8c f9 fd 3d
       -0.06460301 -0.12941594 0.46286467 0.12401113
000240 69 3d 1c 3e e4 6d e3 3d 28 95 f6 3d e5 f8 96 3e
       0.15257801 0.11104944 0.12040168 0.29486766
000250 f6 2f 24 bd b2 8b e2 bc 13 8b 21 3e e4 2b d4 3e
       -0.0400848 -0.027654503 0.15775709 0.41439736
000260 5d cf 13 be 53 43 b4 3e 68 88 26 be 32 ed 74 3c
       -0.14434572 0.35207614 -0.16262972 0.01494913
000270 d7 d0 1b 3d 15 8b 2c 3e f8 b8 ce be a4 be f3 bc
       0.038040962 0.1684993 -0.40375495 -0.02975399
000280 48 73 1e be 5f ca c8 bc f6 ca 4f bd 51 5c de 3d
       -0.15473664 -0.02451056 -0.050730668 0.10857452
000290 c5 c9 ae bc d4 49 4d 3e d3 b0 3c 3e 3e ac eb bd
       -0.021336446 0.20047694 0.18426828 -0.11507462
0002a0 22 18 2c 3e c6 2e ed 3c f7 02 cb 3d f8 ac 92 3d
       0.16806081 0.028952967 0.09912675 0.071618974
0002b0 69 4f 95 be c9 b8 35 be d0 5a 07 bd 97 0c 04 3e
       -0.29162148 -0.17746271 -0.03304559 0.12895428
0002c0 fa 34 84 3e b5 82 ac be fd f2 05 bf 43 de 23 3d
       0.25821668 -0.33693472 -0.52323896 0.040006887
0002d0 0f 3d b0 3d e1 0c 8a be 9c 8c 34 be da 9f 04 be
       0.08605396 -0.2696295 -0.17631763 -0.12951604
0002e0 75 54 97 3d 42 0b 47 3e 9b e7 1b be 7f 8a 12 be
       0.07389156 0.19437888 -0.15225069 -0.14310645
0002f0 a1 51 13 3d 36 d5 1c 3e b2 ed da be 0a 58 4e bd
       0.03596652 0.15315709 -0.42759472 -0.05037693
000300 9b 0b 02 bf 71 90 40 bf 08 29 bf 3d 9d 36 fd 3d
       -0.5079896 -0.752204 0.09333998 0.12363932
000310 df 6a 93 3e 45 09 9f 3e 81 3a 0f 3e 9f a7 04 be
       0.28792474 0.3106176 0.13987161 -0.12954567
000320 54 3b 56 bd c5 78 0e be 22 63 9e 3c 84 d2 d5 be
       -0.052302673 -0.13913257 0.01933438 -0.41762173
000330 98 5e ad 3d cb da 70 be 54 01 6f 3e 4f f2 2d 3e
       0.08465308 -0.23520963 0.2334035 0.16986965
000340 f5 1b 82 bd d0 a7 92 bd f4 8c f9 bd 8c 4a 2f be
       -0.06352989 -0.07160914 -0.12185088 -0.17118281
000350 3e dc 86 be 5e ba 4d 3e 46 fe f2 39 4f 38 8c 3e
       -0.26339906 0.20090625 0.00046347285 0.2738671
000360 b8 95 fe be c9 c5 90 be d9 b8 46 3c 11 90 6c 3c
       -0.497236 -0.28275898 0.012129032 0.014438645
000370 21 2c 9d 3e f6 ac da be f7 c1 48 be 50 22 5d be
       0.3069773 -0.42710084 -0.19605242 -0.2159512
000380 65 b9 09 3f 4f ef 18 3e 2a 34 0a be 30 5b aa bd
       0.53798515 0.14935039 -0.13496462 -0.08318174
000390 c8 7c 31 be cc d8 03 be a6 49 d1 3d e0 4d 0e bc
       -0.17332757 -0.1287567 0.102191254 -0.008685559
0003a0 79 f1 bd 3c ff 98 bd 3d b7 d8 9c 3e 81 13 09 3d
       0.023186432 0.09257697 0.3063409 0.033465866
0003b0 79 90 b0 3d df 64 1c bc 64 82 9c 3d 4a 51 3b 3e
       0.08621306 -0.009545534 0.076420575 0.18292728
0003c0 0d 5a a6 bd 2d df 03 be b2 55 09 3f b8 ed 61 bc
       -0.081226446 -0.12878104 0.53646386 -0.013789587
0003d0 f1 dd 08 3d ce a0 bd 3c 3d f5 85 3e 32 7a 30 be
       0.033414785 0.023147967 0.26163664 -0.17234114
0003e0 7c e5 81 3e 85 a9 81 3c 10 10 d4 3d 73 9f 50 3c
       0.25370395 0.015827904 0.10354626 0.012733328
0003f0 a1 c8 84 3e a1 b3 6d bc 4e 50 c7 bd c3 21 56 3e
       0.25934318 -0.014508159 -0.09732114 0.20911317

network_body._body_endoder.seq_layers.0.bias f4 [256]
000000 bf 23 9f 3d 08 08 38 3c 63 8a e2 bc 3b 8a 22 3e
       0.0777049 0.011232384 -0.027653879 0.15873043
000010 0e 43 88 bd 02 ff 76 3e 5d 9e c4 3d 69 f4 37 bc
       -0.06653415 0.24120715 0.09600518 -0.0112277055
000020 52 ff 82 3d 8c 88 33 bd e3 f1 1e bd 92 a1 39 3e
       0.06396355 -0.043831393 -0.0388049 0.1812804
000030 b0 03 e2 bc 15 bf 0e 3e e7 db 83 bc cf d8 47 be
       -0.027589649 0.1394008 -0.016096069 -0.195163
000040 3d 5c c4 3d 72 c3 03 bd 64 b3 d4 bd e8 1a 1d bd
       0.095879056 -0.032168813 -0.103857785 -0.038355738
000050 17 ca b1 bd 19 c0 c1 3d 4a 2f a8 bd 3e 07 23 be
       -0.08681124 0.09460468 -0.08212145 -0.15920731
000060 e9 48 50 bd 61 f2 ef 3d 2d cf a5 bc 1e 57 2a 3e
       -0.050850783 0.11716152 -0.02024039 0.16634795
000070 b3 4e c1 3d 77 2e 1a bd 8f f8 10 3e 1d 55 40 3e
       0.09438839 -0.03764197 0.14157318 0.18782468
000080 b3 ff 21 bc 3e 69 11 be 43 d1 d6 3d a1 de ea 3c
       -0.009887624 -0.14200303 0.10489132 0.02867061
000090 6b 3a 2a bd a9 83 b8 3c ae fc b5 3a 68 61 46 bb
       -0.041559618 0.022523718 0.0013884509 -0.003027046
0000a0 fa ee c1 3d 18 ba 25 3d 76 e8 6d be 09 4f ef 3b
       0.09469409 0.040460676 -0.23233208 0.007303123
0000b0 43 f2 95 bb 57 26 f2 3d 6a 26 3d bd f8 1e c4 bd
       -0.004575999 0.11823719 -0.046179213 -0.09576219
0000c0 89 6d a8 bc ed 5b a5 3b 13 e0 39 ba 24 e5 1f bd
       -0.020560043 0.005046359 -0.00070905796 -0.039036885
0000d0 7c 10 ee bd 14 58 c6 3d cf 16 27 3e 03 d7 28 3c
       -0.11624238 0.09684768 0.16317295 0.010305169
0000e0 7a 29 02 3e ab 26 a2 3a f0 67 12 bd a8 9d 23 3e
       0.12711135 0.0012371143 -0.035743654 0.1597811
0000f0 39 54 73 bd 24 ac 51 3e 59 e6 7d 3d 5c 60 1f 3e
       -0.059406493 0.20475823 0.061987255 0.15564102
000100 3d 5a 11 be ad fc 33 bc 93 2e d4 bd 12 b9 12 be
       -0.1419458 -0.010985536 -0.10360446 -0.14328411
000110 cb ab b5 3d 02 cc cf bc 6a c9 81 3d 28 ca 9e bd
       0.088706575 -0.025365833 0.06337245 -0.07753402
000120 f6 b3 fe bd 57 3e 31 bc e3 82 33 be 11 e9 8a 3d
       -0.124366686 -0.010818086 -0.17530398 0.06782735
000130 56 0d 1d bd e3 b8 86 3c 82 e7 13 bd f8 90 b9 3b
       -0.038342796 0.016445583 -0.036109455 0.0056630336
000140 51 f8 37 3e 22 74 a7 bc af 72 8f 3d b3 4e 83 bd
       0.17965819 -0.020441119 0.07004296 -0.06411495
000150 76 74 f3 bd c8 73 4b 3d ba 34 ad 3d 62 56 96 bc
       -0.118874475 0.049670964 0.084573224 -0.018351737
000160 7f 3c fc 3d fb 85 2c 3d 56 60 75 bd fe 17 59 bc
       0.12316226 0.04211996 -0.059906326 -0.013250349
000170 ce 75 02 be 62 63 3b 3e 5a 80 f4 bd a1 e9 eb ba
       -0.12740251 0.1829963 -0.119385436 -0.0017998704
000180 c1 5d cd 3c f3 88 a6 3d ae 6f ee 3d 24 14 cd 3d
       0.02506912 0.0813159 0.11642395 0.10013607
000190 0f 22 64 3d 0e 91 38 3e 84 ac f7 bd 40 f8 d4 3d
       0.055696543 0.18024084 -0.120934516 0.103989124
0001a0 ad b8 e1 3c d2 65 09 be fc 35 fa 3c b1 9e 8f 3d
       0.02755388 -0.13417748 0.03054332 0.0701269
0001b0 b5 6b b9 3d 85 2e cf 3d e9 ab 00 3e a7 a4 05 bd
       0.090537466 0.10116295 0.12565579 -0.032627728
0001c0 38 30 1a 3e 86 57 a9 bc 07 a5 30 3d 0d c8 59 3e
       0.15057456 -0.020671617 0.043126132 0.2126772
0001d0 c5 be d5 3d ef 06 17 3d 28 a8 a2 bd 2e 4d 97 3d
       0.10436777 0.036871847 -0.079422295 0.07387768
0001e0 63 30 e4 3c db 77 1e bd 27 14 d1 3d d1 d0 0d 3e
       0.027855104 -0.03868852 0.10208922 0.13849188
0001f0 22 e6 a7 3c 6c 4a 99 3c b3 b9 01 3e 7f 68 9d bc
       0.020495478 0.018712245 0.12668495 -0.019214867
000200 7b cb a0 3d 46 f0 0c 3e e6 82 01 bd e6 39 7c 3d
       0.07851311 0.13763532 -0.031618975 0.061578654
000210 92 94 ac 3d bb 68 78 3d d5 01 ba bc 15 d8 46 bd
       0.08426775 0.060646754 -0.022705952 -0.048545916
000220 38 5c 83 be 27 54 87 bd 5f 0b 90 bd a9 b0 21 3c
       -0.25656295 -0.06607848 -0.07033419 0.009868779
000230 84 0d a5 3c d5 3e 42 3d 8b 53 3e be 0e 9e e8 3d
       0.020148046 0.047423203 -0.18586557 0.113582715
000240 35 d0 0e be 55 ca 3c 3d 31 c5 2a bd d3 07 f2 bc
       -0.13946612 0.046091396 -0.041691963 -0.029544747
000250 22 b2 b1 bc bd 33 3d 3e f8 e6 c1 bc 1c d9 fa bc
       -0.021691386 0.18476768 -0.023669705 -0.030621104
000260 c8 c5 c1 3c ec c3 8e bd 23 0d b2 3d 89 08 8f 3c
       0.02365388 -0.06970963 0.08693912 0.017460125
000270 82 a2 54 bc 7c 45 c1 3d 12 40 4d 3c 06 93 10 3d
       -0.012978198 0.09437081 0.012527483 0.035296462
000280 01 be 14 bd a1 37 10 bd f0 09 37 bd d6 19 9e bc
       -0.036314014 -0.0352093 -0.04468721 -0.019299429
000290 9e 92 29 3d 98 8e 59 3c c5 24 fa 3c 68 99 94 bc
       0.04139959 0.013278626 0.030535111 -0.018139556
0002a0 6d 5d a5 3d b8 36 5e bd 7b 32 45 3c f0 76 9f bd
       0.0807446 -0.054251403 0.012035961 -0.077863574
0002b0 29 81 2a be 0d eb cf 3c d3 32 a1 3d 66 60 65 3d
       -0.16650833 0.025380636 0.07871022 0.056000136
0002c0 ad 71 06 3c 79 55 9a bc 1d a0 13 3e 89 20 0a 3d
       0.008205813 -0.018839585 0.14416547 0.033722434
0002d0 7f 76 2a 3c 5a 67 19 be e0 b5 22 3e 8c 0e 17 bd
       0.010404228 -0.14980832 0.15889692 -0.036879107
0002e0 ec a4 d8 bd cb cb 6d be 3d 27 67 3c f6 4b 95 3d
       -0.10578331 -0.23222272 0.014108476 0.07289879
0002f0 82 78 46 bd 68 69 b4 bc 79 2a 69 3d 64 24 19 be
       -0.04845477 -0.022022918 0.05692527 -0.14955288
000300 c6 39 01 3e 1c ff 16 bd 6b dc df 3c 84 6c 51 3b
       0.12619695 -0.036864385 0.027326783 0.003195555
000310 b2 97 42 bc 86 e9 e2 bc ed c5 11 bd 38 ad 4d bd
       -0.011876987 -0.027699243 -0.035589147 -0.050214022
000320 1c ea ed 3d 33 ac 81 3d dc 6b 18 3d 95 d2 97 3c
       0.116169184 0.063316725 0.037212238 0.01853303
000330 b6 27 bd 3c e3 ea 40 be bf 38 73 3d f2 60 b3 bd
       0.023090225 -0.18839602 0.05938029 -0.08758725
000340 fc 39 e0 3d 01 35 ee 3d e1 67 e8 3d fb ff cf bd
       0.1094856 0.116312034 0.11347938 -0.10156246
000350 c7 89 05 bc 54 df 76 3d 23 42 2b 3e e0 63 96 bd
       -0.008150524 0.060271576 0.16724448 -0.073432684
000360 99 30 01 3e f8 fc 77 3d 22 aa 77 3d b0 a1 71 3d
       0.12616195 0.060543984 0.060464986 0.058992088
000370 0a c3 f9 bb 59 4e 90 bd e0 87 1c 3e 15 e8 01 bd
       -0.0076221274 -0.07046194 0.15286207 -0.03171547
000380 a7 f8 04 3d b2 72 7d 3c 9e aa 91 3d 9d 3e 01 3d
       0.032463696 0.01546924 0.07112621 0.031553853
000390 18 bd d8 3c a9 bc 53 bc 46 46 76 3e 8d 47 5f bd
       0.026457354 -0.012923398 0.24050245 -0.054511596
0003a0 2e 42 bc 3d 60 33 c6 bb 8d af ec 3d 87 13 9b bd
       0.0919231 -0.006048605 0.11556921 -0.07572084
0003b0 1d a0 e4 3d 91 6e eb bd 69 d6 2b 3d ef e9 33 3c
       0.11163352 -0.11495698 0.041952524 0.010981067
0003c0 67 f0 cc 3c 12 be 55 bd 37 36 dc 3c eb 87 77 3d
       0.025016977 -0.05218322 0.02688132 0.060432356
0003d0 4b 02 03 3d f5 5f 94 3c 68 3e 5e bd c4 49 f6 bb
       0.03198461 0.018112162 -0.054258734 -0.0075161178
0003e0 7e d2 c7 3d 71 ed f4 3d 98 e9 d4 3b d6 fd 78 3c
       0.09756945 0.11959351 0.006497573 0.015197238
0003f0 fc 4d 0a 3c d3 7c 55 3d b9 38 1a bd 1b cc 62 bd
       0.0084414445 0.052120995 -0.03765175 -0.05537043

network_body._body_endoder.seq_layers.2.weight f4 [256, 256]
000000 f1 25 fd 3d 1e 8f c0 bd 4a b5 ae bd 83 77 99 3d
       0.123607524 -0.094022974 -0.08530672 0.07493498
000010 00 e5 03 be bd 91 cd 3d 42 de 37 3d d5 66 a2 3e
       -0.12880325 0.10037563 0.044889696 0.3171908
000020 81 cc 88 3e 19 e2 71 bd 10 7c c8 be 4b a2 4c 3c
       0.26718524 -0.059053514 -0.39157152 0.0124898655
000030 94 55 5b be 43 3e 8f be 4b 6b c1 be fa c8 0a 3d
       -0.21419364 -0.2797719 -0.3777717 0.033883072
000040 2e e0 a4 3e 3e 0f 40 be 7b b8 ce bd 12 2b 56 3e
       0.32202286 -0.18755814 -0.100937806 0.20914868
000050 b2 48 a3 be dc bf 9c bd 8b 1f 28 bd 72 f5 0d 3e
       -0.318914 -0.07653782 -0.041045707 0.13863161
000060 79 2f 9a be 6c e4 94 3e 56 6f 5c bd d7 6e 49 3e
       -0.30114344 0.29080522 -0.053817116 0.19671188
000070 45 54 7b be b2 81 ae bd b2 70 23 be 0b f7 0c 3d
       -0.24543865 -0.08520831 -0.15960959 0.034415286
000080 f7 21 97 be 18 07 b1 3d cc e4 31 be a2 ae 64 be
       -0.295181 0.08643931 -0.17372435 -0.22332242
000090 bc ca 87 be 20 48 27 bf 24 91 c8 3d 51 bd aa bd
       -0.26521862 -0.6534443 0.097933084 -0.083368905
0000a0 d2 f4 94 3e 1b 23 c3 be 65 a3 84 bc 70 05 c7 be
       0.29093033 -0.3811272 -0.016191194 -0.38871336
0000b0 f3 eb 05 3d 02 9d 97 be 9f 1d 9e be dd e9 da bd
       0.03269572 -0.29611975 -0.30881974 -0.10689137
0000c0 ed 07 16 3e d6 50 28 bd 14 50 e5 bd 01 42 ce bd
       0.14651461 -0.041092716 -0.11196914 -0.10071183
0000d0 41 d9 89 bc 49 a3 dc 3c 25 02 fb bd 73 50 45 be
       -0.016827228 0.02693333 -0.122562684 -0.1926897
0000e0 98 d9 3c 3e 6b b9 2c 3c 48 76 02 be ac e5 a7 3e
       0.1844238 0.010542254 -0.12740433 0.32792413
0000f0 10 36 97 3e d0 8c 51 3d ac df 43 be 25 65 f2 3e
       0.29533434 0.05115968 -0.19128293 0.47342792
000100 da 75 c1 be 48 9b b0 be 53 da bc be a6 79 ff bd
       -0.37785226 -0.3449347 -0.36885318 -0.124743745
000110 b3 e1 90 bc 9b f5 ec bb 32 92 72 3e ed a5 e4 be
       -0.017685747 -0.007231427 0.23688582 -0.4465784
000120 0c 8f d7 bd fb 03 a7 be 10 6e 85 bd c9 c7 2e be
       -0.10525331 -0.32620224 -0.065151334 -0.170684
000130 33 56 85 3e 1d 02 4e bd 7b 02 49 be 7e 1b 73 be
       0.26042327 -0.050294984 -0.19629852 -0.23740956
000140 fd bb 4a be 52 96 a2 bc 35 7f ad 3d 97 24 7b be
       -0.19798274 -0.019847069 0.084715284 -0.24525677
000150 6d e6 83 bc 9b 94 61 be 6f c2 34 3e 35 71 85 3e
       -0.016101087 -0.22029345 0.17652296 0.26062933
000160 30 2c 8a be c8 16 b6 bd 02 55 c8 3d d0 07 c9 be
       -0.26986837 -0.08891064 0.09781839 -0.39263773
000170 cd c0 0a be 35 52 d2 3e fb 2c c6 bd 00 62 16 bf
       -0.1355011 0.41078344 -0.09676548 -0.58743286
000180 24 ed 5f bd 4c de f9 3d f2 18 69 bd 05 fb 83 3d
       -0.054669514 0.12200603 -0.056908555 0.064443626
000190 e2 7f 19 3e 88 d8 18 bd bd 7f 27 3e ce 51 72 be
       0.1499019 -0.037315875 0.16357322 -0.23664019
0001a0 58 d9 11 3e 27 3d 21 be 83 97 f4 3d d8 1a 05 bf
       0.14243066 -0.15745984 0.11942961 -0.51994085
0001b0 88 86 93 be 0b 16 ad 3e 48 f1 7f 3e 91 5e 06 bd
       -0.28813577 0.3380588 0.24994385 -0.03280503
0001c0 03 f5 8f 3e 2d 3e ba be 04 88 a2 3e de ba 5d 3e
       0.28116617 -0.3637556 0.31744397 0.21653315
0001d0 8a 03 22 3e 9d 2c 44 be 79 4d bd be 01 80 3b be
       0.15821663 -0.19157644 -0.3697317 -0.18310548
0001e0 7b 9c 8e 3b b6 b3 2a bd e7 e6 9e be 19 0e 0c 3c
       0.00435215 -0.041675292 -0.3103554 0.008548283
0001f0 65 4b d8 3c da ff 79 bf 87 83 f0 bd ec 8f 9d be
       0.026403138 -0.97656024 -0.11743837 -0.30773866
000200 1b 60 5b 3e b4 7f 48 3e 05 8b a1 be a0 46 97 bd
       0.2142338 0.19579965 -0.31551376 -0.073865175
000210 5e 65 47 3e 69 11 ae 3e 07 39 2d bd 1b f8 d9 bd
       0.19472262 0.33997658 -0.042290714 -0.106430255
000220 67 44 a7 bd 1a 7d f1 be 2e db b9 3d f6 2f 20 be
       -0.081673436 -0.47165757 0.09075008 -0.15643296
000230 d6 f4 9e bd 87 5e a7 bc ef c7 43 3b 35 11 4c 3f
       -0.077615425 -0.020430816 0.0029873808 0.79713756
000240 bc c2 25 3d b8 c0 ac be 0d dc 44 be 03 bd ce be
       0.040468916 -0.33740783 -0.19224568 -0.4037858
000250 36 60 53 be b1 61 4b be 4c e4 80 3e 22 63 37 3e
       -0.2064217 -0.19861485 0.25174177 0.1790891
000260 54 6d 8c 3d ea f7 a7 be e8 64 f0 3e 4b 32 f2 3c
       0.0685679 -0.3280633 0.46951985 0.029564997
000270 c7 e5 75 bd d3 ce 70 3e e7 90 03 3e 93 bc 47 3e
       -0.060033586 0.23516397 0.12848245 0.19505529
000280 ff a7 2f 3d d9 9d 63 be f0 55 e5 3d 42 76 ae 3e
       0.042884823 -0.22228183 0.11198032 0.340746
000290 d6 fe 0e 3d 6b d7 cf bd f0 ff cf bd 74 6a 4e be
       0.034911 -0.101485096 -0.10156238 -0.20157796
0002a0 fd 0e 31 3d 48 ff 90 be 6f d2 aa be 16 e8 5f 3e
       0.043227185 -0.28319764 -0.33363673 0.21865878
0002b0 2c 22 a4 be e6 17 94 3d 69 c3 54 3e a1 ca b5 bd
       -0.3205732 0.07231121 0.20777668 -0.08876539
0002c0 a5 4c 39 be ab 2d f5 bd a3 a7 48 be 56 85 a5 3e
       -0.18095644 -0.11971601 -0.19595198 0.3232829
0002d0 8f 75 0f bf c2 32 11 3e bc 78 a5 be 2f ab 91 3e
       -0.56038755 0.14179519 -0.32318676 0.28450915
0002e0 79 22 03 be 3c 44 27 bd c0 ea 66 be 90 56 51 bd
       -0.12806119 -0.040836558 -0.22550488 -0.051107943
0002f0 e9 31 5e 3e 85 69 9b bd 22 be 16 3f 2c 84 20 3e
       0.21698727 -0.07588486 0.5888387 0.1567542
000300 5c 1e 01 3c 48 9e 4b 3e 41 5f f9 3d a0 fa 7e 3e
       0.007880773 0.19884598 0.12176371 0.24900293
000310 59 1c 14 3e ae 03 90 be d9 92 15 be 5e a7 da be
       0.14463939 -0.28127807 -0.14606799 -0.42705816
000320 27 20 41 3e da 28 13 3e 6a 56 96 bd fc a7 57 be
       0.18859921 0.14371052 -0.07340701 -0.21060175
000330 2a 58 eb be 7e b8 e0 be db 13 90 be 79 cf 90 bb
       -0.459657 -0.43890756 -0.2814015 -0.004419264
000340 df 17 03 3e eb f4 4e 3d 66 e1 04 be c1 0d df be
       0.12802075 0.05052654 -0.12976608 -0.4356518
000350 77 f1 1d bc bb 29 d9 3e de 94 46 be 3a 03 ad 3d
       -0.009640089 0.4241465 -0.19392726 0.08447881
000360 41 20 80 3e 2e 08 d1 bd 0a d5 ae 3d ce 45 e6 be
       0.25024608 -0.10206638 0.08536728 -0.44975132
000370 f8 74 2d 3e 36 f9 b4 3e 1c de 1b 3f 5b ca cc 3c
       0.16939151 0.35346383 0.60885787 0.024998834
000380 56 ac 6b be e2 05 e7 3d d7 1c 6e be 11 65 89 bd
       -0.2301496 0.11280419 -0.23253189 -0.0670873
000390 d4 b0 76 3e b4 e8 bd bd 8b 32 eb 3e 74 12 9a be
       0.24090892 -0.092729 0.45937 -0.30092204
0003a0 e8 ad 30 be b0 1b 03 be 33 95 31 be ec ef f0 3d
       -0.1725384 -0.1280353 -0.17342071 0.117645115
0003b0 c9 71 e2 3e 06 00 32 3e 9d 45 89 3e 98 22 df bd
       0.44227436 0.17382821 0.26810923 -0.1089527
0003c0 11 2c 28 3e 2f d2 44 be f4 7e a6 be a2 75 1b 3e
       0.1642306 -0.19220804 -0.32518733 0.15181592
0003d0 5b 4f 00 bf 7c 9a ca be 86 b2 4a 3e f9 ec 8a be
       -0.50121087 -0.39570987 0.19794664 -0.2713392
0003e0 ea 1e ad be d6 e6 ca bd 53 df 65 be e6 40 09 3b
       -0.33812648 -0.0990731 -0.22448473 0.0020943223
0003f0 08 9c 19 3e e8 87 54 3e 39 f7 b8 bd 62 eb 18 be
       0.15000927 0.20754969 -0.09031529 -0.14933541

network_body._body_endoder.seq_layers.2.bias f4 [256]
000000 cf 53 a2 bb 3c 3d ae bd 7e 2c 4f be 39 95 dc bd
       -0.0049538384 -0.08507773 -0.20231816 -0.107706495
000010 a5 de f2 bd 6b d1 0f 3d ce 7f bf 3c 10 f0 06 3e
       -0.11858872 0.035111826 0.023376372 0.13177514
000020 a1 c3 56 3d bd 55 05 be b1 7f 6d bd ab 59 9c bd
       0.05243266 -0.13020988 -0.057983104 -0.0763429
000030 97 30 05 3e e1 f4 d3 3d fa 80 8f bd e3 f9 46 be
       0.13006817 0.10349441 -0.07007022 -0.19431262
000040 87 3a 02 3d f8 57 20 be c3 e2 df bd 42 b8 44 bd
       0.031794097 -0.15658557 -0.10931923 -0.048027284
000050 f1 fa a1 bc 50 80 91 bc 92 6c 43 bd 84 26 b9 bd
       -0.019772978 -0.01776138 -0.047710963 -0.090405494
000060 fa 47 a2 bd a2 d0 ff bd 01 09 1c be 87 49 02 3e
       -0.07923885 -0.124909654 -0.1523781 0.12723361
000070 a6 5f 82 be b8 3b f1 3d 51 92 8b 3d 92 80 b4 3d
       -0.254636 0.117789686 0.06815017 0.08813585
000080 01 4b 99 bd 14 0a b0 3e d9 d1 ba bc 33 09 7f bd
       -0.07485009 0.3438269 -0.022805141 -0.062264632
000090 ca 92 83 bc c9 ac 80 3d 5f 60 2a 3d 6e 9b 69 3d
       -0.016061205 0.06282956 0.041595813 0.057032995
0000a0 e6 77 3d 3d 02 a2 81 bb 15 b3 c4 3d c2 b9 81 3c
       0.046256922 -0.0039560804 0.0960447 0.015835647
0000b0 d1 45 d6 bd 80 ac a0 3c b0 12 73 be e3 32 2e bb
       -0.10462535 0.019613504 -0.23737597 -0.0026580624
0000c0 3d 80 ae bd 22 49 00 be 3c 47 9f bd 06 7c 90 bc
       -0.08520553 -0.12527898 -0.07777259 -0.017637264
0000d0 43 c8 19 be 41 f7 00 bd b5 4d 0e be e4 cd fe 3c
       -0.150178 -0.0314858 -0.1389683 0.031104036
0000e0 60 5d c2 bd c6 6e 2f 3e 44 b2 7c 3d 0d b7 96 3d
       -0.09490466 0.171321 0.061693445 0.07359133
0000f0 45 e6 27 3d 4b 17 ab 3e 6a e8 59 bd 3d 54 82 bd
       0.040991087 0.3341621 -0.053200163 -0.063637234
000100 02 f5 95 3d 72 93 f7 bc 5c 1d ba bd d5 ed 85 3e
       0.07322122 -0.030221675 -0.09087631 0.26158014
000110 03 93 f4 3c 74 61 bb bd 2f b4 18 3e 96 ad d1 bd
       0.029855257 -0.09149447 0.14912485 -0.10238187
000120 4e e3 cd 3d 19 d0 97 bd 37 a2 d8 bd 86 9d 90 bd
       0.100531206 -0.07412738 -0.10577815 -0.07061295
000130 f7 54 ec bc 9b 7a b4 bd 89 4e 6f bc a5 d0 82 bd
       -0.028849108 -0.08812448 -0.014606127 -0.06387452
000140 34 a7 ea bb 34 27 03 bc 21 dc 01 3d 24 c9 13 be
       -0.0071610454 -0.008004952 0.031704072 -0.14432198
000150 5c 1f b8 3d cf ad 3d 3d d7 8a c3 bd b8 2d 70 3d
       0.08990356 0.046308335 -0.09547966 0.05863735
000160 c1 d0 0e 3d db c8 84 be e2 f6 31 be 70 56 8a 3d
       0.034867052 -0.2593449 -0.17379335 0.06754768
000170 d4 07 b1 3d e1 1c 4f 39 90 03 14 be 2a 7e 88 be
       0.08644071 0.00019751817 -0.14454484 -0.26658756
000180 d4 f5 84 3d c7 0f a5 bd 9e 24 5b 3d ee c3 1b 3d
       0.064922005 -0.0805965 0.053501718 0.03802865
000190 99 74 5b 3c 25 e7 99 bc ec f8 2f be c8 bb 4d be
       0.013394498 -0.018786976 -0.171848 -0.20091164
0001a0 06 ec a6 bd 51 36 bc 3d de ca ec 3d 52 06 89 bd
       -0.08150487 0.091900475 0.11562131 -0.06690659
0001b0 34 d3 82 3d cf 7e 10 bd 65 04 09 3d a8 19 30 bd
       0.0638794 -0.035277184 0.033451457 -0.042993218
0001c0 85 2b 8b be bb e2 2e 3c ab d5 8e 3d 71 68 cc 3d
       -0.2718164 0.010674174 0.06974348 0.09980858
0001d0 43 3f 6a 3e 0e b8 05 3e 0e de b7 bc 97 0c 4e bc
       0.22875695 0.13058493 -0.022444751 -0.012576244
0001e0 fe b2 22 3e 9d d8 96 3d 34 a5 01 bd 6f c8 2e 3e
       0.15888593 0.073655345 -0.03165169 0.17068647
0001f0 a6 83 bb 3d 06 d1 82 bd b9 32 ce 3d 36 55 3c bd
       0.09155969 -0.06387524 0.10068268 -0.0459797
000200 24 1b 9e bd 9d a1 21 3c f1 d8 69 3d 10 10 97 bd
       -0.077200204 0.009865192 0.057091657 -0.073761106
000210 43 11 07 3e 88 41 85 bd 05 33 85 bd ff 8c 87 bd
       0.13190179 -0.0650664 -0.06503872 -0.0661869
000220 7d 42 18 3b bf 32 f3 ba 5c 08 2b be d6 61 fd bd
       0.002323299 -0.0018554552 -0.16702408 -0.12372176
000230 e3 b6 0f be a9 db cc bd bb e2 b0 bd 17 bb 28 bd
       -0.1403461 -0.10002834 -0.086369954 -0.041194048
000240 f3 46 c4 3b ed 21 d7 bd e6 d8 52 3c dd 5a 28 be
       0.005989903 -0.10504518 0.012869095 -0.16440912
000250 d5 b8 39 be 7d ce a4 3d 51 50 be 3d 95 96 a2 bd
       -0.18136914 0.08047197 0.09292663 -0.079388775
000260 c8 0d 8a 3d ff 93 cb 3b 38 8a d0 bd 38 5f 8e bd
       0.0674091 0.006212711 -0.10182613 -0.06951755
000270 3d 3a 26 3e dd d0 71 3e 2e 59 94 be 48 0d 81 bd
       0.16233154 0.23614831 -0.2897429 -0.06301361
000280 97 99 cc bb 85 94 ef 3d 8d f5 4d 3d 4d 4c bb bc
       -0.0062438953 0.1169825 0.050283004 -0.022863531
000290 83 5b 3c 3d 5a 17 f4 3c 0e 85 bc bd 4e eb fc bc
       0.04598571 0.029796291 -0.09205066 -0.03087392
0002a0 87 d4 ad bc df 5f 04 3e 89 e2 61 3e cf 58 ab bd
       -0.021219505 0.12927197 0.22059073 -0.08366548
0002b0 37 2c 35 be ea ae d2 bd 79 8e be bc 27 cc 13 3e
       -0.17692648 -0.102872685 -0.023261296 0.14433347
0002c0 c4 ce c5 3d ab dc 0d bd 0f 42 1b 3d 5a c6 e5 bc
       0.09658578 -0.034634273 0.037904795 -0.028048683
0002d0 f9 23 e2 bb 95 90 08 be b6 15 5d bc 0b b2 7a bd
       -0.006901261 -0.13336404 -0.013493946 -0.06120495
0002e0 c5 f3 47 bc 2e ef ab 3c ae c9 c0 bd be 82 53 bd
       -0.012204115 0.020988073 -0.09413467 -0.051638357
0002f0 18 c7 be bc a2 e7 fc bd ab 2f 80 bd aa c2 e4 bd
       -0.023288295 -0.12348868 -0.06259092 -0.11169942
000300 55 71 2a 3d 1e 33 8c 3d 62 87 89 3c 81 8e 53 3e
       0.041611988 0.06845687 0.016788188 0.2065983
000310 23 a6 91 bd 1f e3 85 3d 40 6d 11 3e 1d a3 52 3d
       -0.07111766 0.065374605 0.14201832 0.05142509
000320 d1 c0 0b be 8f 69 88 3c a7 18 01 be fb b1 20 be
       -0.13647772 0.016651897 -0.1260706 -0.15692894
000330 67 8d 2c be 84 25 50 3d 9f ec b8 bc 6f 9e 12 3d
       -0.16850816 0.050817028 -0.022573767 0.035795625
000340 83 cd 54 bd f4 49 90 bd 71 38 1d 3d 1d 3a b3 bd
       -0.051953804 -0.070453554 0.038383905 -0.087513186
000350 be f8 97 3c 8f c2 0f be 6e 89 85 bc e5 23 d9 bd
       0.018551227 -0.14039062 -0.016300883 -0.106025495
000360 77 f1 23 bc c1 10 e4 3c 8d 88 33 be b8 28 be 3c
       -0.0100063 0.02784002 -0.17532559 0.023212776
000370 e7 d7 47 3e 69 a7 96 3d 37 28 d0 bc ea 36 2d bd
       0.19515954 0.0735615 -0.025409801 -0.0422887
000380 d4 c5 3b 3d b7 33 30 bd 21 4b d8 bd 97 09 d1 bd
       0.04584296 -0.04301807 -0.10561205 -0.10206907
000390 e9 f9 4d 3d ee 6e bf bc 54 ea 57 3e 61 cb 04 bd
       0.05028716 -0.023368325 0.21085483 -0.03242052
0003a0 88 9e 51 3e 5e d9 72 bc 5c bc 4c be 01 44 55 3d
       0.20470631 -0.014822332 -0.19993728 0.052066807
0003b0 5e 60 32 3d 1f 1b 65 3e 7a 31 1c 3d bc ee 44 bc
       0.043548934 0.22373627 0.038133122 -0.012019809
0003c0 c4 06 00 be f8 31 c3 bd 27 d2 3c 3e f7 0c 61 bd
       -0.12502581 -0.09531015 0.18439542 -0.054944005
0003d0 23 95 38 be 4a e4 39 bd d3 25 f1 bc 79 3a 4b 3d
       -0.18025641 -0.04538373 -0.029436981 0.04961631
0003e0 0a 41 14 be 99 01 f8 bd 4d 23 f3 3d f7 97 48 3c
       -0.14477935 -0.1210968 0.118719675 0.0122432625
0003f0 69 da 9d bd b3 b0 3e be 76 9e e7 bd 44 90 85 bd
       -0.07707674 -0.18622093 -0.11309521 -0.06521657

action_model._discrete_distribution.branches.0.weight f4 [7, 256]
000000 fa b6 88 bd cf c2 58 3e 40 22 ac bd 0f d7 2a bc
       -0.06675525 0.21168064 -0.0840497 -0.0104272505
000010 4b 7d 67 3e 7c 4c 59 be 48 b5 6c bc 5f 44 48 bc
       0.22606389 -0.21220583 -0.014447518 -0.012223332
000020 9d d7 bb bb a9 ab cd 3d 4d 20 10 be ef 90 5c be
       -0.00573249 0.10042507 -0.14074822 -0.21539663
000030 e5 57 75 be 93 d6 db bd 95 eb a9 3c 5d 83 a4 3d
       -0.2395931 -0.10734286 0.020742217 0.08032868
000040 a4 cc f4 bd 3e 41 df bd f0 05 b6 bd 55 87 b0 bd
       -0.119530946 -0.10901116 -0.08887851 -0.086195625
000050 b9 1c 94 be 72 b8 0d 3e ca 56 fd 3d 3a 2d c0 bd
       -0.28928164 0.13839892 0.12370069 -0.09383626
000060 c7 fe 7a bd dd b6 0f 3e 03 a2 c2 3e bd 5f 0a be
       -0.06127813 0.140346 0.3801423 -0.13513084
000070 7e 24 97 3e 94 30 d2 be 28 b3 2a 3e 74 58 92 3e
       0.2952003 -0.41052687 0.16669905 0.2858311
000080 b3 5d eb 3d 93 4e 11 bf bb 24 25 bd 31 14 05 be
       0.11492481 -0.5676052 -0.040318232 -0.12995984
000090 eb 77 5c 3e 96 a7 45 be 95 92 75 3e 99 36 d6 bb
       0.2153012 -0.1930221 0.23981698 -0.0065372703
0000a0 51 cf 36 3e d3 bb 0c 3e 57 0f c1 3e 37 3e 62 3d
       0.17852522 0.13743524 0.37707016 0.055235114
0000b0 0d d0 0b bd eb d5 c4 3d f1 46 29 3b 56 61 a6 3e
       -0.03413396 0.09611114 0.0025829638 0.32496136
0000c0 98 94 3a be 05 c6 bf 3d d9 72 f9 3d 66 2a fe 3d
       -0.18220747 0.09363941 0.121801086 0.124104306
0000d0 3a 52 6d bd f0 38 13 3e 2d 49 cf 3e 89 0c ab 3c
       -0.057939745 0.14377189 0.40485516 0.02088
0000e0 a9 e4 3f 3e a8 0d 2f 3c 7d 5b da 3d a7 68 78 3e
       0.1873957 0.010684408 0.10661981 0.24258672
0000f0 ff e1 99 be b8 ae f9 be 20 af 4a 3e e9 da 2f 3e
       -0.30055234 -0.48766112 0.19793367 0.17173351
000100 c9 47 03 be 21 8f 0b 3e 5d 08 3d 3d 53 23 de be
       -0.12820353 0.13628818 0.046150554 -0.43386325
000110 37 8a 1b 3e 88 82 84 3e d5 21 fc be 4d c9 1c bd
       0.15189444 0.25880837 -0.49244562 -0.038277913
000120 94 dd f1 bc d4 05 b6 3d bf 9b 2e 3d fb cd a2 bd
       -0.029524602 0.088878304 0.042629 -0.07949444
000130 8b 36 3c be 31 78 b5 bd 35 fe 4f be cf 33 ee 3d
       -0.18380181 -0.08860815 -0.20311816 0.116309755
000140 4f d2 1b be 46 3e 0f 3d 70 51 47 3d 63 8e 40 ba
       -0.15216945 0.034971498 0.04866165 -0.0007345436
000150 88 c2 42 3d 14 6d ad 3e d8 d1 48 bd 9c 21 bc be
       0.0475488 0.33872283 -0.049028248 -0.36744392
000160 a4 ab 37 3d 30 5b 40 3e c0 b2 50 bc af b1 09 be
       0.044841424 0.18784785 -0.01273793 -0.13446687
000170 81 a7 02 3e 66 5f 8c bc d1 2c 70 3e 7a d7 3b 3e
       0.1275921 -0.017135333 0.23454596 0.18343917
000180 c2 88 38 3e 8d 57 62 3e b3 95 a3 be 51 02 71 3e
       0.18020919 0.2210371 -0.3195015 0.2353604
000190 20 1a 42 3e e0 6c d8 bd 05 4e af 3d 79 a5 83 3e
       0.18955278 -0.10567641 0.08559803 0.25712183
0001a0 b4 33 28 3e d5 82 dd 3d 9d 9b 84 bd 35 aa c4 3e
       0.16425973 0.1081597 -0.064749934 0.38411108
0001b0 02 25 30 be ff 11 a6 3e 78 66 9c 3d 6c 58 db bc
       -0.17201617 0.32435605 0.07636732 -0.026775561
0001c0 d6 c8 55 3e 58 d6 8c 3d 08 f5 97 3d 2d 01 ed bd
       0.20877394 0.0687682 0.07419783 -0.1157249
0001d0 53 8c c0 be 37 55 66 bd 66 0c 88 bd 62 7c 1f 3e
       -0.3760706 -0.05623361 -0.0664299 0.15574792
0001e0 cb 9f d4 be a9 3d f1 bd 6a 0f db bd b6 2f e5 be
       -0.41528162 -0.11779339 -0.106962994 -0.44762963
0001f0 b5 28 0b be 78 03 b1 bc 5d 81 14 be 78 ba 36 3e
       -0.13589747 -0.0216081 -0.14502473 0.1784457
000200 ab 5c b1 3d 3c 86 09 be 63 0f 22 3e 12 ec 62 3e
       0.08660253 -0.13430113 0.15826182 0.22160366
000210 bc c4 36 be d4 c7 eb bd a1 47 a1 bb 2f 6f 98 bd
       -0.17848486 -0.115127236 -0.004921869 -0.074430816
000220 b3 0d 6e bd 8c 7b 9b 3e c0 fb 3c 3e e9 eb ad 3d
       -0.058118533 0.30367696 0.1845541 0.08492262
000230 ea 67 91 bd 07 15 38 be 3d 80 b9 3d d0 45 0d 3e
       -0.07099898 -0.17976771 0.09057663 0.13796163
000240 5f e4 10 bf 84 32 64 3c 2a d3 3c be 02 5e 6b 3d
       -0.56598467 0.0139280595 -0.18439928 0.0574627
000250 e5 ac 8f 3c 8a 40 0f 3d ab fc f3 bd 9c 04 2d 3d
       0.017538497 0.03497366 -0.11913427 0.042240724
000260 75 4b e8 bc 92 57 74 be 11 d7 d4 ba e2 0b bd bc
       -0.028356293 -0.2386153 -0.0016238411 -0.023076955
000270 b4 89 9b be d7 b4 78 be d0 69 90 3e 0d 78 d6 bd
       -0.30378497 -0.24287735 0.2820573 -0.104721166
000280 99 18 5a be c4 b0 c3 bc bc 09 b8 3d fc 34 0a 3f
       -0.21298446 -0.023888 0.08986232 0.539871
000290 0b ab 20 bd e7 d2 5a be 76 35 18 be 3a 1b ae be
       -0.03922562 -0.21369515 -0.14864144 -0.34005147
0002a0 09 29 df 3d 19 a9 82 be 93 f7 10 bf f6 8f 8a 3d
       0.10896499 -0.25519636 -0.5662777 0.067657396
0002b0 55 d2 ff bc 56 77 90 bc 9d 97 9b bd ba f8 4d be
       -0.031228224 -0.017635029 -0.07597277 -0.20114413
0002c0 0f 0b b2 be 53 60 35 3e 6a cd 1f bc 7b d8 f2 bc
       -0.34774062 0.17712526 -0.009753564 -0.029644242
0002d0 fc 20 35 be 8c c2 36 3c 1b 1a 20 3e e4 8a 64 bd
       -0.17688364 0.011154782 0.15634958 -0.05579652
0002e0 22 d9 20 3d f6 95 db 3c 22 20 18 3a 7e fc bf b9
       0.039269574 0.026804905 0.0005803128 -0.0003661848
0002f0 e6 96 82 3e 1c 59 c0 3d 01 02 36 3d 98 1a 95 bd
       0.2550575 0.09391996 0.044435505 -0.07280463
000300 80 7b 19 bd 46 3f 81 3d 01 77 03 3e db 44 8d be
       -0.037471294 0.063108966 0.12838365 -0.27591595
000310 ba f8 af 3c e8 74 24 be 18 68 5f be 1c e5 88 bd
       0.021480907 -0.16060221 -0.21817052 -0.06684324
000320 dd c1 60 bd 4d 3b e0 bd 80 61 3d 3e 5b 25 35 3e
       -0.054872382 -0.10948811 0.18494225 0.17690031
000330 80 89 77 3e bf 82 fe be f9 48 2c be 9f 35 6a bd
       0.24173546 -0.49709126 -0.16824712 -0.057180043
000340 8e a1 ec bd f9 d7 21 be 4f d3 5d 3e b9 6e 00 be
       -0.115542516 -0.15805043 0.21662639 -0.12542237
000350 f3 93 49 3e 31 0a 0b 3e 63 80 5b 3c 4a ba b7 3d
       0.19685344 0.13578106 0.013397309 0.08971079
000360 75 f2 c0 bd d9 4c d4 bd aa e9 87 3d e0 f1 b5 3c
       -0.09421245 -0.1036622 0.06636365 0.022210062
000370 90 c4 49 be 57 69 13 be 37 2a 46 3e 7a b7 27 bc
       -0.19703889 -0.14395653 0.19352041 -0.010236615
000380 d0 65 c5 3d fd 91 42 3e 0a c3 6e bd 06 3d 1d 3e
       0.0963856 0.19001003 -0.058291472 0.1535531
000390 18 00 01 3e c4 9e 20 3d f3 4f 9f be be af 2e bd
       0.12597692 0.03921391 -0.31115684 -0.04264807
0003a0 c4 44 c2 be d1 7f 37 bd 59 71 25 3d 7f 5b 07 be
       -0.3794309 -0.04479963 0.0403913 -0.13218497
0003b0 8c f5 36 3e c6 ad a6 be 5c b5 02 be c7 a1 2a 3d
       0.17867106 -0.32554454 -0.12764496 0.04165819
0003c0 e5 43 52 3e 5d 48 3d bd 6d 08 ad be 73 2e 4f 3e
       0.20533712 -0.04621159 -0.3379549 0.20232563
0003d0 02 66 d1 3c 73 2e a1 bd 7e a4 5a 3e 28 0d e8 bc
       0.025561336 -0.078701876 0.21351811 -0.028326586
0003e0 5f bc c0 3d 54 e5 d4 3d 12 5e 01 bf 63 11 a1 3c
       0.09410929 0.10395303 -0.50534165 0.019661611
0003f0 65 38 d6 ba 2b 6b 47 3c 4d e5 06 bf 23 44 03 bb
       -0.0016343711 0.012171547 -0.52693635 -0.0020029626

action_model._discrete_distribution.branches.0.bias f4 [7]
000000 85 df d1 be f1 39 b1 3c a5 81 5d be e7 c7 3e 3d
       -0.40990844 0.021634074 -0.21631487 0.04657736
000010 50 72 64 3d 4e d4 fd 3d fe 6d b9 3d
       0.05577308 0.123940095 0.090541825
