results/puzzle_expirement_6/PuzzleBehavior/PuzzleBehavior-34999936.onnx (onnx, 342923 bytes, 6 tensors)

network_body._body_endoder.seq_layers.0.weight f4 [256, 65]
000000 09 bb 88 3d f6 74 9d bd 92 00 51 3d 2f 1f 95 3e
       0.06676299 -0.07688324 0.051025935 0.29125354
000010 af 22 2b 3e 79 05 8b bc f9 1a 40 3e a2 c2 1b 3e
       0.1671245 -0.016970383 0.18760289 0.15210965
000020 1d 2b f5 3d e3 57 61 bd c5 66 1f 3e 27 7f 67 3e
       0.11971114 -0.055015456 0.15566547 0.22607099
000030 70 44 bf 3d 4d 5f 39 3d e8 7e 63 be ab 22 d9 3d
       0.09339225 0.0452569 -0.2221638 0.106023155
000040 57 56 65 be 5f d0 ed bd 4c c1 8c 3e 45 0b e4 bd
       -0.22396217 -0.11612009 0.27491224 -0.11134962
000050 48 b3 63 3b a6 aa 10 3e 4b 0d 1e be ef 19 82 bd
       0.003474431 0.14127597 -0.15434758 -0.06352603
000060 4a 6b 82 bb ed cf 05 3e 34 fd 24 3e a6 07 89 3b
       -0.003980075 0.13067599 0.16112214 0.00418182
000070 c4 48 77 3e 96 de 08 3e e7 a1 ea 3e 22 4d cb 3d
       0.24148852 0.1336616 0.45826647 0.09926821
000080 79 65 ff bc 7f 88 04 bd 66 56 57 3d f6 33 86 3c
       -0.031176316 -0.032356735 0.05257263 0.016382199
000090 87 2c 97 3e 2b a8 65 be f0 46 48 3e 3a 31 88 3e
       0.2952616 -0.22427432 0.1955831 0.26600057
0000a0 7e 3e 15 bd 86 ed 7d bd 4d f9 23 be 33 49 c4 3e
       -0.03643655 -0.061994098 -0.1601307 0.38337097
0000b0 32 13 2c 3b 13 87 ac 3e 2d e6 d3 bd 8f c6 86 3e
       0.0026256558 0.33696803 -0.10346637 0.26323363
0000c0 d9 7d 7d 3d 55 ca 62 3b b6 44 aa bd 32 c3 b3 bd
       0.061887596 0.0034605463 -0.08313887 -0.08777465
0000d0 ac ea 43 3e 39 73 be 3e 5d ef cf 3c 00 71 77 3d
       0.19132489 0.37197283 0.025382692 0.0604105
0000e0 ca 4b 0c 3e 2c 8b 1b 3e 20 c7 a2 3c f0 e6 65 be
       0.13700786 0.15189809 0.01987034 -0.22451377
0000f0 db 17 ae 3c d9 a1 97 3e 09 9f 0e bf c3 7f 41 3e
       0.02125161 0.29615667 -0.5571142 0.18896393
000100 9e f6 5b be fd 07 14 be 66 bb cf 3d 19 ea 36 be
       -0.21480796 -0.14456172 0.10143165 -0.17862739
000110 e0 62 bd bd 05 35 82 3e 47 ae 04 be ca f9 4b bd
       -0.092473745 0.25431076 -0.12957107 -0.049798764
000120 34 47 92 be db 55 8d bd 14 16 3d be 77 c2 80 3d
       -0.2856995 -0.06901141 -0.18465453 0.06287091
000130 94 63 0d bd 66 c8 0e be 31 01 ce bd 54 7f 33 bd
       -0.034518793 -0.13943633 -0.10058821 -0.0438226
000140 7b 4f da bb fa 8a 89 3d 07 b1 99 3e 5b a5 79 bf
       -0.006662307 0.06715961 0.30017874 -0.9751794
000150 4c 1e 26 3e 36 a8 b9 3d b6 00 46 3e 9a 5b c2 bc
       0.16222495 0.09065287 0.19336209 -0.02372532
000160 fa 59 07 3e 73 76 76 3d 13 81 bc be 2c 2d 5d 3d
       0.13217917 0.060171556 -0.36817226 0.053998157
000170 d1 17 c3 be d4 30 35 3e ca b5 8e be 10 80 83 3d
       -0.38104108 0.17694408 -0.2787307 0.0642091
000180 10 47 af bd 66 6b aa 3d fd 7c 09 bd 32 64 98 3d
       -0.08558476 0.08321266 -0.033566464 0.07440986
000190 ea 6f 32 3e ef dd 00 bf 8c 6a 04 3e d7 ff 36 3e
       0.17425504 -0.50338644 0.1293127 0.17871033
0001a0 3d 95 b2 bd 98 dd 26 3e 34 b5 17 be 52 c5 c8 3c
       -0.08719871 0.16295469 -0.14815217 0.024508152
0001b0 e9 c1 1a 3e 90 b3 4b 3e ef 9d 30 bf a0 e0 9b bd
       0.15113033 0.19892716 -0.6899099 -0.07611203
0001c0 38 99 38 be c4 4b 9e 3e eb 7b c0 bd 13 67 88 be
       -0.18027198 0.3091718 -0.093986355 -0.2664114
0001d0 98 d8 11 3e 8c a8 0c be b7 38 80 3e 8d 54 9a be
       0.1424278 -0.1373617 0.2504327 -0.30142632
0001e0 d4 2f bf 3d 55 18 7b 3d 50 bb 3e 3e b1 a4 bd 3d
       0.09335294 0.0613025 0.18626142 0.09259928
0001f0 42 b4 3c 3d ed 01 11 3d 20 f5 02 be 79 62 c6 3e
       0.046070345 0.035402227 -0.1278882 0.38747004
000200 92 fd e2 3e 33 f1 22 3e 00 8b 0b be 7e 0d ad bd
       0.44334084 0.15912323 -0.13627243 -0.08449839
000210 85 2d 29 3c f1 eb a6 3e 32 d8 1d be 43 3b 31 bd
       0.010325794 0.32601884 -0.15414503 -0.043269407
000220 e8 10 ba 3d c8 7b f7 bd c6 96 99 3e 6c 24 79 3e
       0.09085256 -0.12084156 0.29997844 0.243303
000230 6d 49 ce bb 93 b8 65 3e 07 09 d2 3d 06 53 99 bd
       -0.006295374 0.2243369 0.10255628 -0.074865386
000240 58 63 45 bd 31 26 5e 3d a3 af 96 39 9e d7 ee 3d
       -0.048190445 0.05423564 0.0002874109 0.116622195
000250 c0 a9 47 3d e0 1a d6 bd 06 37 92 3d 04 6e 2c 3e
       0.04874587 -0.10454345 0.07139401 0.16838843
000260 c1 e4 bd bd e0 0a 4d bd 0d d9 cd bd b3 30 39 be
       -0.09272147 -0.0500592 -0.10051165 -0.18084984
000270 7d 9e ce 3c ce 06 8f bd 0b 25 a8 3d aa bc c3 3d
       0.025222057 -0.0698372 0.082101904 0.09557469
000280 34 42 1e be 49 36 70 3e ab 69 39 3e 68 25 78 3e
       -0.15454942 0.23458208 0.18106715 0.2423302
000290 5e ad 3e 3e 12 36 63 3b 1a c8 38 3d 3b 9f ef bd
       0.18620822 0.003466968 0.045112707 -0.11700293
0002a0 e9 09 69 3d 0a fe 5d bd d1 38 b8 3d 48 1d 54 bd
       0.056894217 -0.05419735 0.08995212 -0.051785737
0002b0 de cc 8a bd f6 99 19 be a2 cf 98 bd c6 5c 8d 3d
       -0.067773566 -0.15000138 -0.07461478 0.06902461
0002c0 c4 3c 73 3e 25 50 06 be 7f a0 be 3c df 79 c0 3d
       0.23753649 -0.1311651 0.02326989 0.09398245
0002d0 7c 38 53 3e 49 e6 b4 be 4f f2 bd 3e de 26 83 bf
       0.20627016 -0.35331944 0.3709893 -1.0246236
0002e0 36 27 5d bd 0a 42 b9 3e 4d 3e 05 3f e3 b0 a5 3d
       -0.053992473 0.36183196 0.5204819 0.08090379
0002f0 90 82 4d bc ed 67 30 be 9d 47 5b be 1a 39 80 bc
       -0.012543336 -0.17227145 -0.21414037 -0.015652228
000300 9e a7 04 3e 6c 54 19 3e 0c 48 dd 3d 93 08 39 3e
       0.12954566 0.1497361 0.108047575 0.18069677
000310 3e 9d 12 3e ea 67 07 3e 13 7a a8 3d 99 b3 29 be
       0.14317796 0.13223234 0.08226409 -0.16572417
000320 b0 0e c6 3d 66 71 e4 bc d0 1d 61 3d 73 5c 0c 3e
       0.0967077 -0.027886104 0.054960072 0.13707142
000330 e1 a8 15 be d2 36 c6 bd 20 de 58 bc 95 b9 99 3e
       -0.14615203 -0.09678425 -0.0132365525 0.300244
000340 cc 76 72 3e f0 f3 89 bc ec 28 ed 3d 69 b5 00 3e
       0.2367813 -0.016839951 0.11580071 0.12569202
000350 9c ce 99 bd 31 b8 6a 3e 2b 98 a2 3e 6b f7 12 3e
       -0.07510111 0.22921826 0.3175672 0.14352195
000360 42 12 8a 3d 68 ff 09 be 71 3f 87 3d 6d b9 0e bd
       0.06741764 -0.13476336 0.06603897 -0.034844805
000370 34 c1 8c 3e 4c e7 8b be 19 d7 bb bd 24 da 86 3d
       0.27491152 -0.27324903 -0.09171886 0.06584576
000380 2e dc 13 3f 85 cb 84 be fd 8a d9 bd 88 09 2e 3d
       0.5775784 -0.25936523 -0.10622213 0.04248956
000390 28 26 d4 bd 03 49 b5 be f1 5e 1e bc 68 88 95 3e
       -0.1035884 -0.35407266 -0.0096661905 0.29205632
0003a0 f9 b1 ff 3d 04 22 f6 bd 3f 55 9c 3e 36 84 9e bd
       0.124851175 -0.12018207 0.30533788 -0.07740061
0003b0 a6 e1 aa be 5b e1 96 be 95 7e bf 3d 89 03 15 bf
       -0.3337528 -0.29468808 0.093503155 -0.5820852
0003c0 4b ca 00 be 72 76 a5 bd 79 b0 3d 3e a1 7c c2 3d
       -0.12577169 -0.08079232 0.1852435 0.09496427
0003d0 b9 a4 f7 3d be 67 f9 3d e2 63 ac bc ba a7 81 bd
       0.12091965 0.121779904 -0.021043722 -0.063308194
0003e0 31 d9 15 3f 24 68 01 be e0 ae c5 3d 6e d1 ae be
       0.5853453 -0.12637383 0.096524954 -0.34144157
0003f0 d8 c1 78 bc 7d 08 2a bd c1 7e 21 3d 22 1b 54 3e
       -0.015182935 -0.041512 0.039427523 0.20713475

network_body._body_endoder.seq_layers.0.bias f4 [256]
000000 5c 0a 30 bb 48 d0 13 3d ad f1 77 3c 97 d7 26 3d
       -0.0026861643 0.036087304 0.015133304 0.040732946
000010 66 c4 db bc 8a d0 bc 3c e6 4e 83 3d 51 bd 81 3d
       -0.026827049 0.023048658 0.06411533 0.06334937
000020 85 83 06 3c 63 69 0c bd 13 30 3a 3d 9d c0 26 3e
       0.008210068 -0.034280192 0.045456003 0.16284414
000030 2e cf 41 bd 0a ce d4 3c 9c 6a 36 3d f2 82 f1 3a
       -0.047316723 0.025977153 0.044535264 0.0018425866
000040 e4 d3 11 3e 0d 15 0a 3e 56 a3 22 3d ec e5 38 3d
       0.14240986 0.13484593 0.03970655 0.045141146
000050 b8 ad ee 3d 9f a7 9d 3d 4c cb 4a 3d ea 73 db 3c
       0.11654228 0.07697987 0.049510285 0.02678867
000060 0b 4c cd bc ed 61 f0 3c 3c aa f0 3d 76 5c 4d bb
       -0.025060674 0.02934357 0.1175122 -0.0031335629
000070 fa 57 64 bc 0b 2f 8b bc 13 f0 f7 bc 01 3a 8d 3c
       -0.013936991 -0.016990205 -0.030265843 0.017239572
000080 1b 0e e5 bc 0b db 3c 3d 2a 61 f3 3b 0b 20 3d 3e
       -0.027960828 0.046107333 0.0074273543 0.18469255
000090 29 4d 96 3d b7 88 d5 3d 17 3e 43 3d 6a 70 20 3d
       0.07338936 0.10426467 0.047666635 0.039169706
0000a0 f4 a6 a0 3d 95 05 80 bd c6 42 97 bc 33 e9 0a 3d
       0.07844344 -0.06251065 -0.018464457 0.033913802
0000b0 70 67 12 bb a5 14 31 3e 48 96 44 3d e7 45 4f bd
       -0.0022339486 0.17293032 0.047994882 -0.050603773
0000c0 f0 0c 01 3c 66 a8 98 3b 18 83 a5 bd 03 5a 5c bd
       0.00787662 0.0046587465 -0.08081645 -0.05379678
0000d0 a0 72 3d 3e 51 5a 93 3d df be 30 be 7a 80 2c bd
       0.18500757 0.07194961 -0.17260312 -0.042114712
0000e0 ea 36 cf 3d 91 b0 b1 3d fb 2a b8 bd 43 b6 d0 3d
       0.10117896 0.086762555 -0.08992573 0.10191014
0000f0 23 17 d3 3d b6 60 83 bc ad fc 30 bc 48 b7 c3 bc
       0.10307147 -0.016037326 -0.01080243 -0.023891106
000100 e9 8f cc bc f7 9c eb bc 94 87 2f bd 2d d6 77 3d
       -0.024970965 -0.02876137 -0.042853907 0.06050699
000110 31 09 df b8 0d 76 5e 3d dc 29 a8 3d 1a a9 bb 3d
       -0.00010635181 0.0543118 0.08211109 0.09163113
000120 1e 01 52 3d c7 90 5d 3d c1 34 d4 bc 1b 6d 8f 3d
       0.051270597 0.05409315 -0.025904061 0.07003232
000130 6a 15 88 bd 7c 63 59 bd 1f 40 a9 3c f5 1f 97 3c
       -0.066447094 -0.05307339 0.020660458 0.018447855
000140 90 15 42 3d 77 58 e5 bc 5f dd df bd 95 29 4f 3d
       0.047383845 -0.027996285 -0.10930895 0.050576765
000150 04 e7 8d 3d c9 31 b5 bc 4b 0e b5 3c 40 0b 81 3d
       0.06928828 -0.022118466 0.022101542 0.06300974
000160 5c 35 98 3d 9d fc ff 3c 97 a1 55 3d 46 17 31 3d
       0.074320525 0.031248385 0.052156057 0.043235086
000170 51 ad 96 3d da e0 b8 3d 23 34 b1 3d c5 31 58 b9
       0.07357276 0.09027262 0.086525224 -0.00020617906
000180 8f 3a de bb 7d 9c 8b 3c 34 34 a4 bd f6 27 0b 3e
       -0.006781883 0.017042393 -0.080177695 0.13589463
000190 1f 64 e9 bc e9 51 7d 3d e1 88 2a 3c 81 22 00 be
       -0.028490124 0.061845694 0.010408611 -0.12513162
0001a0 38 ed 62 3d c7 af 5e 3d 39 2c d6 3a fb 51 34 3c
       0.05540201 0.054366853 0.0016340084 0.011005874
0001b0 85 f5 54 3d 26 62 9b 3d 51 6d 77 bc 60 58 f8 ba
       0.05199196 0.0758708 -0.015101747 -0.0018947236
0001c0 69 ef b7 bd b5 67 e3 bc b3 e4 3e 3d a9 c2 ed 3c
       -0.08981211 -0.027759412 0.046604823 0.029023485
0001d0 d1 63 b7 3d 4d 3a 80 3d 2b c0 1b 3d 2a 66 95 3d
       0.08954585 0.0626112 0.038025063 0.07294877
0001e0 b8 c7 a4 3d e2 29 81 bd 74 4c 88 3c 1e 1e d9 bc
       0.08045906 -0.06306817 0.016638018 -0.026503619
0001f0 d0 10 50 3d c2 c3 14 bd 95 0f e2 3d 8a 7e 63 3d
       0.050797284 -0.0363195 0.11038128 0.0555406
000200 fc 4c f5 b8 25 01 ad 3d 6c 7e b6 bc 20 3e 0c 3b
       -0.0001169685 0.08447484 -0.02227708 0.0021399334
000210 87 b2 a4 3d ba ee 05 3d 9f 58 c3 bd 54 a2 42 3d
       0.08041864 0.03269837 -0.095383875 0.04751809
000220 ed ad 26 3d 22 ad 44 3d 69 08 db bc a8 19 6a 3c
       0.040693212 0.048016675 -0.026737409 0.0142883435
000230 19 45 ff 3c 6c 30 7a bc 9f 03 e1 3b 97 8c 65 3b
       0.031160878 -0.015270334 0.0068668867 0.0035026425
000240 7a 4a 95 3c 01 1e 9b 3b a6 0f 91 3d bc 7c 97 3d
       0.01822399 0.0047338014 0.07083063 0.07396838
000250 6d f4 c9 bd a0 e9 66 be 47 3f 7d bb ef bb aa 3d
       -0.09861074 -0.22550058 -0.0038642453 0.08336627
000260 f9 69 55 3d 69 61 9d 3d eb 6a 1d 3d be bf 71 bd
       0.052103017 0.07684595 0.038432043 -0.05902075
000270 29 72 6e 3d c9 63 88 3b 62 6f 11 3d 3c 79 85 3d
       0.05821434 0.004162286 0.035506614 0.06517264
000280 ee 0b 93 3c f3 0e 9a bd f2 e6 49 bc 9f 7a be 3d
       0.017950024 -0.075223826 -0.012323128 0.09300732
000290 fc bc 0c 3d 6c 20 4c 3d 2e 59 3a 3d e4 0d 9f 3d
       0.034359917 0.049835607 0.045495205 0.07766321
0002a0 1b 3a d8 3d a5 5f 3a bc 56 a5 15 bb 20 ea 37 3c
       0.10557958 -0.0113753425 -0.0022834144 0.011225253
0002b0 8e a0 04 3d f8 d2 8f 3d 99 b1 5a 3d db 32 75 bd
       0.03237968 0.07022661 0.053392027 -0.059862953
0002c0 70 35 72 3d be 67 87 3c 01 c6 fd 3d 84 fe 0b 3d
       0.059132993 0.01652896 0.12391282 0.034178272
0002d0 fb 06 14 3d 27 79 24 bd 26 15 05 bd f6 25 00 3d
       0.03613947 -0.040154602 -0.03249087 0.031286202
0002e0 65 5d c5 3a a0 33 c9 3c 01 ca 1b 3d a0 76 2b bc
       0.0015057741 0.02456075 0.038034443 -0.010465294
0002f0 83 72 b3 3d 66 f8 65 bd cc 8d 72 3c cb 03 7b 3d
       0.08762076 -0.056145094 0.014804315 0.061282914
000300 e9 80 23 bd b4 6b ec 3d 09 c7 8a 3b 77 50 1e bd
       -0.03991786 0.1154398 0.0042351526 -0.038650956
000310 25 a7 4f 3d 52 d8 ce bc a6 74 e9 3d 30 44 87 bd
       0.05069651 -0.025249634 0.11399202 -0.066048026
000320 fe ce 85 3d 10 96 a7 3c 69 30 a3 bc fc 57 1d 3d
       0.06533621 0.020457298 -0.019920545 0.038413987
000330 2f ab e8 b9 4a 86 13 bd 4b 25 58 3d 3e 0c dc bc
       -0.0004437803 -0.03601674 0.05276994 -0.026861306
000340 a4 86 76 3d d2 3c 0b b8 d8 4c cd bc eb 6c 37 bd
       0.060186997 -3.3196826e-05 -0.025061056 -0.044781607
000350 32 94 fc 3d 4b 41 72 bc 0e 7e b6 bc 59 c5 0d 3d
       0.123329535 -0.014786075 -0.022276904 0.034612034
000360 01 31 46 bb d9 b5 96 bc 3d 14 b7 bc fb dc 2f bd
       -0.003024161 -0.018397259 -0.022348518 -0.042935353
000370 bd 51 d7 3c 83 6f 74 3b 1e 36 4b bb d6 12 6c 3d
       0.026284093 0.0037297911 -0.0031007598 0.05763515
000380 78 3d a1 bd d3 30 b4 3c 2b dd 23 3c 85 48 bf 3d
       -0.07873052 0.021995937 0.010001461 0.09340004
000390 24 db 46 bd c4 1e 23 bd f3 8d 42 3d b1 59 11 3d
       -0.048548833 -0.039824262 0.047498655 0.035485927
0003a0 52 1a fc bd 3c ef b4 ba 39 cf 93 3d 6c 9e 1e bd
       -0.12309708 -0.0013804208 0.07217259 -0.0387253
0003b0 67 b9 e5 bb 44 5d f2 bb a9 7a 98 3d bb 27 72 3d
       -0.007010627 -0.007396372 0.074452706 0.05911992
0003c0 45 29 7c 3d 5f f5 57 3d bd 68 74 3d a7 cb 88 3b
       0.061562795 0.05272424 0.0596702 0.004174668
0003d0 92 6b 99 3d a9 5f 33 bd 03 c1 fa 3d e1 14 9d 3c
       0.074912205 -0.0437924 0.12243845 0.019174995
0003e0 54 2d 4a 3d 0e 55 61 3a fc 07 f3 3d 86 0f 9a bc
       0.049359635 0.0008595743 0.11866757 -0.01880623
0003f0 b7 53 de 3c 51 da 90 3d 93 9d 0b bd 06 b8 ac 3d
       0.027139528 0.070728905 -0.03408582 0.08433537

network_body._body_endoder.seq_layers.2.weight f4 [256, 256]
000000 88 d0 b0 3d 84 5c 27 bc 2a 95 f1 bc ff 62 81 3d
       0.08633524 -0.010214929 -0.029490072 0.0631771
000010 3b 24 4f bd 51 ab b6 bd 6d 61 2b be 80 bd e9 bd
       -0.05057166 -0.08919395 -0.16736384 -0.114130974
000020 bd 8f b7 3d 29 e8 95 bd 2a 96 e1 bd 9c a7 f4 bc
       0.08962963 -0.07319672 -0.1101497 -0.029865079
000030 ec 73 fc 3d 69 c2 24 be fa 77 68 3d 88 82 fb 3d
       0.12326798 -0.16089787 0.056755044 0.12280756
000040 b4 1a 06 3d e0 cd 45 3e 8c 3b e4 ba ad 68 9d 3d
       0.03274031 0.19316816 -0.0017412766 0.07685981
000050 63 5e 16 ba 60 b9 84 3e c9 3f b0 bd a4 67 a9 3d
       -0.00057361106 0.2592268 -0.08605916 0.08271721
000060 e4 44 ee 3d 93 e2 fd bd 47 df dd 3d 06 f9 d4 3d
       0.116342336 -0.12396731 0.108336024 0.1039906
000070 34 67 84 be c1 40 f7 bd 89 cd 41 3e 26 ac 32 3e
       -0.25859988 -0.12072898 0.18926062 0.17448482
000080 a6 c1 98 3c ea b6 82 be 24 ad af bc 13 da 5f be
       0.018647026 -0.25530177 -0.021444865 -0.21860532
000090 99 4d f7 3c 06 ff 17 be 12 03 c7 bc cc 3d 5c bc
       0.030188369 -0.14843377 -0.024293456 -0.013442468
0000a0 ff 78 ee 3d f2 17 67 bd e2 04 8b 3d af 48 b1 bc
       0.11644172 -0.05641932 0.06788041 -0.021641104
0000b0 39 57 a8 3d d6 ab 1d 3d f7 50 a8 be a8 07 5e be
       0.082197614 0.038493954 -0.3287427 -0.21682608
0000c0 4a 39 8f bd f8 5d b9 3d b7 3a f3 bd 98 2b 06 3e
       -0.06993349 0.09051126 -0.11876433 0.13102567
0000d0 88 53 2a be 15 c8 61 be 93 f4 3b be 69 3a 6e 3d
       -0.16633427 -0.22048981 -0.18355016 0.058161173
0000e0 0f c3 b6 bd 52 1f e7 3d dd 16 e4 3d 01 72 90 be
       -0.08923923 0.11285271 0.11137173 -0.28211978
0000f0 ce ec 0f bd 8b 18 bb 3d f3 82 f8 bd b5 99 b3 bd
       -0.035137944 0.091355406 -0.121343516 -0.08769552
000100 57 8c 1b 3e 41 f9 4d 3e f3 fb 53 bd 6e ba 02 3e
       0.15190254 0.20114614 -0.05175395 0.1276643
000110 65 11 1c 3e b0 80 11 bd a1 34 4f 3d 65 35 0b 3d
       0.1524101 -0.035523117 0.0505873 0.033986468
000120 16 78 db bd 5d dd b9 bd 5b 2f ea bb 1e 68 11 be
       -0.10716264 -0.09075425 -0.0071467585 -0.14199874
000130 8c 6c 4d bd 5d 81 fe bd d8 ec bf bd d9 f1 47 3e
       -0.050152346 -0.12427018 -0.09371346 0.19525851
000140 a7 2b 01 3e 94 16 43 3d 6a 6a ce 3c 4d 2d 9e be
       0.12614308 0.047628954 0.025197227 -0.30893937
000150 e4 74 83 3e a2 94 8a be 61 f4 f9 bd 7e 13 64 be
       0.25675118 -0.27066523 -0.12204815 -0.2227306
000160 f7 23 64 3e 39 c8 ab 3c 8f ab d7 3d 15 9f e1 3c
       0.22279344 0.020969497 0.10530769 0.027541677
000170 e7 8c 24 bd ee 47 e4 bd f3 c2 72 3e df 1e 5c 3e
       -0.040173437 -0.11146532 0.2370718 0.21496151
000180 43 e1 d8 3e 91 c7 20 be f8 d2 26 be c9 eb 50 3e
       0.4235936 -0.15701129 -0.16291416 0.20402445
000190 79 aa d8 bd fa 13 7f 3c aa 3d a1 3e 04 a6 3b 3d
       -0.1057939 0.015568728 0.31492358 0.04581262
0001a0 ec 6e c5 bd 2b e4 81 3c 13 f8 84 be 45 c7 b2 bd
       -0.09640297 0.01585587 -0.25970516 -0.08729414
0001b0 32 72 63 be 94 9f 4f be 08 36 84 3d fb da b1 3d
       -0.22211531 -0.20275718 0.06455618 0.08684345
0001c0 ff 5b 97 3e 3d ae 92 3d e7 d0 0a 3d a6 4e a2 3d
       0.29562375 0.071621396 0.03389063 0.07925157
0001d0 39 f5 61 be 30 6e 42 be f4 77 66 bd 03 e9 3b be
       -0.22066201 -0.18987346 -0.05626674 -0.18350606
0001e0 a1 d5 93 be e9 a3 f3 3d 3d a3 bf bc 9f 35 12 bd
       -0.28873923 0.11896498 -0.023393268 -0.03569567
0001f0 12 fd 4b 3d e8 5d 8f 3d 37 e9 04 be 07 62 19 be
       0.049801894 0.07000333 -0.1297959 -0.149788
000200 bd 54 82 3e e4 68 ca 3d ad 41 a1 3e 31 be 74 3e
       0.25455275 0.098832875 0.3149542 0.23900677
000210 0b b6 fc bd f9 57 62 bc 44 db 03 bd 2b a7 09 3c
       -0.123394094 -0.01381492 -0.03219153 0.008401672
000220 70 c7 a9 bc 06 88 e0 bd 3c 38 3a 3e 59 87 49 bd
       -0.020724982 -0.109634444 0.18185514 -0.049201343
000230 4d 9a a4 bc 36 86 fd 3d 74 d8 1d be 5e df 03 bc
       -0.020093108 0.12379114 -0.15414602 -0.00804886
000240 f2 0e 24 3e 4f a9 58 3e 2b 99 0e be b2 c3 67 bd
       0.16021326 0.21158336 -0.13925616 -0.056583114
000250 b1 b3 8b bd 4d 49 5a 3e 80 f8 8e bd 50 1d cf 3c
       -0.06821383 0.21317025 -0.06980991 0.025282532
000260 f7 78 53 bd a5 b5 71 3e 83 89 2b bd 41 fd 06 3a
       -0.051629033 0.23604448 -0.04187919 0.0005149432
000270 6c 0f af 3d de 3d a2 3d 66 5d da bc 4f 10 19 3d
       0.08547863 0.079219565 -0.026655864 0.03736907
000280 69 d6 97 3b 61 95 b9 bc 2d 7a e8 bc 04 6c a1 3d
       0.004633714 -0.022654237 -0.02837857 0.078819305
000290 16 e9 17 be 69 8f aa bc 2d e7 06 be 03 2e f8 3d
       -0.14835009 -0.020820336 -0.13174124 0.12118151
0002a0 c2 b0 9f bd 92 56 60 bd c5 4c 6e 3d 7a ed ef 3c
       -0.07797386 -0.05477006 0.058178682 0.029288042
0002b0 72 4d 4a bd 9b 8b 21 be 6e 06 ae bc 7e 09 e4 3d
       -0.049390264 -0.15775912 -0.0212433 0.11134623
0002c0 7a 21 4e 3d 21 69 5d be e9 8f 03 3e 41 81 dd 3d
       0.050324894 -0.21622135 0.12847866 0.10815669
0002d0 5d a2 cf be ba 72 81 3e 2a b1 54 bd ea 5d 2e bd
       -0.4055356 0.25282842 -0.05192677 -0.042570032
0002e0 35 1e d1 bd 00 be b5 bd 0d c6 4b 3c 5a c8 8a 3c
       -0.1021084 -0.0887413 0.012437356 0.016941238
0002f0 e8 2f 20 3e 61 02 c9 3d 97 6a 6f 3e 44 12 fd bd
       0.15643275 0.09814907 0.23380505 -0.123569995
000300 2f 0a c3 3d 42 68 a3 bd f2 bb 1d 3e 53 ea 46 bc
       0.09523427 -0.0797887 0.15403727 -0.012140828
000310 bf ae c6 3d 25 2a 87 bb f6 cd 3d bd f8 22 71 3e
       0.09701299 -0.004124897 -0.046338998 0.23548496
000320 c5 d6 60 3e 11 95 a2 3d 26 ea 07 3d c0 70 b1 3d
       0.21956928 0.079385884 0.033182286 0.086640835
000330 4c d8 2c bc 91 6c 4d bd 0a 22 dd 3c c2 b4 d9 3c
       -0.010549616 -0.050152365 0.02699377 0.02657545
000340 d7 92 92 bd aa 24 07 be a3 f4 e0 bd 26 c6 48 bd
       -0.07156914 -0.1319758 -0.10984161 -0.049017094
000350 d4 f4 5d bd 41 9a 98 bb 91 88 15 3e 4c ea 28 be
       -0.054188564 -0.0046570604 0.14602877 -0.16495627
000360 46 ca 38 bd 0a 9b 31 3e 21 d8 7e 3d 10 53 07 3e
       -0.045114778 0.17344299 0.062217835 0.1321528
000370 da 4f 85 3d 49 8d 7c be 2c e8 2d 3e 13 98 2e be
       0.06509371 -0.24663271 0.16983098 -0.17050199
000380 a6 8f d7 bd ca 49 56 bd fa 5b ff 3c 72 8b 69 3e
       -0.10525446 -0.052316464 0.031171788 0.228071
000390 7c ec 58 bb 49 01 02 3d 2d 72 a4 bd e4 d0 74 be
       -0.003309994 0.031739507 -0.0802959 -0.2390781
0003a0 e3 4b b0 bd ab f1 2c 3d 9c 26 98 be 71 f6 7a 3e
       -0.08608224 0.04222266 -0.29716957 0.24508072
0003b0 e1 c9 9a 3d 1b fa ef 3b f4 76 c7 be 71 15 a1 bd
       0.075580366 0.007323516 -0.38957942 -0.07865418
0003c0 a0 a1 f2 bd 36 a2 4c be c5 ba a8 bd b7 38 70 3c
       -0.11847234 -0.19983754 -0.082387485 0.014661959
0003d0 e9 31 b6 bd cb 13 56 3d 75 45 2a 3d 2b 85 b8 be
       -0.08896238 0.05226497 0.041570146 -0.360391
0003e0 27 21 27 be 34 65 16 be b6 42 ce bd 99 db da 3d
       -0.1632124 -0.14687043 -0.10071318 0.10686416
0003f0 85 bf e9 bc 53 ce d2 3d c7 e9 db 3d 4a 38 b7 bc
       -0.028533706 0.102932595 0.10737949 -0.022365708

network_body._body_endoder.seq_layers.2.bias f4 [256]
000000 78 5c 89 bd 52 6d 45 3c 22 e5 28 3d 7e 6d a6 bd
       -0.0670709 0.01204999 0.041234143 -0.08126353
000010 e9 85 c2 be a2 e7 6e 3d 05 62 ee 3d 5e cd c2 3d
       -0.3799279 0.05832637 0.116397895 0.09511827
000020 39 cc b4 3c 41 53 ac bd 01 d7 53 3d f9 06 ec 3d
       0.022070037 -0.08414317 0.051718716 0.115247674
000030 0d 9d 5c 3d 4d 2c 2a be d8 74 4f bd 1c 55 aa bc
       0.053860713 -0.16618462 -0.05064854 -0.020792536
000040 e4 b6 4c bd e6 aa 3d bd c4 49 04 3e f2 cf 4e 3e
       -0.049979106 -0.04630556 0.12918764 0.20196512
000050 f9 8d 61 bd 39 21 0c 3e c7 76 89 bd e1 4e 32 bd
       -0.055067036 0.13684548 -0.06712108 -0.043532256
000060 f2 28 fe bc d3 9a 16 bd bb 75 38 bd 8c 0a 77 bd
       -0.031025384 -0.036768746 -0.04503415 -0.060312793
000070 b5 d6 06 bc ab 7a 3d bd 22 ca 42 3d 67 4b df 3d
       -0.008229901 -0.046259563 0.04755605 0.10903054
000080 e9 65 28 3d b6 e8 cf 3c 65 cf fc 3d df ae 18 bc
       0.041112814 0.02537952 0.12344245 -0.009319036
000090 59 b4 65 bd fb b8 78 3d 44 e8 23 bd 82 e7 b8 3b
       -0.056080196 0.060723286 -0.040016428 0.0056428323
0000a0 2c 1b 52 bd 95 24 e3 38 ff fc fb bd d5 6b 50 bd
       -0.051295444 0.000108310174 -0.123041146 -0.050884087
0000b0 e4 e9 16 be ba 7c d5 bd 72 d0 2c be 7f 12 e5 bd
       -0.1473766 -0.1042418 -0.1687639 -0.111851685
0000c0 16 9a 50 bd 6a 83 e9 bc 0a 93 d3 3d b3 63 81 be
       -0.050928198 -0.028505046 0.1033078 -0.25271377
0000d0 f1 64 4e bc ad 25 78 bd 12 ca 8c 3b 1e a5 16 3e
       -0.0125973085 -0.060582805 0.0042965496 0.14711425
0000e0 a3 1d 8e bd f9 77 8c bd d6 f8 ae bd 97 dc d3 3c
       -0.069392465 -0.068588205 -0.085435554 0.025862021
0000f0 60 35 7a bd 81 bc 0e 3d ad 17 90 bc 48 49 94 bd
       -0.06108606 0.03484774 -0.017589414 -0.0724054
000100 f9 8a 1b 3e f1 85 11 be 0c ab 1d bd b3 b0 8f 3d
       0.15189733 -0.14211251 -0.0384932 0.070161246
000110 5b e5 a3 be 9b 53 4a be ac 19 76 bd 67 55 0b 3e
       -0.32010922 -0.19758455 -0.060083076 0.13606797
000120 3f 64 a3 bc 40 4d 86 39 04 b6 64 bd 6a f5 57 3d
       -0.019945262 0.00025616027 -0.055837646 0.05272428
000130 f9 46 91 bb 6e 42 3b bb be a8 83 bd bf 57 1b be
       -0.0044335094 -0.002857353 -0.064286694 -0.15170191
000140 ee 0e cb bc a6 44 77 bb 50 67 1c 3d f0 ab c7 3d
       -0.024787392 -0.0037730127 0.038184464 0.09749591
000150 b3 5b cc bd 4d 41 cd bd 77 2b 1c be dd 4c 5b 3d
       -0.09978428 -0.10022221 -0.15250956 0.0535401
000160 90 d6 a3 3d 1c dd c8 be 32 68 00 bd 84 0c 09 3e
       0.07999909 -0.39231193 -0.03134937 0.1338368
000170 2f fc d1 3d a8 31 f1 bd ff a0 80 3d 70 58 23 3e
       0.10253178 -0.11777049 0.062807076 0.15951705
000180 3c 26 f1 3c 8c f5 92 bd 94 54 ad bb e7 20 bf 3b
       0.029437177 -0.071757406 -0.0052896235 0.0058327797
000190 4c b7 41 3d 8d 4d 19 bd 92 13 51 3d 69 4e 6c 3d
       0.047293946 -0.037427474 0.051044054 0.057691965
0001a0 6c d2 a6 bc b2 e7 5e 3d ad c5 33 3a a6 0b 2e 3b
       -0.020364009 0.05442018 0.0006857764 0.0026557236
0001b0 eb 83 67 bd e2 85 5d bc ba 57 2f be 4b d1 f2 3c
       -0.05652229 -0.01352069 -0.17123309 0.029640814
0001c0 69 b5 f0 bd 0e 5c c1 3d cf da 47 3d bb 2f d8 3c
       -0.11753351 0.09441386 0.048792657 0.026389947
0001d0 ff da 0c be d6 cd c8 ba 88 e9 c6 3c 17 8b 9f 3d
       -0.13755415 -0.0015320133 0.024281278 0.07790201
0001e0 18 b3 62 3e 16 aa 80 be f6 a7 99 3d 97 49 03 3e
       0.22138631 -0.25129765 0.07502739 0.12821041
0001f0 30 47 be 3d e8 4b ac bc e4 e3 9a 3c 04 3c 91 3d
       0.09290922 -0.021032289 0.018907495 0.07091525
000200 75 dc 59 3d 63 8c 2b bb e0 28 db 3c 1b 57 5f bc
       0.05318876 -0.0026176206 0.02675289 -0.013631607
000210 a5 6f 93 3c b5 48 53 bd 16 2d 9a 3d fc 6b c5 bd
       0.017997572 -0.05158301 0.07528131 -0.09639737
000220 a2 e9 4f bc a4 46 f8 3b b1 31 96 3c 61 f1 ed bc
       -0.01268998 0.0075767804 0.018334242 -0.029045762
000230 63 b0 b7 bd f7 6a 7a 3d a5 6b 1a be 67 4e 38 3e
       -0.0896919 0.061137166 -0.15080126 0.17998658
000240 40 16 c1 bb a4 18 af 3c 48 45 92 3d 36 40 8d 3b
       -0.005892545 0.021374054 0.071421206 0.004310633
000250 b4 ca bc 3c c6 3b 65 3d e9 72 1a bd 61 3a 09 3a
       0.023045875 0.055965208 -0.037707243 0.00052348344
000260 39 51 75 3d ac 21 89 3c 4f 20 1e 3e 9a 47 a9 bd
       0.059891913 0.016739689 0.15442012 -0.0826561
000270 6a cd e5 3c 90 2a d1 ba 13 2b 31 3d ff 22 a1 3c
       0.02805205 -0.0015958119 0.04325397 0.019670008
000280 b9 79 c0 3d ec 0b d5 3d f4 a8 6a 3d b6 a6 39 be
       0.09398217 0.104026645 0.057290033 -0.18130001
000290 8d 53 f0 3d 2c 6c da 3b e0 a2 08 bc 48 8b 7b bd
       0.11734686 0.006665727 -0.008339614 -0.061412126
0002a0 e4 c0 4a bd 07 91 f9 3c 2a 16 ef 3d c0 92 e2 bd
       -0.04950036 0.030464662 0.11674149 -0.110631466
0002b0 d1 10 23 3e b5 07 55 3d 4b cc 1b 3d 05 49 5a 3d
       0.15924384 0.052009303 0.038036626 0.053292293
0002c0 80 86 8b 3d 6d 1a 1d be 9a 22 bb 3c f0 e6 e0 bd
       0.06812763 -0.15342112 0.022843648 -0.10981548
0002d0 8b d1 d0 3c a1 24 5e bd ab c0 fb 3d a5 b6 ae 3d
       0.025490543 -0.05423415 0.12292608 0.085309304
0002e0 ec 41 7b bc 6d 52 d0 3c 3f ef 34 3e 34 84 84 bb
       -0.015335541 0.025429929 0.1766939 -0.00404408
0002f0 20 95 95 bc 6b d0 c1 3c 49 db ea bb 12 d7 10 be
       -0.018259585 0.023658952 -0.007167254 -0.14144543
000300 35 eb c9 bd 7c 8c 15 3d 5a 38 28 bc 4b f7 8b 3d
       -0.09859315 0.03651093 -0.0102673415 0.06834277
000310 3f 1c c5 bd bc 6c a4 3d 7a 00 00 be 77 5e 96 bc
       -0.09624528 0.08028552 -0.12500182 -0.018355591
000320 44 29 30 3e 2b 63 11 be 85 8d 05 be 86 c3 e8 3d
       0.17203242 -0.14197986 -0.13042267 0.11365418
000330 86 70 e5 bd 1e e6 f7 3d fc f6 06 bd 04 e7 1f 3e
       -0.11203103 0.12104438 -0.032950386 0.15615469
000340 2b e4 12 bd 82 5d 75 3d fa 92 e8 bc f5 7f 78 3d
       -0.03586213 0.05990363 -0.028390396 0.060668904
000350 1a 4c 22 3d 18 49 8e bc 3c 31 00 3e 3b 53 32 be
       0.039623357 -0.017368838 0.12518781 -0.17414562
000360 fb 07 54 3e 72 23 6c 3d 4d 68 8d bd 14 d6 06 be
       0.2070617 0.05765099 -0.069046594 -0.13167602
000370 b1 fa 6f bd be ed 01 3d e1 cf f3 ba 2c 4d f8 3c
       -0.058588687 0.03172087 -0.0018601381 0.030310236
000380 ab fa d2 3d 16 db 12 3d b7 0f ca 3d 29 23 90 bd
       0.10301717 0.035853468 0.098662786 -0.07037956
000390 91 dd 10 3b cd d0 63 be bf 60 b8 bc c3 5e 31 3b
       0.002210472 -0.2224762 -0.02250707 0.002706454
0003a0 e8 b4 70 bb 4b 14 92 bc 7b dc 05 be 03 43 2f be
       -0.0036728922 -0.017831942 -0.13072388 -0.17115407
0003b0 bd 64 16 3d cd 9f c7 3c 7b 6a ed bd d9 9d 93 3d
       0.036717165 0.024368191 -0.11592575 0.072078414
0003c0 30 4b 20 be ae dd 28 3e 2c 67 03 bd 55 96 02 be
       -0.15653682 0.16490814 -0.032080814 -0.1275266
0003d0 e2 f9 71 bb dd 2c b7 bc b0 fc 8f 3d 50 4a 84 3d
       -0.0036922623 -0.02236026 0.07030618 0.064594865
0003e0 45 86 1a bd 68 1a 5e bd e5 e8 17 3d 31 77 e7 3c
       -0.037725706 -0.0542244 0.03708734 0.028255077
0003f0 07 6f 22 be b8 b6 4d bd 04 bf 73 3d 56 ea 0a 3e
       -0.15862666 -0.050223082 0.05950834 0.13565955

action_model._discrete_distribution.branches.0.weight f4 [7, 256]
000000 33 34 6c be 80 ca 52 bd 1a bb 42 be 59 e6 55 3e
       -0.23066787 -0.05146265 -0.19016686 0.20888652
000010 2e da a1 3e f9 68 c1 3b 1b e6 33 3e 83 e6 2f be
       0.3161177 0.0059024063 0.17568247 -0.17177777
000020 d8 90 4c be ef 68 a1 3d 98 ba f8 3d 29 76 12 bc
       -0.19977129 0.078813426 0.12144965 -0.008939304
000030 7e 32 ce bd 93 29 02 3d 80 41 21 3e 9e aa 64 3d
       -0.10068224 0.03177793 0.15747643 0.055826776
000040 59 e9 8f 3d 2b b6 d1 3d 40 ca 45 bc 8d aa 93 be
       0.070269294 0.10239824 -0.012072146 -0.28841057
000050 fd 7a 30 3d 26 43 84 be ad cd d5 bd c3 79 6c be
       0.04308604 -0.2583248 -0.1043962 -0.23093323
000060 92 34 d1 3c 2e 87 9d be ba dc 97 3e 15 e5 41 3e
       0.025537763 -0.30767196 0.29660589 0.18935044
000070 ff 71 dd 3c de 6a ec 3e d7 3c 3a bd bb d7 e6 3d
       0.027031897 0.46175283 -0.045468178 0.11271616
000080 4f c6 e3 bd b7 2a 09 be 21 6f 5d bd b3 11 19 be
       -0.11121809 -0.133952 -0.05406106 -0.14948158
000090 31 69 54 bc e8 cc df bd 06 5e a8 bd 84 25 f7 bc
       -0.012964533 -0.10927755 -0.082210585 -0.030169256
0000a0 41 19 1e 3e 0f cc bc bc 33 e8 28 3e 42 be ed 3d
       0.15439321 -0.023046521 0.16494827 0.116085544
0000b0 c2 db fb 3d 46 69 46 3e be 95 3a bd ba 83 80 bd
       0.12297775 0.19376096 -0.04555296 -0.06275125
0000c0 28 ba 43 3e 06 03 b7 3d 11 5f f1 bd 03 9d 27 3e
       0.19113982 0.089361235 -0.117857106 0.16368489
0000d0 f0 96 ab bd 06 08 57 3c db ca 23 3e c9 b1 0c be
       -0.083783984 0.0131244715 0.15995352 -0.13739695
0000e0 a9 05 54 bd cf 07 c2 be 98 7f 8d bc b9 c5 1d be
       -0.05176321 -0.37896582 -0.017272756 -0.15407456
0000f0 53 60 56 3d 77 7e 20 be 46 82 b2 be f8 50 8e 3e
       0.052337956 -0.15673243 -0.34865016 0.2779615
000100 43 dc d5 bd 8a 56 8f 3d a9 6d a8 be 07 16 89 3d
       -0.10442402 0.06998928 -0.32896164 0.066936545
000110 62 3a 9a 3e 7e 31 7d 3d 76 a7 c7 bd cb 45 17 be
       0.30122668 0.061814778 -0.097487375 -0.14772718
000120 73 20 03 3d a9 fd ed bd 85 a8 38 3e 3f d6 b2 3d
       0.032013368 -0.116206475 0.18033035 0.087322704
000130 17 86 67 3d 8d 7e 60 3b 1f e6 ca bd 2b 2f 43 3e
       0.056524362 0.0034255118 -0.09907173 0.19060962
000140 c4 50 40 3d b2 25 29 3d e1 94 a0 bd 54 06 53 be
       0.046952024 0.041295715 -0.078408964 -0.20607883
000150 4a 24 e7 3d d6 46 cd 3d 3c f3 7e 3e 2b d0 65 bd
       0.112862185 0.100232765 0.24897474 -0.056106728
000160 47 eb 74 be cf d5 86 3e 85 c2 ae bd 3f 5b 89 be
       -0.23917876 0.26334998 -0.085331954 -0.26827428
000170 31 77 f3 3d 17 c2 9e 3d 1a ed 70 be 0f 32 da be
       0.11887968 0.077518634 -0.23527947 -0.42616317
000180 d2 0d 40 be 5a 9a 11 3d da 03 8b bd 17 c0 27 3b
       -0.18755272 0.03554759 -0.06787844 0.0025596672
000190 8d c9 0f bd 71 83 56 3d ac a5 3f be e6 44 62 bd
       -0.035104323 0.052371446 -0.18715543 -0.055241488
0001a0 b6 76 87 3d 79 3b 8a 3c ae 0f 5e bd d7 f2 98 be
       0.06614439 0.016874062 -0.054214172 -0.29872772
0001b0 ac 18 9f 3d ee b3 8d be e4 b6 96 3d fd 0d bd 3b
       0.07768378 -0.27676338 0.07359102 0.00576949
0001c0 bb 7c 22 3e df 90 cb bd fa 01 76 be 51 07 0b 3c
       0.15867893 -0.09939741 -0.24024191 0.008485631
0001d0 ec 2a 54 be ef 59 46 3e 13 a7 07 be 96 5b 8e 3d
       -0.20719498 0.19370244 -0.13247328 0.069510624
0001e0 b8 e0 40 bc 92 14 80 3e 73 16 15 be de 4d 99 bc
       -0.011772327 0.25015694 -0.14559345 -0.018713888
0001f0 74 cb 10 be 60 02 88 3e ff 9f d5 3d 1d ae 38 bd
       -0.14140111 0.26564312 0.104309075 -0.045087922
000200 66 b8 89 3d a8 6b 65 3d aa 07 e0 3d bf 67 26 be
       0.06724624 0.056010872 0.10938962 -0.16250513
000210 92 f6 18 be 01 e7 ae 3d 99 75 7c be 87 bc df 3d
       -0.14937809 0.08540154 -0.24654235 0.109246306
000220 1d e3 69 3e 88 9e cf bd e4 f2 9f bb 20 69 0f 3d
       0.22840543 -0.10137659 -0.0048812497 0.035012364
000230 9f fa 9b 3d 84 35 69 3b 7c aa fa 3d b1 5c f4 bd
       0.076161616 0.0035584876 0.122395486 -0.11931742
000240 ee 56 3b 3e f2 27 a4 3d d3 5c 26 be 67 89 06 3e
       0.1829488 0.080154315 -0.16246347 0.13138352
000250 f2 59 9f bd 52 64 0d bd 5e 52 45 3d bf 01 43 3c
       -0.077808276 -0.0345195 0.048174255 0.011902272
000260 cf 7a 7b be 81 de f7 bd 95 84 e1 bd 3a 0b 0c 3e
       -0.24558567 -0.12102986 -0.11011616 0.13676158
000270 69 51 f6 bd 23 d0 5c 3e f7 74 09 be ed 8c a7 bc
       -0.120272465 0.21563773 -0.13423525 -0.02045294
000280 0d cc 63 bd b3 f7 4b bd 0f 0b b6 bd 45 0b 1c 3e
       -0.05561452 -0.04979677 -0.08888828 0.15238674
000290 af 80 20 be 35 66 7e bd eb b5 8a bd ec 0b 34 3e
       -0.15674089 -0.06210919 -0.06772979 0.17582673
0002a0 6b 63 16 bd 32 1c fd bc c0 33 cd be fc 22 d3 bd
       -0.036715906 -0.030897234 -0.40078545 -0.10309407
0002b0 25 a9 6d 3e 31 58 94 3c 1b b1 bc bd 7a 85 8b bd
       0.23209055 0.01810846 -0.09213468 -0.06812568
0002c0 0b 20 dd bd eb f9 59 3d 36 9d 86 bd 52 ee bd bd
       -0.10797127 0.053216856 -0.06572954 -0.092739716
0002d0 27 50 95 bd f0 57 c0 3d f8 44 de 3d 72 88 98 bd
       -0.072906785 0.09391773 0.108529985 -0.074479
0002e0 97 8d 20 3d a8 dd 71 bd 96 8b 21 bd f1 a6 eb bd
       0.03919753 -0.05904928 -0.03943976 -0.11506451
0002f0 ec 55 82 3d bd b8 fb 39 e4 35 9a bd 5a 3b 4d 3e
       0.063640445 0.0004801209 -0.0752981 0.20042172
000300 41 cd 36 3e 24 fc 2f bd 40 79 4f bd 0e ea 1c 3e
       0.17851736 -0.04296507 -0.050652742 0.1532366
000310 a8 df 79 bd 51 e9 73 bd 37 2b f4 bc 07 f3 ca 3d
       -0.06100431 -0.05954868 -0.029805763 0.09909635
000320 6d f3 b5 bd d5 c1 c6 bd b5 33 2a 3e 09 aa c6 bd
       -0.088843204 -0.09704939 0.16621287 -0.097004004
000330 52 ec 4e 3d 2e d1 7a be 1b 89 53 3d 2b 0f 2c be
       0.05051834 -0.24493858 0.051644426 -0.16802661
000340 e7 ab 52 bd e5 5d cc 3d 5c c7 fd 3c eb 9a 9e 3d
       -0.05143347 0.099788465 0.030978851 0.07744392
000350 eb ed 4f be 4e 5b e1 bd 52 2a c3 bd 35 aa 63 bd
       -0.20305602 -0.11003743 -0.09529556 -0.055582244
000360 8c 5c 2d be 7c 5b 52 be 0a ce 7e be 53 32 be 3e
       -0.16929835 -0.20542711 -0.24883285 0.3714777
000370 04 83 e0 3d 1f 57 bf bd ad 79 35 bd 04 8b c7 bd
       0.10962489 -0.09342789 -0.044305492 -0.09743312
000380 6d 06 1e be 86 b0 69 3e a9 11 a7 3d 59 a4 3a 3e
       -0.15432139 0.22821245 0.08157665 0.18226756
000390 8e b6 0f 3e 43 e9 ba bc 30 5c 3a 3e fa 48 9a 3c
       0.14034483 -0.022816306 0.18199229 0.018833626
0003a0 6f 7f be 3b c9 f2 89 3d f5 85 25 bc 13 88 55 bc
       0.005813531 0.06735761 -0.010102739 -0.013032931
0003b0 10 b9 91 bd 0e 6a 1c 3d 82 c1 10 3e 9c 84 3d bd
       -0.07115376 0.03818708 0.14136317 -0.046269044
0003c0 8b e9 ad 3d 16 35 49 bd 4e 78 59 3b bb 27 e3 bc
       0.084918104 -0.049122892 0.003318328 -0.027728906
0003d0 c2 e2 a1 bd e2 93 c4 3d 0a b3 e3 bd 1a f4 9c 3d
       -0.07904579 0.09598519 -0.11118133 0.07663746
0003e0 91 f4 31 3e b5 7c 8f 3d a6 60 39 3e ae 68 c0 bb
       0.17378451 0.07006208 0.18103275 -0.005871854
0003f0 9c 08 83 3e ae d3 c5 3d 4c cf b7 3d 09 4d 70 be
       0.25592506 0.09659515 0.089750856 -0.23466887

action_model._discrete_distribution.branches.0.bias f4 [7]
000000 c0 30 e6 be c4 e9 fe bb d9 ce 48 be 56 6b a4 3d
       -0.44959068 -0.007779332 -0.19610156 0.08028285
000010 26 67 34 3e f8 e0 d3 3a c3 f9 ec 3c
       0.17617473 0.0016165068 0.02892769
