results/puzzle_expirement_6/PuzzleBehavior/PuzzleBehavior-35499968.onnx (onnx, 342923 bytes, 6 tensors)

network_body._body_endoder.seq_layers.0.weight f4 [256, 65]
00000000: ec53 a43d b106 99bd f7eb 8b3d 3c82 993e
00000010: af22 2b3e 1d3e 8dbc f91a 403e 554a 173e
00000020: a7d7 f53d 1bfe 34bd 9df1 193e 7df0 7a3e
00000030: 95ac b93d 4d5f 393d 7f9d 63be ab22 d93d
00000040: 46ad 59be 766f f8bd e100 8d3e ca0b dcbd
00000050: 446d 8abc 97c0 103e 4b0d 1ebe 5aab 82bd
00000060: 4a6b 82bb 51d7 063e 16a1 253e 875f dd3a
00000070: b59c 793e 698c 003e cf4c f03e 224d cb3d
00000080: 46a3 ffbc 7f88 04bd d56f 8d3d 7046 cd3c
00000090: a334 a23e 15d3 6dbe d0fe 4f3e af23 903e
000000a0: 7e3e 15bd e8fc 7ebd 4df9 23be 06b9 c93e
000000b0: b99d a73b 41f4 a43e 30d7 c8bd fd08 8c3e
000000c0: d7aa 903d 55ca 623b bf4b aabd 32c3 b3bd
000000d0: be3b 4f3e ed23 c23e a3bf e73c e869 893d
000000e0: 3eeb 013e 87d7 163e 20c7 a23c 3cd6 65be
000000f0: db17 ae3c 230c 993e 058c 0ebf 81c8 573e
00000100: 6e72 58be 0e21 0abe 4e8a bb3d 9c59 54be
00000110: 83c0 b4bd 0535 823e 9d37 04be caf9 4bbd
00000120: 7feb 96be 7bb6 90bd d4e6 2dbe 3a58 7f3d
00000130: b91e 19bd 976b 04be 3101 cebd e39e 32bd
00000140: 7b4f dabb 1263 8f3d 2307 9f3e c621 70bf
00000150: 4117 233e d612 dc3d 78f5 493e 9a5b c2bc
00000160: a6d0 073e 7376 763d b0f1 b9be ff0e 783d
00000170: 7674 b6be f3a1 383e 983f 91be 3ede 753d
00000180: 1047 afbd d373 aa3d fd7c 09bd 04f7 923d
00000190: eb61 343e 3fce 02bf a2d0 0a3e c06f 353e
000001a0: 7939 b7bd 98dd 263e 053e 17be 52c5 c83c
000001b0: 0ed7 0c3e c447 403e 9dc3 2cbf 90f3 80bd
000001c0: 7442 45be a46d 993e eb7b c0bd b765 88be
000001d0: 98d8 113e 60ed 14be 4b6f 833e 3c79 9abe
000001e0: a6f4 be3d b0e8 3b3d 68b6 393e b1a4 bd3d
000001f0: 33cc 3c3d ed01 113d 800e 08be 1a65 c23e
00000200: 366c d03e 9fb8 1b3e f633 07be 9c26 aebd
00000210: 6845 a2bc 8daa a53e 32d8 1dbe 92a5 31bd
00000220: e810 ba3d bea6 e6bd 9487 983e b8ea 7e3e
00000230: d64f 05bc 15f1 5e3e 3027 d43d 0653 99bd
00000240: b7b0 45bd 3126 5e3d 4656 cbbc 142b f13d
00000250: e13c 583d d0b7 d7bd 4fd5 bb3d 6c7e 283e
00000260: c1e4 bdbd c277 4dbd 0dd9 cdbd 7875 3ebe
00000270: 562c a53c 3d69 92bd 61e7 a33d a700 e23d
00000280: cee4 15be 4936 703e 525f 393e 6825 783e
00000290: ecd3 3c3e 2370 a43b c6ca 2e3d eb11 fcbd
000002a0: 7e56 643d c0cb 67bd d138 b83d 8c8a 54bd
000002b0: decc 8abd 1e04 22be 35ad b8bd bc10 aa3d
000002c0: 7971 713e a907 10be 23ec bf3c df79 c03d
000002d0: 292e 533e 49e6 b4be 486c bb3e 8db6 82bf
000002e0: 8cf0 4ebd 1d42 b53e a7dc 073f 773b ba3d
000002f0: 9082 4dbc fd74 30be 9d47 5bbe 2856 ebbb
00000300: 2dde 0a3e 6ac5 163e 3687 d43d 346b 303e
00000310: 49e1 143e cf43 163e 0e14 c73d 99b3 29be
00000320: 0c54 c63d 6671 e4bc e0ef 173d 70c5 043e
00000330: e2ac 12be d195 cbbd e54f 13bc e317 9e3e
00000340: cc76 723e 14fb 88bc ec28 ed3d 8931 f13d
00000350: 932f cbbd 1875 663e b9c2 a23e b7a6 ee3d
00000360: ae82 913d 68ff 09be 848e 873d 6db9 0ebd
00000370: a5f0 8a3e ad44 8fbe 6405 c3bd f0ad 813d
00000380: 1c03 113f 8dc5 83be fd8a d9bd fb1f 2e3d
00000390: 2826 d4bd ae05 b1be 3bda abbc 57e4 933e
000003a0: d6aa 023e 07a4 f2bd e4d1 9d3e 3684 9ebd
000003b0: 08cf aabe 5be1 96be b838 d53d 5683 16bf
000003c0: 7cdc 17be 4334 afbd 0303 3a3e 6d21 a73d
000003d0: b9a4 f73d b078 f93d e263 acbc 53a4 3abd
000003e0: acec 153f 7e5c 06be add0 c83d 3838 acbe
000003f0: 4057 b3bc 7d08 2abd a4aa 213d 221b 543e
0.08023819 -0.074719794 0.06832116 0.29982173 0.1671245 -0.017241532 0.18760289 0.14774449
0.12004023 -0.044187646 0.15033574 0.24505801 0.090661205 0.0452569 -0.22228049 0.106023155
-0.21257505 -0.121306345 0.27539733 -0.10744436 -0.016897805 0.14135967 -0.15434758 -0.06380339
-0.003980075 0.13168074 0.1617473 0.0016889431 0.24376185 0.12553562 0.469336 0.09926821
-0.031205785 -0.032356735 0.06906096 0.025058001 0.31680784 -0.23225053 0.20312047 0.28152224
-0.03643655 -0.06225291 -0.1601307 0.39398974 0.0051152376 0.322176 -0.09806669 0.27350608
0.07063835 0.0034605463 -0.08315229 -0.08777465 0.20237634 0.37918034 0.028289622 0.06709653
0.12687394 0.14730655 0.01987034 -0.22445005 0.02125161 0.29892072 -0.556824 0.2107258
-0.21137401 -0.13489172 0.09157239 -0.20737308 -0.08825781 0.25431076 -0.1291184 -0.049798764
-0.29476544 -0.070660554 -0.16982585 0.06234 -0.037382815 -0.12931667 -0.10058821 -0.043608557
-0.006662307 0.07001318 0.31060132 -0.93801534 0.1592684 0.1074578 0.19722545 -0.02372532
0.13263187 0.060171556 -0.36317205 0.060561176 -0.35635728 0.18030529 -0.2836883 0.0600264
-0.08558476 0.08322873 -0.033566464 0.07176021 0.17615478 -0.51095957 0.1355615 0.1771841
-0.08946509 0.16295469 -0.14769752 0.024508152 0.13753912 0.18777376 -0.6748598 -0.06296456
-0.19263631 0.29966462 -0.093986355 -0.26640102 0.1424278 -0.14543676 0.25670847 -0.3017062
0.09324007 0.045876205 0.18135989 0.09259928 0.046093177 0.035402227 -0.13286781 0.3796776
0.40707558 0.15207146 -0.13203415 -0.08503458 -0.019808486 0.32356682 -0.15414503 -0.04337079
0.09085256 -0.11262272 0.29790938 0.24894226 -0.00813671 0.21771653 0.10359037 -0.074865386
-0.04826423 0.05423564 -0.024821412 0.117757946 0.052792434 -0.10533106 0.09171545 0.16454476
-0.09272147 -0.050163038 -0.10051165 -0.18599498 0.020162743 -0.07148979 0.080031164 0.11035281
-0.14638063 0.23458208 0.18102768 0.2423302 0.18440217 0.0050182506 0.04267385 -0.12308105
0.055746548 -0.056590796 0.08995212 -0.05188994 -0.067773566 -0.15821883 -0.090174116 0.08303973
0.23578443 -0.14065422 0.023428028 0.09398245 0.20623077 -0.35331944 0.3660605 -1.021196
-0.050522372 0.35402003 0.53071064 0.09093373 -0.012543336 -0.17232127 -0.21414037 -0.0071819015
0.13561316 0.14723745 0.10377352 0.17228395 0.14539064 0.14674304 0.09720622 -0.16572417
0.096839994 -0.027886104 0.037093997 0.12965941 -0.14323762 -0.099406846 -0.008991216 0.308776
0.2367813 -0.016721286 0.11580071 0.11777026 -0.099211834 0.22505605 0.31789187 0.11652892
0.07105003 -0.13476336 0.066189796 -0.034844805 0.27136722 -0.27982083 -0.095225126 0.06332004
0.5664537 -0.25736657 -0.10622213 0.042510968 -0.1035884 -0.34574646 -0.020978084 0.28885147
0.12760481 -0.11847692 0.30824196 -0.07740061 -0.33361077 -0.29468808 0.10411209 -0.5879415
-0.14830202 -0.0855489 0.18165211 0.08160672 0.12091965 0.121812224 -0.021043722 -0.045566868
0.5856426 -0.1312122 0.09805427 -0.33636642 -0.02189219 -0.041512 0.039469376 0.20713475

network_body._body_endoder.seq_layers.0.bias f4 [256]
00000000: 399a 143c 38fb f53c 56e0 393c 392d 373d
00000010: 3b42 bbbc 9df1 bc3c 407d 823d a7a8 723d
00000020: bb5b 213c a562 11bd e445 393d 0bc9 253e
00000030: c56a 60bd 3cce e93c 1286 df3c adf0 833b
00000040: d7a3 143e 293f 0b3e d250 1c3d cbb6 3a3d
00000050: aebf f13d cd23 a33d ef19 393d fce8 c73c
00000060: 6c3b 15bd b50e ba3c af72 013e 46e8 eabb
00000070: f16e 29bc b4b5 35bc dc4b e1bc 8097 923c
00000080: 9602 03bd ff2f 373d 7351 2e3c a4b2 433e
00000090: 3540 843d be6d de3d 2ec5 4e3d 28aa 0d3d
000000a0: 8882 a53d f403 96bd f3f1 70bc df64 123d
000000b0: 226b 063c 1c0c 373e 1c9f 413d 6e39 3fbd
000000c0: 5efd 083c af4f f03b d50c a7bd 6b8d 66bd
000000d0: a0cc 3c3e 499a 943d 699f 2cbe b27f 1fbd
000000e0: 1386 dc3d 3dae a63d bb08 b3bd 8c4a d63d
000000f0: 0843 d63d 1f86 16bc f0f0 7abc 1be9 85bc
00000100: 7688 b2bc f2e4 e1bc a580 2fbd 04cd 873d
00000110: 02fa ee37 e777 463d c84a a23d ab0c c83d
00000120: 37da 453d cbba 683d 89a4 f6bc 8a54 843d
00000130: e5ec 7abd f559 41bd 1e4c 543c 4346 723c
00000140: cb5b 4d3d 449f f8bc 61d4 d8bd af9f 2c3d
00000150: 2e4a 8f3d 66b5 d2bc 43ca b53c b398 7b3d
00000160: 0cd2 9e3d 75f5 ef3c 6488 603d 225f 0a3d
00000170: 6031 923d 7a2a d03d 566d ac3d 5c42 ff39
00000180: 7ff1 b0bb cfbd 6e3c 63d9 a2bd c4b3 0f3e
00000190: fd22 04bd 26c9 793d 7de9 193b 579c f7bd
000001a0: 7044 593d fef6 5a3d 1819 31b8 6705 2d3c
000001b0: cc63 5f3d 10a0 a23d 88e1 08bc 0168 bfbb
000001c0: 0c9f a9bd 968f 98bc fe9d 2b3d 421f f13c
000001d0: a29e b93d 681b 853d b41e 153d e49e 903d
000001e0: 6da5 983d 360b 83bd 72ce df3c 8d38 c9bc
000001f0: 40bf 4a3d 7c02 10bd 5fde d53d 22ab 483d
00000200: 49d6 bf3b 0167 b53d 8cf5 a7bc a9a4 6d3b
00000210: 2469 9d3d fcb3 0c3d ac97 cbbd 31b2 483d
00000220: 8d82 2d3d 4306 4f3d 94c4 e2bc fcb8 053b
00000230: bc65 093d 688f d6bb eeff 543c 17c2 293b
00000240: 6c29 883c 152b d63b 1811 913d 8ff6 ad3d
00000250: 6fc1 ccbd 0fed 63be 6e5a 73bb c6db bb3d
00000260: ad32 393d b02c 923d 0e92 2a3d 0058 5abd
00000270: 6e15 643d df8b b93a ac92 033d 1f44 873d
00000280: fcb2 8d3c bbfe 93bd f121 5bbc d990 bf3d
00000290: 325a 063d 09d6 4c3d 2e18 2a3d 7ef4 a03d
000002a0: 794b c33d f916 4cbc bbbb 6e3b fe33 8f3b
000002b0: e0c0 fc3c 37a3 943d 00b8 5e3d d669 67bd
000002c0: facf 703d 6ac5 8a3c aacd fa3d 5ba8 fb3c
000002d0: 09f0 063d ec4c 2cbd 5d77 f6bc 7d76 e23c
000002e0: 8fdc 143c 6879 ba3c 1c2d 073d b692 4abc
000002f0: 5aa9 a53d 4ad6 55bd 27a8 203c 55d0 733d
00000300: 60d9 0dbd cc6f e53d fd71 343c 2522 0abd
00000310: 95c4 583d 7d2c 98bc 5eec ed3d 3b66 89bd
00000320: d7cf 623d fe35 fe3c d0ae b8bc 6e83 013d
00000330: c4ba 54ba ceec 2abd 2123 6c3d c44a e0bc
00000340: 04e7 7d3d e4ff f1bb d027 b7bc 7b3c 22bd
00000350: 3391 e93d fbc7 26bc ddcb 98bc 56d9 cc3c
00000360: 8c5c cf3b d53d a1bc 284a c9bc 28ac 36bd
00000370: 2213 c83c 5150 b23b 349c c7b7 c27f 583d
00000380: 590d a7bd 8ed4 da3c a297 7d3b dcae bd3d
00000390: 3f54 39bd 316b 26bd bde0 433d b85c fa3c
000003a0: adfe e5bd fa5a 133b 0e1f 913d 0eab 0dbd
000003b0: 2c77 1cbc eb0c 2fbc 39a2 9e3d 8bcc 8e3d
000003c0: 5711 743d 7b16 573d 6d40 693d 3eef bd3b
000003d0: cf1e 913d 9199 21bd fd91 033e d5a2 9b3c
000003e0: 6d4c 393d 8113 4a3c aaaf f03d ab1f b6bc
000003f0: c4f6 de3c 56df 923d 2f42 fbbc 1490 b53d
0.009069973 0.030027017 0.01134499 0.044720862 -0.02285873 0.023064429 0.06371546 0.05924287
0.00984853 -0.035494465 0.04523267 0.16189973 -0.054789323 0.028540723 0.02728561 0.0040264935
0.14515625 0.13598312 0.038163014 0.04558448 0.11804138 0.07965813 0.045190748 0.024403088
-0.036433622 0.022712091 0.12641405 -0.0071688024 -0.010341392 -0.011090685 -0.027501993 0.017894506
-0.031984888 0.044723507 0.010639536 0.19111115 0.06457559 0.108607754 0.050481014 0.0345861
0.080815375 -0.07324973 -0.014706123 0.03574073 0.008204253 0.17875713 0.04727088 -0.04668563
0.008361189 0.007333718 -0.081567444 -0.05628721 0.18437433 0.0725599 -0.16857685 -0.03894014
0.1076776 0.08138702 -0.087418996 0.104634374 0.10462004 -0.00918725 -0.015316233 -0.016346505
-0.021793585 -0.02757499 -0.042847294 0.066309005 2.848823e-05 0.04845419 0.0792442 0.09768041
0.04830381 0.056818765 -0.030107753 0.06461437 -0.061261076 -0.04720493 0.012957601 0.0147872595
0.05013637 -0.030349381 -0.10587383 0.042144474 0.069965705 -0.025721263 0.022191172 0.061424922
0.07754907 0.029291848 0.054817572 0.033782132 0.07138324 0.10164352 0.08419292 0.00048686832
-0.0053998823 0.014571621 -0.079516195 0.14033419 -0.03225993 0.060982846 0.0023485117 -0.12090366
0.053043783 0.053458206 -4.222346e-05 0.01056037 0.054538533 0.07940686 -0.008354552 -0.0058412557
-0.08282289 -0.018623155 0.04189872 0.02943385 0.0906346 0.06499368 0.036406234 0.07061556
0.074534275 -0.06398623 0.02732012 -0.024563098 0.049498796 -0.03515862 0.104428045 0.04899133
0.005854402 0.08857537 -0.020502828 0.0036261475 0.076860696 0.034351334 -0.099410385 0.04899806
0.04236083 0.05054308 -0.027681626 0.0020404449 0.033544287 -0.006547857 0.0130004715 0.002590304
0.016621314 0.0065358975 0.070833385 0.08494293 -0.09997832 -0.222584 -0.0037132758 0.09172778
0.045214344 0.0713743 0.041643195 -0.05330658 0.0556845 0.0014156065 0.0321223 0.0660479
0.01729726 -0.0722632 -0.0133747915 0.093537994 0.03280086 0.050008807 0.041526966 0.07859133
0.0953588 -0.012456649 0.0036427814 0.0043702116 0.030853689 0.07257693 0.054374695 -0.056497417
0.058792092 0.016939837 0.122462586 0.030719927 0.03294376 -0.042065546 -0.030086214 0.02764439
0.009085788 0.02276297 0.033002004 -0.01236408 0.08088942 -0.052206315 0.009805716 0.059524853
-0.034631133 0.11202964 0.011013505 -0.03372397 0.05292185 -0.018575901 0.11617349 -0.06708952
0.055373993 0.031031605 -0.022544295 0.03161948 -0.00081149884 -0.04172974 0.05765069 -0.027379401
0.06198789 -0.007385241 -0.022357851 -0.03960846 0.11404648 -0.010179515 -0.018651897 0.025005978
0.006328171 -0.019682804 -0.024571493 -0.044597775 0.024423186 0.0054417034 -2.3795386e-05 0.052856214
-0.08156843 0.026712682 0.0038695117 0.092618674 -0.04524636 -0.04062957 0.04782175 0.03056179
-0.11230216 0.0022484646 0.07086001 -0.03458696 -0.009549897 -0.010684232 0.07745785 0.06972607
0.05958685 0.052511673 0.056946207 0.005796342 0.070859544 -0.039453093 0.12848659 0.018998543
0.0452389 0.012333752 0.11752255 -0.022231897 0.027217276 0.07171504 -0.030671207 0.08865371

network_body._body_endoder.seq_layers.2.weight f4 [256, 256]
00000000: eabf dc3d 5909 0dbc d50b 0dbd ab61 923d
00000010: 8717 debc ab92 9fbd 964e 18be db53 cbbd
00000020: 03f1 d53d 750c b2bd eac9 fbbd d2e6 2abc
00000030: cc1f 093e 325e 1dbe b7aa 2d3d 7bc2 023e
00000040: 92fc 323d 7644 4d3e c354 b03c 1b59 c43d
00000050: 868c 173c 9d67 823e 646f 5fbd 8a38 c23d
00000060: ac97 db3d a16d 0abe 7144 e43d dec9 f43d
00000070: aa9e 81be 4fd5 dbbd ecd3 5a3e cfdf 3b3e
00000080: c6b7 6a3c 108f 88be 812d 0ebc 0d26 64be
00000090: 7ba2 8d3c 873f 18be 785f a0bc f818 b4b9
000000a0: f717 113e 5eb1 61bd 99e0 b13d 9fbc 78bc
000000b0: 034e b33d 626d 3a3d d0bd aabe fecc 51be
000000c0: 53d8 73bd a6c5 c83d 1c20 d5bd 7d18 103e
000000d0: 4151 24be 5c5d 55be dc3d 2abe 8de6 623d
000000e0: 69e4 92bd 79f7 aa3d c7d3 063e 63a3 8fbe
000000f0: 3066 1dbd 8e94 d33d d3b4 d0bd 32f5 aabd
00000100: e0f8 2c3e 5755 6e3e 7d2c 24bd 7041 1d3e
00000110: 83c1 113e 903c 1dbd ec15 543d 9a4a a43c
00000120: bd9e d0bd cefd 9cbd 2be0 993b 3d3f 13be
00000130: 8d78 10bd bb9f e1bd ffc9 bfbd d996 4a3e
00000140: 2275 103e ca93 623d 64d8 e13c 515d 99be
00000150: 664d 853e 9782 8cbe 48f7 e7bd 6a36 6bbe
00000160: 4bd8 603e 3825 d73b d9bb e43d 505f 0d3d
00000170: b53d 27bd fcba f6bd 4773 783e d5c6 513e
00000180: 642e d83e 429f 28be 131a 2cbe 9bbc 593e
00000190: 3c0c c4bd bcbb 153d 4c01 a73e 77bb 8d3d
000001a0: 474a c2bd 5f04 f6bb 414c 85be cc67 d8bd
000001b0: 2805 52be a573 52be eb9d b73d e297 d03d
000001c0: 90b6 9a3e 76f2 b33d 9035 033d fe02 c03d
000001d0: 63e0 65be 5d78 3abe 5e61 54bd 6a7b 30be
000001e0: 5dd1 95be 3271 093e 3fb4 29bc 95a9 d0bc
000001f0: b6b0 903d 417d ac3d f55c ffbd 663d 05be
00000200: 6e92 7a3e 43bc cc3d 3538 9e3e c379 743e
00000210: 6735 dcbd 52fb 09bc e975 febb 69e6 493c
00000220: 59ac d3bc 40a8 dfbd cc37 3b3e 9aa8 43bd
00000230: 74e2 c4bc bd79 e93d c088 16be 7a03 b6ba
00000240: e481 323e 448d 673e 5102 1cbe a72e f4bc
00000250: f970 70bd 19d4 573e 5b1f a2bd 447d 683c
00000260: 33a4 4bbd b1a9 743e aef0 1abd 738f 9d3b
00000270: fe7b e63d 84ce ce3d 3912 01bd 4e7f 7e3c
00000280: 05aa 2a3c 1d6c 82ba 7c3b e0bc efc0 9d3d
00000290: d0c2 1ebe eed9 0bbc 96ae 01be f340 d93d
000002a0: c5c8 bcbd c296 54bd 9d0b 913d 0d46 c43c
000002b0: ebc3 2abd a11f 1dbe 7a46 edbc b282 093e
000002c0: a53a 1a3d 7196 6cbe 9f60 ea3d b65e d43d
000002d0: 99ea dabe 7d94 803e 9402 13bd fb67 f2bc
000002e0: abd3 a7bd 3da9 9abd b8d9 143d 1151 cb3c
000002f0: 3270 343e c09c d93d 6597 673e 0adc c0bd
00000300: c964 f23d 715d c3bd 3987 323e 3205 32bb
00000310: 5aa3 e63d 0b0b 02bb c636 09bd 378f 803e
00000320: 2420 663e 8172 a83d af0f d23c 45c0 8e3d
00000330: db4c 273c 3545 02bd 4c0d 323d 400f 173d
00000340: 7243 9bbd 758b 0ebe a3c0 c5bd 47be 5ebd
00000350: 85be 5fbd 3f88 8d3c 8335 2d3e eab9 31be
00000360: 1f6e 07bd 4c86 403e 49e9 773d d93a da3d
00000370: 4d6d 8c3d dd03 70be db99 253e 7133 1ebe
00000380: a2ba e5bd ca36 65bd c4d9 4b3d f0ae 7b3e
00000390: 45a7 cbbb c18c 2d3d 1878 8dbd b217 71be
000003a0: e002 d0bd 0527 633d 7652 a0be 7b39 853e
000003b0: a08d 983d 69a2 1f3c c826 c8be 7dd4 a3bd
000003c0: 96aa d6bd 146a 54be c7de 85bd d26f 4f3c
000003d0: 4488 adbd d5c1 2c3d 48cf 313d 4f59 b0be
000003e0: 4abe 35be 9857 10be 2c78 febd 4272 043e
000003f0: ac44 8ebc a9ff f03d 3d42 de3d 59e6 ebbb
0.10778792 -0.008608186 -0.034435112 0.07147535 -0.027110828 -0.077916466 -0.14873728 -0.099281035
0.1044636 -0.08693782 -0.122943714 -0.010431008 0.13391036 -0.15367964 0.042399134 0.12769501
0.0436979 0.20045647 0.021524793 0.09587308 0.009249812 0.25469676 -0.05454959 0.0948344
0.107222885 -0.13518383 0.11145867 0.119525656 -0.25316364 -0.10734045 0.21369904 0.18347095
0.014326042 -0.26671648 -0.008677841 -0.2228014 0.01728939 -0.14867984 -0.019576773 -0.0003435088
0.14169298 -0.05510079 0.08685417 -0.0151816895 0.08755114 0.04551447 -0.3334794 -0.20488355
-0.059532475 0.098033234 -0.10406515 0.14071842 -0.16046621 -0.20836395 -0.1662516 0.05539565
-0.07172472 0.08347983 0.13166724 -0.28054342 -0.03842753 0.10331069 -0.101907395 -0.083475485
0.16891813 0.23274742 -0.04008149 0.15356994 0.14233975 -0.038387835 0.05177872 0.020055104
-0.10186527 -0.07665597 0.0046959124 -0.14379592 -0.035271216 -0.11016794 -0.093646996 0.19784106
0.14107183 0.055316724 0.027569003 -0.29954007 0.26035613 -0.27443382 -0.11326462 -0.22969976
0.21957509 0.006565716 0.111686416 0.034514725 -0.040830333 -0.12047383 0.24262725 0.20486005
0.42222893 -0.16467002 -0.16806822 0.21263354 -0.09572646 0.03655599 0.32618177 0.06920522
-0.094868235 -0.0075078453 -0.2603474 -0.10566673 -0.2050978 -0.20551927 0.08965667 0.10185219
0.3021741 0.0878648 0.032033503 0.09375571 -0.22448878 -0.18209977 -0.05185067 -0.17234579
-0.29261294 0.13422087 -0.010357915 -0.025471488 0.07064955 0.08422328 -0.12468902 -0.13011703
0.24469921 0.099968456 0.30902258 0.23874573 -0.10752373 -0.008421736 -0.007765521 0.0123230005
-0.025839018 -0.10920763 0.18283004 -0.047768213 -0.024033763 0.11400173 -0.14700603 -0.0013886534
0.17432362 0.22612482 -0.15235259 -0.029807402 -0.05870149 0.21077003 -0.07916137 0.014190022
-0.04971714 0.23892857 -0.037827186 0.0048083602 0.112541184 0.100979835 -0.03151152 0.0155332815
0.010416512 -0.0009950433 -0.027372114 0.07702815 -0.15504003 -0.008535845 -0.12664255 0.10608091
-0.09217981 -0.051901586 0.07082293 0.023959184 -0.04169075 -0.15344097 -0.02896427 0.13428763
0.037653584 -0.23104264 0.1144421 0.10369627 -0.4275711 0.25113288 -0.03589113 -0.029590597
-0.08194669 -0.07551811 0.036340445 0.024818929 0.17620924 0.10625601 0.22616346 -0.09416969
0.118356295 -0.09539307 0.17434396 -0.0027163741 0.112616256 -0.0019843008 -0.0334995 0.25109264
0.22473198 0.08224965 0.025642244 0.06970266 0.010211195 -0.031804282 0.043469712 0.036879778
-0.075812235 -0.13920386 -0.09655883 -0.05438068 -0.054625053 0.017276881 0.16914944 -0.17356077
-0.033064004 0.1880123 0.060525212 0.106557555 0.06856785 -0.23438974 0.16171972 -0.15449311
-0.11217238 -0.055960454 0.049768224 0.24578452 -0.0062150084 0.04237056 -0.06907672 -0.23544195
-0.10156798 0.055457134 -0.31312913 0.26020417 0.07448888 0.009743311 -0.39092088 -0.07999513
-0.104817554 -0.2074359 -0.06536632 0.012660937 -0.08473256 0.04217704 0.04341057 -0.34443137
-0.17748371 -0.14095914 -0.12425265 0.12934211 -0.01736673 0.11767513 0.10852478 -0.0071990904

network_body._body_endoder.seq_layers.2.bias f4 [256]
00000000: 141e 72bd 9f71 d43b 6bd0 2d3d 6eb7 a7bd
00000010: 63c1 babe 064b 603d a94a e33d 170d b73d
00000020: fa96 ef3c 5354 b4bd 7484 2f3d 78bc e73d
00000030: 3ad3 1e3d 9547 2dbe 0995 34bd cb86 cdbc
00000040: 9e89 23bd a752 33bd 0b45 0c3e 7b40 4f3e
00000050: 7b33 5dbd d451 ff3d b42e 89bd a7bc 29bd
00000060: 2ccc b4bc bbc4 18bd 5540 35bd 851d 47bd
00000070: 3629 6cbc 2830 54bd 7fd2 3f3d a1e2 d83d
00000080: ad1c 023d f07c cd3c 765d ec3d b3b5 34bb
00000090: dec6 60bd 5ae4 693d 0d84 21bd 6335 153c
000000a0: a12e 5bbd a999 59bb e58a f0bd 80af 65bd
000000b0: c85c 1dbe ff0c d5bd 9f08 30be 6f81 e3bd
000000c0: 348f 77bd 49dc 21bd fb7e c33d efa6 78be
000000d0: 8540 9fbc d19b 79bd b0a9 c93a 0727 193e
000000e0: 63be 8bbd eee2 66bd 20b1 a4bd fc6b 043d
000000f0: 062e 64bd 3a18 2f3d d79a 89bc 28a0 8fbd
00000100: a928 163e 5cc0 14be de8d d3bc 1776 843d
00000110: 5d93 a3be 44f8 44be 64ea 7ebd 6fd5 0a3e
00000120: aea9 b8bc 955e 313c d7db 69bd acfe 5a3d
00000130: cdc4 83ba 0df7 9a3b d3fb 8abd 8ab7 1bbe
00000140: 2db7 86bc 55ee a6bb 97bc 0a3d bf0e c63d
00000150: 443f c9bd 7648 e9bd 7cf4 1bbe 439a 543d
00000160: f5b4 813d 7f41 cbbe c691 40bd e5a4 ff3d
00000170: af78 c43d 81b1 ffbd e942 8e3d 07b2 1f3e
00000180: 77f7 b93c 5881 a2bd d482 97bb 9c9b e73a
00000190: a31c 2f3d c45f 23bd bfe3 593d 0e73 6d3d
000001a0: 73d7 ecbc 6553 643d dee4 7e3b ba50 5ebb
000001b0: ce68 63bd d374 3ebc ec07 30be c2dd e93c
000001c0: e9df c3bd 6283 b93d 3b5c 623d 0897 c23c
000001d0: f5a2 02be 44f8 debb e183 a73c 8dd2 b73d
000001e0: c24c 5f3e 5e46 7dbe 2c17 933d fc4c 023e
000001f0: ba1c b03d b913 a5bc 51d2 103d de70 993d
00000200: c1bf 623d 7200 15bb 526c 1b3d 8ea8 62bc
00000210: 8068 d33c 31be 5cbd 88eb 963d cbd1 babd
00000220: 1349 a7bc ad74 ba3c 69ed 923c 595a b3bc
00000230: 523b a7bd 1236 6b3d 8f8c 0fbe 4b24 353e
00000240: c4d8 37bc c929 a33c 5973 a73d 6fe6 16bb
00000250: 9663 2d3c 1871 823d 55d8 dcbc c4f3 9dbb
00000260: 1de4 803d 36c8 663c 8717 1a3e 6b09 b1bd
00000270: a672 e33c d9b3 933b 27a3 3e3d 2a1d 973c
00000280: bd11 d63d 1b2a cb3d 8fdc 823d 78f4 25be
00000290: b917 f13d ebd6 3a3b 1e46 43bc 7328 78bd
000002a0: dbe4 38bd c1bc 073d 0fbf e23d 1720 cdbd
000002b0: 38c1 203e 9a5c 153d 82cb 113d 53b0 813d
000002c0: c1a6 8c3d ceb5 12be 9986 ae3c e839 edbd
000002d0: ea7b fe3c 1db1 4ebd eb4e f93d cecd ac3d
000002e0: 211d adbc aa0d 0f3d 9572 313e 6791 efbb
000002f0: b7ca cfbc 4633 e23c 892f 05bc fefd 1abe
00000300: 75cb c5bd 7ed3 f43c a92d 95bc 05e0 923d
00000310: e4eb bcbd c9f8 bc3d b83d fabd e84d 94bb
00000320: 0bb5 2d3e df09 1fbe 3953 08be b8ca e13d
00000330: 8bb2 e3bd cbe5 013e 3ce3 f8bc c2a8 263e
00000340: 46ee 0ebd fb67 833d 79bd c8bc b13e 583d
00000350: c2ab 263d ef7b d3bc 1078 003e 9ce9 32be
00000360: 37cb 4d3e 8364 863d 869f 80bd 374e f3bd
00000370: fb8d 83bd 858e f33c 84b1 89bb 9ab1 f13c
00000380: 93ed eb3d ce73 123d a7fc c13d 9f3b 9abd
00000390: a1bc 043b 133e 66be 429c 96bc e07b a6ba
000003a0: 3be0 95bb e672 b6bc 86b1 08be 8e44 2abe
000003b0: 3b0e 1d3d 697a 6d3c 0f8e ddbd 3334 8e3d
000003c0: cb6c 1ebe 29b3 183e bafe f8bc 3b54 06be
000003d0: 3900 18bb 53e0 bfbc 4e6f 9b3d 5020 813d
000003e0: 4ff1 26bd 6b25 65bd fdf5 253d 0e1b e83c
000003f0: 2446 18be 9746 2fbd 53a5 5f3d d326 0f3e
-0.059110716 0.0064832713 0.04243509 -0.08189283 -0.36475667 0.054759048 0.11098225 0.089380436
0.029246796 -0.08805146 0.042850927 0.113152444 0.03877566 -0.16921838 -0.044087444 -0.025088688
-0.039926164 -0.043779995 0.13698213 0.20239441 -0.054004174 0.12466779 -0.06698361 -0.04143968
-0.022070013 -0.03729699 -0.044250805 -0.048612136 -0.014414122 -0.051803738 0.046831604 0.10590101
0.03176563 0.025083989 0.11541264 -0.0027574121 -0.054877155 0.05710254 -0.039432574 0.009106967
-0.053511266 -0.003320316 -0.11745242 -0.056075573 -0.15367424 -0.104028694 -0.17190789 -0.11108672
-0.060439304 -0.03951672 0.09545704 -0.2428243 -0.019439945 -0.060939614 0.0015385654 0.14956294
-0.06823423 -0.05636876 -0.080415964 0.032329544 -0.055707954 0.042747714 -0.016797466 -0.07012969
0.14663948 -0.14526504 -0.025824483 0.06467836 -0.31948367 -0.19235331 -0.06223525 0.13557981
-0.022541847 0.010825773 -0.05709442 0.05346553 -0.0010053158 0.004729158 -0.06786313 -0.15206733
-0.016444767 -0.0050943294 0.03387126 0.09670781 -0.0982652 -0.11390774 -0.15229982 0.051904928
0.06333343 -0.39698407 -0.04701402 0.12482623 0.09593331 -0.12485028 0.06946356 0.15595256
0.022701008 -0.079348266 -0.00462375 0.0017670277 0.04275192 -0.03988625 0.05319571 0.057971053
-0.028911328 0.055743594 0.003889374 -0.0033922628 -0.05551987 -0.011624533 -0.17190522 0.028548125
-0.09564192 0.090582624 0.05526374 0.023753658 -0.12757476 -0.006804498 0.020448627 0.08975706
0.21806625 -0.24733874 0.07182154 0.1272468 0.08599229 -0.020151006 0.035356823 0.07492231
0.055358652 -0.002273586 0.0379451 -0.013834132 0.025806665 -0.05389232 0.07369143 -0.09122046
-0.020420587 0.022760713 0.017935472 -0.021893667 -0.08165611 0.057424612 -0.14018463 0.17689626
-0.011221115 0.019917386 0.08176298 -0.0023025533 0.010582825 0.06369227 -0.026958624 -0.004820319
0.06293509 0.01408582 0.15048037 -0.086443745 0.02776463 0.0045075235 0.046542313 0.018446524
0.10452602 0.0992014 0.063897245 -0.16206539 0.11772103 0.0028509449 -0.011918573 -0.06058545
-0.04514013 0.033138994 0.11071598 -0.10015886 0.15698707 0.036465265 0.03559447 0.06332459
0.06867743 -0.14327165 0.021304416 -0.1158331 0.031064946 -0.050461877 0.121732555 0.08437692
-0.021132054 0.03492514 0.17328866 -0.0073110345 -0.025365217 0.02761234 -0.008129009 -0.15135953
-0.09657947 0.029886004 -0.018210249 0.071716346 -0.0922468 0.092271395 -0.12218803 -0.0045258887
0.16963594 -0.1553111 -0.13312997 0.11024994 -0.11118039 0.12685315 -0.030381791 0.16275313
-0.034895204 0.06416317 -0.02450441 0.052794162 0.040691145 -0.025815932 0.125458 -0.17471927
0.20097052 0.0656214 -0.06280427 -0.11880153 -0.06423565 0.029731045 -0.0042020697 0.029503632
0.11519923 0.03575497 0.09472018 -0.07530903 0.0020254033 -0.22484617 -0.018385056 -0.0012701713
-0.0045738495 -0.022271585 -0.1334897 -0.16627714 0.03834365 0.014494517 -0.10818111 0.0694355
-0.15471189 0.14912094 -0.0303949 -0.13118069 -0.0023193492 -0.023422396 0.07589589 0.06304991
-0.040757474 -0.055943888 0.040517796 0.028333213 -0.14870507 -0.04279193 0.054601025 0.13979654

action_model._discrete_distribution.branches.0.weight f4 [7, 256]
00000000: 2f35 61be e968 59bd 5f27 3abe 44a3 4f3e
00000010: 37a7 9f3e cfbf 34bb 108f 293e 5aa7 40be
00000020: 303c 5bbe 95df 973d 3abb 0a3e 0f91 cbbc
00000030: f10e 93bd adfa b43c 5588 1e3e 6603 823d
00000040: 0009 b83d 21dc 0a3e 360a 2dbd cca2 96be
00000050: a3b8 893b aae2 85be c0b7 14be a080 78be
00000060: 6f9d 2b3d 4c77 9bbe cb88 a43e c871 6d3e
00000070: cd38 d23c f115 003f c1cf 56bd ffe9 d23d
00000080: c49b d8bd 2150 11be 9c51 71bd 95bb 28be
00000090: c355 8ebd 0ce9 debd 958d ebbd 0e32 16bd
000000a0: d9aa 1a3e 56b1 3fbd 3361 4c3e c266 ba3d
000000b0: fb77 043e f559 4a3e 1e23 51bd c86f b4bd
000000c0: ed80 593e 737c 9b3d 3733 ddbd b1ec 183e
000000d0: 873f c6bd c852 033d 148a 133e 59c9 08be
000000e0: dd34 94bd c6ee d6be 0bc1 1abd 0b7a 1bbe
000000f0: 287a 423d 7ab9 17be 4873 b0be 5d99 953e
00000100: da9b ccbd c5ed 8e3d 27c2 bbbe 28f9 813d
00000110: 6a27 9c3e d1c7 843d ab6f 9fbd eff6 13be
00000120: 2272 0a3d eb80 d5bd 5aa9 4b3e cbda 7e3d
00000130: 0e30 7d3d 67bd 8ebc 1186 b3bd 5917 543e
00000140: 00fc 9e3d effc 0b3d a463 95bd 74c9 4dbe
00000150: f3f4 e53d 16ef c53d 067a 8a3e b5b8 2cbd
00000160: 1b7d 69be c8f0 873e 6a93 d2bd dcc9 94be
00000170: 63f1 f83d 2ee7 a43d cf57 82be 3af9 debe
00000180: 02e6 57be de70 fb3c 1a9b 73bd 424b 113c
00000190: aad5 2fbd 7fb5 533d 2816 47be c3e3 5abd
000001a0: c534 893d 2652 b13b c861 4abd 123f a6be
000001b0: b0d1 9c3d c677 9cbe 39a0 b33d 0ec1 e4bc
000001c0: 0687 1e3e c5a2 d4bd b320 7cbe c05b 86bc
000001d0: ba51 53be 2d86 353e 1f03 2bbe 8690 793d
000001e0: f1fd 84bc ac69 873e 366d 0abe 8a25 103c
000001f0: b830 19be 3c01 923e d7b8 e93d 715e aebd
00000200: 725d fc3c 6565 a03d b122 d43d ea3b 2ebe
00000210: 1932 23be 9cae c53d ae7c 7abe 9d8b f73d
00000220: 157d 863e 0dd5 c9bd 26e2 233c 6f48 973c
00000230: cd59 bd3d 2db0 0c3d 0531 133e 4bed cfbd
00000240: 8f4b 153e 8a96 993d 7a43 27be d203 0c3e
00000250: 9037 b3bd 3b33 46bd a5d3 663c e0d5 0c3d
00000260: d10b 93be 4db9 05be 0db1 bbbd 4e62 273e
00000270: 8779 14be 55e8 713e 112e 1ebe 7142 bebb
00000280: 3a32 99bd b29e 33bd b6fb c4bd 52b4 123e
00000290: e1c2 14be 4b67 4fbd ceaf 7ebd 25b4 453e
000002a0: f640 83bd 270e 0dbd 8fb9 cdbe 7427 e7bd
000002b0: c625 693e cffa 9f3c d823 aabd b6f5 4dbd
000002c0: f477 f1bd d331 0c3d 5780 8cbd 3263 d9bd
000002d0: 53f4 46bd 60f5 eb3d 8b42 0b3e 808a 82bd
000002e0: 1b16 243a d087 85bd bb1f c3bc ec41 fcbd
000002f0: 93cd 2a3d 64af dbbb 5219 c9bd d1cf 613e
00000300: 87d0 453e f655 6abd 9bac a6bb 2cbc 193e
00000310: 1652 6ebd 55a1 77bd fb5e 19bd c657 583d
00000320: ec77 cdbd 7a2d 68bd b5b8 0b3e 2802 b5bd
00000330: c3c8 0e3d c5f0 84be f876 443d 985e 17be
00000340: 9cee 2ebd c9db bc3d 21fd 183d 81c9 7a3d
00000350: db86 49be 8437 e1bd cd38 a8bd 0b39 66bd
00000360: 5a04 3dbe 106e 73be 1af6 90be 002f c23e
00000370: 09b5 9a3d 6c54 e2bd 3c8e 4dbd 1baa 02be
00000380: 8c22 22be 3f2f 543e 7ab2 a03d 25ce 2d3e
00000390: b8c4 213e cafc 77bc 49db 0e3e e4f1 13bc
000003a0: f5c5 4a3c 751d 7e3d f8c2 df3c c3bb 9bbc
000003b0: de71 9cbd b5e1 d53c 6c1c 073e db48 69bd
000003c0: c520 ad3d c757 dfbc 9b8d 9b3b c691 b7bc
000003d0: 2f86 9abd 5d0f b83d c598 eebd fff5 f23d
000003e0: 8991 413e b784 943d 52c0 433e 8431 e6bc
000003f0: 6fce 8a3e 5c38 e03d 1af3 b83d 5d19 61be
-0.21992944 -0.053078566 -0.18179081 0.20277125 0.31182262 -0.0027580147 0.1655848 -0.1881384
-0.21409678 0.07415692 0.13547984 -0.024849443 -0.07180584 0.022092188 0.15481694 0.063483045
0.089860916 0.13560535 -0.042246066 -0.2942108 0.0042029186 -0.26149493 -0.1452322 -0.24267817
0.041898187 -0.30364454 0.32135615 0.23187935 0.02566185 0.5003348 -0.052444223 0.102985375
-0.10576585 -0.14190723 -0.05891572 -0.16477807 -0.069499515 -0.10884294 -0.11501614 -0.03666883
0.15104236 -0.04679998 0.19958954 0.09101631 0.12936394 0.19760878 -0.05105888 -0.08810383
0.21240588 0.07592096 -0.10800784 0.1493404 -0.09680086 0.03206137 0.14408141 -0.13358058
-0.07236645 -0.41979045 -0.037781756 -0.15183274 0.04747978 -0.14816847 -0.34462953 0.2921857
-0.09990664 0.06978945 -0.36671564 0.06346351 0.3049882 0.064834245 -0.07784971 -0.14449666
0.03380025 -0.1042498 0.19888821 0.062220376 0.061813407 -0.017424298 -0.087658055 0.20712031
0.07762909 0.034176763 -0.072943956 -0.2009638 0.11228361 0.09664743 0.27046221 -0.042168338
-0.2280163 0.2655089 -0.10282023 -0.29060256 0.12155416 0.080519065 -0.25457618 -0.4354952
-0.21083835 0.030693468 -0.05947409 0.0088680405 -0.042928375 0.05168676 -0.19442046 -0.053439867
0.06699518 0.005411404 -0.049409658 -0.32469994 0.07657182 -0.3056013 0.087707944 -0.027924087
0.15481195 -0.10382608 -0.24621849 -0.016401172 -0.20636645 0.17726965 -0.1670041 0.060928844
-0.01623437 0.2644781 -0.13518223 0.0087980125 -0.14959991 0.28516567 0.114122085 -0.08514107
0.030806277 0.078318395 0.10358179 -0.17015043 -0.1593708 0.09652445 -0.24461624 0.12087176
0.26267305 -0.09855089 0.010002648 0.018467156 0.09245644 0.0343477 0.14374168 -0.10152682
0.14579605 0.07499416 -0.16334334 0.13673332 -0.08750832 -0.0483887 0.014088546 0.034383655
-0.28719953 -0.13058968 -0.09164629 0.16346094 -0.14499484 0.23623784 -0.1544726 -0.0058062603
-0.07480283 -0.043852516 -0.096183226 0.14326599 -0.14527465 -0.050635617 -0.06217938 0.19307001
-0.06408875 -0.034437325 -0.40180632 -0.11286822 0.22768316 0.019528775 -0.08307618 -0.050283156
-0.11790457 0.034227204 -0.068604164 -0.10614623 -0.04857285 0.11521411 0.13599603 -0.06374073
0.00062593975 -0.06520045 -0.023818841 -0.12317261 0.041699957 -0.006704258 -0.098192826 0.22051932
0.19317828 -0.057210885 -0.005086494 0.15013188 -0.058183752 -0.060456593 -0.037444096 0.052818082
-0.10032639 -0.056683995 0.13644679 -0.08838302 0.03485943 -0.25964943 0.04796502 -0.14782178
-0.042708024 0.09221608 0.037350778 0.061227325 -0.1968035 -0.10996917 -0.08213959 -0.056206744
-0.18458691 -0.23772454 -0.2831276 0.37926483 0.07554061 -0.110512584 -0.050184473 -0.12760203
-0.15833491 0.20721148 0.07846542 0.16973169 0.15797698 -0.015135953 0.13950838 -0.009029839
0.012376298 0.06203981 0.027314648 -0.01901043 -0.07638906 0.026108602 0.13194436 -0.056954246
0.08453516 -0.027263535 0.0047471053 -0.022408377 -0.07545125 0.08987305 -0.11650232 0.11863326
0.18903174 0.07251876 0.19116333 -0.028099783 0.2711062 0.1094825 0.09030743 -0.21982332

action_model._discrete_distribution.branches.0.bias f4 [7]
00000000: d84d e6be 3035 05bc 8ef3 45be d422 a33d
00000010: 8839 2f3e a1cc b03b ccf4 f33c
-0.44981265 -0.008130357 -0.1933119 0.07965627 0.1711179 0.0053954874 0.029779814
