results/puzzle_expirement_0/PuzzleBehavior/PuzzleBehavior-17999972.onnx (onnx, 334731 bytes, 6 tensors)

network_body._body_endoder.seq_layers.0.weight f4 [256, 57]
000000 ca d1 11 be 0e d1 54 bd 7a b1 52 bd e1 55 ff bd
       -0.14240184 -0.051957183 -0.051438786 -0.12467552
000010 ab 80 4c 3e dd 22 b2 3e 7c 42 08 be 84 fc 01 3d
       0.19970958 0.34792224 -0.13306612 0.03173496
000020 01 f9 46 be 7d 0d 35 be d5 17 21 3e 7c 36 10 be
       -0.19430925 -0.17680927 0.15731747 -0.14083284
000030 6f 9a e0 bd e3 c1 80 bd 7a df 77 3e 84 54 d6 3d
       -0.10966956 -0.06286981 0.24206343 0.10465339
000040 f2 31 28 bd af 48 4d 3d 7d af 6d 3c e2 68 cc bc
       -0.041063257 0.050118145 0.014507172 -0.024952356
000050 47 01 f9 3b 4a ee e2 3d 62 cf 92 be 22 f5 b1 bd
       0.007599029 0.11080606 -0.28673846 -0.086893335
000060 d3 c8 e9 bd 99 ec 42 be 5e 45 d7 3d e5 75 2d 3e
       -0.11415257 -0.19035567 0.105112776 0.16939504
000070 58 03 ea 3c f5 1c 3e 3e 15 d7 f8 bd 65 9b ff bd
       0.028566048 0.18565734 -0.12150399 -0.12480811
000080 08 ec 0c be 1f 76 09 3e c6 19 49 be d0 d6 ab bd
       -0.13761914 0.13423966 -0.19638738 -0.083905816
000090 0e e5 9d be a0 f1 a1 3d 04 78 92 bd 7e ec 85 bc
       -0.30838817 0.079074144 -0.071517974 -0.01634812
0000a0 a2 ee 5b 3e 02 f6 10 3e 03 71 8f 3d e6 78 35 be
       0.2147775 0.14156345 0.07003977 -0.177219
0000b0 a7 be cc 3c 2e 0a 26 3e b2 42 2d 3d 20 30 f9 3d
       0.024993254 0.1621482 0.042299934 0.12167382
0000c0 ff 23 17 3d f6 49 0f 3e 04 3f 25 be 7b 7f d1 bc
       0.036899563 0.13993058 -0.1613732 -0.025573483
0000d0 1f 92 ff bd a3 00 71 3e aa 92 71 be d2 6b a7 bd
       -0.12479042 0.23535399 -0.23591104 -0.08174862
0000e0 d4 af c2 bd 97 02 98 be 63 9f 21 3d ea 5e a5 bd
       -0.09506193 -0.29689476 0.039458644 -0.08074744
0000f0 aa c5 94 3e 3a ac df 3d 6a fb 4a bd 27 1c 8e bd
       0.29057056 0.109215215 -0.049556173 -0.069389634
000100 78 ef f2 3d c0 cd fb be 0e fe 85 be be 30 d3 be
       0.11862081 -0.49180412 -0.2617039 -0.41248125
000110 71 8f 6c be 6c 37 7c be ff 4d a4 bd a6 56 52 be
       -0.23101594 -0.24630517 -0.08022689 -0.20540866
000120 13 bb 13 be b4 1e 8d 3d 9b fb a4 bd 5e 57 16 bd
       -0.14426832 0.06890622 -0.080558024 -0.036704414
000130 59 46 8f bc 33 94 7a 3d 09 97 b0 bd af 86 dc 3c
       -0.017489599 0.06117649 -0.08622558 0.02691969
000140 c7 83 90 bd 3b c6 ab bc 44 c8 cb bd cc ee 1a bc
       -0.070563845 -0.020968547 -0.09950307 -0.009456348
000150 4e b3 25 be 54 27 c6 3c 56 87 97 ba 29 ef ba bc
       -0.1618168 0.024188675 -0.0011560719 -0.022819119
000160 27 f0 df 3e f3 33 78 3e 4a c1 9a 3e 29 73 30 3e
       0.4373791 0.24238567 0.30225593 0.1723143
000170 f6 87 10 be b1 b0 29 3d 88 44 83 bc 9d fe 52 3e
       -0.14114365 0.04142827 -0.01602389 0.2060494
000180 21 b6 90 bd 02 45 d9 ba 29 bc e6 bd f9 07 75 3d
       -0.07065988 -0.0016576352 -0.112663575 0.059822056
000190 c8 11 b0 3e 6d 63 6c be b2 7c b7 bd 2c c1 35 3e
       0.34388566 -0.23084803 -0.089593306 0.1774947
0001a0 0f 69 87 3e 18 1d 2a 3e 24 11 2b 3d 44 11 28 3e
       0.2644734 0.16612661 0.041764393 0.16412836
0001b0 e3 e8 f7 3d 09 05 95 3d 6c 50 05 3e 90 5b 74 bd
       0.121049665 0.07276351 0.1301896 -0.059657633
0001c0 77 12 6e be 01 de 0b be ca 4b f5 bd fc 7a 99 3c
       -0.23249231 -0.13658907 -0.11977346 0.018735401
0001d0 69 6e f6 bd a9 bb 51 bd 78 54 7f bd b9 cb 16 3e
       -0.12032778 -0.051204357 -0.062336415 0.14726152
0001e0 98 58 e7 3d 87 b9 a4 be 68 2f 9d 3d d3 2e 1c 3d
       0.11296195 -0.32172796 0.07675058 0.038130593
0001f0 4d 15 12 be 78 11 0f be b9 2f 84 3d 39 f0 30 3d
       -0.14265938 -0.13971508 0.06454415 0.043197844
000200 bc 37 f3 bb 2e aa f1 3c e0 59 b8 bd 33 fc 99 be
       -0.0074224155 0.029500093 -0.09001517 -0.30075225
000210 c5 52 20 be 0a 7a 68 3e 68 c6 fb 3d 97 7d 3c 3c
       -0.15656574 0.22702804 0.12293702 0.011504552
000220 01 de ae 3d 5e 5b 4c 3d 62 e5 7c 3c eb 2d 1c 3c
       0.08538438 0.049891822 0.0154355485 0.009532432
000230 2c 1f d3 bd 05 ae 91 be 1c 69 bb 3d f4 8f 86 3d
       -0.1030868 -0.2845308 0.091509074 0.06570426
000240 19 88 80 3e c0 3b fd 3d 4d e5 67 3d cb a3 a5 3e
       0.25103834 0.12364912 0.056615163 0.32351527
000250 2d 8a 9f bc 2d 8a 01 3e 34 08 38 bd 0f 4d d9 3d
       -0.019475067 0.12650366 -0.044929698 0.10610401
000260 23 02 64 bc da 37 e2 bd 0f 07 99 3e 39 2b bb ba
       -0.013916525 -0.11045809 0.29888198 -0.0014279849
000270 e9 5a 72 be 45 2b 00 bd 8c f1 e1 3d cc fc b2 3d
       -0.23667492 -0.031291265 0.110323995 0.087396234
000280 67 13 a4 3b a2 ea 6a 3d 6f ed 93 be 8a fa 36 bd
       0.0050071958 0.05735267 -0.28892085 -0.044672526
000290 4c e4 8c be 38 bf 43 be 14 a8 ee 3c 99 22 1f 3d
       -0.27517927 -0.19115913 0.02913288 0.038851354
0002a0 ce 7c 16 3d 4f 30 d3 3d d1 17 fe bd 7e a4 29 be
       0.036740117 0.103119485 -0.12406886 -0.16566655
0002b0 b6 2b 8d be e8 60 92 bd ef f7 b5 bd 2e 4e 0d 3e
       -0.2757241 -0.0714739 -0.0888518 0.13799354
0002c0 6f 36 75 bc db 0c d9 be 4e 4c 97 3e 70 bb 06 bd
       -0.014966591 -0.4239262 0.29550403 -0.032893598
0002d0 6a eb 78 be 2b c2 17 be b3 3c a0 3c 7b 4a 33 3e
       -0.24308553 -0.14820163 0.019560194 0.17508881
0002e0 5c 47 57 3e 8a 84 f5 3d f9 dc bc 3d 3a aa f5 bc
       0.21023315 0.119881704 0.09221835 -0.029988397
0002f0 04 2c a6 3d 2f 31 35 3e b4 5b c3 3d 46 ff af be
       0.08113864 0.17694543 0.09538975 -0.34374446
000300 93 55 10 be ee 16 c6 bc 4b 62 14 3e ab 17 8c bd
       -0.14095144 -0.024180856 0.14490621 -0.06840452
000310 80 de 34 3d 6e dc 1c be 8f 5b 72 3d 80 af a9 3d
       0.044157505 -0.15318462 0.05916935 0.08285427
000320 50 80 84 bb 77 bf 61 3c 95 1a fa 3d 20 74 02 3c
       -0.0040436164 0.013778559 0.12212101 0.007962257
000330 71 ed c4 bd 24 58 3c 3e b2 6c 24 3e a5 56 8e 3d
       -0.09615601 0.18392998 0.16057089 0.0695012
000340 db 48 a5 3d c8 80 d8 bd 82 b3 7d be 28 b3 6a 3e
       0.08070537 -0.10571438 -0.24775508 0.22919905
000350 4b 25 ec 3d 5a e3 18 be 2e c6 59 3e 46 86 23 3e
       0.115305506 -0.14930478 0.21267006 0.1596919
000360 5f ce f7 bd 4a 7b b0 3b d9 d8 b2 bd 98 7c 23 3d
       -0.12099909 0.005385791 -0.08732767 0.039913744
000370 ac 2e 0e 3e 14 9d 51 3e e0 97 26 be 65 fe 31 3b
       0.13884991 0.20470077 -0.16268873 0.0027159688
000380 12 80 96 bc ca 89 d6 bc cd 32 7b be 19 45 30 3e
       -0.018371616 -0.02618875 -0.24531098 0.17213859
000390 ce dc d3 bd 34 fb 83 bd ed bc c4 be d2 a9 54 be
       -0.103448495 -0.064443976 -0.3842539 -0.20767906
0003a0 0e 01 24 be 0a 5e 04 bd 1f 49 a8 bd cf 0b c2 3e
       -0.16016027 -0.032316245 -0.08217072 0.37899634
0003b0 9d aa cb be 62 9a 85 be 16 6e 54 3d ef 73 b6 bd
       -0.39778605 -0.26094347 0.0518628 -0.08908831
0003c0 ee 9c 32 bc 4b bd 1f 3e da ce fc 3d 0a 8e cd bc
       -0.010901673 0.15599553 0.12344141 -0.025092144
0003d0 31 1b 1e 3d 86 dd a9 3d bc 37 43 bc 93 8e bf 3e
       0.03860015 0.08294205 -0.011915144 0.37413463
0003e0 ae 81 19 3e 04 77 99 bd d8 98 a0 be 5d 6e 94 bd
       0.14990875 -0.074934036 -0.3136661 -0.072476126
0003f0 8b 70 b5 be be 72 88 bc fa e1 0e be 7f 63 98 be
       -0.35437426 -0.016656276 -0.1395339 -0.2976341

network_body._body_endoder.seq_layers.0.bias f4 [256]
000000 b0 5e 9e 3d 00 68 1b 3d 2a ae 72 bd ce 6d 80 3d
       0.07732904 0.03794098 -0.059248127 0.062709436
000010 67 80 a3 3c be ca c1 bd bb 93 22 bd 75 63 4f 3d
       0.019958688 -0.09462498 -0.039691668 0.05063196
000020 ee 6b 7f bd 49 3e 82 bb e7 a9 a0 bc cc 50 bd bc
       -0.06235879 -0.00397471 -0.019612266 -0.023109816
000030 80 88 8d 3c 11 2c bb 3a 7d 3f be 3c f3 d0 e1 3c
       0.017277002 0.0014280101 0.023223633 0.027565455
000040 4f f8 ac 3d a5 da 9f 3c 5b 96 42 bc 63 08 66 bb
       0.084457986 0.019513438 -0.011876668 -0.0035100214
000050 0f e8 93 bd ba bd 08 bd 8e cb 1e bd a5 b7 d0 3c
       -0.07221996 -0.033384062 -0.038768344 0.025478194
000060 f8 a8 ea bd b2 04 22 3d fb 92 0e bd a6 b4 82 3c
       -0.114580095 0.03955526 -0.03480814 0.01595528
000070 fd 31 1a 3d 94 61 66 bd dc 26 bb 3d 87 d3 35 3d
       0.03764533 -0.0562454 0.09138271 0.04439118
000080 d5 3d e1 bb 1f 06 07 bd e6 06 80 3d a3 60 a4 3c
       -0.006873826 -0.032964822 0.06251316 0.020065611
000090 d3 36 9e 3d 0a b1 15 bd 5e 42 a0 3a bb 9f 41 bd
       0.07725301 -0.03654579 0.001222681 -0.04727147
0000a0 92 56 80 3c 22 eb 31 3d f2 01 c4 3c 32 ef 38 bd
       0.01566628 0.04343713 0.023926709 -0.04514999
0000b0 45 7c 4e 3d 19 18 15 3d c0 76 03 3d 3b ba ad 3c
       0.05041148 0.036399934 0.03209567 0.021206966
0000c0 90 8f 30 3d b9 4f 6d 3c c4 58 59 bd ac dd 9d 3c
       0.043105662 0.014484339 -0.05306317 0.01927074
0000d0 6c 17 81 bd 6e 4c 99 bb 0e 1f b7 bd eb 8c 9d 3d
       -0.063032955 -0.0046783006 -0.0894147 0.076928936
0000e0 b4 05 a0 3d 18 c9 41 3d 70 3a 47 3d a3 76 c5 ba
       0.07813588 0.04731092 0.048639715 -0.0015065264
0000f0 59 b1 7b 3d 94 5b c4 3d 11 21 d8 3d 7e 8f cb 3d
       0.06144843 0.0958778 0.10553182 0.09939478
000100 a0 d4 ae 3d b2 f0 a9 3c 2f b0 04 bd f8 84 08 3d
       0.08536649 0.020744655 -0.032394584 0.033329934
000110 59 21 9d 3a f7 96 9c bd 94 32 de bc ab dc 7d 3d
       0.0011988088 -0.07645982 -0.027123727 0.061978023
000120 2d a7 77 bd 2d 58 99 ba 2d 14 71 3d 71 f4 21 3d
       -0.060462166 -0.0011699252 0.05885713 0.039539758
000130 e8 78 90 bb d8 f9 82 bc ab 81 8c bc 90 c1 82 bd
       -0.0044089444 -0.015988275 -0.017151674 -0.06384575
000140 31 3c 8a bd b3 b7 a5 3d 06 39 1e bd 8e b3 f6 3c
       -0.06749762 0.080916785 -0.0386286 0.030114915
000150 61 12 a1 bc 2d d8 bf 3b f4 c0 5d bd 92 73 eb bc
       -0.019662084 0.0058546276 -0.054139093 -0.028741632
000160 74 b3 39 bd fd e1 c8 3c fe eb fe 3c ef 20 8d bb
       -0.045337155 0.024521822 0.03111839 -0.0043069045
000170 67 b4 f9 3c 15 25 71 bd 12 30 92 3b 6d 20 ac bb
       0.03048153 -0.058873255 0.004461297 -0.005252889
000180 5d b1 7b 3d 35 ef 4a 3d 64 f5 1d 3d ec 32 8c 3d
       0.061448444 0.04954453 0.0385641 0.0684565
000190 64 4b ae ba 05 43 99 3d 84 43 39 bd f4 d7 0c 3d
       -0.0013297615 0.07483486 -0.045230404 0.034385636
0001a0 21 72 cd bd 03 f0 42 3d 9a bf b9 3c dd 04 15 bd
       -0.10031534 0.047592174 0.02267437 -0.03638159
0001b0 8d 92 fc bb 66 10 91 3d 18 8b 0d bd 99 c2 39 bc
       -0.0077079 0.07083206 -0.03455648 -0.0113379
0001c0 46 dd b1 3b 52 9f 52 3d 70 05 7e 3c 3f d7 bd 3c
       0.005427989 0.05142147 0.015504226 0.023173926
0001d0 16 21 53 3a eb 4a 89 3d ea eb 9d 3c 3e 78 85 ba
       0.00080539414 0.067037426 0.019277532 -0.001018293
0001e0 62 ef 85 ba 63 ea 96 3d 9f b5 33 3c cd ff 18 3d
       -0.0010218436 0.073689245 0.010968595 0.037353326
0001f0 b2 39 4e 3d 8c cb 51 bd 61 43 52 3d 37 22 ba 3c
       0.05034799 -0.051219508 0.05133379 0.022721393
000200 91 78 86 3c 7d c2 ce bd 04 a7 85 3d 8f 0d 52 bd
       0.016414912 -0.100956894 0.06525996 -0.05128246
000210 e0 6e 84 3b 2a d7 7e bd 21 6c a7 3b eb 6e ee 3c
       0.0040415376 -0.062216915 0.0051093255 0.029105624
000220 d7 a4 c8 bc ae d8 af 3d 50 ab 57 bd b3 7c 81 3d
       -0.024492664 0.0858625 -0.05265361 0.063226126
000230 01 89 86 3d f7 7e 60 bd 3d 08 06 bd aa 8d 4c bd
       0.065691 -0.054808583 -0.0327227 -0.04993979
000240 ab 93 2f 3c 5b 8a 97 3c da 40 e9 bb 3f 24 e4 3b
       0.010716359 0.01849859 -0.0071183266 0.0069623287
000250 38 1a 75 bc 9d 8c 3d 3d b7 90 54 bd be f5 b1 3d
       -0.014959864 0.046276677 -0.051895823 0.0868945
000260 aa a8 96 bc 32 31 63 3d 23 fa da bc 7b 6a 99 3d
       -0.018390972 0.05546684 -0.026730603 0.07491013
000270 3a 55 e3 3c 35 68 45 bd 0b 1e 78 bc 0b f3 82 bc
       0.0277506 -0.048195083 -0.015143882 -0.015985033
000280 ad 15 9a 3b 05 c7 68 3c df 3e 62 3c e5 7c 9c bc
       0.004702291 0.014207606 0.013808935 -0.019102523
000290 11 5c 89 bc 0d 50 fb 3c 45 bc 67 bc cf 07 89 bd
       -0.016767533 0.03067782 -0.014144008 -0.066909425
0002a0 ee 94 3d 3d 68 c4 3b bc 3f 65 28 3d 3f 13 cf 3d
       0.04628461 -0.011460401 0.04111218 0.10111093
0002b0 32 7e b2 bc 80 e6 ea bc 0b ff 8f 3c a5 16 05 bd
       -0.02178869 -0.028674364 0.017577669 -0.0324923
0002c0 ce de 47 3d e6 c3 ac bd 57 25 cd bc be 14 64 3c
       0.048796467 -0.08435802 -0.02504222 0.013920961
0002d0 1f 11 cb bd 6a e3 11 bc 02 90 9a bd 4b 25 ed 3c
       -0.09915375 -0.008904317 -0.075469986 0.028948447
0002e0 c8 7f a3 3c a0 d9 28 bd 79 dc 1c bb ad e9 ae 3c
       0.019958392 -0.04122317 -0.0023935123 0.02135166
0002f0 d2 b3 e4 3d 05 ac de 3c f1 e3 56 bc 66 2d e4 3c
       0.111671105 0.027181635 -0.013115869 0.027853679
000300 7e 90 11 3d 24 6e 9a bc 5f 3f b7 3d 2c c6 b9 3c
       0.03553819 -0.018851347 0.08947634 0.022677504
000310 b2 c3 1d bd 2f 4e 16 bd 2b d0 6d bd d3 fa fc bb
       -0.038516708 -0.036695655 -0.058059853 -0.0077203303
000320 f6 fd b9 3d 8d d8 f4 3b 86 9b 92 bd 4f f6 ba 3c
       0.09081642 0.007472104 -0.0715857 0.022822527
000330 58 a9 f9 bc 1f b5 99 3b de 12 6c bb 57 b4 bb 3d
       -0.030476257 0.004690781 -0.0036021988 0.091652565
000340 ff 74 28 bd ff 6e d7 bc 45 ed db 3c 43 fc fb 3b
       -0.0411272 -0.026298044 0.026846537 0.007689984
000350 58 3d bd 3a 78 8a e0 bd 9b 64 00 bd 45 6b 98 3d
       0.0014437838 -0.10963911 -0.031345945 0.07442335
000360 5a 0b e4 bc 68 69 b1 bc 09 2e 72 3c 31 3a 09 3d
       -0.027837444 -0.021656707 0.014781483 0.03350276
000370 2d 4e 03 3d 28 76 90 3b dd 1e 58 bd f5 9a 20 bd
       0.032056976 0.0044086166 -0.05276381 -0.03921028
000380 4d 63 86 3d 4a 77 7f 3b f8 18 73 3d f5 1e 83 bb
       0.06561909 0.0038981014 0.059349984 -0.004001493
000390 07 4f 4d bd 72 53 3f 3d 50 4e 75 bd 5d 56 a8 3c
       -0.050124194 0.04671044 -0.059889138 0.020548994
0003a0 36 ca 13 3d f9 18 25 bc 37 d5 d0 bc f7 b5 35 3b
       0.036081515 -0.010076755 -0.025492294 0.0027726868
0003b0 05 3c d0 bc 92 54 e6 bb f1 0f c2 3d 22 f5 5d bc
       -0.025419245 -0.0070291245 0.09475697 -0.013547214
0003c0 f1 e6 0f 3c 94 ea e8 3c c0 8e 22 3d a1 1b 57 3d
       0.008783088 0.028432168 0.03968692 0.052516583
0003d0 25 37 03 bd 64 e2 f3 3b 2f 8f 0f bb d7 c9 5e bd
       -0.03203501 0.0074427593 -0.0021905412 -0.05439171
0003e0 42 e2 10 bd 98 4d 96 3d 2c b1 99 3c 1d bd 69 ba
       -0.035372026 0.073390186 0.01876124 -0.00089164247
0003f0 63 33 26 bd b5 9d d9 bc a4 a8 c8 bb b1 40 82 3c
       -0.04057635 -0.026564458 -0.006123619 0.015899988

network_body._body_endoder.seq_layers.2.weight f4 [256, 256]
000000 02 2c 09 3e c5 dc e0 3c 42 4e d3 3c 1d 49 f9 bd
       0.13395694 0.027449021 0.025794152 -0.121721484
000010 d4 55 5a 3d 1c d0 e7 3d d7 9a 72 3d e5 e4 a8 bd
       0.05330451 0.113189906 0.059229698 -0.08246783
000020 cf af ae 3d f8 4b 34 bd a7 41 f8 bc da 8d a0 bc
       0.085296266 -0.044017762 -0.030304743 -0.01959889
000030 60 9c 7b 3d 1e 43 11 be 7a af 7b bd 9d 36 30 be
       0.061428428 -0.1418576 -0.061446644 -0.17208333
000040 f2 a0 ec bc 02 55 57 bd 59 ca 04 3c c4 c6 48 3d
       -0.028885338 -0.052571304 0.008104884 0.049017683
000050 de 16 f7 3c 32 76 1b 3d 15 2d 0a 3e 5f 7b c8 3d
       0.030162271 0.037954517 0.1349376 0.09789156
000060 dd b6 2a 3e cd 65 92 bd 7b 95 18 3e 0e 34 65 bd
       0.1667132 -0.07148323 0.14900772 -0.055957846
000070 3d 4e 57 3c 5a 13 59 3e c5 e8 f9 3b 4a 22 9f bd
       0.013141212 0.21198788 0.0076266252 -0.07770212
000080 c3 dc e6 3d cd fe 8d 3d b9 59 dc ba 66 e0 06 3e
       0.11272576 0.06933365 -0.0016811407 0.13171539
000090 54 29 5f bd 6e bf 56 3b 19 80 82 bd 1e d8 1e 3e
       -0.054482773 0.003276791 -0.06372089 0.1551213
0000a0 5a 00 fb bd d7 1a 53 3d 5d 43 15 3d 19 40 39 bd
       -0.122559264 0.05153927 0.036441196 -0.045227144
0000b0 96 1b 62 3e e1 4c 07 3e ef 64 dd bc 7f c1 2d bd
       0.22080836 0.1321292 -0.027025668 -0.04242086
0000c0 e3 cd a0 3d e6 56 54 bd 62 16 e5 3b 4b de bd 3d
       0.0785177 -0.051840685 0.0069911936 0.09270915
0000d0 9f a3 a5 bd ba f5 26 bd b3 79 46 3d 4f 27 84 3d
       -0.08087849 -0.040761687 0.048455905 0.0645281
0000e0 46 69 a4 bd 57 02 e9 bc f0 f7 c3 bc a9 6a 95 3b
       -0.08027892 -0.028443499 -0.023921937 0.004559834
0000f0 55 b6 4c 3e 5f 6b 38 be 1a 5a 15 3c 9b 96 ec bd
       0.19991429 -0.18009709 0.00911572 -0.11552163
000100 91 5d c7 3c 6f 21 54 3d ea 57 2b be 72 ed 0b be
       0.024336608 0.051789697 -0.16732755 -0.13664797
000110 a3 46 d7 bd 79 90 f3 bd 6a b6 0c bd 84 3b 0c 3d
       -0.1051152 -0.1189279 -0.03435365 0.034236446
000120 be 90 d0 ba 6b 1d 62 3d 6e 08 57 3e 30 ec d3 3b
       -0.0015912277 0.055203836 0.2099931 0.0064673647
000130 ee 2b 6d 3d 98 fc a2 3d ed d4 88 bd fd 11 ca 3d
       0.057903223 0.07958335 -0.06681237 0.09866712
000140 d1 ae c1 bd cf 57 13 3d d3 38 a1 3d c1 19 b8 bd
       -0.09457172 0.035972413 0.078721665 -0.08989287
000150 18 e2 13 3e 6b 0b 8c bd 80 2f 63 bd ec 6e 9c bd
       0.14441717 -0.06838115 -0.05546522 -0.07638344
000160 66 bd 20 3e c5 93 94 be b0 a9 03 be 6b 52 77 3d
       0.1569725 -0.2901899 -0.128577 0.060381334
000170 b4 e7 5f 3e dc 66 47 bd fe 48 36 be 81 81 80 bd
       0.21865731 -0.04868208 -0.17801282 -0.06274701
000180 ea d0 e3 3d 0f e5 7b 3d 19 83 c7 bd 5d d4 ee 3d
       0.111238316 0.061497744 -0.09741802 0.11661599
000190 40 d9 1b bd e3 0a e2 bd 33 4a b5 3d 20 38 65 bc
       -0.038048983 -0.11037233 0.08852043 -0.013990432
0001a0 8b 4b 36 3e 19 17 6a 3d 36 53 93 3c c3 a5 07 3d
       0.17802255 0.057150934 0.017984014 0.033117067
0001b0 46 a2 94 3c 92 e0 25 be ef de 66 3c 01 f4 20 3e
       0.018143784 -0.16198948 0.014091237 0.1571808
0001c0 f3 4d ad 3d 9b f3 64 3e 3a e1 0e 3c 0a 54 02 3d
       0.08462133 0.22358553 0.00872069 0.031818427
0001d0 b2 02 cf 3d f3 ed ab bd f5 3d 47 be 1d 4b 81 3d
       0.10107936 -0.083949946 -0.19457228 0.06313155
0001e0 67 81 5e 3e d3 a2 04 be de 28 06 3e 40 41 39 bd
       0.2172905 -0.12952738 0.13101527 -0.045228243
0001f0 b4 9a 12 3d d3 07 e5 3d 64 cd a2 3b 5d f6 24 3c
       0.035792068 0.11183133 0.004968332 0.010068503
000200 a5 25 37 3d 8a 34 68 3d 6d 81 b7 3d 4a 16 b8 3d
       0.044713635 0.05669073 0.08960233 0.08988626
000210 a6 a4 b6 bd 8f 6e fd 3b 0e a5 a0 3d 8d 9a e6 bb
       -0.08918123 0.007734127 0.07843982 -0.007037467
000220 86 39 30 3d fa 27 9e 3c 0e 3a 04 be 3d 53 fe bd
       0.04302361 0.019306172 -0.12912771 -0.1241822
000230 09 b6 dd 3d f0 67 ac 3e 4c e4 f5 3b 57 01 96 bc
       0.10825736 0.33673048 0.0075040217 -0.018311186
000240 b2 8d 00 3d cd 77 6b 3e 72 25 88 3c 54 58 0e be
       0.03138513 0.22994919 0.016619418 -0.13900882
000250 aa 06 a1 bc 04 67 d0 bd d8 6f ab bd aa 04 18 3c
       -0.019656498 -0.10175899 -0.08370942 0.009278456
000260 d3 53 13 3d 03 51 88 bd 4c 5d 09 3d 0e de 03 be
       0.035968613 -0.06656077 0.03353624 -0.12877676
000270 5e 66 33 3e 3c b5 9d 3d dc 9e 62 3c 21 e5 39 bd
       0.17519519 0.07700583 0.01383182 -0.04538453
000280 63 3a b2 bc fc dd 01 be e9 6f 98 3d 98 f2 c2 3d
       -0.021756357 -0.12682337 0.0744322 0.09518927
000290 85 01 77 bd 64 ed 32 3e 1e 85 13 be 68 6e fb 3d
       -0.060304184 0.1747337 -0.14406249 0.12276918
0002a0 b8 b4 3b 3d a0 c6 39 3e 11 af 96 3c 74 c5 7a bd
       0.045826644 0.18142176 0.018394025 -0.061223462
0002b0 08 7b eb 3c 22 80 59 bd 23 9b fd 3c 86 37 1b 3e
       0.02874519 -0.053100713 0.030957764 0.151579
0002c0 91 45 74 3c c5 f5 3b be 71 c7 2c 39 47 fe 99 bd
       0.014909164 -0.18355472 0.00016477496 -0.07519203
0002d0 eb d9 f1 ba 0b 53 f6 3d 68 73 c4 3b 6f da 82 b9
       -0.0018451785 0.12027558 0.005995203 -0.00024958278
0002e0 5b 51 b2 3c 0e 0e 4b bc 4c 3e f6 bd 02 1a 18 be
       0.021767309 -0.012393488 -0.12023601 -0.14853671
0002f0 86 f3 71 3d 74 0d dd bd 0a 97 16 bd d5 45 c1 bd
       0.059070133 -0.107935816 -0.036765136 -0.094371475
000300 a9 27 d5 bc 83 8c af 3d 70 61 5f 3c 6e 8a 00 3d
       -0.026019888 0.08571722 0.013634071 0.031382017
000310 93 20 4f 3b d5 33 bb bd 04 a3 54 3e 37 94 f6 3c
       0.003160511 -0.091407456 0.2076531 0.030099971
000320 76 3f a9 3b 2e be 05 bd 3f 37 ef 3d 1f 58 d0 3d
       0.005165036 -0.032652073 0.11680459 0.10173058
000330 04 a6 50 bd d2 bc b6 bd d8 6f c3 bd 7f 41 14 bd
       -0.050939575 -0.08922733 -0.09542817 -0.036195274
000340 65 5c 92 3d 85 ba 9e bd 02 a1 de 3d ea f2 af bd
       0.07146529 -0.077504195 0.108705536 -0.08591254
000350 ca 14 97 bd 9e 21 c3 bc b8 07 14 3d 77 8b 94 bd
       -0.07377012 -0.02381974 0.036140174 -0.07253163
000360 c6 60 05 3e 17 75 e9 bb dc 02 07 bd 9f 6d 7d 3d
       0.13025197 -0.007124554 -0.03296171 0.06187212
000370 ec 0b 1c 3e 9b 38 97 3d cb ab 3e 3d 2e e7 b1 3d
       0.15238923 0.073838435 0.046550553 0.08686672
000380 4a b9 86 3c 02 7b 18 bb 53 35 17 bc 8d d9 56 3e
       0.016445775 -0.0023266678 -0.009229022 0.20981427
000390 d1 2b 83 3d 51 33 6d be fb 6a f2 3c d2 07 e4 3d
       0.06404842 -0.23164107 0.029592028 0.11134304
0003a0 29 43 e6 bc 40 c5 14 3e 96 c8 03 be cb 9d ef bc
       -0.028108196 0.1452837 -0.12869486 -0.029250046
0003b0 f1 9e e5 3d 49 fd 37 3d 08 47 f2 bd e8 4a e5 3d
       0.11211956 0.044919286 -0.118299544 0.11195928
0003c0 9b ea 12 3d 26 99 4a bd a2 c4 61 bd 48 c6 d7 3d
       0.03586827 -0.04946246 -0.055119164 0.10535866
0003d0 21 69 f3 bc 33 19 01 3c 8b 43 49 3e a5 33 2c 3e
       -0.029713215 0.007879543 0.19654672 0.16816576
0003e0 1c bb de 3c ef 73 6b bd 07 11 92 3d 83 57 b4 3b
       0.02718883 -0.05748361 0.07132154 0.0055035963
0003f0 cc c7 02 3e 14 31 02 be 0b e9 c2 3d 43 93 cb bc
       0.12771529 -0.12714034 0.09517106 -0.024850493

network_body._body_endoder.seq_layers.2.bias f4 [256]
000000 73 97 e1 bc fc de 02 bd c3 f4 8d 3c 62 67 c7 39
       -0.027538037 -0.031950936 0.017328626 0.00038033264
000010 0c 53 4a 3c a6 eb 48 bd 9b a3 d1 3d 46 57 9f 3c
       0.0123489015 -0.049052857 0.102362834 0.019450795
000020 58 64 3f 3d f4 f6 30 3d d1 79 9e bd 9f fe 51 bd
       0.046726555 0.043204263 -0.077380784 -0.051268216
000030 97 4d 07 be eb de 0a 3d 6b 2e 29 bc 1b 7d d4 bd
       -0.13213192 0.033903997 -0.010326008 -0.103754245
000040 b3 6b 1e bd a3 20 f8 ba db 02 c3 bd 0d d8 4e bd
       -0.03867693 -0.0018930625 -0.09522029 -0.05049901
000050 32 1e 28 3d e4 4f 78 ba 36 bd 16 bd ec 3e 1a be
       0.04104442 -0.0009472354 -0.03680154 -0.15063065
000060 55 5b 7c bc ae bf 16 3c 50 e7 48 3d 29 d2 f8 bc
       -0.015402635 0.009200973 0.04904872 -0.03037365
000070 9e 49 49 bd 21 21 62 3d 53 14 42 bd 20 11 fe 3c
       -0.049142472 0.055207375 -0.047382664 0.031014025
000080 d0 cb 6d bc 71 16 ae 3d da 0a 1c 3c 48 45 02 bd
       -0.014513925 0.08500374 0.009524072 -0.031804353
000090 06 82 db bd 1d 10 c1 3c 4a 34 e1 ba eb 6a f3 3c
       -0.107181594 0.023567254 -0.0017181721 0.029714068
0000a0 e6 b5 8a bd f3 6c f7 ba 11 1a 82 bc b4 ac 7b bd
       -0.067729756 -0.0018877074 -0.01588157 -0.061444
0000b0 28 d1 e8 3c 3c 23 49 bc 79 54 6d ba 69 93 d2 3b
       0.028420046 -0.012276467 -0.000905342 0.006426264
0000c0 aa 79 14 bc 71 8d 1d 3d 2c 4b 16 3b 52 bb 6e bd
       -0.00906221 0.038464967 0.002293299 -0.05828411
0000d0 73 9b 98 bc 24 da 3d 3d 28 13 f8 bd 47 db 87 3c
       -0.018628811 0.046350613 -0.12113029 0.016584052
0000e0 20 63 a5 3c 7f 6f 32 bb ec 8a 02 3d f0 02 67 bd
       0.020188868 -0.0027227101 0.031870767 -0.056399286
0000f0 c6 9f 08 3d 5d 44 83 3d 48 21 57 bc 86 17 39 3d
       0.033355497 0.06409524 -0.013130493 0.04518845
000100 1c ea 13 3c 42 70 e0 3c f4 ff 20 bc 93 d2 94 bc
       0.009027984 0.027397279 -0.009826649 -0.018166816
000110 34 75 af 3b e4 1e ed 3b eb f3 98 bd 69 57 c1 3c
       0.005354548 0.0072363485 -0.07468399 0.02360125
000120 2c 81 27 3b 49 b1 5c 3d ad d1 aa bd 02 d0 b7 3c
       0.002555917 0.05388001 -0.08340774 0.022438053
000130 67 8d 43 3d 9d 4b 7c 3b fd c8 cf bc 7f 48 e1 3c
       0.047742274 0.0038497217 -0.025364393 0.02750039
000140 cd dd 0b bd 07 01 cd bd b2 fd 09 3d 96 60 0a 3d
       -0.034147073 -0.100099616 0.03368921 0.033783518
000150 60 27 54 3c 9e 9a 92 3d 59 14 3e bd 99 ea 8c 3c
       0.012948841 0.07158397 -0.046406124 0.017201709
000160 82 fb 72 3d e6 ab 86 bd 5f 83 58 3d 8a 70 a1 3c
       0.059321888 -0.06575756 0.05285966 0.019706983
000170 d7 1b 2f bd dc 82 b1 3c 72 ed 4c bd b9 28 c6 bb
       -0.04275116 0.021668844 -0.050031133 -0.006047335
000180 e8 ff ce 3c 9a a4 6f bd 67 3f 15 3d 89 8f 07 bd
       0.02526851 -0.058506586 0.03643742 -0.03309587
000190 78 ad 96 bc 7a c3 95 bc 45 29 20 bd d6 6b 23 3b
       -0.018393263 -0.018281687 -0.039101858 0.0024936101
0001a0 40 8b 17 bb a2 21 a2 bd e4 31 2f 3d 7c 88 44 3c
       -0.002312377 -0.07916571 0.04277219 0.011995431
0001b0 bb 89 90 3c 2c c3 a0 3c 51 db 9e bc 63 0d 5f bc
       0.0176438 0.019624315 -0.019391688 -0.0136140315
0001c0 3f ce ad 3c aa 3c 22 3c 9e f0 a4 3d cb d3 76 bd
       0.02121651 0.009902159 0.080537066 -0.060260575
0001d0 82 94 59 3c f4 d2 50 3c 01 d7 07 3c ef 77 35 3d
       0.013280036 0.012745608 0.008291007 0.04430383
0001e0 8b 3f 03 be 0b 25 3c 3c 86 33 86 bc 2e 3e 5d 3d
       -0.12817208 0.011483441 -0.01638199 0.054014377
0001f0 88 fe 9b bd 46 a4 3c bd 27 f5 12 3d c4 4d a5 bd
       -0.07616907 -0.0460551 0.035878327 -0.08071473
000200 f1 94 54 bd ab 67 28 bc 90 57 21 bc cd f8 1c bc
       -0.051899854 -0.010278623 -0.009847537 -0.009580803
000210 7f 5f 9f 3c 58 22 52 bc e6 7d 8d 3c 77 09 c6 bd
       0.019454716 -0.012825571 0.017271947 -0.09669774
000220 6b 21 80 3d 4f ca 7e 3d 0f c3 a5 3c e1 b4 85 3c
       0.06256374 0.062204655 0.020234613 0.016321601
000230 af 3e 9b bd 54 46 06 be 01 07 74 3c 81 9d a9 3c
       -0.07580315 -0.13112766 0.014894248 0.020704987
000240 7d 0c 34 bd 0b c7 bc 3c a0 eb b9 3b 49 3d 93 bd
       -0.043957222 0.02304413 0.0056738406 -0.071894236
000250 5d 37 ea b9 a3 78 b2 ba b7 24 98 bd 5f 9b 68 bc
       -0.00044673207 -0.0013616275 -0.07428878 -0.0141972
000260 8a e8 37 bb e4 b5 31 bd 27 f2 d5 3c 5a 31 d2 39
       -0.0028062188 -0.043386355 0.026116444 0.0004009109
000270 a2 b4 05 bc 9a f3 df 3c 95 39 ac 3d a7 04 1e bd
       -0.008160742 0.027337838 0.084094204 -0.038578656
000280 20 93 ae bb bf 9f 35 bd c4 95 ca 3c fa 0f b0 3c
       -0.0053275973 -0.0443418 0.024729617 0.021491993
000290 da 2e fc bb 81 0c 13 bd 36 85 db 3c 4d 00 d3 bd
       -0.007696015 -0.035900597 0.026796918 -0.10302792
0002a0 71 38 07 bd 35 64 9c 3b 50 f0 9c 3c d4 23 16 3b
       -0.03301281 0.004772688 0.019157559 0.0022909539
0002b0 cf 9e 38 3d bc 41 33 bd c3 fa f0 bd 61 ee 2a bd
       0.045073327 -0.04376386 -0.11766579 -0.041731242
0002c0 93 d2 8d bd ee 77 8c bb 9c f8 87 3c 94 f9 12 bd
       -0.069249295 -0.0042867577 0.016598038 -0.035882547
0002d0 dd e6 19 3c 16 9c af ba 1f 32 01 bd 10 0a f3 3c
       0.009393421 -0.0013397958 -0.03154194 0.029667884
0002e0 ab 7e 43 3c db 4a 6c bd 2f ee fd bc 63 60 b7 3c
       0.0119320555 -0.057688575 -0.030997364 0.022384828
0002f0 bc 83 02 bd 07 6b b1 3c 36 cb 80 bc 03 ac 13 bc
       -0.031863913 0.02165748 -0.015721899 -0.009013179
000300 48 cf d3 3c 4c 28 b0 bc 71 77 77 3d 8f d9 1e bc
       0.025855675 -0.02150359 0.060416643 -0.009695425
000310 6a a6 b0 bb a5 38 d9 bc 56 ec be bc 1d 3d f3 39
       -0.005390932 -0.026516268 -0.023306053 0.00046394105
000320 eb f3 fe 3c d1 81 e6 3c 29 f7 51 3d 3a 6c 33 bc
       0.031122169 0.028138073 0.0512611 -0.010951096
000330 60 92 0f 3d 98 2d 86 3d 60 97 11 3d 85 18 07 bd
       0.035051703 0.06551665 0.035544753 -0.032982368
000340 1c 12 b4 3d 10 4c ed bc 4b f4 4e bc 30 1a af 3d
       0.087925166 -0.028966933 -0.012631486 0.08549917
000350 c7 ed 37 bd 87 6d b1 bd dd b1 83 3d a0 7a ea ba
       -0.044904497 -0.08663469 0.06430409 -0.0017889328
000360 06 fd ce bc e5 4c 01 bd 2e 5e 9a 3c 82 04 ef bd
       -0.025267135 -0.031567473 0.018843736 -0.11670782
000370 95 75 29 bd 1c ec 69 bb 5f 3f 35 bc 89 d2 85 bd
       -0.0413719 -0.003569371 -0.011062472 -0.06534297
000380 31 84 8c bb 08 36 c0 bc dc 20 42 3d d1 23 56 3d
       -0.0042882194 -0.023463264 0.04739462 0.05228025
000390 d4 31 0b 3c c6 61 5b bc ea df 28 bd 9d 62 07 3c
       0.008495767 -0.01339001 -0.041229166 0.008263257
0003a0 a6 32 bf 3c 3d 75 b0 3d 61 32 56 bd 58 95 41 3b
       0.02333958 0.086161114 -0.05229414 0.0029538479
0003b0 08 d6 d2 3d 51 29 68 bc 1b 04 f2 bc 58 60 b9 bc
       0.102947295 -0.014170007 -0.029542973 -0.022628948
0003c0 73 bf 61 bd 5e 7f 90 3c d2 ce fb 3c f5 8e 8d bc
       -0.05511422 0.017638858 0.030738268 -0.017280081
0003d0 62 44 0a 3c d0 bc 69 3c 41 b3 08 3d 19 97 cf bd
       0.008439155 0.014266208 0.033374075 -0.101362415
0003e0 a2 e1 4e bb ed 0f 29 3d f9 2b 37 3d 63 2b f8 3c
       -0.0031567593 0.041274954 0.04471967 0.030294126
0003f0 b4 4e 97 bc 6c f9 18 bd 1e 0f 59 bd 6c d0 b3 bd
       -0.018470146 -0.037347242 -0.052992932 -0.08779988

action_model._discrete_distribution.branches.0.weight f4 [7, 256]
000000 e1 fe 0f 3e be f8 23 3c d8 01 a1 3c eb bc ab 3d
       0.14062072 0.010008035 0.0196542 0.083856426
000010 0f fc 4d 3d a1 8f 1d bd 0a 31 15 3d 36 e4 c5 bc
       0.05028921 -0.038467053 0.03642372 -0.024156671
000020 6b 50 01 3e cf 7c 03 3e 0d 2e ca bd 17 33 bc 3d
       0.12628333 0.1284058 -0.09872065 0.09189432
000030 3e 2f 09 bd b1 88 9b bd fa 28 91 3d 4e 43 e6 bc
       -0.03349232 -0.07594431 0.07087894 -0.028108265
000040 6e 3f 31 bc 29 32 07 3e d8 db 33 bc 79 13 a8 3d
       -0.0108183455 0.13202728 -0.010977708 0.08206839
000050 c9 f1 17 3c 44 c3 53 bd 6d 18 47 3d bd 13 a1 bd
       0.009273955 -0.05169989 0.04860728 -0.07865093
000060 2d 93 bb bd 33 8b 28 3e ab 4b 68 3d a7 0b 63 bd
       -0.09158931 0.1645935 0.056712788 -0.055431034
000070 db 1b fc 3d f1 87 ae bd ee d6 6c 3d 43 49 c4 3d
       0.123100005 -0.085220225 0.05782216 0.09584286
000080 ce e1 9e 3d 2e a5 a6 3d 35 0b 92 3d 75 a4 07 3e
       0.077579126 0.08136974 0.07131044 0.13246329
000090 5a 0f 00 bc 86 ad e3 3d d1 b3 97 3d 18 ee 2d 3d
       -0.00781616 0.11117081 0.07407344 0.042463392
0000a0 df 02 c4 3d 99 d5 d5 3d 73 e6 a7 3d 20 fe f5 bd
       0.0957086 0.10441131 0.081982516 -0.12011361
0000b0 de 83 bf 3d 72 44 aa bd cd 9d 1a 3e bb 37 b2 3d
       0.093513235 -0.08313836 0.15099259 0.08702036
0000c0 61 fb ca bd e8 c7 aa 3d 9d de c4 3c db 21 1c 3d
       -0.09911228 0.0833891 0.024031932 0.038118225
0000d0 e7 0e bf 3d 56 5b f4 3d 52 89 7e bc ae 94 06 3e
       0.09329014 0.119314834 -0.015535669 0.13142654
0000e0 5c bc 34 bc ec e2 f9 3d e1 e1 8f 3d b3 e8 e4 bc
       -0.0110312365 0.12201485 0.07025505 -0.02794299
0000f0 57 21 ef bd 77 80 3b bc 81 9f e8 bc bd f5 4a 3e
       -0.11676281 -0.011444203 -0.02839637 0.19820304
000100 19 42 b1 bc ab 73 bb bd 39 67 9a ba 14 78 dd bc
       -0.021637963 -0.09152921 -0.001178003 -0.027034797
000110 c6 b3 30 3d ca 3a 3a bd de 2f b4 3d 09 f3 0b 3e
       0.043140195 -0.045466222 0.087981924 0.1366693
000120 7f 68 c9 3d 76 a2 f3 3c 09 fa 59 bd b4 f4 60 3d
       0.09834384 0.029740553 -0.053216968 0.054920867
000130 61 64 13 3e 1a cf 72 bd b2 77 f5 bc 2d e6 f9 3d
       0.1439376 -0.05927954 -0.029964302 0.12202106
000140 bd 6a 37 be fb ee e5 bd 72 d7 0b 3e d3 d4 9f 3d
       -0.17911811 -0.112272225 0.13656405 0.07804265
000150 26 08 09 3e 31 ad 8e bd f9 64 8b 3d d4 d5 90 3d
       0.13382015 -0.069666274 0.068063684 0.070720345
000160 47 b1 1c bd 78 8f 70 bc 1b f0 74 3c a5 29 dc 3d
       -0.038255002 -0.014682643 0.014949824 0.107501306
000170 a4 b0 c3 3d 6b 29 4a 3d e3 ef 37 bd cb 95 8e 3d
       0.09555176 0.049355906 -0.04490651 0.069621645
000180 3c f8 a0 bd 79 56 91 bd d9 7d ec 3d 19 3b 03 3d
       -0.07859847 -0.070965715 0.11547441 0.03203878
000190 14 27 4e 3c f5 c2 ed 3d 13 0b e0 bc d4 0d ca bd
       0.012582559 0.11609451 -0.02734903 -0.09865919
0001a0 17 86 b2 bd 72 5e 37 3d 8f f3 7d bc d1 f8 31 bd
       -0.08716982 0.044767804 -0.015499963 -0.04345018
0001b0 ef 6a e7 3d 09 2f b1 3d 19 3b 19 bd 85 8a 4a 3d
       0.11299693 0.08651549 -0.037409876 0.04944851
0001c0 9f ba af bc 0d 0b 26 3d 93 1c 7c 3d b1 c1 51 3b
       -0.021451293 0.040537883 0.061550688 0.0032006318
0001d0 f4 c7 e4 bd 86 22 cc bc f6 00 42 3b 75 d8 fe 3d
       -0.111709505 -0.024918806 0.0029602624 0.1244363
0001e0 4a 86 df bc 8b 26 ab 3d e8 5c 1c bd bf 7b f1 3d
       -0.027285714 0.08356961 -0.03817454 0.11791181
0001f0 0c f8 b5 3d 29 a9 15 3d 10 fa f6 3c df 4a 74 bd
       0.08885202 0.036538277 0.030148536 -0.059641715
000200 75 45 c7 3d 0c 08 3a 3d 2c f9 95 bd 12 4e 1e 3e
       0.09730045 0.04541783 -0.073229164 0.15459469
000210 4f af 8a 3d b5 be 90 bc ea af bb bd 35 70 8a bd
       0.06771719 -0.017669061 -0.09164412 -0.06759683
000220 dc 1d 3f 3d 29 a5 25 3e 57 36 ee 3d 35 b4 8c 3d
       0.046659335 0.16176285 0.11631458 0.06870309
000230 cb 6a c6 bd ad 5a 93 bc cc 00 8c bd 1b 84 6f 3d
       -0.09688338 -0.017987574 -0.068360895 0.058475595
000240 23 36 3b 3d 09 36 a2 bd 9a 2f c4 3c 34 46 24 3d
       0.045705926 -0.07920463 0.02394848 0.040106013
000250 87 b7 12 3e ad d6 22 3e 84 7d 2a 3c 69 07 86 3d
       0.14327823 0.15902205 0.010405902 0.06544382
000260 6e 3f 90 3d 52 5d 41 3d cd fd c4 3d 6f fe 12 be
       0.07043348 0.047208138 0.09618721 -0.14354871
000270 4d af ed bd 02 50 72 3c 16 1e 89 bd 36 7b 22 bb
       -0.116057016 0.014789583 -0.066951916 -0.0024792678
000280 2e 8b f2 bd 35 c9 1f 3d 06 71 65 bd f2 cc 07 3e
       -0.11842953 0.039010245 -0.05601599 0.13261774
000290 0e f2 23 bc 06 46 b7 bd 1b 0e 77 3d b3 95 44 3d
       -0.010006441 -0.08948903 0.060316186 0.047994327
0002a0 09 a1 d9 3d 7f 99 96 3d 5f d2 08 3e 7e 41 c0 3c
       0.10626418 0.07353496 0.133615 0.02346873
0002b0 5a fe d4 bc 0c 7a f1 3c 0b bb af bc b5 0f 93 3d
       -0.02600019 0.029477142 -0.021451494 0.0718073
0002c0 16 99 d1 3b a3 cc 04 3e ca 2c 18 3d 2e af 16 bd
       0.006396423 0.12968688 0.03715209 -0.036788158
0002d0 a5 f7 b6 3d 8c 3d 58 3d b5 68 94 3d 91 13 d0 3d
       0.08933953 0.05279307 0.07246534 0.10159982
0002e0 1d 1e 1d be 9e 0e ae 3c f9 05 e2 bb 32 f3 89 bd
       -0.15343519 0.021247204 -0.0068976847 -0.06735839
0002f0 e9 67 66 bc 3b 1d 73 3d d1 48 ad 3c 4c 7d 13 bc
       -0.01406286 0.05935405 0.021152886 -0.009002041
000300 05 2c ce bc e4 ef 0c bd 21 25 5c 3d 13 dc 33 3d
       -0.025167475 -0.034408465 0.053746346 0.04391105
000310 fb c8 97 3d 7d 12 0b 3d eb 2c 4b bd 2b a1 99 3d
       0.07411381 0.03395318 -0.049603384 0.075014435
000320 29 c5 3f 3e e4 2f cf 3d c9 66 c6 3d 96 2c 4d 3d
       0.18727554 0.10116556 0.096875735 0.05009135
000330 c2 69 0a 3e 5b d6 d5 3d 7f 7d 18 3e 5b 04 a2 3d
       0.13516906 0.10441276 0.14891623 0.07910987
000340 81 6d 93 3d ee d3 ff 3d cc ab 9a 3d a7 cd fa bd
       0.071986206 0.12491594 0.07552299 -0.12246256
000350 6f 4f d8 bd 08 68 e8 bd 0d 2f 9c 3c 15 46 20 3d
       -0.10562026 -0.113479674 0.019065404 0.039129335
000360 93 d9 83 bd 13 2d d7 3d 23 a6 c5 3d 2b cd c9 bd
       -0.06437983 0.10506644 0.09650829 -0.09853586
000370 e6 e6 6e 3d ac 07 5a 3d 6c a6 dc bb 88 5b ac 3d
       0.05832567 0.053229973 -0.006733706 0.08415896
000380 2c 3e b5 3d e5 35 a3 3c 9a c6 17 be 52 62 12 3e
       0.08849749 0.01992316 -0.14821854 0.14295319
000390 99 5a 28 3d 83 6d 7a 3d cc 79 7f bd 58 70 fc bb
       0.041102026 0.061139595 -0.062372014 -0.007703822
0003a0 fc 2a 10 3e 9c c8 5a 3d cd c4 cf 3d 82 68 ea bb
       0.14078897 0.053413972 0.10144959 -0.0071535716
0003b0 24 37 ee bd 6a b8 f7 3d 86 0f 9c 3d 4f 9e 7c bd
       -0.11631611 0.12095721 0.07620148 -0.061674412
0003c0 c0 a6 0a 3d 74 d4 c5 3a f7 cd 7a 3d 67 a3 65 3d
       0.03385043 0.0015093223 0.06123158 0.056064036
0003d0 fc 7c 7a 3d b9 bf a9 bd 77 dc 7a bd 00 02 6d bd
       0.06115435 -0.08288521 -0.061245408 -0.057863235
0003e0 17 9a 8e bb 39 1c 22 bd 3a 3d ac bd d7 92 fb 3c
       -0.004351865 -0.039577696 -0.084101155 0.030709667
0003f0 6c 8f c3 3c 81 92 a9 3d 19 57 c0 3d fc de a0 3d
       0.0238721 0.082798965 0.093916126 0.07855031

action_model._discrete_distribution.branches.0.bias f4 [7]
000000 ac 21 bc 3d 10 11 9b bc 01 76 a8 bd 8c 6b 3b bd
       0.0918611 -0.018929034 -0.082256325 -0.04575686
000010 83 58 a3 bc 73 ef cc 3c 81 72 85 3d
       -0.019939667 0.025016522 0.065159805
