results/puzzle_experiment_0/PuzzleBehavior/PuzzleBehavior-17499972.onnx (onnx, 334731 bytes, 6 tensors)

network_body._body_endoder.seq_layers.0.weight f4 [256, 57]
0	0xbe0cb7c7	-0.1374198
1	0xbd6c128a	-0.057634868
2	0xbd52b17a	-0.051438786
3	0xbe003d6c	-0.1252343
4	0x3e4c80ab	0.19970958
5	0x3eb222dd	0.34792224
6	0xbe0a7a1f	-0.13523148
7	0x3cb1e08b	0.021713516
8	0xbe497778	-0.1967448
9	0xbe3c2c26	-0.18376216
10	0x3e2117d5	0.15731747
11	0xbe0fc2c1	-0.14039136
12	0xbde09a6f	-0.10966956
13	0xbd80c1e3	-0.06286981
14	0x3e77e21a	0.24207345
15	0x3dd18493	0.10230365
16	0xbcf30b24	-0.029668398
17	0x3d7828c3	0.06058575
18	0x3c6daf7d	0.014507172
19	0xbd6582da	-0.056032993
20	0x3bf90147	0.007599029
21	0x3de2ee4a	0.11080606
22	0xbe92ea8f	-0.2869458
23	0xbdb11f8b	-0.086485945
24	0xbdd0c151	-0.10193122
25	0xbe50a9be	-0.20377252
26	0x3dd7455e	0.105112776
27	0x3e254ee3	0.16143374
28	0x3cea0358	0.028566048
29	0x3e3e1cf5	0.18565734
30	0xbdf8d715	-0.12150399
31	0xbe02b75b	-0.12765257
32	0xbe1d5a5f	-0.15366505
33	0x3e08a11d	0.1334271
34	0xbe4919c6	-0.19638738
35	0xbda9e010	-0.0829469
36	0xbe9de50e	-0.30838817
37	0x3da1f1a0	0.079074144
38	0xbda5a059	-0.080872245
39	0xbcbfec98	-0.023428246
40	0x3e612c5a	0.21989575
41	0x3e074dd4	0.13213283
42	0x3d8f7103	0.07003977
43	0xbe320382	-0.1738415
44	0x3cccbea7	0.024993254
45	0x3e260a2e	0.1621482
46	0x3d2d42b2	0.042299934
47	0x3deb253b	0.114817105
48	0x3cf7bbf1	0.030240985
49	0x3e094583	0.13405423
50	0xbe253f04	-0.1613732
51	0xbccf0695	-0.025271693
52	0xbdff921f	-0.12479042
53	0x3e7100a3	0.23535399
54	0xbe65edb4	-0.22453958
55	0xbda80e82	-0.08205892
56	0xbdc226d8	-0.09480065
57	0xbe9aa7c6	-0.30206126
58	0x3d11b422	0.03557218
59	0xbda55eea	-0.08074744
60	0x3e91f435	0.28506628
61	0x3ddfac3a	0.109215215
62	0xbd4afb6a	-0.049556173
63	0xbd969001	-0.07351685
64	0x3df3cc57	0.11904209
65	0xbefd7175	-0.49500623
66	0xbe861f3b	-0.26195702
67	0xbed330be	-0.41248125
68	0xbe67caba	-0.22635928
69	0xbe7c376c	-0.24630517
70	0xbda44dff	-0.08022689
71	0xbe51ee73	-0.20501117
72	0xbe12839d	-0.14308019
73	0x3d921a6e	0.07133947
74	0xbd92a45b	-0.071602546
75	0xbd16575e	-0.036704414
76	0xbd201d8b	-0.039090674
77	0x3d7a9433	0.06117649
78	0xbdb09709	-0.08622558
79	0x3cc8f26f	0.024529664
80	0xbd9196fc	-0.07108876
81	0xbc342988	-0.01099623
82	0xbdcc2264	-0.09967497
83	0xbc1aeecc	-0.009456348
84	0xbe2c9352	-0.16853073
85	0x3cc62754	0.024188675
86	0xba978756	-0.0011560719
87	0xbcbaef29	-0.022819119
88	0x3eddcac4	0.4331876
89	0x3e6bb767	0.23019181
90	0x3e987f5b	0.29784665
91	0x3e307329	0.1723143
92	0xbe0a2bb1	-0.1349323
93	0x3d29b0b1	0.04142827
94	0xbc834488	-0.01602389
95	0x3e49ab7e	0.19694325
96	0xbda60101	-0.0810566
97	0x3c278f47	0.010227031
98	0xbdf223c9	-0.11823232
99	0x3d7507f9	0.059822056
100	0x3eadb3d2	0.33926255
101	0xbe6c636d	-0.23084803
102	0xbdb77cb2	-0.089593306
103	0x3e35c12c	0.1774947
104	0x3e8778fd	0.26459494
105	0x3e2ee1d4	0.17078334
106	0x3d3375ee	0.04381364
107	0x3e281144	0.16412836
108	0x3ddcc41c	0.107795924
109	0x3d950509	0.07276351
110	0x3e05506c	0.1301896
111	0xbd290ef5	-0.04127403
112	0xbe7859fb	-0.24253075
113	0xbe0da330	-0.13831782
114	0xbe0b16f5	-0.13582976
115	0x3bab2507	0.00522292
116	0xbdf66e69	-0.12032778
117	0xbd5959de	-0.05306422
118	0xbd7f5478	-0.062336415
119	0x3e16cbb9	0.14726152
120	0x3dd80024	0.10546902
121	0xbea78fdc	-0.32726943
122	0x3d913c0c	0.07091531
123	0x3d05d172	0.032670446
124	0xbe12154d	-0.14265938
125	0xbe06b29c	-0.13154072
126	0x3d842fb9	0.06454415
127	0x3d30f039	0.043197844
128	0xbbcf7330	-0.00633087
129	0x3ce7a741	0.028277995
130	0xbdb0e1e5	-0.08636836
131	0xbe9140d7	-0.2836978
132	0xbe2052c5	-0.15656574
133	0x3e500f85	0.2031842
134	0x3dfbc668	0.12293702
135	0x3c3c7d97	0.011504552
136	0x3dbd33a7	0.092383675
137	0x3d328a39	0.04358885
138	0x3cc1acad	0.023641909
139	0x3b8f0dfd	0.004365681
140	0xbdd31f2c	-0.1030868
141	0xbe941db3	-0.2892891
142	0x3dbb691c	0.091509074
143	0x3d868ff4	0.06570426
144	0x3e808819	0.25103834
145	0x3de6245c	0.11237404
146	0x3d311064	0.043228522
147	0x3ea195dc	0.31559646
148	0xbc9f8a2d	-0.019475067
149	0x3df76eb9	0.120816655
150	0xbd380834	-0.044929698
151	0x3dd94d0f	0.10610401
152	0xbc9a6c9f	-0.018850623
153	0xbe02a5db	-0.12758581
154	0x3ea010bd	0.3126277
155	0xbc3ee2ad	-0.011650723
156	0xbe725ae9	-0.23667492
157	0xbd0c7f85	-0.0343013
158	0x3de1f18c	0.110323995
159	0x3db2fccc	0.087396234
160	0x3ba41367	0.0050071958
161	0x3d603331	0.05473632
162	0xbe8d3865	-0.27582088
163	0xbd40c561	-0.047063235
164	0xbe8ce44c	-0.27517927
165	0xbe51b308	-0.20478451
166	0x3ceea814	0.02913288
167	0x3d1f2299	0.038851354
168	0x3d59c3ec	0.05316536
169	0x3da9d917	0.0829336
170	0xbe02535a	-0.12727109
171	0xbe28746a	-0.16450658
172	0xbe8dde0b	-0.27708468
173	0xbd9260e8	-0.0714739
174	0xbdb284d0	-0.08716738
175	0x3e0d4e2e	0.13799354
176	0xbc75366f	-0.014966591
177	0xbed61c24	-0.41818345
178	0x3e932288	0.28737283
179	0xbcd0ad5b	-0.025473287
180	0xbe80ec61	-0.25180343
181	0xbe17c22b	-0.14820163
182	0x3c1a011b	0.009399678
183	0x3e334a7b	0.17508881
184	0x3e57475c	0.21023315
185	0x3decba77	0.11559003
186	0x3daf07f9	0.085464425
187	0xbd10bc8c	-0.035336062
188	0x3d9392d5	0.0720574
189	0x3e35312f	0.17694543
190	0x3db8be71	0.09020699
191	0xbeafff46	-0.34374446
192	0xbe105593	-0.14095144
193	0xbcb72b18	-0.022359416
194	0x3e15e66f	0.14638685
195	0xbdaaef2d	-0.083464004
196	0x3d274f8a	0.04084734
197	0xbe1cdc6e	-0.15318462
198	0x3d628212	0.055299826
199	0x3da9af80	0.08285427
200	0xbb848050	-0.0040436164
201	0x3c61bf77	0.013778559
202	0x3dfd14c8	0.12357479
203	0x3c899b4c	0.016797684
204	0xbdc3bf4d	-0.09557972
205	0x3e3c5824	0.18392998
206	0x3e211100	0.15729141
207	0x3d8e56a5	0.0695012
208	0x3da548db	0.08070537
209	0xbdc263cc	-0.09491691
210	0xbe76a7f3	-0.24087505
211	0x3e5712fd	0.21003337
212	0x3ded4c78	0.11586851
213	0xbe18e35a	-0.14930478
214	0x3e5d5a6e	0.21616527
215	0x3e238646	0.1596919
216	0xbdf7ce5f	-0.12099909
217	0x3bb07b4a	0.005385791
218	0xbdc5aebd	-0.09652469
219	0x3c809dc5	0.01570023
220	0x3e0c723c	0.13715452
221	0x3e519d14	0.20470077
222	0xbe1a040a	-0.15040603
223	0x3b31fe65	0.0027159688
224	0xbc968012	-0.018371616
225	0xbd04186f	-0.032249864
226	0xbe6e8284	-0.23291975
227	0x3e344456	0.17604193
228	0xbde1d41f	-0.11026787
229	0xbd93e865	-0.0722206
230	0xbec4bced	-0.3842539
231	0xbe4e5263	-0.20148616
232	0xbe24010e	-0.16016027
233	0xbd045e0a	-0.032316245
234	0xbdb91ad5	-0.09038321
235	0x3eb81600	0.35954285
236	0xbec8369d	-0.39104167
237	0xbe8f7fd4	-0.28027213
238	0x3d546e16	0.0518628
239	0xbdb619d1	-0.08891643
240	0xbc329cee	-0.010901673
241	0x3e1fbd4b	0.15599553
242	0x3dfa3156	0.12216441
243	0xbd12243e	-0.035679094
244	0x3d262eb2	0.040571876
245	0x3dbe8203	0.093021415
246	0xbc4337bc	-0.011915144
247	0x3eb16154	0.34644568
248	0x3e1981ae	0.14990875
249	0xbd997704	-0.074934036
250	0xbe9d7d65	-0.3075973
251	0xbd90cee5	-0.07070712
252	0xbebeef4d	-0.37291947
253	0xbce61856	-0.028087776
254	0xbe0ee1fa	-0.1395339
255	0xbe9a9003	-0.30187997

network_body._body_endoder.seq_layers.0.bias f4 [256]
0	0x3d890afc	0.06691548
1	0x3d169ad0	0.036768734
2	0xbd810652	-0.06300034
3	0x3d619804	0.055076614
4	0x3bd78080	0.0065765977
5	0xbdaed02a	-0.08535798
6	0xbd07957f	-0.033101555
7	0x3d3292ed	0.04359715
8	0xbd7af1b6	-0.06126567
9	0xb9d21ff9	-0.00040078143
10	0xbc786465	-0.015160655
11	0xbc1e0026	-0.00964359
12	0x3b776f03	0.0037755377
13	0x3998680f	0.0002906923
14	0x3c8686ca	0.016421694
15	0x3cda3b14	0.026639499
16	0x3d9c02cb	0.0761772
17	0x3ccaa8aa	0.024738628
18	0xbbc759b4	-0.0060836915
19	0xbb02a8be	-0.0019937004
20	0xbd88b04b	-0.0667425
21	0xbcefe54f	-0.029284148
22	0xbd16a24b	-0.03677587
23	0x3cdf5cfa	0.027266014
24	0xbdded13a	-0.108797505
25	0x3d27c800	0.04096222
26	0xbcf643cb	-0.030061623
27	0x3c3854f5	0.011250724
28	0x3cf23e0e	0.029570606
29	0xbd537de7	-0.05163374
30	0x3db02c4b	0.08602198
31	0x3d1e5fc2	0.03866554
32	0xbac9b774	-0.0015389756
33	0xbd20bd83	-0.039243232
34	0x3d787197	0.060655203
35	0x3ca41563	0.02002973
36	0x3d998bbe	0.07497357
37	0xbcf0e4fd	-0.029406065
38	0xb935b6e5	-0.00017329639
39	0xbd2fbbfd	-0.04290389
40	0x3c64202b	0.013923685
41	0x3d2c16e7	0.04201403
42	0x3d109731	0.035300437
43	0xbd4865c4	-0.048925176
44	0x3d46a6f6	0.04849907
45	0x3d11743a	0.035511233
46	0x3d09fd1e	0.033688657
47	0x3ce51ede	0.02796882
48	0x3d33bb72	0.043879934
49	0x3c2b43d6	0.010453185
50	0xbd2c93c1	-0.042133097
51	0x3c94ed0b	0.018179437
52	0xbd5b45cc	-0.05353336
53	0xb919d622	-0.00014670988
54	0xbdbd62a7	-0.09247332
55	0x3d9fa0bc	0.077943295
56	0x3d9791b9	0.07400841
57	0x3d2e5bb8	0.04256794
58	0x3d201ab0	0.03908795
59	0xbbc05dca	-0.0058705555
60	0x3d8016ea	0.062543705
61	0x3d9cb30c	0.07651338
62	0x3dc4d5fb	0.09611126
63	0x3db6c7f1	0.089248545
64	0x3d9a4811	0.07533277
65	0x3c8541c5	0.016266713
66	0xbce3571a	-0.027751494
67	0x3d2bc99f	0.041940328
68	0xbafc99be	-0.0019271893
69	0xbd98e9eb	-0.07466491
70	0xbc9e60b6	-0.019333225
71	0x3d55172d	0.052024055
72	0xbd7445c5	-0.05963685
73	0x3c25fe44	0.010131422
74	0x3d6de8ad	0.058083225
75	0x3d2cfa82	0.04223109
76	0xbbbc0562	-0.0057379464
77	0xbc8b1984	-0.01697994
78	0xbcdfe34e	-0.027330067
79	0xbd8173e6	-0.06320934
80	0xbd7ea11e	-0.062165372
81	0x3d9a02a7	0.07520037
82	0xbce90341	-0.028443934
83	0x3cd24751	0.025668772
84	0xbc04b32f	-0.008099361
85	0x3bf0564d	0.0073345066
86	0xbd6b066d	-0.057379175
87	0xbced4f47	-0.028968466
88	0xbd367760	-0.04454744
89	0x3cc8e5be	0.024523612
90	0x3d0ed893	0.03487451
91	0x37b79e1a	2.1888922e-05
92	0x3cc79ef3	0.024367785
93	0xbd7e2d4a	-0.06205491
94	0x3a28fdd0	0.00064465124
95	0x3a55c67d	0.0008154882
96	0x3d6cb0e2	0.057785876
97	0x3d32b42d	0.04362886
98	0x3ce972f4	0.028497197
99	0x3d84d7ec	0.06486496
100	0xbc073840	-0.008253157
101	0x3d932013	0.07183852
102	0xbd178e0f	-0.037000712
103	0x3d1c981b	0.038230997
104	0xbdd129c9	-0.10213048
105	0x3d3063b9	0.043063853
106	0x3cc2a286	0.023759138
107	0xbd1cdedf	-0.038298484
108	0xbbe3d3fc	-0.0069527607
109	0x3d808056	0.06274478
110	0xbd1192dd	-0.03554045
111	0xbc27eb4f	-0.010248973
112	0x3c6a28e6	0.0142919775
113	0x3d52d02a	0.051468052
114	0x3b307a1e	0.0026928256
115	0x3d021d42	0.031766184
116	0xbaa17589	-0.0012318353
117	0x3d6ed4e9	0.058308516
118	0x3cb9cea1	0.022681536
119	0xba8768f9	-0.0010330967
120	0xbbc164ca	-0.0059019076
121	0x3d94263b	0.072338544
122	0x3c300589	0.010743507
123	0x3cccff7c	0.025024168
124	0x3d0d7858	0.034538597
125	0xbd342cd1	-0.043988053
126	0x3d45f2c9	0.04832724
127	0x3cb23222	0.02175242
128	0x3cabb5e8	0.020960763
129	0xbdc6048b	-0.09668835
130	0x3d7c54dc	0.061604366
131	0xbd4a0122	-0.049317487
132	0xbae14390	-0.0017186273
133	0xbd58ff3b	-0.05297778
134	0x3bb1880f	0.005417831
135	0x3cea5f12	0.028609786
136	0xbcc4cf49	-0.024024623
137	0x3da80804	0.08204654
138	0xbd4574de	-0.048207156
139	0x3d6c6c69	0.057720575
140	0x3d77fa00	0.060541153
141	0xbd5b2846	-0.053505205
142	0xbd027205	-0.03184702
143	0xbd45a20c	-0.048250243
144	0x3c578bb1	0.013155864
145	0x3c988a44	0.018620618
146	0x399df6d1	0.00030129266
147	0xba4de0bc	-0.00078536174
148	0xbc14fb9f	-0.009093194
149	0x3cec6268	0.028855518
150	0xbd3fd7be	-0.046836607
151	0x3d9b5866	0.0758522
152	0xbcde396e	-0.027126994
153	0x3d5f701b	0.05455027
154	0xbcf16574	-0.029467322
155	0x3d9d5419	0.07682056
156	0x3cc3b4e1	0.02388996
157	0xbd52f49f	-0.05150282
158	0xbc29daa3	-0.010367068
159	0xbc024462	-0.007950874
160	0x3bf6e43d	0.0075345323
161	0x3c8da8ca	0.017292399
162	0x3c8c2a0c	0.017109893
163	0xbc9235da	-0.017847944
164	0xbca00b1c	-0.019536547
165	0x3cf3a439	0.029741393
166	0xbc86abd4	-0.016439356
167	0xbd488b35	-0.048960883
168	0x3d296371	0.0413546
169	0xbbd4391d	-0.006476535
170	0x3d023a58	0.031793922
171	0x3d9f6e1f	0.07784676
172	0xbcc24629	-0.023715096
173	0xbcfad55e	-0.03061932
174	0x3cb613e6	0.022226285
175	0xbcb6b592	-0.022303376
176	0x3d0de1a5	0.03463902
177	0xbdb3415a	-0.08752699
178	0xbc8603a7	-0.016359163
179	0x3c9e6b0b	0.019338151
180	0xbdafc45b	-0.08582374
181	0xbbe8333b	-0.0070861853
182	0xbda0224e	-0.07819043
183	0x3cee1707	0.029063715
184	0x3c85ec29	0.016347962
185	0xbd2f3119	-0.042771433
186	0xbb926f18	-0.00446881
187	0x3cec699c	0.028858952
188	0x3ddd6602	0.10810472
189	0x3ca544c8	0.020174399
190	0xbcd697ca	-0.026195426
191	0x3cb70ba5	0.02234442
192	0x3cfdeccc	0.030996703
193	0xbc816f29	-0.015800076
194	0x3da56258	0.08075398
195	0x3cef4f58	0.029212639
196	0xbd213721	-0.039359216
197	0xbd4a9766	-0.04946079
198	0xbd6e1127	-0.058121826
199	0xbb60924e	-0.0034266892
200	0x3da89b84	0.08232787
201	0x3baa609d	0.0051995055
202	0xbd8f7b50	-0.07005942
203	0x3cc9a491	0.024614604
204	0xbd2273ff	-0.039661404
205	0x3a88bbb9	0.0010431922
206	0xbb8cfcf1	-0.004302614
207	0x3da7728b	0.08176144
208	0xbd1e8476	-0.038700543
209	0xbd0b3375	-0.03398462
210	0x3ce010a4	0.027351685
211	0x3c3eb715	0.01164033
212	0xbb8724c8	-0.0041242577
213	0xbdd13a70	-0.10216224
214	0xbcf64297	-0.03006105
215	0x3d8ac79b	0.06776353
216	0xbd029c23	-0.031887185
217	0xbce94b11	-0.028478177
218	0x3c52a8de	0.012857644
219	0x3d23df4c	0.040007874
220	0x3d06e3f1	0.032932226
221	0x3b9016d3	0.004397252
222	0xbd2abd62	-0.041684516
223	0xbd1ae92f	-0.037820037
224	0x3d728420	0.059208035
225	0x3bf1c956	0.0073787374
226	0x3d75399c	0.059869394
227	0xb80334e8	-3.1282107e-05
228	0xbd528f35	-0.051406104
229	0x3d12019e	0.035646074
230	0xbd5de153	-0.054169964
231	0x3c82d570	0.015970916
232	0x3ce2af16	0.027671378
233	0xbc3b432d	-0.01142959
234	0xbcce646b	-0.025194367
235	0x3b30486e	0.002689864
236	0xbcf3258b	-0.029680988
237	0xbc250cd0	-0.0100738555
238	0x3dc067c4	0.09394792
239	0xbc40d39d	-0.011769203
240	0x3c0809d7	0.008303127
241	0x3ccf74df	0.025324283
242	0x3d3b5db0	0.045743644
243	0x3d481f42	0.048857935
244	0xbcd7af2d	-0.026328648
245	0x3b90ba88	0.0044167675
246	0xbc2fbfcc	-0.01072688
247	0xbd508517	-0.050908174
248	0xbd1c8396	-0.038211428
249	0x3d81f047	0.063446574
250	0x3c93f5db	0.018061569
251	0xba309d96	-0.00067373493
252	0xbd10e558	-0.03537497
253	0xbcf1ca4e	-0.029515412
254	0xbbe8c630	-0.007103704
255	0x3cb4b05d	0.022056753

network_body._body_endoder.seq_layers.2.weight f4 [256, 256]
0	0x3e19777d	0.14986987
1	0x3d1f0ae7	0.038828757
2	0x3c42992e	0.011877341
3	0xbdeabbe2	-0.11461617
4	0x3d51804e	0.05114775
5	0x3dd14a03	0.10219195
6	0x3d3b3fcc	0.04571514
7	0xbdaa11a3	-0.08304145
8	0x3d85ddd2	0.065364495
9	0xbcdbf991	-0.026852401
10	0xbd18d7cd	-0.03731518
11	0xbd2e4d80	-0.04255438
12	0x3d8eb5db	0.0696828
13	0xbe1ba19b	-0.15198366
14	0xbd901e79	-0.07037062
15	0xbe2e93fc	-0.17048639
16	0xbca7db09	-0.020490186
17	0xbda20c01	-0.07912446
18	0x39e099b4	0.00042839127
19	0x3d1b408b	0.03790335
20	0x3d00443d	0.031315077
21	0x3ca14067	0.01968403
22	0x3e072364	0.13197094
23	0x3dd4ad45	0.10384611
24	0x3e1d9991	0.15390612
25	0xbd945de5	-0.072444715
26	0x3e07842b	0.13234012
27	0xbd4eadab	-0.05045859
28	0x3cd0b395	0.025476256
29	0x3e6fa608	0.2340318
30	0x3c9d9525	0.019236157
31	0xbda4f2e3	-0.080541395
32	0x3de66309	0.11249358
33	0x3d87a47b	0.06623169
34	0x3c1442df	0.009049146
35	0x3e0b49b8	0.1360234
36	0xbd449ac3	-0.047999155
37	0xbc311057	-0.010807118
38	0xbd4f5289	-0.05061582
39	0x3e07365a	0.13204327
40	0xbe00262f	-0.12514566
41	0x3cc5ae8d	0.024131084
42	0x3cd11772	0.025523875
43	0xbd42d8cb	-0.04757003
44	0x3e641d46	0.22276792
45	0x3e04d947	0.1297351
46	0xbd4aec2b	-0.049541634
47	0xbd3bb72c	-0.045828983
48	0x3d845ba9	0.06462795
49	0xbd62cbd8	-0.05537018
50	0x3b9853c7	0.004648659
51	0x3d9c848d	0.076424696
52	0xbda717dc	-0.08158848
53	0xbd12b383	-0.035815727
54	0x3d0f69f9	0.035013173
55	0x3d7c2341	0.06155706
56	0xbda0c899	-0.07850761
57	0xbcd93d23	-0.02651841
58	0xbcad1a5d	-0.021130735
59	0x3bae8b4c	0.005326664
60	0x3e44a14c	0.19202155
61	0xbe297fa9	-0.16552605
62	0x3c96fb8b	0.018430492
63	0xbdaa4f69	-0.083159275
64	0x3d0512d2	0.03248865
65	0x3d6e7fc9	0.058227334
66	0xbe2f43c2	-0.17115691
67	0xbe196122	-0.1497846
68	0xbdd2ca22	-0.1029246
69	0xbe067333	-0.13129883
70	0xbd0d86b2	-0.034552284
71	0x3d49deb0	0.049284637
72	0xbc8828c2	-0.016620997
73	0x3d53f646	0.051748537
74	0x3e4cc3cc	0.19996566
75	0x39ebd44c	0.00044980866
76	0x3d67ade3	0.056562316
77	0x3d86a712	0.06574835
78	0xbd81721f	-0.06320595
79	0x3daf7dc2	0.08568908
80	0xbdd698ca	-0.10478361
81	0x3d3fa654	0.046789482
82	0x3d9d497f	0.07680034
83	0xbd9ef559	-0.0776164
84	0x3e0da758	0.13833368
85	0xbd888ad8	-0.06667107
86	0xbceeba8d	-0.029141689
87	0xbdbabac3	-0.09117653
88	0x3e24fe64	0.16112667
89	0xbe91473a	-0.28374654
90	0xbe0fb42f	-0.14033578
91	0x3d8908d9	0.06691141
92	0x3e54efa0	0.20794535
93	0xbd44d4e9	-0.04805461
94	0xbe32225f	-0.17395924
95	0xbd7e0c51	-0.062023465
96	0x3ddb9f7b	0.10723778
97	0x3d9c1f49	0.07623155
98	0xbdc92e9f	-0.098233454
99	0x3dfdf368	0.12399942
100	0xbd14f01a	-0.03636179
101	0xbde2d8d3	-0.11076512
102	0x3dab7ff6	0.08374016
103	0xbb349906	-0.002755703
104	0x3e385ced	0.18004198
105	0x3d888770	0.06666458
106	0x3c6ea277	0.014565102
107	0x3d722f9e	0.059127443
108	0xbb875832	-0.0041303867
109	0xbe1cc4cf	-0.15309452
110	0x3c93f5db	0.018061569
111	0x3e124f06	0.14287958
112	0x3d870143	0.065920375
113	0x3e58ffe0	0.21191359
114	0xbbb3b7c9	-0.0054845554
115	0x3ce4119f	0.027840434
116	0x3dbc31f2	0.09189214
117	0xbd8f91c5	-0.07010225
118	0xbe5126df	-0.20424984
119	0x3da081c3	0.0783725
120	0x3e601857	0.21884285
121	0xbdfa3f75	-0.12219135
122	0x3dec9a24	0.115528375
123	0xbd5053f4	-0.050861314
124	0x3d5b687c	0.05356644
125	0x3dea70c7	0.11447292
126	0x3bbe9ddf	0.0058171595
127	0x3cec27a2	0.028827492
128	0x3d1c3675	0.03813787
129	0x3d4c2646	0.049841188
130	0x3dc8336b	0.09775432
131	0x3d89646d	0.06708608
132	0xbdcca904	-0.09993175
133	0x3bff9bb5	0.007800544
134	0x3dabe551	0.08393348
135	0xbb63ff20	-0.0034789518
136	0x3d164ead	0.036696125
137	0x3c90a2ee	0.017655816
138	0xbe0ca0a4	-0.13733155
139	0xbdf03d3f	-0.11730432
140	0x3dfdcdf8	0.12392801
141	0x3eae1c9a	0.34006196
142	0x3c3b092e	0.011415763
143	0xbc936b60	-0.017995536
144	0x3cc6504f	0.024208216
145	0x3e60a68a	0.2193853
146	0x3c874e79	0.01651691
147	0xbe08cbca	-0.1335899
148	0xbc328f06	-0.010898357
149	0xbddfc3ca	-0.10926016
150	0xbdad2050	-0.08453429
151	0x3c87c9b8	0.01657568
152	0x3d3470ab	0.04405276
153	0xbd97e434	-0.07416573
154	0x3ce0ad6d	0.027426446
155	0xbe0c0ef5	-0.1367758
156	0x3e369e7c	0.17833894
157	0x3d662f19	0.05619726
158	0x3cb45e45	0.022017607
159	0xbd4fe7c0	-0.050758123
160	0xbcce8e79	-0.02521442
161	0xbdfb5712	-0.12272467
162	0x3d8027a3	0.0625756
163	0x3de1bacd	0.110219575
164	0xbd860fd5	-0.065459885
165	0x3e2aebbf	0.16691492
166	0xbe0a6d87	-0.13518344
167	0x3dd6efb1	0.10494936
168	0x3d5506b9	0.052008364
169	0x3e4c899c	0.19974369
170	0x3c1174fd	0.00887799
171	0xbd0c60a1	-0.03427184
172	0x3cf3902e	0.029731836
173	0xbd55604b	-0.052093785
174	0x3c8d1e1c	0.017226271
175	0x3e24090f	0.1601908
176	0x3cbb6f7a	0.022880305
177	0xbe4874ac	-0.19575757
178	0xbb962913	-0.004582533
179	0xbd93d569	-0.07218439
180	0xbc663f87	-0.014053232
181	0x3de224dd	0.11042187
182	0xbc1716fe	-0.00922179
183	0x3c69b7a2	0.014264973
184	0x3c395695	0.011312147
185	0xbbabade8	-0.005239237
186	0xbdebc688	-0.11512476
187	0xbe1ba222	-0.15198568
188	0x3d9a908b	0.07547101
189	0xbdce210f	-0.10064899
190	0xbc911455	-0.01770989
191	0xbdc94c27	-0.09828978
192	0xbc8556fc	-0.016276829
193	0x3dbea1ee	0.093082294
194	0x3c8455fa	0.016154278
195	0x3cccf394	0.02501849
196	0xbc46e284	-0.0121389665
197	0xbdde59e2	-0.108569875
198	0x3e50d442	0.2039347
199	0x3cc66717	0.024219079
200	0x39c73531	0.00037995868
201	0xbd0b8ee4	-0.034071818
202	0x3de09466	0.10965805
203	0x3dada99f	0.08479618
204	0xbcd997c4	-0.026561625
205	0xbdd6e9e7	-0.10493832
206	0xbdc44835	-0.09584085
207	0xbcf98214	-0.030457534
208	0x3da1a50e	0.0789281
209	0xbd8a314e	-0.067476854
210	0x3db47a78	0.088124216
211	0xbdb2cd27	-0.08730536
212	0xbd90d408	-0.07071692
213	0xbcbc100c	-0.02295687
214	0x3d24cb09	0.040232692
215	0xbd4960a0	-0.049164414
216	0x3e00eb92	0.12589863
217	0x3a820fae	0.0009922886
218	0xbd2ab314	-0.04167469
219	0x3d89c74d	0.06727467
220	0x3e186344	0.14881617
221	0x3d9a9a50	0.07548964
222	0x3d09c3c2	0.033633955
223	0x3d85df1a	0.06536694
224	0x3c729418	0.014805816
225	0xbacabfd8	-0.0015468551
226	0xbccbafca	-0.024864096
227	0x3e513637	0.20430838
228	0x3d5071a0	0.05088961
229	0xbe52cc78	-0.20585811
230	0x3c870847	0.01648344
231	0x3dd1541a	0.10221119
232	0xbcea9a06	-0.028637897
233	0x3e112baf	0.1417682
234	0xbdf1b11d	-0.1180136
235	0xbd45f275	-0.04832693
236	0x3d8aadd5	0.06771437
237	0x3d2d8fab	0.04237334
238	0xbe027d71	-0.12743165
239	0x3df7656e	0.12079893
240	0x3d343c5e	0.044002883
241	0xbcfeb608	-0.031092659
242	0xbd80fc8a	-0.06298168
243	0x3dd33720	0.10313249
244	0xbc5001eb	-0.01269577
245	0x3ce47345	0.027886996
246	0x3e3d49b8	0.18485153
247	0x3e33407c	0.17505068
248	0x3c778ee0	0.015109748
249	0xbd15e07f	-0.03659105
250	0x3da1455f	0.078745596
251	0x3b871d20	0.004123345
252	0x3e0555a0	0.13020945
253	0xbe0382f0	-0.12842917
254	0x3dd71940	0.10502863
255	0xbcc87de0	-0.024474084

network_body._body_endoder.seq_layers.2.bias f4 [256]
0	0xbccd8067	-0.025085641
1	0xbd202578	-0.039098233
2	0x3c662dcf	0.014049008
3	0x3b1fab79	0.002436368
4	0x3b6353ec	0.0034687473
5	0xbd6f381e	-0.058403127
6	0x3dc81c2f	0.097710006
7	0x3c575ca9	0.0131446505
8	0x3d58939e	0.052875154
9	0x3d3ae00e	0.04562383
10	0xbd980a32	-0.074238196
11	0xbd66159f	-0.056172963
12	0xbdf6f82a	-0.12059052
13	0x3cca3de0	0.024687707
14	0x3bac833e	0.0052646687
15	0xbdc824a8	-0.097726166
16	0xbd0a3742	-0.033744104
17	0xbb816828	-0.003949184
18	0xbdbba8af	-0.09163033
19	0xbd855d99	-0.06511993
20	0x3ce80525	0.028322766
21	0xbca34e5a	-0.019934822
22	0xbcdbe4f1	-0.026842566
23	0xbe1b6fb2	-0.15179327
24	0xbcc59a4d	-0.024121428
25	0x3bdb1036	0.006685282
26	0x3d52ea66	0.05149307
27	0xbd0c73a7	-0.034289982
28	0xbd41c911	-0.047310892
29	0x3d4460b8	0.0479438
30	0xbd612fc7	-0.054977205
31	0x3cefe91f	0.029285965
32	0xbac00c20	-0.0014652051
33	0x3dad1a50	0.08452284
34	0x3c110aae	0.008852644
35	0xbd1c19a9	-0.03811041
36	0xbdca919b	-0.09891053
37	0x3c9002eb	0.017579516
38	0xbb8dab03	-0.0043233647
39	0x3cac5793	0.021037852
40	0xbd9136c6	-0.07090525
41	0x3c39615b	0.011314715
42	0xbcb834fb	-0.0224862
43	0xbd93abec	-0.07210526
44	0x3cc2dde0	0.023787439
45	0xbc85cf0d	-0.016334081
46	0xbbd5370d	-0.0065068067
47	0x3b19126b	0.0023356925
48	0xbc947c3a	-0.018125642
49	0x3d069fde	0.032867305
50	0x3bef046d	0.0072942288
51	0xbd53a666	-0.05167236
52	0xbc9b3108	-0.018944278
53	0x3d288868	0.041145712
54	0xbde27fd8	-0.110595405
55	0x3ca5e06f	0.02024862
56	0x3c302404	0.010750774
57	0xbb6565d9	-0.0035003333
58	0x3d04d939	0.032433722
59	0xbd6c2a8c	-0.057657763
60	0x3d0dd8e1	0.03463066
61	0x3d6fe6ea	0.058569826
62	0xbc11fe21	-0.008910687
63	0x3d33e057	0.04391512
64	0x3ba546b4	0.005043829
65	0x3c6b6081	0.01436627
66	0xbab3bf06	-0.0013713546
67	0xbcb8c348	-0.022554055
68	0xbb5c3929	-0.0033603406
69	0xbb2f345c	-0.002673409
70	0xbd8818a1	-0.066453226
71	0x3c2a3d20	0.01039055
72	0x3c11ca0e	0.008898271
73	0x3d65c822	0.056099065
74	0xbd997ca8	-0.074944794
75	0x3cfb02b0	0.03064093
76	0x3d2a19f2	0.04152865
77	0xba5398eb	-0.0008071798
78	0xbd0cea5a	-0.034403183
79	0x3cf19e81	0.029494526
80	0xbd2efdcd	-0.042722512
81	0xbde386b8	-0.1110968
82	0x3d1754d7	0.036946144
83	0x3ce11b28	0.02747877
84	0x3c09a1c5	0.008400385
85	0x3d893633	0.06699791
86	0xbd3c48c4	-0.045967832
87	0x3ca2a2c3	0.019853001
88	0x3d5a3428	0.053272396
89	0xbd44a962	-0.0480131
90	0x3d3aab02	0.045573242
91	0x3cf854c6	0.03031386
92	0xbd160911	-0.03662974
93	0x3cdd5cdf	0.027021823
94	0xbd40b32b	-0.047045868
95	0x3aee5a9e	0.0018184965
96	0x3c860840	0.016361356
97	0xbd6c6f8b	-0.057723563
98	0x3d0c8ebd	0.034315813
99	0xbd0bcb06	-0.034129165
100	0xbd1b7f9f	-0.037963506
101	0xbc7da997	-0.015482328
102	0xbd047225	-0.03233542
103	0xbc278268	-0.010223962
104	0xbc5f89bc	-0.013643678
105	0xbd961388	-0.07327944
106	0x3d242a8a	0.04007963
107	0xba79f663	-0.00095353107
108	0x3c66e66d	0.014093024
109	0x3c77df25	0.015128885
110	0xbcedab26	-0.029012274
111	0xbcf4576d	-0.029826844
112	0x3c5edca1	0.013602407
113	0x3c933cbd	0.017973298
114	0x3dab36da	0.083600715
115	0xbd70ac72	-0.058758207
116	0x3aa02459	0.0012217864
117	0x3bc0bb2e	0.0058816886
118	0x3b870b5d	0.0041212277
119	0x3ce53065	0.027977178
120	0xbdf11d2a	-0.11773141
121	0x3b96190a	0.0045806216
122	0xbcc28c74	-0.023748614
123	0x3d395f08	0.045256644
124	0xbd94f2ee	-0.07272898
125	0xbd1e78a9	-0.03868929
126	0x3d2183ec	0.03943245
127	0xbda98ce6	-0.08278827
128	0xbd58c946	-0.052926324
129	0x3b3c421e	0.0028725932
130	0xbcc3376d	-0.02383014
131	0xbba4e5c7	-0.0050322744
132	0x3c5183e6	0.012787795
133	0xbc845437	-0.016153438
134	0xbab34b03	-0.0013678971
135	0xbdc10b75	-0.094260134
136	0x3d638a34	0.055551723
137	0x3d81b5f7	0.06333535
138	0x3c9c6cd6	0.019094866
139	0x3b88fdfe	0.004180669
140	0xbd987a72	-0.074452296
141	0xbdf4d639	-0.11954922
142	0x3c1324d9	0.008980953
143	0x3ce813c4	0.028329737
144	0xbd3761a9	-0.04477087
145	0x3c038102	0.008026363
146	0x3c1919b1	0.009344504
147	0xbd60220b	-0.054719966
148	0xbba63d1e	-0.0050732037
149	0x3a3f1265	0.0007288813
150	0xbdc6ef0e	-0.09713565
151	0xbc80965d	-0.015696699
152	0xbb650c1e	-0.003494985
153	0xbd13581e	-0.035972707
154	0x3d0350cb	0.032059472
155	0xbc264972	-0.010149347
156	0xbc98df57	-0.018661184
157	0x3c64764c	0.01394422
158	0x3da5f6be	0.08103703
159	0xbd2e14bc	-0.042500243
160	0xbc45e44c	-0.012078356
161	0xbd1a266e	-0.037634306
162	0x3ca851b9	0.02054678
163	0x3cc7432c	0.024324022
164	0xbc765807	-0.015035636
165	0xbd1b99a7	-0.03798833
166	0x3c65cd10	0.0140259415
167	0xbdc512bd	-0.09622715
168	0xbcfc30ef	-0.030785052
169	0x3b2e5c2e	0.0026605236
170	0x3c6e62f3	0.0145499585
171	0x3c000997	0.007814786
172	0x3d147861	0.036247615
173	0xbcf8d971	-0.030377122
174	0xbde63b89	-0.11241824
175	0xbd0290cf	-0.03187638
176	0xbd789c74	-0.06069608
177	0xbbf73ff7	-0.007545467
178	0x3bd9476c	0.0066308286
179	0xbd0397a3	-0.032127034
180	0x3c58dc3f	0.0132361045
181	0xbc000e11	-0.007815854
182	0xbc98c937	-0.018650634
183	0x3ce33500	0.027735233
184	0x3a4cc7c1	0.0007811748
185	0xbd8265de	-0.06367086
186	0xbc9bd1ae	-0.019020882
187	0x3c7ef446	0.015561169
188	0xbd200da1	-0.039075498
189	0x3cb40662	0.0219757
190	0xbcf05b0f	-0.029340295
191	0xbcac2fb4	-0.02101884
192	0xbb6eb24d	-0.0036422194
193	0xbcdc3beb	-0.02688404
194	0x3d63092c	0.05542867
195	0xbc5e5681	-0.013570429
196	0xbc430c96	-0.011904856
197	0xbcf13dc8	-0.029448405
198	0xbcec0e58	-0.028815433
199	0x3c09f636	0.008420518
200	0x3cfdfaa2	0.0310033
201	0x3cc6de6a	0.024275977
202	0x3d4c1b4a	0.049830712
203	0xbcb560f9	-0.022140967
204	0x3cfba439	0.030717956
205	0x3d880290	0.06641114
206	0x3d169fe9	0.036773596
207	0xbd12c10c	-0.035828635
208	0x3db3d4f0	0.08780849
209	0xbcd3eb6e	-0.025869098
210	0xbc20615f	-0.00978884
211	0x3d955fb9	0.07293648
212	0xbd5714d4	-0.052510098
213	0xbdad6c9b	-0.084679805
214	0x3d6e054e	0.058110528
215	0x3a1d6aab	0.00060049695
216	0xbd1368c1	-0.035988573
217	0xbd0c5442	-0.034260042
218	0x3c82aab0	0.01595053
219	0xbde746e5	-0.11292819
220	0xbd41bbbf	-0.04729819
221	0xbc06a234	-0.008217383
222	0xbce3e47a	-0.027818907
223	0xbd8028d3	-0.062577866
224	0xbb28ea9e	-0.0025774608
225	0xbcb25e0a	-0.021773357
226	0x3d12ea47	0.035867956
227	0x3d4f9091	0.05067498
228	0xbaa752c1	-0.0012765751
229	0xbc204d21	-0.009784014
230	0xbd24e895	-0.04026087
231	0x3c1082ce	0.008820249
232	0x3c6a1358	0.0142868385
233	0x3da6718b	0.08127125
234	0xbd36ca9d	-0.04462682
235	0x3b87086d	0.0041208775
236	0x3da9f006	0.08297734
237	0xbc83f11d	-0.016106183
238	0xbc83ef40	-0.016105294
239	0xbcb57379	-0.022149788
240	0xbd5cc1e3	-0.053895842
241	0x3cb29ce8	0.021803334
242	0x3c269800	0.010168076
243	0xbbb9e4ba	-0.0056730183
244	0x3b4000f3	0.002929744
245	0xbbced6f1	-0.006312244
246	0x3cf74390	0.030183583
247	0xbdc07579	-0.09397406
248	0xbc223fa5	-0.009902869
249	0x3d02f1ef	0.031969007
250	0x3d18f0c1	0.037338976
251	0x3cdbad40	0.02681601
252	0xbc920d11	-0.017828496
253	0xbd1cfb02	-0.038325317
254	0xbd457f49	-0.04821709
255	0xbd94f72b	-0.07273706

action_model._discrete_distribution.branches.0.weight f4 [7, 256]
0	0x3e06fa70	0.13181472
1	0x3c5306e3	0.01288006
2	0x3d0a1e73	0.033720445
3	0x3d8839f9	0.066516824
4	0x3d5b06c6	0.053473257
5	0xbd142a5b	-0.036173206
6	0x3d328e28	0.043592602
7	0xbcc54149	-0.024078982
8	0x3de2c480	0.11072636
9	0x3dfc4762	0.12318303
10	0xbdba7278	-0.091038644
11	0x3db250e8	0.08706838
12	0xbd27ec56	-0.040996872
13	0xbd5ddd2d	-0.054166008
14	0x3d663b30	0.05620879
15	0xbcb2e14d	-0.021835947
16	0xbc508cdc	-0.012728896
17	0x3df45bf5	0.11931602
18	0xbaac2fad	-0.0013136767
19	0x3da07124	0.0783408
20	0x3ca433db	0.020044258
21	0xbd1d4bf2	-0.038402505
22	0x3d4b9c5e	0.04970967
23	0xbda39fb6	-0.07989447
24	0xbd8d71f0	-0.069064975
25	0x3e161a02	0.14658359
26	0x3d429872	0.047508664
27	0xbd12063a	-0.03565047
28	0x3defe7f0	0.117141604
29	0xbdb4c63f	-0.08826875
30	0x3d534d54	0.051587418
31	0x3db942c2	0.09045936
32	0x3d807d88	0.06273943
33	0x3d9afbf1	0.07567585
34	0x3d83c448	0.06433922
35	0x3e030d06	0.12797937
36	0xbc3af108	-0.011410005
37	0x3dda6968	0.10664636
38	0x3d5a124a	0.053240098
39	0x3d161051	0.036636654
40	0x3dc438fd	0.09581182
41	0x3dbd8c9f	0.09255337
42	0x3d71e67f	0.05905771
43	0xbdc32c5e	-0.09529947
44	0x3db76adf	0.08955931
45	0xbd77168d	-0.06032424
46	0x3dfead96	0.12435453
47	0x3d9cc407	0.07654577
48	0xbd8f545a	-0.06998511
49	0x3da52d70	0.08065307
50	0x3c4f5e17	0.01265671
51	0x3d0cb415	0.034351427
52	0x3dadb925	0.08482579
53	0x3de980aa	0.11401494
54	0xbcda5780	-0.026653051
55	0x3ded0f9f	0.11575245
56	0xbc68f9aa	-0.014219681
57	0x3df52b9b	0.11971208
58	0x3d58ac6f	0.05289882
59	0xbc9900b8	-0.0186771
60	0xbde3d23f	-0.11124086
61	0xbc0d3ea5	-0.008620893
62	0xbc7ec959	-0.015550935
63	0x3e3eb1c8	0.18622506
64	0x3ad9765d	0.0016591061
65	0xbd92da57	-0.07170551
66	0xbbdeba2a	-0.006797095
67	0xbc9bdb1a	-0.019025374
68	0x3d23b0b6	0.039963447
69	0xbd32d97c	-0.04366444
70	0x3dae95a3	0.08524635
71	0x3e014140	0.12622547
72	0x3dacbd03	0.084344886
73	0x3d0fa1a1	0.03506625
74	0xbd673aa2	-0.0564524
75	0x3d1a6702	0.037695892
76	0x3e0a1026	0.13482723
77	0xbd0fe330	-0.035128772
78	0xbc95608c	-0.018234514
79	0x3de2b7f8	0.110702455
80	0xbe1e0f51	-0.1543553
81	0xbdd456ed	-0.10368142
82	0x3dfd6fa7	0.123748116
83	0x3d8701ef	0.06592166
84	0x3e040406	0.1289216
85	0xbd7b5704	-0.06136228
86	0x3d820c78	0.063500345
87	0x3d7031c0	0.058641195
88	0xbd0943f2	-0.033512063
89	0xbc34fd33	-0.0110466955
90	0x3ca5f911	0.020260366
91	0x3db91b1e	0.09038375
92	0x3daf79b5	0.08568136
93	0x3d320062	0.043457396
94	0xbd1a9e42	-0.037748583
95	0x3d74b8b0	0.059746444
96	0xbd72d229	-0.059282456
97	0xbd8a7223	-0.06760051
98	0x3dd00429	0.101570435
99	0x3cb58b5a	0.022161175
100	0x3c70b008	0.014690407
101	0x3de5126e	0.11185156
102	0xbcbb568b	-0.022868415
103	0xbd9671c1	-0.073459156
104	0xbd8bb005	-0.068206824
105	0x3d331a98	0.043726534
106	0xbc4d00b6	-0.0125123765
107	0xbce016cc	-0.02735462
108	0x3dba75ce	0.09104501
109	0x3dba0bbd	0.0908427
110	0xbcfa8b75	-0.030584076
111	0x3d4e8269	0.050417338
112	0xbc7da088	-0.015480168
113	0x3d11ea42	0.035623796
114	0x3d5f1c03	0.054470073
115	0x3b9f2684	0.0048568863
116	0xbdb3d3c9	-0.08780629
117	0xbbbe4aca	-0.0058072554
118	0x3cad6946	0.021168362
119	0x3dc3ca30	0.095600486
120	0xbcdcdae8	-0.026959851
121	0x3d8a080f	0.06739818
122	0xbcbbfd26	-0.022947859
123	0x3dc7cbff	0.09755706
124	0x3dad98de	0.08476423
125	0x3d2305bc	0.03980039
126	0x3c9db799	0.019252585
127	0xbd6b77b6	-0.057487212
128	0x3dc73681	0.09727193
129	0x3d130d2d	0.035901237
130	0xbd56cb8e	-0.05244022
131	0x3e13e290	0.14441895
132	0x3d903213	0.07040801
133	0xbc435653	-0.011922437
134	0xbd95185a	-0.07280035
135	0xbd904cff	-0.07045936
136	0x3d36be05	0.04461481
137	0x3e13e48d	0.14442654
138	0x3dcd6341	0.10028697
139	0x3d8ec023	0.06970241
140	0xbdba9498	-0.09110373
141	0xbcdef234	-0.0272151
142	0xbd886c32	-0.066612616
143	0x3d463c8b	0.048397582
144	0x3d34a853	0.04410584
145	0xbd6b42aa	-0.057436623
146	0x3c10eb22	0.0088451225
147	0x3d1793eb	0.0370063
148	0x3e0e7996	0.13913569
149	0x3e166d97	0.14690243
150	0x3c4b6977	0.0124152815
151	0x3d7dbe7f	0.06194925
152	0x3d8ffb27	0.070303254
153	0x3d3f310b	0.04667763
154	0x3d993df1	0.074825175
155	0xbdf59018	-0.11990374
156	0xbdb83f3d	-0.08996437
157	0x3cca7548	0.024714127
158	0xbd73765a	-0.05943904
159	0x3ba056eb	0.004893174
160	0xbde375da	-0.11106463
161	0x3d28faae	0.04125469
162	0xbd3924be	-0.045201056
163	0x3df65051	0.12027038
164	0x3bcb0268	0.006195355
165	0xbdad6e8a	-0.08468349
166	0x3d6c7421	0.057727937
167	0x3d4b3d82	0.049619205
168	0x3dcac64c	0.099011034
169	0x3d9fe987	0.07808214
170	0x3dfc1fa5	0.12310723
171	0x3c952c09	0.018209474
172	0xbc98c460	-0.018648326
173	0x3cbd20b3	0.023086881
174	0xbc86d625	-0.016459534
175	0x3d5dce57	0.05415186
176	0x3c0b0170	0.008484229
177	0x3e08d52d	0.1336257
178	0x3d20e98f	0.03928524
179	0xbd1a18bf	-0.037621256
180	0x3db2135a	0.08695097
181	0x3d602a1b	0.054727655
182	0x3d71a554	0.05899556
183	0x3da29cc3	0.07940056
184	0xbe0aa78d	-0.13540478
185	0x3cb1ba45	0.021695266
186	0xbbde75b5	-0.006788934
187	0xbd85104b	-0.06497248
188	0xbc6279a4	-0.013822947
189	0x3d581d14	0.052762106
190	0x3cba1a35	0.022717575
191	0xba25378b	-0.0006302527
192	0xbcc63da2	-0.02419931
193	0xbce2fb60	-0.027707756
194	0x3d7f6873	0.06235547
195	0x3ce4e9e8	0.027943566
196	0x3d9bd176	0.07608311
197	0x3ccf3389	0.025293129
198	0xbce25dc7	-0.027632607
199	0x3d5d10db	0.053971153
200	0x3e36bb34	0.1784485
201	0x3db275cb	0.087138735
202	0x3db3eccf	0.08785402
203	0x3d4ba296	0.0497156
204	0x3e01f9a7	0.12692891
205	0x3dc65295	0.0968372
206	0x3e08b39b	0.13349764
207	0x3d9c1a3a	0.0762219
208	0x3da44f99	0.080229945
209	0x3def59b7	0.116870336
210	0x3d99fd6d	0.0751904
211	0xbdda844a	-0.106697634
212	0xbdc1cae7	-0.09462529
213	0xbdd95222	-0.10611369
214	0x3c8229bc	0.015889041
215	0x3ce47165	0.027886102
216	0xbd362c4f	-0.04447585
217	0x3dc82172	0.09772004
218	0x3daf71c3	0.0856662
219	0xbdca390d	-0.09874163
220	0x3d755fec	0.05990593
221	0x3d2e1ccc	0.04250793
222	0xbbd09e98	-0.006366562
223	0x3da4762b	0.08030351
224	0x3da9ea96	0.08296697
225	0x3d0136d1	0.031546418
226	0xbe09a7e4	-0.13442951
227	0x3e05f893	0.13083105
228	0x3d230e5b	0.039808612
229	0x3d61ce33	0.055128288
230	0xbd598097	-0.05310115
231	0xbc3c2369	-0.011483052
232	0x3df885f6	0.12134926
233	0x3d370d6f	0.044690546
234	0x3da6dc51	0.08147491
235	0xbcae4bb5	-0.021276334
236	0xbdc8729d	-0.09787486
237	0x3de4b208	0.11166769
238	0x3d996147	0.07489257
239	0xbd6aeabb	-0.057352763
240	0x3d024299	0.031801794
241	0x3bb25cff	0.005443215
242	0x3d612c18	0.05497369
243	0x3d236a71	0.039896432
244	0x3d3452ef	0.044024404
245	0xbd52774f	-0.051383313
246	0xbd711d32	-0.058865733
247	0xbd6741d4	-0.056459263
248	0x3c163dc8	0.009170003
249	0xbd2c7d4f	-0.04211169
250	0xbd9226b4	-0.07136288
251	0x3ca080ae	0.01959261
252	0x3ce83bda	0.028348852
253	0x3d9f9e71	0.07793892
254	0x3db3e8c9	0.087846346
255	0x3d9f6149	0.077822275

action_model._discrete_distribution.branches.0.bias f4 [7]
0	0x3dbe8b4a	0.09303911
1	0xbbe7d212	-0.007074603
2	0xbda051c5	-0.07828096
3	0xbd64bbe9	-0.055843268
4	0xbc972b5c	-0.018453293
5	0x3ccc0d13	0.024908578
6	0x3d527a08	0.05138591
