results/puzzle_experiment_0/PuzzleBehavior/PuzzleBehavior-16999940.onnx (onnx, 334731 bytes, 6 tensors)

network_body._body_endoder.seq_layers.0.weight f4 [256, 57]
000000 f0 52 1f be 52 df 1d bd 7a b1 52 bd 16 6d 12 be
       -0.15558982 -0.038543053 -0.051438786 -0.14299425
000010 ab 80 4c 3e dd 22 b2 3e 92 aa 1c be 4c c8 99 3c
       0.19970958 0.34792224 -0.15299442 0.018772267
000020 f5 2a 45 be 56 4e 39 be 56 35 21 3e f1 dc 10 be
       -0.19254668 -0.18096289 0.15743002 -0.14146782
000030 6f 9a e0 bd e3 c1 80 bd af fa 77 3e 9d 80 d8 3d
       -0.10966956 -0.06286981 0.24216722 0.10571406
000040 68 05 01 bc b3 68 7f 3d 7d af 6d 3c 64 f2 70 bd
       -0.007874824 0.06235571 0.014507172 -0.05882491
000050 47 01 f9 3b 4a ee e2 3d e5 2f 9b be ca d8 c6 bd
       0.007599029 0.11080606 -0.30309978 -0.09709318
000060 a8 ce bb bd 94 03 59 be d6 64 d7 3d c8 9a 29 3e
       -0.09170276 -0.21192771 0.1051728 0.1656295
000070 58 03 ea 3c f5 1c 3e 3e 34 ce f6 bd 13 84 02 be
       0.028566048 0.18565734 -0.12051049 -0.12745695
000080 b7 d3 31 be 77 d1 fe 3d c6 19 49 be 21 b4 98 bd
       -0.17365919 0.12442296 -0.19638738 -0.07456232
000090 0e e5 9d be a0 f1 a1 3d 27 dc 80 bd 9a 5d b0 bc
       -0.30838817 0.079074144 -0.06291991 -0.021529008
0000a0 ce 06 6c 3e fb 97 fc 3d 03 71 8f 3d 24 51 2f be
       0.23049471 0.123336755 0.07003977 -0.17120796
0000b0 a7 be cc 3c 2e 0a 26 3e be 0b 11 3d ae 92 dd 3d
       0.024993254 0.1621482 0.03541159 0.108189926
0000c0 85 92 85 3c 15 0a 0f 3e 04 3f 25 be 14 90 fd bc
       0.016305218 0.1396869 -0.1613732 -0.03095249
0000d0 1f 92 ff bd a3 00 71 3e 4f 49 62 be 74 ec 92 bd
       -0.12479042 0.23535399 -0.22098278 -0.07174006
0000e0 ad df bc bd cd b5 99 be 0c 07 03 3d ea 5e a5 bd
       -0.0922235 -0.30021515 0.031989142 -0.08074744
0000f0 c7 ff 7d 3e 3a ac df 3d 6a fb 4a bd ea bb b7 bd
       0.24804603 0.109215215 -0.049556173 -0.08971389
000100 70 04 02 3e 3f 72 fa be 78 b6 87 be 93 1b d3 be
       0.12697005 -0.48915288 -0.265064 -0.41231975
000110 90 67 5f be 6c 37 7c be ff 4d a4 bd 47 95 50 be
       -0.2181685 -0.24630517 -0.08022689 -0.20369445
000120 7b 0d 17 be 96 e8 9f 3d f3 59 a0 bd 5e 57 16 bd
       -0.14751236 0.07808034 -0.078296565 -0.036704414
000130 e1 cc 95 bc 33 94 7a 3d 09 97 b0 bd f2 48 93 3b
       -0.01828617 0.06117649 -0.08622558 0.0044947797
000140 95 d8 a8 bd 71 1f 9c bb c1 5d d0 bd c6 1b 1a bc
       -0.08244435 -0.0047644903 -0.10174132 -0.009406036
000150 34 95 2b be 54 27 c6 3c 56 87 97 ba f5 6e ae bc
       -0.16756135 0.024188675 -0.0011560719 -0.021293143
000160 91 a0 da 3e 25 f9 60 3e b3 9f 96 3e 29 73 30 3e
       0.42700627 0.21970041 0.29418716 0.1723143
000170 e7 d7 fb bd b1 b0 29 3d 88 44 83 bc a3 19 53 3e
       -0.122970395 0.04142827 -0.01602389 0.20615248
000180 76 ef a5 bd 55 21 fe 3c e5 aa 04 be f9 07 75 3d
       -0.08102314 0.031021753 -0.12955816 0.059822056
000190 10 d4 ad 3e 6d 63 6c be b2 7c b7 bd be a0 30 3e
       0.33950853 -0.23084803 -0.089593306 0.17248818
0001a0 a7 59 81 3e ff 9c 34 3e 1b 9f 18 3d 44 11 28 3e
       0.25263712 0.17638014 0.03726111 0.16412836
0001b0 2c 16 ec 3d 09 05 95 3d 6c 50 05 3e 53 1a 19 bd
       0.115276664 0.07276351 0.1301896 -0.03737862
0001c0 6c 32 82 be 79 9d 0a be 64 0c 10 be 67 e6 21 bc
       -0.25429094 -0.13536634 -0.14067227 -0.009881592
0001d0 69 6e f6 bd e4 2c b2 bd 78 54 7f bd b9 cb 16 3e
       -0.12032778 -0.086999685 -0.062336415 0.14726152
0001e0 2c 77 cd 3d 20 45 a1 be 33 58 91 3d 2a df 17 3d
       0.10032496 -0.3149805 0.07096901 0.03707806
0001f0 03 f0 11 be db 77 01 be b9 2f 84 3d 39 f0 30 3d
       -0.14251713 -0.12643377 0.06454415 0.043197844
000200 8d 80 0a bc cc 61 f7 3c 06 4f a0 bd 9c 7a 91 be
       -0.0084535 0.030198 -0.078275725 -0.28413856
000210 c5 52 20 be a5 6d 59 3e 68 c6 fb 3d 97 7d 3c 3c
       -0.15656574 0.21233232 0.12293702 0.011504552
000220 5c 03 b2 3d 89 79 26 3d 83 c2 07 3d 47 bc a9 3b
       0.08692047 0.04064325 0.033144485 0.005179915
000230 99 01 d3 bd af 4c 91 be 1c 69 bb 3d f4 8f 86 3d
       -0.10303039 -0.28378817 0.091509074 0.06570426
000240 01 c8 81 3e 06 04 e7 3d 07 bd c4 3c 60 e2 a4 3e
       0.25347903 0.11280064 0.024015917 0.3220396
000250 2d 8a 9f bc db c2 ff 3d 34 08 38 bd 0f 4d d9 3d
       -0.019475067 0.124883376 -0.044929698 0.10610401
000260 0a 57 e0 bc 56 a6 fd bd 7c c2 ab 3e d4 02 90 bc
       -0.027385253 -0.12385242 0.33546817 -0.017579474
000270 e9 5a 72 be a4 5f 1d bd 8c f1 e1 3d cc fc b2 3d
       -0.23667492 -0.038421288 0.110323995 0.087396234
000280 6f eb d3 39 6d 15 44 3d 24 e5 89 be 44 70 44 bd
       0.00040420468 0.047871996 -0.26932633 -0.047958627
000290 4c e4 8c be af 74 49 be 14 a8 ee 3c 99 22 1f 3d
       -0.27517927 -0.19673418 0.02913288 0.038851354
0002a0 87 8e 5b 3d 35 ac 89 3d fd fb ff bd 9d 56 41 be
       0.05360272 0.06722299 -0.12499235 -0.18880697
0002b0 ca 50 87 be e8 60 92 bd 8e 10 93 bd 2e 4e 0d 3e
       -0.26428825 -0.0714739 -0.07180892 0.13799354
0002c0 6f 36 75 bc 91 f5 cc be fb 0e 8b 3e 5f 2e 1b bd
       -0.014966591 -0.40031102 0.27159867 -0.03788602
0002d0 02 16 80 be de e0 17 be 86 2e a0 ba 7b 4a 33 3e
       -0.2501679 -0.14831874 -0.0012220896 0.17508881
0002e0 5c 47 57 3e 42 84 e6 3d e1 19 ae 3d 67 ee 3b bd
       0.21023315 0.11255695 0.0850103 -0.045881655
0002f0 07 63 a4 3d 2f 31 35 3e 70 2e 98 3d 46 ff af be
       0.080267005 0.17694543 0.07430732 -0.34374446
000300 93 55 10 be d4 8b c6 bc 60 12 0f 3e 70 83 b5 bd
       -0.14095144 -0.024236597 0.13971853 -0.0886296
000310 15 61 e2 3c 0d ee 1c be a5 43 80 3d 80 af a9 3d
       0.027634183 -0.15325184 0.06262902 0.08285427
000320 50 80 84 bb 5b 6f 55 3c 28 c5 ea 3d b8 c1 1b 3b
       -0.0040436164 0.0130270375 0.11463386 0.0023766588
000330 48 c1 de bd 24 58 3c 3e c6 5f 27 3e a5 56 8e 3d
       -0.10876709 0.18392998 0.16345128 0.0695012
000340 db 48 a5 3d 2b 25 96 bd 23 c8 7e be 04 cf 3a 3e
       0.08070537 -0.07331308 -0.24881034 0.18243033
000350 fb 21 e2 3d 5a e3 18 be 80 e0 5f 3e 46 86 23 3e
       0.110416375 -0.14930478 0.21862984 0.1596919
000360 5f ce f7 bd 05 1e 53 3c 8d ff d5 bd e8 62 5f bc
       -0.12099909 0.012885575 -0.10449133 -0.013634421
000370 6a 96 11 3e 14 9d 51 3e f2 4d 1f be 65 fe 31 3b
       0.14217535 0.20470077 -0.15557078 0.0027159688
000380 12 80 96 bc 58 f7 17 bd c3 f7 57 be e8 96 33 3e
       -0.018371616 -0.03710112 -0.21090607 0.17538035
000390 a2 9b 12 be ad dc 4c bd ed bc c4 be 09 dd 4a be
       -0.14317182 -0.05001514 -0.3842539 -0.1981088
0003a0 0e 01 24 be 0a 5e 04 bd c9 c6 be bd 15 75 b6 3e
       -0.16016027 -0.032316245 -0.09315259 0.35636202
0003b0 cb 13 cf be 59 3c 8f be 2a 93 54 3d bd 66 b3 bd
       -0.40444788 -0.2797573 0.05189816 -0.0875983
0003c0 ee 9c 32 bc 4b bd 1f 3e c7 70 ff 3d 8d 8b fe bc
       -0.010901673 0.15599553 0.124726824 -0.031072402
0003d0 c4 b6 29 3d 2c 01 c0 3d bc 37 43 bc 71 85 b7 3e
       0.041434065 0.093752235 -0.011915144 0.35843995
0003e0 ae 81 19 3e 04 77 99 bd dc db a5 be 88 45 a0 bd
       0.14990875 -0.074934036 -0.32394302 -0.07825762
0003f0 65 68 ba be 7d 30 0b bd 35 d7 0e be b1 82 9a be
       -0.36407772 -0.03398179 -0.13949282 -0.30177835

network_body._body_endoder.seq_layers.0.bias f4 [256]
000000 a0 64 7e 3d d0 1b 0f 3d a2 22 76 bd ed 17 41 3d
       0.062107682 0.034938633 -0.060091622 0.047141958
000010 f4 31 d2 3b 72 7a aa bd 88 f2 fe bc 8a 42 1a 3d
       0.0064146463 -0.08324136 -0.031121507 0.037661113
000020 2d 80 68 bd 0c aa d5 3b a6 e5 71 bc 69 41 4b bc
       -0.056762863 0.0065205153 -0.014764225 -0.012405732
000030 f6 67 93 bb 46 9c db 3a 79 57 4f 3c 7f 6a b9 3c
       -0.004498477 0.0016754947 0.012655132 0.02263379
000040 ce 83 96 3d 11 0d f5 3c c6 51 ca b9 c3 57 81 3a
       0.073493585 0.029913457 -0.00038589368 0.0009868074
000050 d3 20 7d bd 11 26 de bc 5f 36 09 bd de d0 cc 3c
       -0.06179888 -0.02711776 -0.033499118 0.02500194
000060 b1 14 cf bd 2a e4 13 3d 4f ed f3 bc 34 2b 44 3c
       -0.101113684 0.036106266 -0.029776243 0.011973191
000070 04 6a dc 3c 67 02 5f bd 28 40 a5 3d 17 97 0c 3d
       0.026906021 -0.05444565 0.080688775 0.034323778
000080 7a 5b 9c bb b8 19 2e bd bd df 7d 3d c8 81 b8 3c
       -0.004771647 -0.042504996 0.06198095 0.022522822
000090 06 39 97 3d 00 40 e0 bc 8e f5 60 ba 0c 13 27 bd
       0.07383923 -0.027374268 -0.00085815124 -0.04078965
0000a0 2b 86 58 3c 5a e4 3a 3d 0e ab 1c 3d 7b fb 3f bd
       0.013215582 0.04562793 0.038249068 -0.04687069
0000b0 4b c4 44 3d 5f 88 0c 3d 88 c2 e7 3c cd a1 f5 3c
       0.048038762 0.03430974 0.028291002 0.02998438
0000c0 76 e5 36 3d 89 95 23 3c 0d ab 11 bd de a9 8e 3c
       0.044652425 0.009984382 -0.035563517 0.017414983
0000d0 92 d6 38 bd 61 f1 d8 3a da 06 c3 bd cf cd a7 3d
       -0.045126505 0.0016551429 -0.09522791 0.08193552
0000e0 1e 1a 92 3d 5c 2a 1d 3d 39 92 0d 3d 19 11 0d bc
       0.07133888 0.038370475 0.034563277 -0.008610033
0000f0 15 a2 7a 3d 2b cc 89 3d a1 e4 b2 3d 67 35 a1 3d
       0.06118973 0.06728395 0.08735014 0.07871514
000100 4c 2d a3 3d b0 6e 86 3c 77 c7 c3 bc 57 d2 45 3d
       0.07967624 0.016410202 -0.023898823 0.0482963
000110 47 a3 af bb 58 b7 9b bd f0 80 72 bc 5a 5c 1e 3d
       -0.0053600403 -0.076033294 -0.014801249 0.038662292
000120 7e e2 63 bd f9 ad 3d 3c 1f 2f 6f 3d 24 2d 1f 3d
       -0.05563592 0.011577123 0.058394548 0.03886141
000130 b7 ac bc bb cc ce 34 bc 8e 9d 0a bd c6 eb 82 bd
       -0.005757894 -0.011035632 -0.033841662 -0.063926265
000140 93 76 6e bd 3e f2 92 3d b8 25 ab bc 6e 22 a2 3c
       -0.05821855 0.0717511 -0.02089201 0.019791808
000150 76 e1 f1 ba 53 a9 0c ba bc cc 65 bd 25 d6 1f bd
       -0.0018454033 -0.00053658074 -0.056103453 -0.039022584
000160 5f 0d 2f bd 27 d8 c0 3c fb 0a 34 3d 68 e6 9b 3b
       -0.04273736 0.02354057 0.043955784 0.004757691
000170 63 5a a5 3c df 0a 8c bd 57 55 71 3a 92 83 1a ba
       0.020184701 -0.06838011 0.0009206137 -0.00058942393
000180 bb 45 6e 3d a9 66 29 3d cf 3e c1 3c ae d5 73 3d
       0.05817197 0.04135767 0.02358952 0.059529953
000190 c1 a3 6b bc 49 2a 8a 3d 95 7f 0a bd ce 6b 14 3d
       -0.014382304 0.067463465 -0.033813078 0.036235623
0001a0 2f 33 cd bd 4e 13 4a 3d 98 01 fd 3c cb a1 17 bd
       -0.10019528 0.049334817 0.030884549 -0.037019532
0001b0 71 8f 12 bc 8b 16 67 3d 22 5c 13 bd 36 fb 1c bc
       -0.008945332 0.056417983 -0.035976537 -0.009581378
0001c0 6e c1 89 3c ec d1 57 3d 03 f6 1a bb 5b 2a 14 3d
       0.016815867 0.05269043 -0.002364517 0.036173206
0001d0 fd 4c f9 3b f5 37 5d 3d 0d 83 a3 3c b6 b1 0f bc
       0.0076080547 0.054008443 0.01995995 -0.008770397
0001e0 29 f4 3f bb 7d 48 98 3d 2d 06 32 3c 83 2e 78 3c
       -0.0029289818 0.07435701 0.01086573 0.015147808
0001f0 3f 51 c1 3c fb 41 19 bd b1 71 3c 3d 41 71 c7 3c
       0.023598311 -0.03741644 0.046006862 0.024345996
000200 7b 9d a2 3c 59 a3 bc bd c2 15 82 3d 71 74 39 bd
       0.019850483 -0.092108436 0.06351806 -0.045277063
000210 8b 5e de 3a dd e8 2e bd 65 55 d1 3b 9e 72 fe 3c
       0.0016965432 -0.042702544 0.0063883536 0.031060513
000220 2c c6 e0 bc 57 65 9d 3d be 73 32 bd 7b 00 6e 3d
       -0.027438246 0.07685345 -0.04356741 0.058105927
000230 0e dc 51 3d d7 1b 50 bd 7b 62 f2 bc 5f 4c 46 bd
       0.05123525 -0.0508078 -0.029587975 -0.048412677
000240 34 86 2c 3c 9d 65 8f 3c de d5 03 3c 77 f5 ea ba
       0.010530043 0.017504508 0.008046595 -0.0017925937
000250 6d 8c 4d bc b8 94 8b 3c 96 09 1c bd 4e 62 85 3d
       -0.012545687 0.017038688 -0.03809508 0.06512891
000260 4f 4e d0 bc ad b1 65 3d fb 0d fe bc 5b c5 9c 3d
       -0.025427965 0.056077648 -0.031012526 0.0765483
000270 af 7a 90 3c bf d2 43 bd 80 e6 01 bc 58 2b 92 bb
       0.017636625 -0.047808405 -0.007928491 -0.0044607334
000280 1f ca 2a 3c 07 3a 8e 3c ac 4a 48 3c c2 2c 8d bc
       0.010424166 0.017361654 0.012224834 -0.017233256
000290 b7 f7 b0 bc 09 81 ef 3c 0f 3b ac bc 21 87 17 bd
       -0.021602495 0.029236333 -0.021024255 -0.036994103
0002a0 14 8c 0c 3d 7b 50 9e b8 37 88 ab 3c 1a 2b 92 3d
       0.034313276 -7.549018e-05 0.020938976 0.07137127
0002b0 16 22 e9 bc f1 b9 1b bd 26 2c a7 3c 66 1d c8 bc
       -0.028458636 -0.038019124 0.020406794 -0.02442808
0002c0 8c 41 dd 3c 33 7c b7 bd 31 f7 b8 bb 5b df e6 3c
       0.027008794 -0.08959236 -0.005644702 0.028182676
0002d0 15 2b 9b bd 59 9d c9 bb c7 83 b4 bd 40 32 fb 3c
       -0.075765766 -0.0061527905 -0.08814197 0.03066361
0002e0 f3 6e 8f 3c 6e d0 39 bd ef f2 89 bb 44 0f 04 3d
       0.01750896 -0.04536479 -0.004209868 0.03224112
0002f0 6d 54 d4 3d 1d 7d 2e 3c c0 f4 bb bc 85 9b a5 3c
       0.103676654 0.0106499465 -0.022943854 0.020215759
000300 69 66 d8 3c 3b 6f 5d bc 36 a5 94 3d 5d 2b ec 3c
       0.02641602 -0.013515289 0.07258074 0.028829271
000310 0f 9e 1d bd e2 20 48 bd 4d 7a 46 bd 24 90 95 3b
       -0.038480815 -0.048859484 -0.04845648 0.004564302
000320 0f e7 a5 3d 52 5a 10 3c f2 5b 82 bd e5 27 bb 3c
       0.081007116 0.008810597 -0.063651934 0.022846172
000330 88 09 29 bd bf 3a 51 3b 20 7c eb bb b4 07 a1 3d
       -0.041268855 0.0031925885 -0.0071864277 0.078627974
000340 bb ae fb bc ff c7 26 bd f1 29 db 3c 00 ad 73 3c
       -0.030722966 -0.040718075 0.026753398 0.014872789
000350 4e 84 19 bc 45 2f b9 bd 41 9b d6 bc f6 83 90 3d
       -0.009369923 -0.09042219 -0.026197078 0.070564196
000360 4c bc f1 bc e1 66 03 bd c1 43 65 3b 9f 3d 19 3d
       -0.029508732 -0.032080535 0.0034983011 0.037412282
000370 00 d2 f4 3c 40 db 86 3a d8 3c e8 bc f3 37 13 bd
       0.029885292 0.001028873 -0.028349325 -0.03594203
000380 74 e6 75 3d 37 43 1a 3c dd 83 66 3d 23 7d 26 3a
       0.06003423 0.009415439 0.0562781 0.0006351044
000390 59 c0 49 bd 46 df f3 3c 4f c7 50 bd c9 ff 43 3c
       -0.049255703 0.029769551 -0.050971325 0.011962839
0003a0 58 75 cf 3c a7 34 e9 bb 56 ce d6 bc ce 6e 9f 3b
       0.025324509 -0.0071168724 -0.026221436 0.004865504
0003b0 48 ce e8 bc 69 fd 0c bc 77 7d c2 3d bb bf 13 bc
       -0.028418675 -0.00860534 0.09496587 -0.00901788
0003c0 d2 55 00 3a fa 97 b6 3c af e5 49 3d a3 e1 3b 3d
       0.0004895601 0.022289265 0.04929131 0.04586948
0003d0 ae 8c c6 bc 28 fb 1b 3c 5e 31 50 bc 86 b3 41 bd
       -0.024237003 0.00952033 -0.012707083 -0.047290348
0003e0 5d f9 0a bd 87 c4 6c 3d 33 cf 97 3c 56 0f 94 bb
       -0.033929218 0.05780461 0.018531417 -0.0045184297
0003f0 ad f5 11 bd 10 ae f8 bc 95 6a 60 ba b7 83 c1 3c
       -0.035634685 -0.030356437 -0.0008560804 0.023622377

network_body._body_endoder.seq_layers.2.weight f4 [256, 256]
000000 44 11 2b 3e e9 b0 4f 3d 22 87 89 3c 81 a6 ce bd
       0.16705805 0.050705824 0.01678807 -0.10090352
000010 33 b2 96 3d 84 91 bf 3d 6a 9c b1 3c b8 93 80 bd
       0.073582076 0.09353927 0.02168103 -0.06278175
000020 fd 4d c2 3d b2 fc 53 bd 1a 2a 3e bd 52 58 91 bd
       0.09487531 -0.05175466 -0.04642687 -0.07096924
000030 68 b8 68 3d f7 54 1d be 81 f1 5c bd 10 7b 29 be
       0.05681649 -0.15364443 -0.053941254 -0.16550851
000040 9f ab 3d bc 0e cb cb bd 58 6a 30 bc 68 01 4f 3d
       -0.011576562 -0.09950839 -0.010767542 0.05053845
000050 87 d6 45 3d 90 30 04 bc 57 be 13 3e 69 80 ea 3d
       0.048300292 -0.008068219 0.14428078 0.114502735
000060 58 cb 10 3e 05 be 82 bd 46 7a e0 3d c0 fc 77 bd
       0.1414007 -0.063838996 0.10960822 -0.060543776
000070 53 9b 02 3d 03 3f 66 3e db 4f bc 3c da 76 84 bd
       0.03188641 0.22484975 0.022987297 -0.06467982
000080 3c f9 c6 3d 96 43 9c 3d 42 f9 ac 3a d9 ee 07 3e
       0.097155064 0.076300785 0.0013196843 0.13274707
000090 95 46 44 bd e0 61 26 bd ce b9 7d bd 6c 80 01 3e
       -0.047918875 -0.040620685 -0.061944775 0.12646645
0000a0 b5 d5 f4 bd e7 6b a7 3c a1 ea ad 3c c4 74 3f bd
       -0.11954824 0.020437194 0.021230044 -0.046742216
0000b0 cf 20 61 3e 7f 10 0a 3e f5 05 3f bd af c4 2e bd
       0.21985172 0.13482855 -0.04663654 -0.04266804
0000c0 58 19 b1 3d 0a bf 43 bd 77 5a c4 3b 43 47 93 3d
       0.08647412 -0.04778961 0.0059922296 0.071913265
0000d0 3a af b3 bd 6e 70 4b bd 7e 00 fb 3c bf c4 89 3d
       -0.08773656 -0.04966777 0.030639883 0.067269795
0000e0 b8 90 80 bd 7b 59 5a bd 6f 97 0c bc 32 90 39 3c
       -0.06277603 -0.05330799 -0.008581026 0.011325883
0000f0 cf 6e 44 3e 88 24 2b be 01 15 15 3d 82 46 a9 bd
       0.19182895 -0.16713154 0.036396984 -0.082654014
000100 ed 35 b0 3d 0d ba 36 3d eb 2f 2c be da 83 35 be
       0.086040355 0.044611026 -0.16815154 -0.17726079
000110 74 4b a9 bd 63 b0 01 be 69 b0 47 bd 9e 32 97 3d
       -0.08266345 -0.12664942 -0.048752222 0.07382701
000120 21 49 8f bc b2 c3 11 3d 41 ea 4a 3e 4a d3 7b bc
       -0.017490925 0.03558702 0.19815923 -0.015370199
000130 ee 24 91 3d 8f a6 86 3d fb 78 5b bd 00 42 7b 3d
       0.07087122 0.06574737 -0.053582173 0.06134224
000140 fa 23 eb bd 20 5f 1b 3d 40 a3 97 3d e1 06 7f bd
       -0.11481471 0.037932515 0.07404184 -0.06226242
000150 ab 4d f8 3d f4 18 8c bd ef 09 7b bc 46 24 a5 bd
       0.12124189 -0.06840697 -0.015322193 -0.08063559
000160 7b cc 24 3e bc 28 91 be ce 0a 41 be 2b 7a 50 3d
       0.16093628 -0.2835139 -0.18851778 0.05089776
000170 52 a1 62 3e 32 89 3f bd 0c a2 3c be 00 8d 48 bd
       0.22131851 -0.0467617 -0.18421191 -0.048962593
000180 c6 8e fb 3d e6 a6 cf 3d d1 3a d6 bd 99 12 f0 3d
       0.12283091 0.10139255 -0.10460437 0.11722297
000190 e7 2a 8a bd e6 bb e8 bd ec 45 bc 3d 08 b7 32 bb
       -0.06746464 -0.11363964 0.09193024 -0.002726974
0001a0 ec 52 4a 3e c8 45 8e 3d 67 83 3d bc 6d 0a 73 3d
       0.19758195 0.069469035 -0.011566973 0.059336115
0001b0 b3 b9 0a 39 0a b0 01 be cf d3 30 b9 6a 03 17 3e
       0.00013229884 -0.1266481 -0.00016863573 0.14747396
0001c0 dc cb 62 3d cf c7 55 3e f7 7c 05 bc a5 a1 01 3d
       0.055370197 0.20877002 -0.00814747 0.031648297
0001d0 69 4d c7 3d 66 ac 7e bd 43 28 39 be 06 e7 9b 3d
       0.09731562 -0.06217613 -0.18081765 0.076124236
0001e0 81 46 5c 3e 11 fb 03 be 80 db ed 3d 4c a6 40 bd
       0.2151127 -0.12888743 0.11614132 -0.047033593
0001f0 b4 27 1f 3d f8 92 ba 3d 94 dc 09 3d ea a9 4a 3d
       0.038856223 0.09110063 0.033657625 0.04947845
000200 41 3d 57 3d c0 59 67 3d 90 7d cc 3d 95 d6 b2 3d
       0.05254865 0.056482077 0.09984887 0.087323345
000210 a2 53 dc bd f9 ef b2 bc 99 fd c2 3d be a5 df 3b
       -0.10758139 -0.021842944 0.09521026 0.006825178
000220 3d a1 79 3c 26 18 a0 3c f3 ef 07 be a3 55 ed bd
       0.015236196 0.019542765 -0.13275127 -0.115885995
000230 76 77 00 3e 9e 2d a8 3e 8b 23 64 3c 79 19 02 bd
       0.1254557 0.32847303 0.01392449 -0.031762574
000240 d6 a0 d8 3c 22 e1 4d 3e 6e 7d c3 3c dc 90 07 be
       0.02644388 0.20105413 0.02386352 -0.13238853
000250 ec f3 cf bc 81 c6 b8 bd 90 8b 8e bd 2e 42 cf 3c
       -0.025384866 -0.090222366 -0.06960213 0.025300112
000260 00 58 a3 3d 53 02 c2 bd b3 9d a2 3c 1d 1c 11 be
       0.07975769 -0.094730996 0.019850587 -0.1417088
000270 50 94 2c 3e 21 f0 4b 3d f8 5b fe 3c 48 68 d9 bc
       0.16853452 0.04978955 0.031049713 -0.026538983
000280 34 8d d2 bc 9d c2 f8 bd b6 31 71 3d 19 e1 f2 3d
       -0.025702097 -0.121464945 0.0588853 0.1185934
000290 05 9a 8a bd 3a 7e 27 3e 4a f8 00 be cb e8 d9 3d
       -0.06767658 0.16356745 -0.12594715 0.10640105
0002a0 1f 7a 26 3d 28 04 6f 3e 4a 9f 63 3c d6 cf 6b 3b
       0.040643808 0.23341429 0.013892958 0.0035982034
0002b0 e9 c9 ed 3c 70 04 80 bd c9 9c 0c 3d 45 a7 13 3e
       0.029026942 -0.062508464 0.03432921 0.14419277
0002c0 8e 5d e5 3c dc b8 43 be ae 83 e1 bc bf b6 8f bd
       0.027998712 -0.19113487 -0.02752861 -0.07017278
0002d0 fc 93 15 ba be 21 d5 3d 42 0e da bb 26 64 f8 3b
       -0.00057059503 0.104068264 -0.0066545317 0.007580298
0002e0 79 cb 7a 3c 71 91 81 bc 21 b2 b6 bd 84 51 17 be
       0.015307301 -0.015816422 -0.08920694 -0.1477719
0002f0 1a fd ac 3d 84 72 d0 bd f9 78 60 bc 07 fe c7 bd
       0.08446713 -0.10178092 -0.013700717 -0.09765249
000300 28 53 e0 bc 00 0d b3 3d 15 cf 04 3d 54 2a d1 3c
       -0.027383402 0.08742714 0.03242405 0.025532879
000310 63 2f 6b bc e9 49 d7 bd a9 bb 52 3e fe f1 4f 3c
       -0.01435456 -0.10512144 0.20579399 0.012691973
000320 1d f1 f6 3b 43 be bc bc 43 e9 e6 3d c7 4c 9a 3d
       0.007536067 -0.023039943 0.1127496 0.07534175
000330 0f 29 db bc e2 6d cc bd 6e d4 b1 bd 66 01 18 bd
       -0.026752977 -0.09981896 -0.08683096 -0.03711071
000340 06 61 73 3d c3 b4 8f bd 20 cf bf 3d 7d 92 c0 bd
       0.0594187 -0.070168994 0.09365678 -0.094029404
000350 48 86 9e bd 3c fe b1 bc fb f5 54 3d d2 56 6f bd
       -0.07740456 -0.021727674 0.051992398 -0.058432408
000360 03 96 06 3e 58 f2 5b 3c 92 ff 13 bc 04 06 42 3d
       0.13143162 0.0134244785 -0.009033101 0.04736902
000370 55 24 02 3e ea 3c a6 3d 83 44 21 3d 5f 59 da 3c
       0.12709172 0.08117087 0.03937198 0.026653944
000380 ff 00 b6 3c 2d fd 4b 3a 16 aa af bb 88 78 40 3e
       0.022217272 0.00077815616 -0.005360852 0.18795979
000390 05 d7 7d 3d 2b 07 3a be fe 1f e7 3c 41 2e cd 3d
       0.061972637 -0.18166797 0.028213497 0.10018588
0003a0 06 b7 8a 3a 25 8b 25 3e b5 c0 02 be 1b 9c 09 bd
       0.001058311 0.1616636 -0.12768824 -0.03359614
0003b0 a6 03 80 3d 88 47 3f 3d d9 49 f5 bd 9f 45 ea 3d
       0.06250696 0.046699077 -0.11976976 0.114390604
0003c0 d5 88 7b 3d 03 b4 b9 bc fc 66 43 bd e6 dc f2 3d
       0.06140979 -0.022668844 -0.047705635 0.11858539
0003d0 8d 03 90 bc 5c 5c fe 3b 0f f1 2a 3e 1a 0c 4f 3e
       -0.017579818 0.007762475 0.16693519 0.2021946
0003e0 ca a0 e0 bb c1 fd 40 bd 13 36 a1 3d 7a 33 a3 3c
       -0.006855105 -0.047117 0.07871642 0.019922007
0003f0 84 96 02 3e 61 8d 03 be d0 7f ca 3d 24 fd 9c bc
       0.1275273 -0.128469 0.098876595 -0.019163676

network_body._body_endoder.seq_layers.2.bias f4 [256]
000000 50 01 ca bc 69 47 05 bd 97 95 15 3c 1c 05 fb 3b
       -0.024658829 -0.032538805 0.009129903 0.007660521
000010 cc 1b e8 3b eb 85 8a bd d6 2f c3 3d d4 bb c9 3c
       0.007083392 -0.06763824 0.09530608 0.024625696
000020 2a 83 43 3d 88 52 5f 3d a3 fe 8b bd dd b2 81 bd
       0.04773251 0.054522067 -0.068356775 -0.063329436
000030 2a 69 e9 bd 43 81 8e 3c 6b 10 02 bc 62 13 ce bd
       -0.113970116 0.017395621 -0.007938485 -0.10062291
000040 8e cd dd bc ee bb c4 bb 09 0f af bd 3b a6 ac bd
       -0.027075555 -0.0060038483 -0.085477896 -0.084301434
000050 f4 8f ab 3c 31 95 06 bd 6b 78 6c bc c9 77 11 be
       0.020942666 -0.032857124 -0.014433007 -0.1420585
000060 01 1d 13 bd 8d 88 12 3c 0b 3d 47 3d 5c f4 3d bd
       -0.035916332 0.008943689 0.0486422 -0.046375617
000070 d6 da 37 bd f2 7b 27 3d 10 1e 5e bd 87 7f 03 3d
       -0.044886433 0.040889688 -0.05422789 0.03210404
000080 ba a4 a4 3b a2 da 9a 3d ec 09 1f 3c 9f c6 13 bd
       0.0050245197 0.07561232 0.009706955 -0.03607809
000090 40 8c a2 bd 3f af 9a 3c dd ed dc bb 39 df ea 3c
       -0.07936907 0.018882392 -0.0067422227 0.028670894
0000a0 c4 e2 b3 bd f4 50 1e 3b 43 e4 04 bd 6d b4 98 bd
       -0.087834865 0.0024157139 -0.03244425 -0.074562885
0000b0 ba 4d 97 3c f7 df c1 bc 17 20 0c bc 13 93 bc 3b
       0.01846968 -0.023666365 -0.008552573 0.0057548373
0000c0 18 a8 ca bc 8f f2 df 3c f0 4d ec 39 09 03 2b bd
       -0.024738356 0.02733734 0.00045071496 -0.04175094
0000d0 27 e6 97 bc f3 3d 2c 3d 35 17 c9 bd 79 34 bf 3c
       -0.018542362 0.042051267 -0.098188795 0.02334045
0000e0 bd 2c 9a 3c db df 6f bb bc db d7 3c 5e 2a 60 bd
       0.018820161 -0.0036601934 0.026349895 -0.054727904
0000f0 28 04 25 3d d3 e3 50 3d a7 71 46 bc 91 9a 48 3d
       0.040287167 0.05099852 -0.012112058 0.04897553
000100 ee 8b d5 3b 3f 7b 3b 3c 5f f3 5b bc 76 1d 8f bc
       0.006516925 0.011442958 -0.013424723 -0.017470103
000110 3f 77 c5 ba c1 55 4b 3b 4c a4 a7 bd 1a 42 eb 3a
       -0.0015065445 0.0031026455 -0.08185634 0.0017948777
000120 2e 5b fb 3b db d8 36 3d 1e d0 94 bd 16 6a 12 3d
       0.0076707816 0.044640403 -0.07266258 0.035745703
000130 5c 3d 35 3d 73 45 73 39 b9 79 0f bd 43 b4 17 3d
       0.04424797 0.00023200158 -0.035028193 0.037037145
000140 bf 47 26 bd a8 5f de bd 83 cf 0c 3d 10 12 c1 3c
       -0.040595766 -0.10858089 0.034377586 0.023568183
000150 57 77 e3 3b 89 80 68 3d 4b a4 34 bd 83 c3 9a 3c
       0.0069417167 0.056763206 -0.044101994 0.018892055
000160 ae 04 44 3d 49 5c 30 bd 12 2c 29 3d a0 d4 12 3d
       0.047856025 -0.04305676 0.041301794 0.035847306
000170 d5 87 18 bd b7 a2 c0 3c 6d b5 2a bd 45 a1 25 3c
       -0.037238915 0.023515088 -0.041676927 0.01010925
000180 8b c7 4f 3c 2a d6 6c bd 7d ce 0b 3d 9a 0e 1f bd
       0.012681852 -0.05782143 0.03413247 -0.038832285
000190 1d 7b 00 bd e7 32 c3 bc 1b bb d6 bc 51 53 4c bc
       -0.03136741 -0.023827983 -0.026212266 -0.012471036
0001a0 a1 85 06 bd 19 ec 9f bd da 4f 13 3d f2 a7 2b bc
       -0.032842282 -0.07808704 0.035964824 -0.010477053
0001b0 ba f0 9d 3c 63 bd 95 3c 51 9d e4 bc 8f 91 f3 bc
       0.019279826 0.018278783 -0.027907046 -0.029732494
0001c0 72 7c 86 3c ec e4 eb 3c 11 9d 94 3d 87 30 55 bd
       0.016416762 0.028795682 0.072565205 -0.052048232
0001d0 f2 ac 27 3a b3 43 19 39 d3 50 7f 3b 9b 0f f7 3c
       0.00063963153 0.00014616437 0.0038958087 0.030158808
0001e0 4a 3c d2 bd 83 ab 05 3c 10 e3 e0 bc 60 31 3b 3d
       -0.102654055 0.008158567 -0.027452022 0.045701385
0001f0 51 72 83 bd 61 b5 1f bd ed 8d 25 3d fb 77 a3 bd
       -0.064182885 -0.038991336 0.040418554 -0.07981869
000200 69 99 74 bd cd 69 b5 3b 76 05 0e bd 22 f3 11 bb
       -0.059716616 0.005536294 -0.034673177 -0.0022270163
000210 d7 55 7a 3c 4b f7 10 bc 5d 74 16 bc a6 0f b4 bd
       0.015279255 -0.008848022 -0.009183017 -0.08792047
000220 6f 26 3c 3d ba 08 8a 3d 21 7b 80 3c a6 1a 77 ba
       0.04593509 0.06739946 0.015683712 -0.0009426273
000230 58 da 77 bd a7 82 f1 bd 89 92 d3 3b 6f c0 df 3c
       -0.060510963 -0.11792498 0.0064566773 0.02731344
000240 79 ed 05 bd 70 fb 2c 3b 13 57 51 bb 78 ad 1c bd
       -0.032697175 0.0026394986 -0.003194277 -0.03825137
000250 50 f0 9c ba 0b d3 cf 3b 13 eb bd bd 98 7c 89 bc
       -0.0011973474 0.006342297 -0.092733525 -0.016783044
000260 61 67 3d 39 db 9a 24 bd 64 3b 2c 3d 2a 91 3e bc
       0.00018062956 -0.040186744 0.042048827 -0.0116312895
000270 e2 d8 bc bc 32 03 7e 3c bb b5 9c 3d f7 ca 63 bd
       -0.023052637 0.0155036915 0.0765185 -0.055613484
000280 6e 64 27 bc 68 5d 2a bd e9 72 3f 3b 4c b7 e0 3c
       -0.010216815 -0.041592985 0.002921278 0.027431153
000290 06 93 9f bc b1 6f fd bc 44 9c 13 3c 9b a8 b4 bd
       -0.019479286 -0.030937048 0.009009425 -0.088212214
0002a0 b6 15 f8 bc 49 f0 e8 b8 7d d8 a4 3c c7 d0 87 3c
       -0.03028379 -0.00011107379 0.02012276 0.016579045
0002b0 d7 28 d5 3c 63 6e 37 bd 7f 5f d1 bd d4 22 32 bd
       0.02602045 -0.044783007 -0.102232926 -0.043490246
0002c0 16 af 10 bd c7 0d 4b bb 8e 72 aa b9 8b 71 ef bc
       -0.035323225 -0.0030983554 -0.00032510277 -0.029228946
0002d0 e9 4a 95 3c b4 26 b0 bb bb 28 b2 bc 60 fe 1f 3d
       0.018224197 -0.0053757075 -0.021747937 0.03906095
0002e0 49 9c 80 39 e5 e3 82 bd a2 ed 66 3a 56 9b 04 3c
       0.00024530504 -0.06391124 0.0008809214 0.008093676
0002f0 fc 4f 2c bd 5c 19 9e 3c 57 71 0a bd 4a 57 a0 bc
       -0.042068467 0.019299202 -0.033799496 -0.019572873
000300 96 83 24 3b c2 bf d0 bc 5f be 20 3d 16 55 07 bc
       0.0025102845 -0.025482062 0.039244052 -0.008260032
000310 31 0e 56 bc f9 84 02 bd ea ee 01 bd eb c4 7d 3c
       -0.013064907 -0.031865094 -0.031721987 0.015488843
000320 97 3e f7 3c 1f e9 c0 3c da 1b 50 3d 6e a2 de bc
       0.030181212 0.02354866 0.05080781 -0.027177062
000330 05 03 11 3d e0 e6 8b 3d bd 53 15 3d b2 7f 0f bd
       0.03540327 0.06831145 0.036456812 -0.03503389
000340 06 c8 a7 3d 5b ef b3 bc 91 2f 22 bc 7a 17 63 3d
       0.08192448 -0.02196472 -0.009899036 0.05544231
000350 91 9f 44 bd 7b 17 92 bd 59 1f 2f 3d a3 a1 b9 bb
       -0.048003737 -0.07133385 0.042754505 -0.0056650206
000360 91 f6 22 bd e5 7f e2 bc 9b 83 8a 3c dc 93 ca bd
       -0.039785925 -0.027648875 0.016908458 -0.09891483
000370 c1 c8 39 bd 83 2d b4 3c 5a 54 f2 bc e4 1e 89 bd
       -0.04535747 0.021994358 -0.029581238 -0.06695345
000380 56 4d 49 3b 2f 67 96 bc 31 a2 2b 3d c0 18 56 3d
       0.0030716262 -0.018359749 0.041902725 0.052269697
000390 fd d6 e0 bb 47 92 81 bc ad c1 3c bd a9 44 d8 3a
       -0.006861566 -0.01581682 -0.04608314 0.0016499955
0003a0 c4 0d 27 3c c2 86 8c 3d e9 54 09 bd 65 db 0b bb
       0.010196153 0.068616405 -0.033528242 -0.0021340486
0003b0 f8 b9 ab 3d da 91 57 bc 5a 58 80 bc 32 b2 1c bc
       0.0838508 -0.013157332 -0.01566713 -0.009563969
0003c0 9c c9 2b bd a0 dd db 3c 30 d2 36 3c 81 8a 02 3b
       -0.041940317 0.026839077 0.011158511 0.001991898
0003d0 fc fa 1e 3c 2a e0 50 bc 22 ed c1 3c 1a 42 a1 bd
       0.009703394 -0.012748757 0.023672644 -0.07873936
0003e0 06 7e 0c bc 4d 84 f3 3c 66 ab ed 3c 87 b0 eb 3c
       -0.008574968 0.029726172 0.029012393 0.028770698
0003f0 39 a2 a9 bc 84 0d 0e bd 3d ef 5c bd 2b af 6c bd
       -0.020707237 -0.03468086 -0.053939093 -0.05778424

action_model._discrete_distribution.branches.0.weight f4 [7, 256]
000000 e7 63 02 3e 0d 2f 19 3c 9b fc 12 3d 3f 5a 8b 3d
       0.12733422 0.009349597 0.035885435 0.068043225
000010 2f 10 46 3d db 8a f2 bc f7 d1 30 3d 40 42 ed bb
       0.048355278 -0.029607227 0.043168988 -0.0072405636
000020 55 2a c2 3d d5 c3 f4 3d 9f 6f b9 bd 4b 31 9c 3d
       0.094807304 0.119514145 -0.09054493 0.076265894
000030 9b 31 42 bd ae 5d 48 bd df 34 38 3d 00 0c 80 bc
       -0.04741059 -0.048917465 0.044972297 -0.015630722
000040 04 b4 c4 bc b7 9a da 3d f3 9d c3 37 0b 6c 95 3d
       -0.02401162 0.10674041 2.3319362e-05 0.07295998
000050 09 fa f9 3c 25 03 01 bd b9 a4 81 3d aa 43 ab bd
       0.030514734 -0.03149714 0.063302465 -0.08362515
000060 63 82 7b bd e2 b5 03 3e 04 ed 47 3d 30 f0 1b bd
       -0.061403643 0.12862352 0.04881002 -0.038070858
000070 0e 8a e5 3d 32 04 66 bd a5 1d 37 3d 14 ab b6 3d
       0.112079725 -0.056156345 0.044706006 0.08919349
000080 6f 10 43 3d cf bd 94 3d 6b 9b 90 3d 49 b9 01 3e
       0.047623094 0.072627656 0.070608936 0.12668337
000090 32 ef 9e bc 2e 37 cf 3d 31 0a e3 3c f4 28 2d 3d
       -0.019401167 0.101179466 0.02771482 0.042275384
0000a0 24 2f bd 3d 8c f8 a1 3d f2 28 37 3d 44 b0 c1 bd
       0.09237507 0.07908735 0.044716783 -0.09457448
0000b0 0c 27 a6 3d 66 3f 5a bd fb 9e d9 3d 8a cb 9a 3d
       0.08112916 -0.053283118 0.10626026 0.07558353
0000c0 f9 73 8f bd ed 2c b0 3d 4a 27 93 3c 30 78 16 3d
       -0.07004542 0.08602319 0.01796307 0.036735713
0000d0 8e 5e b5 3d 35 a9 ea 3d 44 15 06 bd be bd e8 3d
       0.088559255 0.11458055 -0.032735124 0.113643155
0000e0 05 e4 63 3b 28 cd ef 3d 3c ef 12 3d f1 55 2a bc
       0.0034773361 0.11709052 0.035872683 -0.010396467
0000f0 b9 65 ea bd d6 ad 90 ba 59 4c 8c bc d1 62 3c 3e
       -0.11445183 -0.0011038135 -0.01712625 0.1839707
000100 e9 77 de 3c 0b b2 76 bd 32 1f 1f bc 4c 0a 9f bc
       0.027156787 -0.06022839 -0.009712027 -0.01941409
000110 51 15 23 3d 45 6b 46 bd 29 44 a2 3d db 0f e9 3d
       0.03981525 -0.048442144 0.07923157 0.11379977
000120 92 0e a6 3d 95 6d 12 3d e7 3a 6e bd dc 3c 0c 3d
       0.08108248 0.035749037 -0.058161642 0.034237728
000130 0e 15 0b 3e 66 9c 16 bd 57 a8 c0 bb 78 ea e1 3d
       0.1358225 -0.036770247 -0.0058794427 0.110310495
000140 af d9 10 be 7a 2e db bd 14 b0 ea 3d 36 4f 86 3d
       -0.1414554 -0.10702224 0.114593655 0.06558077
000150 34 5d 03 3e 41 9e 67 bd a6 50 7c 3d 1b 61 2b 3d
       0.12828523 -0.056547407 0.06160035 0.041840654
000160 53 66 09 bd 02 ea 57 bc 7e a1 12 3d 63 3b a4 3d
       -0.03354485 -0.01317835 0.035798542 0.080191396
000170 d3 b7 92 3d 63 9f 50 3d 4e ac 14 bd 4f 0c 58 3d
       0.07163968 0.050933253 -0.036297135 0.052746113
000180 8a a5 57 bd 4a 76 8c bd e9 a2 ce 3d 9b 82 cc 3b
       -0.052648105 -0.06858499 0.100896664 0.0062411553
000190 59 a8 1e 3c 2d 42 d0 3d 00 4f 00 bc f3 01 4f bd
       0.009683692 0.10168872 -0.007831335 -0.05053897
0001a0 1f b5 46 bd 0a 7a 42 3d a1 a5 85 bb 39 0a dc bc
       -0.048512574 0.047479667 -0.0040785824 -0.026860343
0001b0 a8 5d 8e 3d d3 08 c9 3d 74 c2 aa bc e8 3b 43 3d
       0.06951457 0.09816136 -0.020844676 0.047664553
0001c0 4c a3 1c 3c b0 7d d9 3c aa db 63 3d 23 fe 6e bc
       0.009560417 0.02654919 0.05562941 -0.014586958
0001d0 12 7f af bd ed 07 40 bc 60 e2 b5 3c 9a 9f b7 3d
       -0.085691586 -0.01172064 0.02220267 0.089659885
0001e0 ea 30 da bc a6 22 a0 3d 66 1d ca bc ab 20 a7 3d
       -0.026634652 0.07819109 -0.024672221 0.08160528
0001f0 53 4f a7 3d 50 34 10 3d 99 ea 5b 3c 80 58 81 bd
       0.08169427 0.03520614 0.013422632 -0.06315708
000200 0a 23 bc 3d e8 fc db 3c e3 4b 39 bd 1f a3 0f 3e
       0.09186371 0.026853994 -0.045238387 0.1402707
000210 08 2d a7 3d bd 60 62 bc d9 c4 83 bd 65 c2 95 bd
       0.08162886 -0.0138170095 -0.0643403 -0.073124684
000220 6b 8e 43 3d dc 08 0a 3e d7 24 a7 3d 2d 7d 7d 3d
       0.047743242 0.13479942 0.081613235 0.061886955
000230 1d 72 c9 bd 31 60 02 bd df 1f 42 bd 24 a1 33 3d
       -0.098362185 -0.031830017 -0.047393676 0.043854848
000240 bd 8d 7b 3d 94 46 43 bd b8 5b ed 3b b3 a4 e1 3c
       0.06141447 -0.04767473 0.0072435997 0.027544355
000250 da ee 10 3e 1b 51 12 3e 28 7d 50 3c e9 89 83 3d
       0.14153615 0.14288752 0.012725152 0.06422789
000260 f8 46 b1 3d df 6d 40 3d 57 52 93 3d 96 ec c2 bd
       0.08656114 0.04697978 0.071934395 -0.095177814
000270 e3 86 8d bd b0 80 e6 3c ac 25 79 bd 7c 96 8f 3c
       -0.06910493 0.028137535 -0.060826942 0.017527811
000280 d5 3d e5 bd 3b ff 0c 3d 00 91 1a bd db 1e f0 3d
       -0.11193434 0.034423094 -0.03773594 0.11724635
000290 a1 ff 8e 3b 09 e5 b7 bd b6 76 80 3d 16 81 48 3d
       0.0043639694 -0.08979232 0.06272642 0.04895123
0002a0 ad b6 ac 3d 0f 59 a0 3d 7b 27 07 3e 4d f5 99 3c
       0.0843328 0.078294866 0.13198654 0.018793726
0002b0 65 67 66 bc 1f 42 82 3c 71 7a bd bc 2e fe 26 3d
       -0.014062737 0.01590067 -0.023129674 0.04076975
0002c0 0d 3f 78 3c 82 88 0b 3e 90 6e 30 3d 07 07 2c bd
       0.015151751 0.13626292 0.04307419 -0.04199889
0002d0 9b 71 bd 3d c0 f3 56 3d 2f 07 37 3d 75 76 b4 3d
       0.09250184 0.052478552 0.044684585 0.088116564
0002e0 70 25 e7 bd 5d f8 cc 3c 5a a6 65 bc 4c 04 45 bd
       -0.112864375 0.025020773 -0.014016712 -0.0480998
0002f0 c8 16 30 bc 5f 17 20 3d ad ba 96 3c 48 86 d7 b8
       -0.010747619 0.03908479 0.01839956 -0.00010277011
000300 5f 72 fa bc 8a 18 e2 bc b3 73 8b 3d 6d 87 0a 3d
       -0.030572115 -0.027599592 0.06809177 0.03382056
000310 75 6c 86 3d 65 ba 8e 3c 69 8d 07 bd b4 71 5c 3d
       0.06563655 0.017422864 -0.033093844 0.053819373
000320 eb d4 2f 3e 01 54 ac 3d a7 61 a8 3d bc 29 47 3d
       0.17171066 0.0841446 0.08221751 0.048623785
000330 45 3b 08 3e d2 52 bf 3d ec 88 01 3e 5a 0d af 3d
       0.1330386 0.093419686 0.12649888 0.085474685
000340 d3 87 a2 3d 29 0a e5 3d 05 e4 a2 3d 83 c3 ba bd
       0.07936063 0.111835785 0.079536475 -0.09119322
000350 45 24 ae bd 7a c6 ee bd e5 d7 ed 3c ee a9 36 3c
       -0.085030116 -0.1165895 0.02903361 0.011148913
000360 8d fd 1c bd b1 b3 b3 3d 61 c8 b2 3d 52 ee db bd
       -0.038327742 0.08774508 0.087296255 -0.10738815
000370 ba 3b 59 3d e2 e6 58 3d 0a 04 75 bc 09 ab 8f 3d
       0.053035475 0.052954562 -0.014954576 0.07015044
000380 79 58 aa 3d 97 41 17 3d d1 1d 0f be 51 ab ff 3d
       0.08317656 0.036927786 -0.13976218 0.12483848
000390 73 cf 12 3d 32 d8 44 3d 52 a8 2c bd 4f bb 25 bc
       0.03584237 0.048057742 -0.04215271 -0.010115459
0003a0 47 ce cc 3d ce a3 12 3d 55 61 b1 3d e1 35 44 bc
       0.10000282 0.035800748 0.08661143 -0.011975736
0003b0 25 f3 aa bd c6 5d df 3d ab 68 aa 3d 11 c0 88 bd
       -0.083471574 0.10906558 0.08320745 -0.06677259
0003c0 c1 0d 17 3d 96 3a 0d 3c d0 c6 3b 3d f4 33 23 3d
       0.03687835 0.008619925 0.0458439 0.03984447
0003d0 bb d4 21 3d ba 3d 2e bd 10 61 59 bd 29 6d 81 bd
       0.039509516 -0.042539336 -0.05307108 -0.06319649
0003e0 59 67 bd 3b 23 75 32 bd 6d e4 8f bd 4c e5 c9 3c
       0.0057801423 -0.04356874 -0.07025991 0.02464547
0003f0 6b 8d 06 3d 8b af a7 3d 60 24 ac 3d 0b 75 ab 3d
       0.03284971 0.08187779 0.084053755 0.083719335

action_model._discrete_distribution.branches.0.bias f4 [7]
000000 31 79 bd 3d 2c 9d 80 ba da c5 9f bd 81 11 75 bd
       0.09251631 -0.0009812466 -0.07801409 -0.059831146
000010 4e fc 3c bc 73 e9 70 3c 91 fc 5c 3d
       -0.0115347635 0.014704096 0.053951804
