results/puzzle_expirement_2/PuzzleBehavior/PuzzleBehavior-23499964.onnx (onnx, 342923 bytes, 6 tensors)

network_body._body_endoder.seq_layers.0.weight f4 [256, 65]
000000 45 78 96 be cc 23 83 3e fd 1e 8d 3d b1 15 e9 3d
       -0.29388633 0.25613248 0.06890676 0.113810904
000010 c1 f2 d2 bc 53 2a ae 3e 91 fc 17 3e 61 75 99 3e
       -0.02575052 0.34016666 0.1484244 0.29972365
000020 92 4f 17 be 23 16 b5 be a1 05 1a 3e df 4d 4e bc
       -0.14776447 -0.3536845 0.1504121 -0.012591808
000030 ee 83 bc bb 4d ee 17 3e 33 82 e7 3d 34 c5 ab 3c
       -0.005753032 0.14836998 0.113041304 0.020968057
000040 4e d2 04 3e 59 ca 1e 3e 9b 2f fa bd 68 95 b6 3d
       0.1297085 0.15506877 -0.12216111 0.08915216
000050 0b 97 84 be f0 7d 60 be 92 76 5e bd 38 0f 81 bd
       -0.25896487 -0.21923041 -0.054312296 -0.06301731
000060 22 b0 42 be da 7e 08 3e 52 59 f3 bd b4 55 64 3e
       -0.19012502 0.1332964 -0.11882271 0.22298318
000070 bd e4 8a bd f2 82 c5 bd eb 9f 65 be 76 71 31 bd
       -0.067819096 -0.096441165 -0.22424285 -0.043321095
000080 5f 5d 28 3e b0 d0 96 3d c8 66 0d 3f 32 6e be be
       0.16441868 0.07364023 0.55234957 -0.37193447
000090 6e 66 58 bd f2 b5 a6 3c 53 d4 ce bc 26 f0 9c bd
       -0.05283206 0.02035043 -0.025247728 -0.07662992
0000a0 30 a2 dd 3c 4d 55 93 3b 19 0b 65 3e e1 16 cb 3e
       0.027054876 0.0044962526 0.22367515 0.39665893
0000b0 5a f6 3d 3d 3d ce 4c 3d 97 69 8e be b4 af 77 bc
       0.046377517 0.05000137 -0.27814934 -0.0151175745
0000c0 f5 14 b3 bd 9a 5d 0b be ec 3b eb 3d 60 c3 ae bd
       -0.087442316 -0.13609925 0.114860386 -0.085333586
0000d0 34 f5 59 bc e1 8e 3d bd ed b4 25 3e b2 e8 aa 3e
       -0.01330309 -0.046278838 0.16182299 0.33380657
0000e0 b5 cd 28 be 9d c9 51 3c 23 4d 38 3c 0e df 7b 3d
       -0.16484721 0.012804416 0.01124886 0.06149202
0000f0 d8 f4 ef 3d 44 06 77 3e 32 1a 94 3e 28 f2 c5 3d
       0.11716622 0.24123484 0.28926235 0.09665328
000100 6d 21 a3 bd dc f7 92 3d 05 3c 8b bd 07 3e 92 be
       -0.0796536 0.07176182 -0.06798557 -0.28562948
000110 ed d2 12 be db 4e e3 bb 85 61 cc bc 0f c5 1d 3e
       -0.14338274 -0.0069368905 -0.024948845 0.15407203
000120 49 2a 09 bf 33 79 28 3e 8a e1 08 bd 5f 0c 23 be
       -0.5358015 0.16452484 -0.033418216 -0.15922688
000130 0a 06 a9 be 50 7b 77 3d 0b d8 8e bc 8f 8f d4 3b
       -0.3301242 0.060420334 -0.017437002 0.00648684
000140 0d 4f 1d be 15 d9 85 3e 55 3f 9a bd 08 b7 cd 3d
       -0.15362187 0.26142183 -0.07531611 0.10044676
000150 4d 51 35 be c3 45 da 3e e3 70 a5 3e 82 cf 81 bc
       -0.17706795 0.4263135 0.32312688 -0.015846018
000160 38 6d 0e b9 04 99 d1 3d 1f a1 2c be 47 08 b2 3d
       -0.00013582862 0.102342635 -0.16858338 0.08692985
000170 42 c5 d3 3d ca 98 b4 3e b4 b6 5f bd 74 0a 3d be
       0.10340358 0.3527282 -0.0546176 -0.18461019
000180 2b a0 fc 3d b5 87 6d 3d 0a 99 7e bc ad d1 5d bd
       0.12335237 0.05799075 -0.015539417 -0.05415504
000190 87 3e 0d 3e 9b 77 2b 3e 81 a8 9e 3e 2d 03 6d bd
       0.13793384 0.16744845 0.30987933 -0.057864357
0001a0 91 62 ed 3d db 60 02 be 85 d1 b3 bd 8b a3 48 3d
       0.11591066 -0.1273226 -0.08780197 0.04898409
0001b0 95 3a ee be 28 50 d4 3d c4 d8 1f bf 3d a7 33 be
       -0.4652907 0.10366851 -0.62440133 -0.17544265
0001c0 3e 8e 01 3d 30 a2 c1 3d c5 00 36 3c 6e 89 b8 3d
       0.031629793 0.09454763 0.011108582 0.09010588
0001d0 f4 ec 42 bb 97 61 40 bd a9 4d 17 bf 4b 46 4c 3e
       -0.0029743286 -0.04696807 -0.59102875 0.1994869
0001e0 b6 a3 65 be b7 db 2c be 7b 09 fc 3e 76 8d 8b bd
       -0.22425732 -0.1688069 0.49225983 -0.06814091
0001f0 b8 a4 b2 bd 13 5c 97 bc ac 27 e7 bd 7b 84 2a bd
       -0.08722824 -0.018476522 -0.11286864 -0.04163025
000200 38 31 bd bd d1 5a 11 be 92 9e 02 3e 29 83 5f bd
       -0.09237903 -0.141948 0.12755802 -0.054568443
000210 40 eb 1e bd e8 c6 8d 3e 10 f5 90 3c 7b c6 81 3e
       -0.03879857 0.27690816 0.01769498 0.2534674
000220 10 15 60 3e ff 70 09 be af 5e 66 3e 0c f4 ff 3d
       0.21883035 -0.13422011 0.22497056 0.1249772
000230 86 25 f3 3c 45 0d 37 be dc c4 d9 bd 00 f4 c2 bd
       0.029680979 -0.17876156 -0.10633251 -0.095191956
000240 e8 de 81 3e ac b7 d1 bc 83 f7 7b bd e3 68 81 3d
       0.25365376 -0.025600277 -0.061515342 0.06318834
000250 2b c7 ca bc 7c 99 e2 3b df f2 8d be 56 fe 06 bd
       -0.024753174 0.0069152694 -0.27724358 -0.032957397
000260 9f 19 81 3d 01 bc b7 3d 0c 13 78 3d 15 1e 12 3e
       0.06303715 0.08971406 0.06056504 0.14269288
000270 0a c1 2d 3f 1f 6f 10 be 2c ad c3 3c 85 1b 61 bc
       0.6787268 -0.1410489 0.023886286 -0.013739471
000280 41 b2 8b be c2 bc 2c be c9 b4 02 3e 19 c7 79 3d
       -0.27284434 -0.1686888 0.12764277 0.06098089
000290 78 6e 11 bf 47 bd e2 bb 53 02 48 3b 47 f4 93 3e
       -0.56809187 -0.0069195363 0.0030518963 0.28897306
0002a0 2f 04 b0 be a8 8c 79 3d 7f ec 00 3e 1e da 44 3d
       -0.34378192 0.060925156 0.12590216 0.048059575
0002b0 44 f7 5e 3e 69 68 76 3d 91 15 89 3d ad a9 3b be
       0.21774012 0.060158167 0.066935666 -0.18326445
0002c0 1b ca ce 3c aa f5 1d be ca 28 31 be 5e 0d 2a bc
       0.025242856 -0.15425745 -0.17300716 -0.010379164
0002d0 39 6c ea be 8d 80 a0 39 cf ec 35 be 94 18 bb 3e
       -0.45785692 0.00030613356 -0.17766117 0.3654219
0002e0 cf bd d9 3d 20 4a c2 3c 65 88 99 bd 24 f3 16 3e
       0.10631906 0.023716986 -0.07496718 0.14741188
0002f0 a0 ec dd 3c 05 b6 12 3e 7f 39 77 3d 80 14 b1 3d
       0.02709037 0.14327247 0.060357567 0.08646488
000300 05 40 42 be 5d 2b 6b 3d 7b 4c 8a 3d f7 94 3f bf
       -0.18969734 0.0574144 0.06752869 -0.7483668
000310 fa fc ff bc 6b b1 ef bd e1 9c 6b 3e f3 9d d1 bc
       -0.031248558 -0.11703762 0.23009063 -0.025588011
000320 06 95 0d 3d 46 b2 8e be 92 fa d3 bd 8c 38 3f 3e
       0.034565948 -0.27870387 -0.10350527 0.18673915
000330 36 78 cb be db be 33 be da a0 e0 bd 48 ab 18 bb
       -0.3974015 -0.17553274 -0.1096818 -0.002329545
000340 8d f1 79 bc b6 aa 05 be 51 33 06 bd 2a ca f3 bd
       -0.015255344 -0.13053402 -0.032763783 -0.11903794
000350 68 c8 c1 3d e0 a6 80 be 92 bd a5 3d 8d 62 7c be
       0.094620526 -0.25127316 0.08092798 -0.24646969
000360 36 fe ad be 8a b0 07 3e fd 0f cf be 92 09 31 bb
       -0.3398301 0.13250938 -0.40441886 -0.002701376
000370 ec 22 fa 3d 2a 96 e1 3e 75 2f 52 be 12 d7 c2 bd
       0.12213692 0.4405988 -0.20525916 -0.09513678
000380 ab d1 22 be 10 97 95 be 49 53 01 bd 62 e9 a4 3d
       -0.15900294 -0.29216814 -0.031573568 0.08052327
000390 85 97 fb 3d 04 0f 90 be a3 bf df bd 0f 12 2d bf
       0.122847594 -0.28136456 -0.10925224 -0.6760568
0003a0 16 3a 73 3e a2 5b 33 be 64 67 86 be 2e ec bb bc
       0.23752627 -0.17515424 -0.26250756 -0.022939768
0003b0 2a a0 8c bd 6e d0 3f be 60 d8 57 3c f7 88 1e 3d
       -0.06866486 -0.18731853 0.013174146 0.03870484
0003c0 09 00 97 be 57 f6 1a 3e 3f ce dc bc c0 ed 7e 3d
       -0.29492214 0.15133034 -0.026953815 0.062238455
0003d0 cc e2 7b bd b6 2e 19 be eb 93 90 bd f9 c8 19 be
       -0.061495587 -0.14959225 -0.07059463 -0.15018071
0003e0 4e 85 f3 3d ce f4 9c be 2c 44 61 3e ca 91 13 3d
       0.1189066 -0.3065552 0.21998662 0.036027707
0003f0 60 9d e0 bc dc 94 b1 3d 40 e9 66 3e 72 0d 08 3e
       -0.027418792 0.08670971 0.22549915 0.13286379

network_body._body_endoder.seq_layers.0.bias f4 [256]
000000 e6 f8 b5 3c 80 d6 99 bd f9 48 75 bd d4 1d 79 bd
       0.02221341 -0.07511616 -0.059884045 -0.060819462
000010 d9 be 01 3d 30 8d bf b9 4c e0 b7 3d 0a 4e 8f 3c
       0.031676147 -0.00036535552 0.08978328 0.017493267
000020 6d b3 8d 3c 3c a7 9a 3d 0e 2e 47 3d fc 91 82 3d
       0.017297471 0.07551429 0.048627906 0.063755006
000030 1b 33 62 3d 9e df 65 bd af 10 4a be 12 91 0f 3d
       0.05522452 -0.05612146 -0.19732927 0.03505046
000040 40 99 81 bc 2b 00 b8 3c 76 6c 1c 3d bf bb cd 3c
       -0.015820146 0.022461018 0.038189374 0.025113938
000050 5c ed d7 3d c8 be 65 3d 14 4d 94 3a 9b 2d 59 bd
       0.105433196 0.056090146 0.0011314475 -0.05302201
000060 fe fb 9b bc 5f 3e 0d 3d 49 ae 93 3d 0f d0 06 be
       -0.019041058 0.03448331 0.07210977 -0.13165306
000070 98 33 50 3d b5 a1 0b bd ba c5 74 3d 37 61 8d 3d
       0.050830454 -0.034089763 0.05975888 0.06903308
000080 95 23 c7 3d 2b a1 07 3e a9 7c 90 3c af c6 01 be
       0.097235836 0.13245074 0.017637568 -0.12673448
000090 a2 4d 3b 3d ea 89 7a 3d 36 be d2 3c d3 6f fd 3d
       0.045728333 0.06116668 0.025725465 0.123748444
0000a0 af fb 3e bd c6 e2 9e bb 7c 9d 8f bc 21 a1 59 bc
       -0.046626743 -0.004848811 -0.01753115 -0.013283045
0000b0 93 e4 65 3d 3f 23 9b 3d 4b e3 b6 3c 9f d1 0c bc
       0.05612619 0.07575082 0.022325179 -0.008594899
0000c0 13 83 6a 3d 60 35 2f bd 73 66 a4 3d a6 45 b1 bd
       0.05725391 -0.04277551 0.08027353 -0.086558625
0000d0 ee 60 e9 3b 43 55 6f bd b6 ff e4 3b df a5 ca 3d
       0.0071221506 -0.05843092 0.006988491 0.09894919
0000e0 43 6d 87 3d 6d 33 9a 3d 0b da d1 3d 46 61 87 bd
       0.06612637 0.0752934 0.102466665 -0.0661035
0000f0 8b 26 da bb c9 16 e5 3d 24 26 ef bd 72 63 68 3d
       -0.0066574267 0.111859865 -0.116771966 0.056735463
000100 e9 7f e0 3c 15 c8 80 3d 30 4f fb 3d b7 6d 24 bc
       0.027404742 0.062881626 0.12270963 -0.010035924
000110 ff 56 3a bc bf 93 66 bd c7 94 6b bd e1 b8 78 3c
       -0.011373281 -0.056293245 -0.057514932 0.015180797
000120 93 84 52 bc 7a 55 d4 bc aa 1a b2 3c 0b 27 d0 bb
       -0.012848991 -0.025919665 0.02174123 -0.0063523105
000130 f4 91 53 bb 38 96 6d 3d d0 03 51 3c 3d 04 64 bd
       -0.003228304 0.058004588 0.012757257 -0.055668104
000140 5f c3 b4 3d 23 a6 39 bc 94 33 91 3b 90 19 4a 3d
       0.088263266 -0.011331114 0.0044311974 0.049340785
000150 69 4f 89 3d 9f 37 fe bd b7 5a 79 bd 54 b6 e9 3d
       0.067045994 -0.12412953 -0.060877528 0.114117295
000160 d3 1c db bb ca 1a 1b 3d c2 2f 18 3e c8 98 b8 bd
       -0.0066867857 0.037867345 0.14861968 -0.09013516
000170 9c ed c0 3d 98 90 85 bc 52 25 77 3d 41 36 95 3b
       0.094203204 -0.0163043 0.060338326 0.0045535867
000180 f5 d6 04 3e f0 11 3b bd 36 cc 8c ba 5d 7e 2d 3d
       0.12972625 -0.045671403 -0.0010742012 0.042356838
000190 a0 8b 06 3d 75 79 30 3d 07 01 dc 3b c2 ee a4 bd
       0.032848 0.04308458 0.0067139897 -0.08053352
0001a0 86 e9 9b 3d 17 0d 7b bd 59 ae 20 bc 4a ff 5a 3d
       0.076129004 -0.06129178 -0.009807193 0.05346612
0001b0 b2 2c 1d 3c ed 51 01 3e cb d9 54 bd 54 60 0d 3d
       0.009593176 0.12628908 -0.051965516 0.034515694
0001c0 ed bc d4 3d 6c 9c bf 3d 0c 05 ee bd 04 df 22 3d
       0.10387597 0.09356007 -0.11622056 0.039763466
0001d0 d6 f9 96 bc 31 73 8c 3c 9d d3 7b 3d 9f 55 c1 3d
       -0.018429678 0.017144771 0.061481107 0.09440159
0001e0 45 b2 f9 3c ea a6 41 3d ff 9c a8 3b 4f 8c 9c bc
       0.030480513 0.047278322 0.0051456685 -0.019109873
0001f0 5b a1 fe ba fa b8 85 3c 89 cb a4 bd 6d b5 a9 bc
       -0.001942675 0.016323555 -0.08046634 -0.020716393
000200 19 2d 8d 3d 2a 3c a7 3c d1 33 bf 3c f7 37 37 bb
       0.06893367 0.02041443 0.023340138 -0.0027956942
000210 8f 3c 51 bc e3 d1 03 bd 2c 50 d0 bd 0c 6c ad bd
       -0.012770786 -0.032182585 -0.101715416 -0.08467874
000220 d1 e2 34 3b 65 dd 81 bd bd fc c8 bd e3 77 5f bd
       0.0027601013 -0.06341056 -0.09813831 -0.054557692
000230 be 42 12 3e 61 01 3a bd 2a 0d 2d bc 06 4b e2 3d
       0.14283273 -0.04541147 -0.010562221 0.11049466
000240 97 49 25 3d 54 c2 26 bd 85 1f 26 3c 02 d5 d4 bc
       0.040353384 -0.04071267 0.010139351 -0.025980476
000250 06 88 3c be a4 e3 a0 3b 5a e1 80 3d b5 fb c9 3c
       -0.18411264 0.0049099494 0.062929824 0.024656156
000260 9d da 1b bd 74 7f 64 bc 13 f3 96 3d 9d 9a 3a bc
       -0.038050283 -0.013946403 0.073705815 -0.011389402
000270 e0 40 09 3e 46 8f a3 3d af 6c b1 3d 41 87 ea ba
       0.13403654 0.079863116 0.08663308 -0.0017893092
000280 13 80 3f 3d cf d9 da 3c ad 3d 71 3d 06 f8 97 bd
       0.046753 0.026715187 0.05889671 -0.074203536
000290 71 b2 eb 3d 9e 07 ad 3d 39 e6 2c 3d 9d 6a 8a 3d
       0.11508644 0.084487185 0.042211745 0.06758616
0002a0 7c f9 97 3d e5 df 4f bc 0b 09 8b 3d 50 a8 2f bd
       0.07420632 -0.012687658 0.06788834 -0.042885125
0002b0 3f 6a 32 bc 4f 4d 24 3d 81 91 e8 3d 64 18 9b bc
       -0.010889589 0.04011279 0.11355878 -0.018932529
0002c0 83 91 fa 3c ce 52 a3 3d 13 92 2e 3d 2d 94 2e 3d
       0.030586964 0.07974778 0.042619776 0.04262178
0002d0 8a b6 e0 3c f0 ac 0b 3c 13 d2 01 bd ea a2 d2 3d
       0.027430791 0.008525118 -0.031694483 0.1028498
0002e0 da f4 08 3e 85 ff 77 ba b8 7c 0d be 42 96 f7 bc
       0.13374653 -0.00094603776 -0.13817108 -0.030223016
0002f0 84 52 1e 3e 14 f4 4f bc aa 8b 8c 3d 90 0d d0 bc
       0.15461165 -0.01269247 0.06862576 -0.025397092
000300 96 4f 40 3d ce b7 2a 3d 38 fe 56 bc 64 2b 88 3d
       0.0469509 0.041679196 -0.013122134 0.06648901
000310 a4 19 09 3e 03 20 35 3e 89 98 d3 3d 84 3b 38 3d
       0.13388687 0.17687993 0.10331828 0.044978634
000320 fd 97 b4 bd 22 63 ac 3d 25 dc d8 3b d2 eb b2 3d
       -0.08818052 0.084173456 0.00661804 0.087363854
000330 4e da a4 3c 8c 9a 92 3d d3 41 b8 bd db 21 00 3c
       0.020123627 0.07158384 -0.0899693 0.007820572
000340 da 36 86 3d 48 49 73 bd 54 86 b5 bc eb 48 89 3d
       0.06553431 -0.05939606 -0.02215878 0.06703361
000350 fa 4c 42 3e 7e b9 05 3e e3 13 c3 3d 1e 94 98 3c
       0.18974677 0.13059041 0.095252775 0.018625315
000360 8e a3 38 bd 0b 27 34 bd 0c 67 9e bb ff 36 83 3d
       -0.045077853 -0.043982547 -0.0048340615 0.06406974
000370 24 cd 6d bd 09 09 d2 bb 54 8b 4a bd a4 b1 76 3d
       -0.058056965 -0.0064097685 -0.04944928 0.060228005
000380 cb 04 d6 3c 67 73 c7 bc 9a 98 18 bd fa a3 07 bb
       0.026125332 -0.02434702 -0.037254907 -0.0020697103
000390 4e dc ef ba 6f fa 98 3d 05 de fe bc a2 40 c4 3b
       -0.0018299909 0.074696414 -0.031111727 0.00598915
0003a0 9f 7b 3e bd 1f 0b 27 3d 3f 9e eb 3d db 64 af 3c
       -0.046504613 0.04078209 0.115047924 0.021410396
0003b0 86 46 4e 3d 93 92 9c 3c 18 8d 00 3c 28 73 85 ba
       0.050360225 0.01911286 0.007846139 -0.0010181414
0003c0 a1 7b b9 bc d9 34 3e 3d e8 a3 c2 3d 77 a5 36 bd
       -0.022641959 0.04643712 0.09503919 -0.044591393
0003d0 59 2f 26 bc c4 9d 95 3d 9f 71 04 bd 30 b3 9c bd
       -0.0101431245 0.07305482 -0.03233492 -0.07651365
0003e0 78 1f 3e 3d 34 e8 a9 bc 57 eb e9 3d 22 0a dd 3d
       0.04641673 -0.020740606 0.11421841 0.10792948
0003f0 92 7c 35 bd 70 dd 3e bd 17 a3 7c 3d 33 89 f4 bc
       -0.044308253 -0.046597898 0.061678972 -0.029850578

network_body._body_endoder.seq_layers.2.weight f4 [256, 256]
000000 f6 07 a0 bd 32 f8 09 be 6b 7b 73 3c 89 ad 41 bd
       -0.078140184 -0.13473585 0.014860968 -0.047284637
000010 11 10 be bc db 96 60 3e d0 02 07 3e 6b 03 99 be
       -0.02320102 0.21932547 0.13184667 -0.2988542
000020 2d 1c 99 bd 0c c5 02 3d 2b 14 08 be a0 4b 33 be
       -0.07476077 0.0319262 -0.13288943 -0.17509317
000030 37 a4 49 3e 7c 47 92 be 2b 54 43 be ae f6 5d be
       0.19691549 -0.28570163 -0.19075076 -0.21676132
000040 89 09 7e bc e0 7b 91 3b b4 bd 88 be db 18 44 3e
       -0.015505203 0.004439816 -0.26707232 0.19150107
000050 a7 4c 1f 3f b6 6d 2f bd 8b 2a 16 3e 72 e4 19 bd
       0.6222634 -0.042829238 0.14664666 -0.037571378
000060 44 0e 05 be c9 39 4a be 7e 0e 9f 3d 9b 91 a5 be
       -0.12993723 -0.19748606 0.07766436 -0.3233765
000070 e6 2f 4e bd 62 a3 92 3a cf c1 90 3e dd d1 4d bd
       -0.05033865 0.0011187608 0.28272864 -0.05024897
000080 e3 c7 7b 3e b4 0d af 3e 6f 1a b0 bd c5 1b b5 bd
       0.2458797 0.34190142 -0.08598792 -0.08843187
000090 f3 6d d9 3e 10 22 38 3e b2 3d 53 3e ca eb 4b 3b
       0.42466697 0.17981744 0.20629004 0.0031115883
0000a0 6d 9b 85 bd 5f 27 72 be 50 bc f2 bc 95 28 c2 bc
       -0.06523786 -0.23647831 -0.02963081 -0.023700992
0000b0 41 a6 21 3d 07 90 98 3d 83 11 94 3e e5 6e 15 bd
       0.039465193 0.07449346 0.2891961 -0.03648271
0000c0 83 3d 8d bc cc f3 68 bd 15 f2 85 3e 55 02 de bd
       -0.017241245 -0.056873128 0.26161256 -0.108402885
0000d0 63 77 6d be 46 66 1e 3e 16 4b 09 be d5 8c 27 3e
       -0.23190074 0.15468702 -0.1340755 0.16362317
0000e0 f9 a1 3c be 2c ef e0 3c a0 6c 8c 3e d3 e3 f5 bd
       -0.18421163 0.027457796 0.27426624 -0.12006345
0000f0 98 2e 36 be ff 4f 8d 3d 93 8c 03 be 26 78 40 be
       -0.17791212 0.06900024 -0.12846594 -0.18795833
000100 41 72 8d be 59 da 1e be 0d 90 b9 3e 3f 3e 06 be
       -0.2762623 -0.1551298 0.36242715 -0.13109683
000110 00 7e 87 bd 25 66 87 be 53 3d 8c bd 2b a4 c6 bd
       -0.066158295 -0.26445118 -0.06847634 -0.09699281
000120 aa 61 8c 3e 84 d9 1f bf c7 5d 82 bc ea df 83 bd
       0.27418262 -0.6244128 -0.015913857 -0.064391926
000130 50 b3 6f be 5b 58 0f be 83 d9 36 bd df 43 fc bd
       -0.23408246 -0.13998549 -0.04464103 -0.12317633
000140 eb c4 04 3d 70 96 30 3d aa 7d c1 bd 16 3f 37 bd
       0.032414358 0.04311222 -0.09447797 -0.044737898
000150 a1 e8 0a bd 46 3c 90 bc 91 fe 7a bd 44 48 c0 bd
       -0.03391326 -0.017606866 -0.06127793 -0.093887836
000160 d6 79 4c be 3c 16 d7 bc 61 71 07 3e d5 ea 4a bd
       -0.19968352 -0.02625572 0.13226844 -0.04954036
000170 ea f6 fd 3d 75 94 9c bd 19 57 e9 bc ba 19 66 be
       0.12400611 -0.076455034 -0.028483914 -0.22470751
000180 84 b2 7b 3e 17 ff 93 bd 30 81 26 be b1 c0 fd bc
       0.24579817 -0.07226389 -0.16260219 -0.030975671
000190 4f f6 1f 3c 50 dc 56 3e ef 7c 26 3d 22 c2 11 be
       0.009763314 0.2098248 0.04064649 -0.14234212
0001a0 0d 73 9a bd ba 29 2e be a0 9e eb bc cd cb 13 3d
       -0.075414754 -0.17008105 -0.028762162 0.03608303
0001b0 4f 41 cb 3b dc 92 09 3e 0a 19 75 be 63 2f 78 3e
       0.0062028538 0.13434929 -0.23935333 0.24236827
0001c0 bf 73 e9 3d 5b b6 03 bd 08 c0 5e be 2c 6d 46 bd
       0.1139903 -0.03215633 -0.21752942 -0.04844396
0001d0 56 21 24 be 7c b0 08 be 01 26 e5 bc 7a 5f 62 3d
       -0.16028342 -0.13348573 -0.027972223 0.055266835
0001e0 71 ab b8 bd 8a 5e dc bd 1a 6a 16 be 5a 8e 31 be
       -0.09017075 -0.107602194 -0.14688912 -0.17339459
0001f0 dc ba 2b be 83 77 56 bd 65 ad 87 be 10 67 02 be
       -0.167705 -0.05236007 -0.26499477 -0.12734628
000200 8f 3f 04 3e 16 99 1e be 92 e2 4c 3e 25 64 74 be
       0.1291487 -0.15488085 0.20008305 -0.23866327
000210 ba 30 c7 3a 96 2c 13 bd 9c 14 d7 bd ba de c4 bd
       0.0015197017 -0.035931192 -0.10501978 -0.09612794
000220 84 ea 4a 3d d6 09 9a bd 92 e9 0e be 1b e6 b6 bd
       0.049540058 -0.07521407 -0.13956288 -0.08930608
000230 2c f4 aa 3d 6c fa d3 be bd 6f 6a be 84 7b 19 3e
       0.08347353 -0.41401994 -0.22894187 0.14988524
000240 ab 6b ec bd e3 b3 3a be 52 10 06 bd ac e5 06 bd
       -0.115439735 -0.18232684 -0.032730408 -0.032933876
000250 a6 51 42 be 20 3e dc 3d 83 3f 75 be 17 e4 46 be
       -0.18976459 0.10754037 -0.23950009 -0.19422947
000260 74 fc a5 be 1a 1f 98 be e0 3d e1 3c 67 fd 3d 3d
       -0.3241917 -0.2971123 0.027495325 0.04638424
000270 c9 a7 ae 3d 5d b9 6f 3e 46 2b 9e 3d ee cd 34 be
       0.08528096 0.23410554 0.077230975 -0.17656681
000280 ee af dd 3d 75 9d c4 3d 36 d4 cb 3d 3d 29 2c be
       0.108245715 0.09600345 0.099525854 -0.16812606
000290 a5 b1 c2 3d 4c 69 76 3d b7 0d 01 3e 81 36 d8 3a
       0.09506539 0.060159013 0.12602888 0.0016495736
0002a0 c0 49 01 be 03 72 71 bd 2d 31 8a 3d d9 3a 7f bd
       -0.1262579 -0.05894662 0.06747661 -0.06231198
0002b0 09 ff 09 be e7 11 2d 3e 31 11 df bd c6 35 78 be
       -0.13476194 0.1690136 -0.10891951 -0.24239263
0002c0 bd c3 a8 3d 22 76 95 3e 88 9d f6 3d 6e a1 c2 3e
       0.08240459 0.2919169 0.120417655 0.38013786
0002d0 0f 86 8c bd f3 82 b8 3c 54 c8 a3 bc 7a 51 ad 3d
       -0.06861507 0.022523379 -0.019992985 0.08462806
0002e0 f0 30 be bd 39 61 37 be 02 72 bd bd d2 95 e9 3c
       -0.09286678 -0.17908181 -0.09250261 0.028513823
0002f0 60 38 a1 3e 98 4e 43 3d c1 34 eb 3c c3 6e af be
       0.31488323 0.047682375 0.028711678 -0.34264192
000300 ba 24 01 3e 6a e4 1c bd b0 67 a0 be 78 9a 99 3d
       0.12611666 -0.03830377 -0.31329107 0.07500166
000310 9d 81 20 bd 32 e0 b3 3e b8 cc de 3d e4 08 92 3c
       -0.03918611 0.35131985 0.10878891 0.017826505
000320 ef c8 fc bd ac 70 2d 3e 3b c9 60 be 7e 7d 3e 3e
       -0.123430125 0.16937512 -0.21951763 0.18602559
000330 54 43 73 3d ca b2 84 bd ef b5 ca 3d bb 40 dd bd
       0.05939038 -0.06479414 0.09897982 -0.10803362
000340 07 ee 38 3e 62 51 7b be dc 6c 89 be 41 5c 94 3b
       0.1805955 -0.24542764 -0.26840866 0.004527599
000350 75 f7 c7 3e 1e a1 5e 3e de 7f 93 be 31 6c ed bd
       0.39055982 0.21741149 -0.28808492 -0.115929015
000360 90 8f d1 bd e6 b8 09 bd 2f cd dc 3c 12 d1 e2 3c
       -0.102324605 -0.0336236 0.026953308 0.027687583
000370 f4 aa 8e be 70 47 33 3d 21 51 d3 be 48 bc 7e 3e
       -0.27864802 0.0437693 -0.41272834 0.24876511
000380 6f ed 6c bd 1e 44 03 be 95 68 c1 bd ef 6b b8 3b
       -0.05784362 -0.12818953 -0.094437756 0.005628101
000390 8d 28 7c be 0e 13 62 3e a7 b2 fb bd 34 aa 3d 3d
       -0.24624844 0.22077581 -0.122899346 0.046304896
0003a0 86 af 82 be c1 51 10 be 6e 5f 76 3e 32 9a 87 bd
       -0.2552454 -0.14093687 0.24059841 -0.06621207
0003b0 98 90 60 bc 77 b5 02 be 5a 82 3c 3e 66 e8 42 be
       -0.013706349 -0.12764536 0.184091 -0.19033965
0003c0 41 58 77 be 57 8f 69 3b f2 fd 80 3e 5a 9b 42 be
       -0.2415476 0.0035638416 0.25193745 -0.19004574
0003d0 0b 0c 0b 3d b0 a0 3f 3e 47 a9 2d be 59 c6 3d be
       0.033947032 0.18713641 -0.16959105 -0.18532695
0003e0 ae 7e 3a 3d ff 05 38 be 1a 83 1b bd 89 fb 9f 3e
       0.045530967 -0.17971037 -0.037966825 0.31246594
0003f0 08 a2 94 bd 0b a6 d4 bd 73 b0 03 bd 60 4b 3f bd
       -0.072574675 -0.10383233 -0.032150697 -0.046702743

network_body._body_endoder.seq_layers.2.bias f4 [256]
000000 99 a0 13 3e 4c bf b0 bb 37 54 66 bd 6c 12 99 3c
       0.14416732 -0.005393898 -0.056232657 0.018685542
000010 b7 1b 2e bd c1 88 90 bc ce be 1e 3e 19 03 39 3e
       -0.0425069 -0.017643334 0.15502474 0.18067588
000020 28 e5 31 bd be 59 05 3e 73 7b 94 3d 24 8e 69 3d
       -0.04343143 0.13022515 0.072501086 0.05702032
000030 e2 cb 0f be 85 8d 60 3d 6a 8b 07 bd 60 38 56 3d
       -0.14042619 0.054822464 -0.03309194 0.052299857
000040 b3 68 9b bc 72 27 8d bd 56 71 f5 3d 9e 23 aa bc
       -0.018970823 -0.06892289 0.11984508 -0.020768937
000050 b8 0c 9c bb 5c 0d ca bc 7a 34 23 bb 1f 2c 0f bc
       -0.0047622584 -0.024664573 -0.0024903105 -0.008738547
000060 79 32 c2 3c d1 05 b4 3d c0 4d 39 3d a7 96 0f bd
       0.023705708 0.08790172 0.045240164 -0.035055783
000070 e7 cd 0c 3d 2b 03 b9 bc d5 a4 74 3d b3 64 38 bd
       0.03437605 -0.022584518 0.05972751 -0.04501791
000080 0d 01 38 bc 51 51 c7 3d 80 e5 89 3d 22 00 ac 3c
       -0.011230719 0.09732307 0.06733227 0.020996157
000090 30 50 b8 bc 55 10 f7 bb 62 c8 8d 3d 53 87 6b bd
       -0.022499174 -0.0075397887 0.069229856 -0.057502102
0000a0 fd d4 fa bc 68 83 0e be 07 89 40 bc dc 62 8a bd
       -0.030619139 -0.13917315 -0.01175142 -0.06757137
0000b0 13 1d 0d 3e 6d 31 9a 3c 6d 4e ed bc 80 ac c2 3d
       0.13780622 0.018822396 -0.02896806 0.09505558
0000c0 4f 35 02 3e de f2 0d 3c b8 74 15 3e 29 77 7d 3d
       0.12715648 0.008663861 0.14595306 0.061881218
0000d0 1f 0b 68 3c 70 5d 95 bb a2 64 c0 3d 75 63 4f bd
       0.014162808 -0.0045582578 0.09394194 -0.05063196
0000e0 55 e8 05 3d 4f 16 8b 3b 9c 19 95 bc 80 4e c7 bd
       0.032692272 0.0042446028 -0.018200688 -0.097317696
0000f0 af 80 81 3a dd 89 e3 3c 41 3e c1 3c d7 6b e0 3c
       0.000988027 0.0277757 0.023589255 0.027395172
000100 e0 dd 3b bd 87 be 0f 3d 0e 3b 04 3e e2 a2 70 3c
       -0.045865893 0.03509381 0.12913153 0.014687272
000110 60 39 c4 bd f6 4c 20 3e 74 86 46 bd 6c 4b 04 3e
       -0.09581256 0.15654358 -0.04846807 0.12919396
000120 65 7f 4c bc 9b d7 ac 3d 18 55 3d bd 98 47 7a 3d
       -0.012481545 0.08439561 -0.04622373 0.061103433
000130 f0 12 87 3d 83 29 be bc 76 93 6c 3d 46 c0 e8 3b
       0.06595409 -0.023213154 0.057757817 0.007102999
000140 8d 3d c3 bc 20 4d 58 3d 80 15 a4 3d af e7 16 bd
       -0.02383306 0.052807927 0.08011913 -0.036842044
000150 f2 d4 14 3d c6 23 f1 3c d7 3c 28 3b 78 1e 4d be
       0.036335893 0.029436003 0.002567103 -0.20031154
000160 84 a3 16 3c 25 72 3b 3e 7d 8b 6c 3d ea c3 09 bd
       0.009194259 0.18305261 0.057750214 -0.033634104
000170 2f 74 e0 ba a4 4a 91 3d 84 3a 3f 3c 41 f7 9f bc
       -0.0017124469 0.07094315 0.011671666 -0.01952708
000180 92 ba 43 bc f9 5e 18 3d 4b 97 40 3e 03 f7 2b bc
       -0.011946337 0.037199948 0.18807714 -0.010495904
000190 e2 50 9f bc 3a 6e 30 bc 68 43 d4 bd 9f 61 6a 3b
       -0.019447748 -0.010768468 -0.10364419 0.0035763753
0001a0 09 81 07 3e 19 8a 79 bb 29 8e a0 3b 9d 4c c1 3d
       0.13232817 -0.0038076697 0.0048997593 0.09438441
0001b0 00 ad 1f 3e 80 04 ef bc f3 37 16 3e 21 aa 14 3d
       0.15593338 -0.02917695 0.1466978 0.03629506
0001c0 85 89 86 3c 62 73 f2 3d 65 f2 ca bc 98 8f ac 3d
       0.016422996 0.11838414 -0.024773786 0.08425826
0001d0 d8 a3 50 3e 22 32 6a 3c 86 b5 c5 3c 2f 2c 09 bd
       0.20375001 0.014294179 0.024134409 -0.033489402
0001e0 8b 31 35 3d 03 b2 05 bd 18 8a 97 3c dc a8 80 3c
       0.0442367 -0.03264047 0.018498465 0.015705518
0001f0 8a 6f 99 3c 62 da 84 3d d5 7f 07 bd 55 82 18 be
       0.018729944 0.06486966 -0.033080895 -0.14893468
000200 4c 71 80 bd cf 2b 63 bd ca 8c 08 be e1 b4 c1 3c
       -0.0627161 -0.0554617 -0.13334957 0.02364582
000210 e8 50 9c bd f7 f0 e7 3b 2b 6b d3 3d 1a 29 e1 bc
       -0.07632619 0.007078286 0.10323175 -0.027485419
000220 f4 77 3b bd 5b be 9d bb c6 80 43 3d 9f b1 b1 bc
       -0.045768693 -0.004813952 0.04773023 -0.021691142
000230 88 68 fb 3d 18 b4 2e 3d 92 20 bd bc f2 9b 0b 3c
       0.12275797 0.04265222 -0.02308682 0.008521067
000240 97 cb 43 3d 67 aa 6a 3d c6 15 42 3c 39 f9 b3 3d
       0.04780158 0.057291415 0.0118460115 0.0878777
000250 eb 56 16 3d 5d b3 1e 3d 45 2f 17 bc 4c dd 7b 3d
       0.036703985 0.038745273 -0.0092275785 0.061490342
000260 4a 13 e1 3d 26 4d 07 3d 72 92 9e 3d 4d 30 9e bc
       0.10990007 0.03303256 0.07742776 -0.019310141
000270 2a a4 2e 3d 2f 4f 99 3d 29 66 d3 3b 9b 87 55 3c
       0.042637028 0.07485806 0.0064513874 0.013032819
000280 eb f5 22 3d a4 b0 e0 bd b8 e4 5e bd 93 f6 85 3d
       0.039785307 -0.109711915 -0.054417342 0.06541171
000290 31 04 e0 3c 9d 8b f7 3c d9 c5 62 3d c6 1a 0b 3e
       0.027345749 0.03021794 0.055364463 0.13584432
0002a0 99 61 9a 3d a8 5a 71 3d f6 90 03 3d 01 3c 9c bc
       0.075381465 0.058924347 0.032120667 -0.01907158
0002b0 a2 7c 8d bd 90 27 7c bd c4 2f 1c bd 81 40 07 3d
       -0.069085374 -0.061561167 -0.03813149 0.0330205
0002c0 af 41 bc 3b 66 20 45 bd 2e d3 c6 3b cb 21 96 3d
       0.005745135 -0.0481266 0.006067655 0.07330664
0002d0 88 f6 b8 3d 93 75 c1 3d 06 31 2b 3e a2 7c 4f 3c
       0.09031397 0.09446254 0.1671792 0.012663992
0002e0 e0 a7 53 bd a4 8a d9 bc be d0 06 3e 33 ba b6 3b
       -0.05167377 -0.026555367 0.13165566 0.005576396
0002f0 67 12 b1 3a 8d a9 e2 bc 15 e3 e3 3d ad a8 07 3e
       0.0013509513 -0.027668739 0.11127297 0.13247938
000300 ee 63 d3 3d 3e 84 5f bd f8 25 4a bd ba a1 c5 bc
       0.103217945 -0.054569475 -0.049352616 -0.024124969
000310 f1 74 cc 3c e6 b5 95 3d 63 6d 10 bd a4 ac 2b bd
       0.024958106 0.07310085 -0.03526057 -0.04191269
000320 cc 96 06 3d eb a9 d2 bd 4e 77 79 bd 8c 6f cd 3d
       0.032858655 -0.102863155 -0.060904793 0.100310415
000330 c5 ce 61 3c 16 69 6c 3d e6 9d 06 bc 4a cc f5 bc
       0.013782208 0.057717405 -0.008216357 -0.03000464
000340 bf 2a 86 bd 83 44 12 bc 58 dd d2 3b a5 47 bf 3c
       -0.06551122 -0.008927467 0.0064350776 0.023349592
000350 49 ef f5 3d 7a 61 d7 bd 9f 6f 4a 3d 84 4e 82 3c
       0.12008531 -0.10516639 0.049422856 0.01590658
000360 92 f1 e2 3d 4d ae aa 3c d7 39 d0 bd 81 55 15 bc
       0.11081232 0.020835066 -0.10167282 -0.009114624
000370 a0 ff 2d bd ad 6d 89 bd ee 23 ed 3d 19 34 8f 3d
       -0.04248011 -0.06710372 0.11579119 0.06992359
000380 5d 63 90 bd de 16 b1 3c 68 c2 31 bd f0 90 e8 3d
       -0.07050202 0.02161735 -0.04339829 0.1135577
000390 4a d1 26 bd 55 a1 ca 3c b1 44 80 bd ee 18 51 3b
       -0.040726937 0.024735132 -0.06263102 0.0031905728
0003a0 03 8f 6a 3d 4b e0 a0 bd 51 55 f6 bc 28 ee ae 3d
       0.057265293 -0.078552805 -0.030069979 0.085415184
0003b0 8f 6c 8c bb 77 d0 76 bb 94 9b c0 3b 09 af 79 3b
       -0.004285402 -0.0037660876 0.0058779214 0.0038098714
0003c0 ef 4c 35 bd bd 75 8e 3d da 20 a9 bc e8 d3 0f 3d
       -0.044262823 0.069560505 -0.020645548 0.0351142
0003d0 b3 e5 73 3d f5 24 8a bd d9 71 a1 3d 1e 97 e7 bc
       0.05954523 -0.0674533 0.07883043 -0.0282703
0003e0 db 28 f4 3d ad b7 88 3c a2 cb ab bd 68 43 72 3d
       0.11921855 0.016689146 -0.08388449 0.059146315
0003f0 02 5a 45 3d 1a e0 48 bb a2 c3 e8 3b 5a f3 99 bd
       0.04818154 -0.0030651153 0.0071033994 -0.07517119

action_model._discrete_distribution.branches.0.weight f4 [7, 256]
000000 21 30 82 be 77 8e 1b 3d c4 cb c5 3c e8 0d 27 3d
       -0.25427344 0.037977662 0.024145015 0.040784746
000010 0a b8 1d be 2f 6d a4 bc 26 82 92 be a4 62 81 be
       -0.15402237 -0.020071594 -0.2861492 -0.2527057
000020 17 d9 9f 3c 90 e4 b9 bd 7b c3 4e 3d ff 51 3c be
       0.019512696 -0.09076798 0.050479393 -0.18390654
000030 e7 a3 fc 3d ff 6c e9 bd 13 90 e2 bd 33 f8 81 3c
       0.123359494 -0.113977425 -0.11062636 0.01586542
000040 b9 ff b7 bd 5c 53 a9 bd e5 dc a9 bd 4e 17 26 be
       -0.08984322 -0.08267853 -0.082940854 -0.16219828
000050 77 c7 54 3d 8e 9b ba bd 44 0e c7 bd 4f 19 3e bc
       0.051948037 -0.09111701 -0.09719518 -0.011602714
000060 35 90 db be ab 2a 21 bd ed 41 cf 3d 9d c1 0d be
       -0.4288346 -0.039347332 0.10119996 -0.13843389
000070 d3 8e b9 3b 06 48 e5 3b 9e 81 ae bc 90 0e be 3d
       0.005662778 0.0069971113 -0.02130204 0.09280121
000080 29 e4 73 bd 7d 07 1e be 35 9f 4a 3b 4c 18 ec bc
       -0.059543762 -0.15432544 0.0030917649 -0.02882018
000090 10 cc c5 3d a1 7a 99 bd a8 b5 8a 3c e2 85 41 be
       0.096580625 -0.07494093 0.016932324 -0.18898728
0000a0 8b 92 e4 3d 67 eb 33 be c6 36 91 bd 6f 0c d5 bc
       0.11160763 -0.17570268 -0.07090525 -0.026006905
0000b0 56 3f c1 be 07 44 e8 3b f8 2a fc bd c4 8a 16 be
       -0.37743634 0.0070881876 -0.12312883 -0.14701372
0000c0 ac 7f c5 be d4 12 2b be 50 6e 9d be 1f a7 5f be
       -0.38573968 -0.16706401 -0.30748224 -0.21841095
0000d0 fd 44 5b 3e 5b 15 69 bd fd cf 6b 3d 4f 13 9d bd
       0.21413036 -0.05690513 0.0575714 -0.076696984
0000e0 b7 62 e2 bd f9 ce 94 bd 59 f0 6e bd a8 c0 c6 3d
       -0.110539846 -0.072660394 -0.058334682 0.09704715
0000f0 a8 ca f6 3d bf dd 45 be a6 17 a6 3d 11 6c bf bd
       0.12050372 -0.1932287 0.08109979 -0.09346784
000100 3b 79 b9 bd 67 28 2d be e0 25 b6 be 1f f9 8f bc
       -0.09056326 -0.16909944 -0.3557577 -0.017574845
000110 e0 6a 7e 3d 25 48 c1 be 4e 92 ad 3d 72 0c b4 bd
       0.062113643 -0.37750354 0.08475171 -0.08791436
000120 31 be 4b 3e d3 2c 4f be 74 a7 82 bd 11 72 59 be
       0.19896771 -0.20231943 -0.063795954 -0.21234919
000130 56 32 0b be 9f 06 6e 3e af 93 b3 3d 7c d8 5d 3d
       -0.1359342 0.23244713 0.08768403 0.054161534
000140 7a fe a5 bc c9 0e f0 3d ae 7d b8 be 3c 28 6a 3e
       -0.020262945 0.1172157 -0.36033386 0.2286691
000150 d4 3e 88 3b a2 b3 e0 bc 9f e8 92 bd 48 3d 88 3c
       0.0041578803 -0.027429406 -0.07173275 0.016630784
000160 7a 0d ab be f1 7d 11 bd a8 3e 2e bd fd ff 42 be
       -0.3340872 -0.035520498 -0.042540222 -0.19042964
000170 78 a1 75 be 57 cc 21 be d5 29 5a 3e 08 ab 8b bc
       -0.23987377 -0.15800606 0.2130502 -0.017049327
000180 86 48 17 3d 3d 58 1a be c5 b5 b5 be f3 70 fd bc
       0.036934398 -0.15072723 -0.35490242 -0.030937647
000190 c6 c8 51 be cf 11 63 bd b4 4f 1b bd ab 06 eb bc
       -0.20486745 -0.055436905 -0.037917808 -0.028689703
0001a0 6e 7c ab be 95 b8 b8 bc 38 f6 11 3e 53 ce 7a be
       -0.3349337 -0.022548953 0.14254081 -0.24492769
0001b0 80 c3 92 be d6 2c d9 bd cc 25 80 3d 47 0b 5b be
       -0.2866478 -0.10604255 0.06257209 -0.2139102
0001c0 1a af 76 3d 21 03 a6 be 3c fc 8c bc a5 40 25 be
       0.060225584 -0.32424262 -0.017210118 -0.16137941
0001d0 fb ab 85 be cd b2 26 bd 18 04 37 3d 8a c3 1f be
       -0.26107773 -0.04069786 0.04468164 -0.15601936
0001e0 47 72 ba be f9 d3 3f bd 06 41 11 be 02 1c 85 bd
       -0.36415312 -0.046833012 -0.1418496 -0.06499483
0001f0 b8 bd 2e 3d 42 8b 52 bd 05 df 62 be d6 9e 2d be
       0.0426614 -0.051402338 -0.22155388 -0.16955122
000200 cc 31 3f bd e3 49 56 be 34 7b bd 3d 43 91 df 3c
       -0.04667835 -0.20926623 0.09252015 0.027290946
000210 cf 75 39 3d 1e 1e bb bd f0 17 81 bd 49 c0 64 bd
       0.045278367 -0.09136604 -0.06303394 -0.05584744
000220 f9 99 56 bd 33 4a 2e 3d e0 b6 2f 3d a9 6c 8b bc
       -0.052392934 0.04255123 0.042899013 -0.017019587
000230 8d 03 87 bd 60 63 be be 3d b8 81 bc 04 41 02 be
       -0.06592474 -0.37185192 -0.015834922 -0.12720114
000240 f4 99 6a 3d 59 e0 32 bd e1 51 51 3e 47 27 15 be
       0.057275727 -0.043670986 0.2044139 -0.14565764
000250 be 75 c6 bd b6 d4 01 be 66 f5 ab 3d 2d b2 45 be
       -0.09690426 -0.12678799 0.083964154 -0.1930625
000260 e3 83 f6 bd 32 2b 25 be 8e bb 76 bd 7b 25 ff 3b
       -0.12036874 -0.16129759 -0.06023746 0.0077864504
000270 1b 2d b9 bb c0 ee 3c be 89 5a 63 3d 80 ed 11 be
       -0.005651129 -0.18450451 0.055506263 -0.14250755
000280 dc 81 c2 bd cd da 78 3d 20 6c 89 3d d7 25 3b be
       -0.09497425 0.06075554 0.06710076 -0.18276154
000290 79 c0 08 be d8 5b cd 3d 6c 63 db bd a0 e5 2c be
       -0.13354672 0.100272834 -0.107123226 -0.1688447
0002a0 4e d4 b7 bd cb 0c a3 bd 5b 0e b6 bc 78 da cd bd
       -0.08976041 -0.079614244 -0.022223642 -0.10051435
0002b0 c2 60 79 bd 80 3e 81 be 4f 3b ef bd 00 d1 2a 3c
       -0.06088329 -0.25242996 -0.11681234 0.010425806
0002c0 00 0d 7f ba 5f f3 10 bd cb 5f 23 be 3f 9d f7 bd
       -0.0009729415 -0.035388347 -0.15954511 -0.12090539
0002d0 5a 84 92 3b ff ec 1d be 6c 54 6a be b8 e7 d2 be
       0.004471344 -0.15422438 -0.22883767 -0.41192412
0002e0 d4 7b b6 bd 36 36 7c bd 1b 76 fc be f7 17 f5 bd
       -0.08910337 -0.061575137 -0.49308857 -0.119674616
0002f0 05 41 1f bd 55 c1 b4 bd 42 a5 06 be 02 2c cc be
       -0.038880367 -0.08825938 -0.13148978 -0.39877325
000300 a1 18 9c be f5 07 70 3c 59 f8 60 bd 4b 4e 14 3d
       -0.3048754 0.014650335 -0.054924343 0.03620748
000310 fe 05 fe bc ac 9c 65 be fd a7 e8 3d fd 92 eb bc
       -0.031008717 -0.22423047 0.11360166 -0.028756613
000320 12 0d 30 be 9d 45 5f bd 02 5f cd 3c d4 87 70 be
       -0.17192486 -0.054509748 0.025069717 -0.23489314
000330 0b 79 7a be b7 c9 33 be a1 28 0b 3e c1 93 2a bd
       -0.24460237 -0.17557417 0.13589717 -0.041644815
000340 59 2c f1 bc 55 a4 a5 be 5c 0d db ba 67 df 56 3d
       -0.029440092 -0.32351938 -0.0016712355 0.052459147
000350 f6 cc 6d be 08 16 c1 3e 1a 7a ac be 34 8c 0e 3e
       -0.23222718 0.3771212 -0.33686906 0.13920671
000360 b5 98 18 be 81 70 ee bd c2 1a 84 3d ac 61 f5 bd
       -0.14902003 -0.11642552 0.06450416 -0.1198152
000370 2f 17 57 be 92 d8 e6 bd 45 3f 1c bd 71 cb 9e bd
       -0.21004938 -0.11271776 -0.038146276 -0.07753647
000380 91 19 60 bc 36 18 1b 3e 12 73 2f be 6e 1d 59 3d
       -0.0136779705 0.15145954 -0.1713374 0.053006582
000390 37 25 66 be 36 43 99 be ad e0 b4 bd e7 e2 1f 3d
       -0.22475134 -0.2993409 -0.08831916 0.03903475
0003a0 6f c8 2c 3e 1e 4a 95 3d 0c a3 de 3d 45 9d 56 be
       0.16873334 0.07289527 0.108709425 -0.20958431
0003b0 40 f9 93 3d 1e 64 42 be d1 9d 01 3e d4 bb 89 bd
       0.07225275 -0.18983504 0.12657858 -0.067252785
0003c0 20 ff 2f 3e d2 57 3a be 1a 78 1c 3e d1 2b 10 bd
       0.17187166 -0.18197563 0.1528019 -0.035198037
0003d0 30 ca 1d bd e0 5a 80 bd e0 63 27 be 82 cf eb 3d
       -0.0385229 -0.06267333 -0.16346693 0.11514188
0003e0 ba ef 8f 3e 24 de e7 bd a6 f9 78 3e 9f 87 81 be
       0.28112584 -0.11321667 0.24313983 -0.25298783
0003f0 12 c9 67 be 40 c2 3f be ed aa 05 bc ec d5 47 be
       -0.22635296 -0.18726444 -0.008158428 -0.19515198

action_model._discrete_distribution.branches.0.bias f4 [7]
000000 fd ac 52 be cd 8f 1c bc 1d e0 09 be 07 42 56 3d
       -0.20573802 -0.009555769 -0.13464399 0.052309062
000010 1c f8 20 3d d9 19 79 3d fa e5 16 bc
       0.039299116 0.060815666 -0.009210104
