results/puzzle_expirement_2/PuzzleBehavior/PuzzleBehavior-12499968.onnx (onnx, 342923 bytes, 6 tensors)

network_body._body_endoder.seq_layers.0.weight f4 [256, 65]
0	0xbe43e423	-0.19129996
1	0x3e25d832	0.16195753
2	0x3e441bfc	0.191513
3	0x3e8f9abe	0.28047746
4	0xbcd2f2c1	-0.02575052
5	0x3ea9fe5e	0.3320188
6	0x3dfd8a05	0.12379841
7	0x3e6eea6d	0.23331614
8	0xbdebea86	-0.11519341
9	0xbeb817a2	-0.3595553
10	0x3dcc2779	0.09968466
11	0x3d2be533	0.04196663
12	0x3d14487e	0.036201946
13	0x3e17ee4d	0.14836998
14	0x3e0ddacb	0.13852994
15	0x3cf7f295	0.03026704
16	0x3dbed329	0.09317619
17	0x3dcf7070	0.101288676
18	0xbe0a843a	-0.13527003
19	0x3d631a87	0.05544522
20	0xbe1a1f6c	-0.15051049
21	0xbe5c949a	-0.21541062
22	0xbd5e7692	-0.054312296
23	0xbde5bb51	-0.112173684
24	0xbe51e0e4	-0.20495945
25	0x3e1585b6	0.14601788
26	0xbdae4383	-0.085089706
27	0x3e879f38	0.26488662
28	0xbd9935ac	-0.0748094
29	0xbdae9535	-0.08524553
30	0xbe2861dd	-0.16443582
31	0xbd317176	-0.043321095
32	0x3dfced3b	0.123499356
33	0x3da220fc	0.079164475
34	0x3ee564e4	0.44803536
35	0xbecb7ddf	-0.3974447
36	0xbd13206c	-0.03591959
37	0x3c4189dc	0.011812653
38	0xbd2e6b10	-0.04258257
39	0xbdb0b608	-0.0862847
40	0x3cdda230	0.027054876
41	0xbd456fab	-0.048202198
42	0x3e564264	0.20923764
43	0x3ec7785e	0.3895902
44	0x3d008dfe	0.031385414
45	0xbd8759d5	-0.06608931
46	0xbe588ac9	-0.21146692
47	0xbd4387cb	-0.047736924
48	0xbe4f2f42	-0.20232871
49	0xbe0b5d9a	-0.13609925
50	0x3d867ff6	0.06567375
51	0xbdae12ad	-0.08499656
52	0x3c96f989	0.018429535
53	0x3c34c6f5	0.011033763
54	0x3e12eec6	0.14348897
55	0x3e8c3f2a	0.2739194
56	0xbdcaf7fa	-0.09910579
57	0xbcc80196	-0.024414819
58	0x3c384d23	0.01124886
59	0x3d17d34f	0.037066754
60	0x3dd1f29b	0.102513514
61	0x3e2ae6e8	0.16689646
62	0x3e21283b	0.15738003
63	0x3de3366e	0.11094366
64	0xbd19b69b	-0.03752766
65	0x3d6d106b	0.057876986
66	0xbd544a44	-0.051828638
67	0xbe45aa8d	-0.19303341
68	0xbd893a09	-0.067005225
69	0xbbe34edb	-0.0069368905
70	0xbcfc8d98	-0.030829236
71	0x3e2aefa8	0.16692984
72	0xbedf5787	-0.43621466
73	0x3e2790c4	0.16363817
74	0xbc9bed44	-0.019034036
75	0xbdecfc67	-0.115715794
76	0xbe9dd2fc	-0.3082503
77	0x3e12a93c	0.1432237
78	0xbc8ed80b	-0.017437002
79	0xbc8aade2	-0.016928617
80	0xbe16c915	-0.14725144
81	0x3e1a5085	0.15069778
82	0xbd0a51d8	-0.03376946
83	0x3dbc06a5	0.09180955
84	0xbe77b8e1	-0.2419162
85	0x3ebc47f7	0.36773655
86	0x3eb0c1c3	0.34522828
87	0xbc81cf82	-0.015846018
88	0xbc9147d6	-0.01773445
89	0x3dddc6d9	0.10828943
90	0xbcf604d0	-0.030031592
91	0x3d9c5640	0.076336384
92	0x3da9de67	0.08294373
93	0x3ea7e0c4	0.3278867
94	0xbd144af2	-0.036204286
95	0xbe356815	-0.17715485
96	0x3dfca02b	0.12335237
97	0x3d67e7f9	0.05661771
98	0x3b4f4023	0.0031623922
99	0x3dc786a1	0.09742475
100	0x3cae7f41	0.021300914
101	0x3e2e1ee5	0.17003973
102	0x3e55c196	0.20874628
103	0x3ca63c94	0.020292558
104	0x3e2793e3	0.16365008
105	0xbe0260db	-0.1273226
106	0xbd82950a	-0.06376083
107	0x3d616105	0.055024166
108	0xbeb7f44a	-0.35928565
109	0xbc796a30	-0.015223071
110	0xbf1703a9	-0.5898996
111	0xbe38b04e	-0.18036005
112	0xbc199a6f	-0.009375199
113	0x3dbf3120	0.09335542
114	0x3c3600c5	0.011108582
115	0x3e2aa2aa	0.16663614
116	0xba9aca33	-0.0011809528
117	0xbd8c1b4f	-0.06841146
118	0xbed7fd29	-0.42185333
119	0x3e5de325	0.2166868
120	0xbe2e7959	-0.17038478
121	0xbe490149	-0.19629396
122	0x3ee6c16d	0.45069447
123	0xbd8b8d76	-0.06814091
124	0xbd657462	-0.056019194
125	0x3b0f838a	0.0021898472
126	0xbd9468d7	-0.07246559
127	0x3d52b32b	0.0514404
128	0xbc63a3f1	-0.013894067
129	0xbe28fc90	-0.16502595
130	0x3c6c668b	0.014428745
131	0x3bbd40e3	0.0057755574
132	0xbe032803	-0.12808232
133	0x3e94de30	0.29075766
134	0x3c90f510	0.01769498
135	0x3e48a6f2	0.19594935
136	0x3e57693c	0.21036237
137	0xbdc8b1f5	-0.097995676
138	0x3ea1f0cf	0.31629035
139	0x3e04a699	0.12954177
140	0x3c60c8b2	0.0137197245
141	0xbdf1e108	-0.118104994
142	0x3b78a4cc	0.0037940023
143	0xbdc2f400	-0.095191956
144	0x3e61706d	0.22015543
145	0xbd8755c6	-0.06608157
146	0xbd7c130c	-0.061541602
147	0x3deadb8d	0.11467657
148	0xbd2e5eb6	-0.042570792
149	0xbc9d12ba	-0.019173969
150	0xbe84dc47	-0.25949308
151	0xbd8a9f42	-0.06768657
152	0x3d81199f	0.06303715
153	0x3dd9aa61	0.106282
154	0x3d166f03	0.036726963
155	0x3e2e7bae	0.17039368
156	0x3f0a8fc4	0.5412562
157	0xbdd84f41	-0.105619915
158	0x3cdfc686	0.027316343
159	0x3c179d99	0.009253883
160	0xbe654989	-0.22391333
161	0xbe2cbcc2	-0.1686888
162	0x3d96ae8a	0.073575094
163	0x3d888d8a	0.066676214
164	0xbf00b628	-0.5027795
165	0x3bf1eb0e	0.007382757
166	0xbc98dede	-0.018660959
167	0x3e8aead6	0.2713229
168	0xbe907b59	-0.28219107
169	0xbc49b2ad	-0.012310666
170	0x3e00ec7f	0.12590216
171	0x3da51959	0.08061475
172	0x3e4e9432	0.2017372
173	0x3d6f9ca3	0.05849899
174	0xbc87bb26	-0.016568732
175	0xbe2311a3	-0.15924697
176	0xbc751ab8	-0.0149599835
177	0xbe143f68	-0.14477313
178	0xbe018586	-0.12648591
179	0xbc2a0d5e	-0.010379164
180	0xbee73170	-0.45154905
181	0xba511407	-0.00079757016
182	0xbe4b08d3	-0.19827585
183	0x3e93ba1e	0.28852934
184	0x3da9706b	0.08273395
185	0x3ae693a0	0.0017591603
186	0xbc8ae153	-0.016953146
187	0x3da87390	0.08225167
188	0x3cddeca0	0.02709037
189	0x3e1d15ad	0.153403
190	0x3ca14893	0.019687926
191	0x3dbd1e11	0.0923425
192	0xbdb2fc82	-0.08739568
193	0xbd0722ba	-0.032992102
194	0x3dfea437	0.12433665
195	0xbf1e43e4	-0.6182234
196	0xbd2ca630	-0.042150676
197	0xbddbb86a	-0.107285336
198	0x3ea6a0ec	0.3254465
199	0xbcd19df3	-0.025588011
200	0x3bb9732e	0.0056594824
201	0xbe7ea1e4	-0.24866444
202	0xbdfe5767	-0.124190144
203	0x3e533170	0.20624328
204	0xbe76941f	-0.24079941
205	0xbe488f0a	-0.19585815
206	0xbd147d2c	-0.036252186
207	0x3d725c12	0.059169836
208	0xbc79f18d	-0.015255344
209	0xbdfc86a1	-0.12330366
210	0xbd1ba951	-0.03800327
211	0xbe0c61b9	-0.13709153
212	0x3d8c664a	0.068554476
213	0xbe78d7e0	-0.243011
214	0x3d5ea6c9	0.054358277
215	0xbe0b9296	-0.13630137
216	0xbeaee69f	-0.34160325
217	0x3e07b08a	0.13250938
218	0xbec5d736	-0.38640755
219	0xbc6853c7	-0.01418013
220	0x3e16a337	0.14710699
221	0x3ec33e20	0.38133335
222	0xbdc05575	-0.093913
223	0xbdaa520e	-0.08316432
224	0xbe098164	-0.13428265
225	0xbea36cbf	-0.31918904
226	0xbd015349	-0.031573568
227	0xbc86ebb6	-0.016469818
228	0x3df38dc7	0.11892276
229	0xbea68e14	-0.32530272
230	0xbe0aa8cb	-0.13540952
231	0xbee282d3	-0.44240436
232	0x3e6b289a	0.22964707
233	0xbdb5831d	-0.088628985
234	0xbe660208	-0.22461712
235	0xbcbbec2e	-0.022939768
236	0xbd1bbc2d	-0.038021255
237	0xbe4f8359	-0.20264949
238	0xbc9a03fd	-0.01880073
239	0x3d85055f	0.06495165
240	0xbe78700a	-0.2426149
241	0x3e2fe3b1	0.17176701
242	0xbce26d77	-0.027640088
243	0xbb4cb940	-0.0031238347
244	0xbd7be2cc	-0.061495587
245	0xbdd842d0	-0.105596185
246	0xbdd4f158	-0.10397595
247	0xbe30879a	-0.17239228
248	0x3e094c30	0.1340797
249	0xbe83812a	-0.25684482
250	0x3e440eef	0.19146322
251	0xbc8245b5	-0.01590238
252	0x3d95c571	0.073130496
253	0x3db194dc	0.08670971
254	0x3e530172	0.2060602
255	0x3dd9ecf7	0.106409006

network_body._body_endoder.seq_layers.0.bias f4 [256]
0	0x3d4e1a4d	0.05031805
1	0xbd985976	-0.07438938
2	0xbd7910d2	-0.060807057
3	0xbd9d7b8a	-0.07689579
4	0x3d5b6796	0.053565584
5	0xbd1c4b6a	-0.038157858
6	0x3de6cfc4	0.11270097
7	0x3d163d3b	0.036679488
8	0x3c124731	0.008928106
9	0x3da2bea9	0.07946522
10	0x3d1bcc36	0.038036548
11	0x3d941e4b	0.072323404
12	0x3d5714ee	0.052510194
13	0xbd229a6a	-0.039698042
14	0xbe385909	-0.18002714
15	0x3d55e852	0.05222351
16	0xbaf3cfed	-0.0018601395
17	0x3ca2c3bc	0.019868724
18	0x3d868148	0.06567627
19	0x3c9a4418	0.018831298
20	0x3d9f3e8e	0.07775603
21	0x3dbf17b5	0.09330694
22	0xba62a6bc	-0.0008646061
23	0xbb0e1461	-0.0021679627
24	0x3c779d17	0.015113137
25	0x3d63c727	0.05560985
26	0x3d46ea33	0.048563194
27	0xbdf08b25	-0.1174529
28	0x3dbae3c3	0.09125473
29	0xbd0cbaa6	-0.03435769
30	0x3ce710b1	0.028206201
31	0x3d3834f9	0.044972394
32	0x3db16b17	0.08663004
33	0x3ded220b	0.11578759
34	0x3d223d92	0.0396095
35	0xbdd4e73c	-0.10395667
36	0x3ceb4667	0.028720094
37	0x3d5a6495	0.05331858
38	0x3a23897e	0.00062384445
39	0x3e118277	0.14209925
40	0xbd17cdaf	-0.03706139
41	0x3cf3309f	0.02968627
42	0x3b65e4f4	0.0035079094
43	0x3caea758	0.02132003
44	0x3d3d19f6	0.046167336
45	0x3db1836c	0.08667645
46	0x3cf4b881	0.029873135
47	0xbcab2541	-0.020891787
48	0x3d652e49	0.055952344
49	0xbd4efbe2	-0.050533183
50	0x3dc554c4	0.096353084
51	0xbd58a0f8	-0.052887887
52	0x3c07b2d4	0.008282382
53	0xbdb63341	-0.08896495
54	0x3cf41e6e	0.029799666
55	0x3db92a8d	0.09041319
56	0x3dee5f7f	0.11639308
57	0x3d6ec735	0.058295447
58	0x3dbff8f3	0.09373655
59	0xbd56a8e8	-0.052407175
60	0xba34c443	-0.00068957004
61	0x3d9bad00	0.076013565
62	0xbe18f0c8	-0.14935601
63	0x3dadb6a0	0.084820986
64	0x3d550c6e	0.052013807
65	0x3d82b69c	0.06382486
66	0x3de69175	0.112582125
67	0x3cd0e68d	0.02550056
68	0xbc61c206	-0.013779169
69	0xbd8a2d2b	-0.06746896
70	0x3c6a61cf	0.014305546
71	0xbc4243ee	-0.011857016
72	0xbd0c616c	-0.034272596
73	0xbcf14c80	-0.029455423
74	0x394f4860	0.0001976802
75	0xb9d3e481	-0.00040415305
76	0xbd3d76fd	-0.046256054
77	0x3d46bce0	0.04851997
78	0x3d8a5b0b	0.06755646
79	0xbda30599	-0.07960052
80	0x3da2e4a4	0.07953766
81	0x3d1adeae	0.03781002
82	0x3c28eb18	0.010309957
83	0x3d8cc27e	0.06873034
84	0x3d959606	0.07304005
85	0xbdd66ca8	-0.10469943
86	0xbcf18b14	-0.029485263
87	0x3dcf8fac	0.10134825
88	0xbc4bce77	-0.012439362
89	0x3d8972f5	0.067113794
90	0x3dc4c4b4	0.09607831
91	0xbdb01de0	-0.08599448
92	0x3dd0a94b	0.1018854
93	0x3c0fb10e	0.0087702405
94	0x3dbd9d4b	0.09258517
95	0x3cce21f2	0.02516267
96	0x3dbb0c6a	0.09133227
97	0xbd1c8265	-0.03821029
98	0x3cdd764a	0.027033944
99	0x3d91f1d0	0.071262
100	0x3d14b0f3	0.036301564
101	0x3daac439	0.08338208
102	0xba7df242	-0.00096872833
103	0xbd8670b1	-0.06564463
104	0x3dba92d8	0.091100395
105	0xbd7d3ff3	-0.061828565
106	0x3c3e2402	0.011605265
107	0x3dbeb520	0.093118906
108	0xbc0bff74	-0.0085447915
109	0x3e11cf21	0.1423917
110	0xbafde941	-0.0019371883
111	0x3ccc2808	0.024921432
112	0x3da2aa77	0.0794267
113	0x3dc1eebf	0.09469365
114	0xbdbcac87	-0.092125945
115	0x3ce6de99	0.028182315
116	0x3ca1fa80	0.019772768
117	0x3be9de41	0.0071370904
118	0x3d22b06c	0.03971903
119	0x3ddf8b42	0.10915233
120	0x3d3207f9	0.043464635
121	0x3d87417f	0.06604289
122	0x3c49f335	0.0123260515
123	0x3bb88527	0.0056311074
124	0x3cf13898	0.029445931
125	0xbb553429	-0.003253231
126	0xbdec1bf1	-0.11528767
127	0xbca35ef1	-0.019942733
128	0x3daad94b	0.083422266
129	0x3ba7f016	0.005125056
130	0xbc3a53b6	-0.011372497
131	0xbbcf4f80	-0.006326616
132	0xbd09eabf	-0.033671137
133	0x3c5ba659	0.01340636
134	0xbdb0ac14	-0.08626571
135	0xbcf3ca2f	-0.029759495
136	0xbc4ff6ba	-0.012693102
137	0xbbd5a89d	-0.0065203444
138	0xbe1a5e92	-0.15075138
139	0xbdbb0c83	-0.09133246
140	0x3e04ce77	0.12969385
141	0xbcc8f4f1	-0.02453086
142	0xba8c8723	-0.0010721426
143	0x3df74223	0.120731615
144	0x3d519b1b	0.05117331
145	0xbd742387	-0.059604194
146	0xbcba60ee	-0.022751298
147	0xbd1ba027	-0.03799453
148	0xbe50b3e0	-0.20381117
149	0x3da5cc3c	0.08095595
150	0x3d83df61	0.064390905
151	0x3d33aa03	0.043863308
152	0xbc966b19	-0.018361615
153	0xbbcbf154	-0.006223837
154	0x3d5f5da0	0.054532647
155	0xbb7e2602	-0.0038779979
156	0x3e05fdb2	0.13085058
157	0x3da5c364	0.080939084
158	0x3da84c9b	0.08217736
159	0x3b2d6415	0.0026457359
160	0x3d49ffed	0.049316335
161	0xbc6d0fa0	-0.014469057
162	0x3cee659e	0.02910119
163	0xbd9196d3	-0.071088456
164	0x3dfdc2ab	0.123906456
165	0x3dedc32f	0.11609494
166	0x3cf7c15f	0.030243574
167	0x3da866a0	0.08222699
168	0x3d89ebe2	0.06734444
169	0xbc56d8a1	-0.013113172
170	0x3d536b78	0.051616162
171	0xbd41e46b	-0.047336977
172	0xbd0fd677	-0.03511664
173	0x3cf1cc58	0.029516384
174	0x3dcba34c	0.09943256
175	0xbcd6b5fb	-0.026209822
176	0x3d58c3bd	0.052921046
177	0x3db9770f	0.09055912
178	0x3d090747	0.033454206
179	0x3c91dd5b	0.017805746
180	0x3cf8a5e4	0.03035254
181	0x3bb397d8	0.0054807477
182	0xbc1a6fa4	-0.009426031
183	0x3d86e091	0.065858014
184	0x3de7920a	0.113071516
185	0xbc7e03a5	-0.015503799
186	0xbe4f1017	-0.20220982
187	0xbd0a8b56	-0.033824287
188	0x3e17597a	0.14780226
189	0xbd1b123b	-0.037859183
190	0x3d9a1256	0.075230286
191	0x3bbbe430	0.005733989
192	0x3d6d0b6c	0.05787222
193	0x3d8073cf	0.06272089
194	0x3ca7711e	0.02043968
195	0x3da7b586	0.0818892
196	0x3dc6343c	0.09677932
197	0x3e1d31c0	0.1535101
198	0x3dbff733	0.093733214
199	0x3a6319e0	0.00086632185
200	0xbda7db04	-0.08196071
201	0x3d990d00	0.07473183
202	0x3d0fdfdf	0.03512561
203	0x3d5d6a75	0.054056603
204	0x3ca55ba3	0.020185297
205	0x3de61b13	0.11235633
206	0xbda12bc5	-0.078696765
207	0x3d18d1cb	0.03730945
208	0x3da7410e	0.08166705
209	0xbd379b0d	-0.044825602
210	0xba7adb21	-0.0009569396
211	0x3d5b9ee1	0.053618316
212	0x3e0e9613	0.13924436
213	0x3e06da88	0.131693
214	0x3dcfef6d	0.10153089
215	0x3d26447d	0.04059266
216	0xbd475160	-0.04866159
217	0xbd3c8656	-0.04602655
218	0xbc8a6b28	-0.0168968
219	0x3defe8d5	0.11714331
220	0xbc31b4de	-0.010846345
221	0x3cbbe068	0.022934154
222	0xbc661b1d	-0.01404455
223	0x3cd868a6	0.026417088
224	0x3d57bc29	0.052669678
225	0xbc11e141	-0.008903802
226	0xba84fc84	-0.0010146056
227	0x3c4b7e5a	0.012420261
228	0x3d6f24c3	0.058384668
229	0x3d8d1b12	0.06889929
230	0x3c38425f	0.011246293
231	0xbbdfcf2a	-0.006830116
232	0xbd91ab47	-0.07112747
233	0x3d58c333	0.05292053
234	0x3da810cb	0.08206328
235	0x3d8ef9bc	0.06981227
236	0x3d547633	0.051870536
237	0x3d034f04	0.032057777
238	0x3cf9e47c	0.030504458
239	0x3be192cc	0.0068839546
240	0xbd2445d1	-0.040105645
241	0x3c6960f0	0.014244303
242	0x3d8786a8	0.066174805
243	0xbc9985d0	-0.018740565
244	0xb64730d8	-2.9681742e-06
245	0x3d436998	0.047708124
246	0xbc0d4cd8	-0.008624278
247	0xbd5dbd75	-0.05413576
248	0x3d0cfdb1	0.034421626
249	0xbd7b5b2d	-0.06136625
250	0x3df56c64	0.119835645
251	0x3d8578bd	0.065171696
252	0xbd261be2	-0.040553935
253	0xbd1bcef5	-0.038039166
254	0x3db3e1aa	0.087832764
255	0x3d290257	0.041261997

network_body._body_endoder.seq_layers.2.weight f4 [256, 256]
0	0xbd13e1ba	-0.03610394
1	0xbda816c1	-0.08207465
2	0x3d02651f	0.031834718
3	0xbd719b7d	-0.058986176
4	0xbcfcd30c	-0.030862354
5	0x3e31c165	0.1735893
6	0x3d7da134	0.061921313
7	0xbe8b8b3a	-0.2725466
8	0xbdaa8571	-0.08326233
9	0x3d141b8f	0.036159094
10	0xbe32115f	-0.17389439
11	0xbe27a039	-0.16369714
12	0x3e10f608	0.14156353
13	0xbe229bf1	-0.158798
14	0xbe0ee108	-0.1395303
15	0xbdfe3c34	-0.124138266
16	0xbd03f27e	-0.03221368
17	0x3d356b26	0.044291638
18	0xbe367227	-0.17816983
19	0x3e0b2f3e	0.1359224
20	0x3eb6ff6c	0.35741746
21	0xbd64febd	-0.055907
22	0x3ddc0aac	0.10744223
23	0xbd102176	-0.03518816
24	0x3bcfed41	0.0063454215
25	0xbe07df8b	-0.13268869
26	0xba3c4d01	-0.00071831053
27	0xbe617ae8	-0.22019541
28	0xbd934a29	-0.07191879
29	0x3d06b8c0	0.032891035
30	0x3e3e3886	0.1857625
31	0xbdba3508	-0.09092146
32	0x3e4e4429	0.20143189
33	0x3e692946	0.22769651
34	0xbdb9efd3	-0.09078946
35	0xbda08468	-0.078377545
36	0x3ecaeff9	0.3963621
37	0x3e17edba	0.14836779
38	0x3e1af496	0.15132365
39	0x3baf8bfd	0.005357264
40	0xbcff9109	-0.031197088
41	0xbe1f75e3	-0.15572314
42	0xbd5272e2	-0.051379092
43	0x3d48fb0c	0.049067542
44	0xbbebc4fb	-0.0071951128
45	0x3d9f0a44	0.0776563
46	0x3e4e8815	0.20169099
47	0xbc618b69	-0.013766148
48	0xbba329ce	-0.0049793487
49	0xbdcb6ff7	-0.09933465
50	0x3e7283f5	0.2368315
51	0xbd5478d6	-0.05187305
52	0xbe4194aa	-0.18904367
53	0x3e3ca3b4	0.18421823
54	0xbd6961d9	-0.05697808
55	0x3d9deeb6	0.07711546
56	0xbe14a4ae	-0.14515945
57	0xbd0664fd	-0.032811154
58	0x3e4e0611	0.20119502
59	0xbddb17ee	-0.106979236
60	0xbddb1292	-0.106969014
61	0x3c8599ec	0.016308747
62	0xbdcfefc8	-0.101531565
63	0xbe159e76	-0.1461123
64	0xbe81ecdc	-0.25376022
65	0xbde30a57	-0.110859565
66	0x3ea1d823	0.31610212
67	0xbcb703ab	-0.022340616
68	0xbd930b46	-0.071798846
69	0xbe6c92ac	-0.23102826
70	0x3d5286fe	0.05139827
71	0xbdd5cf48	-0.104399264
72	0x3e50362e	0.20333168
73	0xbebaa4ed	-0.36453953
74	0x3d087d33	0.033322524
75	0xbe2b63ec	-0.16737336
76	0xbe4c4dc7	-0.19951545
77	0xbe654d11	-0.2239268
78	0xbd0f395f	-0.034966823
79	0x3d77a18f	0.06045681
80	0x3d6c8bf3	0.057750653
81	0xbc63ea45	-0.013910835
82	0xbd5c7785	-0.05382492
83	0xbd80743d	-0.06272171
84	0xbd22c57b	-0.039739113
85	0xbceb06b1	-0.028689714
86	0xbca0eebb	-0.019645086
87	0xbda81b1b	-0.08208295
88	0xbdb9b77e	-0.090682015
89	0x3b804649	0.0039146286
90	0x3e0bd0cf	0.13653873
91	0xbcd0286b	-0.025409898
92	0x3d922cdf	0.07137465
93	0xbce309b9	-0.027714597
94	0xbd8039c6	-0.062610194
95	0xbe3dba4b	-0.18528096
96	0x3e48ae59	0.19597758
97	0xbdc33cf1	-0.09533108
98	0xbd69f931	-0.057122413
99	0xbced0b48	-0.028936043
100	0x3d506068	0.05087319
101	0x3e3036ef	0.17208456
102	0x3ce92939	0.02846204
103	0xbdfe20e4	-0.12408617
104	0xbdba1111	-0.090852864
105	0xbdd482de	-0.103765234
106	0x3cb36041	0.021896483
107	0x3d74e2ad	0.059786487
108	0xbcb78d6d	-0.022406304
109	0x3ddf7018	0.10910052
110	0xbe342710	-0.17593026
111	0x3e67ab95	0.22624047
112	0x3e00fd50	0.12596631
113	0xbce816e0	-0.02833122
114	0xbe715c8c	-0.2357046
115	0x3d3de3e7	0.046359923
116	0xbe010f53	-0.12603502
117	0xbdf3bf9e	-0.119017825
118	0xbc88c625	-0.016696045
119	0x3b7fc3c8	0.0039026607
120	0xbdcd6bc1	-0.10030318
121	0xbd3c91e7	-0.04603758
122	0xbdf7c55f	-0.120981924
123	0xbd9f8463	-0.07788923
124	0xbdf0809c	-0.1174328
125	0xbd6667b3	-0.05625124
126	0xbe1cb71b	-0.15304224
127	0xbdda0b0d	-0.10646639
128	0x3d9de7c6	0.07710223
129	0xbdeed9f8	-0.11662668
130	0x3e422e19	0.18962897
131	0xbe29dc11	-0.16587855
132	0xbc428a58	-0.011873804
133	0xbc3e0ba9	-0.01159946
134	0xbd5e0d9c	-0.054212198
135	0xbdbc6e43	-0.09200718
136	0x3d36b7a6	0.044608735
137	0xbdf7e14a	-0.12103517
138	0xbd0557a7	-0.032554295
139	0x3c51c3f3	0.012803066
140	0x3dd53d52	0.104120865
141	0xbea841e4	-0.3286277
142	0xbe19055c	-0.1494345
143	0x3da01258	0.07815999
144	0xbda8285c	-0.08210823
145	0xbe012ed0	-0.12615514
146	0xbc9b253e	-0.018938657
147	0x3c199953	0.009374934
148	0xbe034d22	-0.12822393
149	0x3dc0b990	0.09410393
150	0xbe129b63	-0.14317088
151	0xbe362404	-0.17787176
152	0xbea5f5a6	-0.32413977
153	0xbe52c22d	-0.20581885
154	0xbcc3f849	-0.023922103
155	0x3da4d4ed	0.08048425
156	0x3ca2ad41	0.019858005
157	0x3e801243	0.25013933
158	0x3db1d9e1	0.08684135
159	0xbe021887	-0.12704669
160	0x3d170bb3	0.03687639
161	0x3cbf3e2d	0.023345077
162	0x3d9ae6a9	0.07563526
163	0xbe22ed0c	-0.15910739
164	0x3da4e4c4	0.08051446
165	0x3c4fbf6f	0.012679919
166	0x3d8d5824	0.06901577
167	0xbd2777d8	-0.040885776
168	0xbde59234	-0.11209527
169	0xbb2002c3	-0.0024415709
170	0x3cdd4f49	0.027015345
171	0xbd5155a2	-0.051107056
172	0xbe3f3128	-0.18671095
173	0x3df1aa44	0.11800054
174	0xbdd05aa8	-0.10173541
175	0xbe2fcfd7	-0.17169128
176	0xbc0ff795	-0.0087870555
177	0x3e77e5a3	0.24208693
178	0x3dce0091	0.10058702
179	0x3e941484	0.28921902
180	0xbd03ee3d	-0.032209624
181	0x3bafad34	0.0053612236
182	0x3b814bf9	0.003945824
183	0x3d4c8e06	0.04994013
184	0xbdf77334	-0.1208252
185	0xbdfd86cd	-0.12379227
186	0xbd05517f	-0.032548424
187	0x3da35079	0.07974333
188	0x3e858527	0.2607815
189	0xba88b072	-0.0010428561
190	0x3d421570	0.047383726
191	0xbe9d9a29	-0.30781677
192	0x3e34a78d	0.1764204
193	0x3d74c102	0.05975438
194	0xbe95a663	-0.29228505
195	0x3d432690	0.047644198
196	0xbdcdcabe	-0.10048436
197	0x3e907ec0	0.28221703
198	0x3da7612b	0.0817283
199	0x3d942cb1	0.07235087
200	0xbdf591d0	-0.11990702
201	0x3e0c7bb0	0.13719058
202	0xbe3ce40e	-0.18446371
203	0x3e18e6de	0.14931819
204	0x3d6b722a	0.057481922
205	0xbc7c71dd	-0.0154080065
206	0x3e053e3b	0.1301202
207	0xbe29093d	-0.1650743
208	0x3e253907	0.16135035
209	0xbe0987d8	-0.13430727
210	0xbe771f81	-0.24133112
211	0xbd0e6e47	-0.034773137
212	0x3e1e8fd0	0.15484548
213	0x3e50d16c	0.20392388
214	0xbe614479	-0.21998776
215	0xbde10888	-0.10987955
216	0xbe4f2763	-0.20229869
217	0xbd2abb36	-0.041682445
218	0x3c73346d	0.014844042
219	0xbd010fcf	-0.031509217
220	0xbdf8b770	-0.12144363
221	0x3c1299f7	0.008947841
222	0xbe9641b5	-0.29347005
223	0x3e398b47	0.18119536
224	0x3c22e4ab	0.009942214
225	0xbdb6a8f3	-0.08918943
226	0xbd38183c	-0.044944987
227	0xbd527f16	-0.05139073
228	0xbda8f221	-0.082493074
229	0x3e844871	0.25836518
230	0xbe08b791	-0.13351275
231	0x3d2ad139	0.041703437
232	0xbe80828e	-0.25099605
233	0xbdeb08d3	-0.114762925
234	0x3e33edca	0.17571178
235	0xbd7f771a	-0.062369443
236	0xbcd43bd6	-0.025907438
237	0xbdc0c139	-0.09411854
238	0x3df447d3	0.11927762
239	0xbe254132	-0.16138151
240	0xbe48e47f	-0.19618414
241	0xbd098376	-0.033572637
242	0x3e558202	0.20850375
243	0xbe234dd1	-0.15947653
244	0xbbd92d5a	-0.006627721
245	0x3d8cac31	0.068687804
246	0xbe210de7	-0.1572796
247	0xbdd24063	-0.10266187
248	0x3d74ad2a	0.059735455
249	0xbdf38674	-0.11890879
250	0xbd93ca6b	-0.072163425
251	0x3e6484b5	0.22316249
252	0x3ce25f50	0.02763334
253	0xbe028831	-0.12747265
254	0xbccedf6b	-0.025253018
255	0xbd0c70fd	-0.03428744

network_body._body_endoder.seq_layers.2.bias f4 [256]
0	0x3d939458	0.07206029
1	0x3cad3d3a	0.02114736
2	0xbd1608d6	-0.03662952
3	0x3c9a44aa	0.01883157
4	0xbd4cc8d2	-0.049996205
5	0x3c4888b4	0.012239624
6	0x3dcfbedc	0.101438254
7	0x3da51c19	0.08062
8	0xbd81c6b5	-0.063367285
9	0x3d1a4503	0.03766347
10	0x3cbc6bc4	0.023000605
11	0x3ddb96e9	0.10722143
12	0xbd64e3fe	-0.055881493
13	0x3c308900	0.010774851
14	0x3c6830c7	0.014171786
15	0x3d4c856f	0.04993194
16	0xbcf5df3b	-0.030013671
17	0xbd20b066	-0.039230727
18	0x3c8d248a	0.017229337
19	0xbab47473	-0.0013767615
20	0xbcccab92	-0.024984155
21	0x3c85e878	0.016346201
22	0xbc058389	-0.008149036
23	0xbccb1e07	-0.024794592
24	0x3be57ce8	0.0070034154
25	0x3dad8d4b	0.08474215
26	0x3c794c98	0.015216015
27	0x3cac9073	0.021064973
28	0x3da35522	0.07975222
29	0xbbdf72b2	-0.0068190927
30	0x3d9f42eb	0.077764355
31	0xbd0a6d27	-0.033795502
32	0xbcdfa87e	-0.027302023
33	0x3db1e381	0.08685971
34	0x3cda01eb	0.026612243
35	0x3b084e60	0.0020798668
36	0x3a9fb82d	0.0012185626
37	0xb9e7488f	-0.00044113814
38	0x3d94223d	0.07233093
39	0xbc9d0dba	-0.019171584
40	0xbd2af12c	-0.041733906
41	0xbdb23f80	-0.08703518
42	0x3b809d6b	0.0039250157
43	0xbd7cfc6f	-0.061764177
44	0x3e14f671	0.14547135
45	0xbbec3971	-0.007208996
46	0x3cbcd43a	0.023050416
47	0x3dc37b8e	0.095450506
48	0x3df015db	0.117229186
49	0xbd0a5c3d	-0.03377937
50	0x3e0c1678	0.13680446
51	0x3d49facc	0.049311444
52	0xbd43c36d	-0.047793794
53	0x3b00a9d7	0.0019632482
54	0x3e1039ef	0.140846
55	0xbd348846	-0.044075273
56	0x3d300f7b	0.042983513
57	0xbbc75386	-0.006082955
58	0xbc3d9e58	-0.011573397
59	0xbd954a11	-0.07289518
60	0x3d1c5ba1	0.03817332
61	0x3dac0052	0.083984986
62	0xbb62949a	-0.0034573437
63	0x3c376208	0.011192806
64	0xbcbc2019	-0.022964524
65	0x3c524fcf	0.012836411
66	0x3db9f581	0.09080029
67	0x3c6a8afe	0.014315365
68	0xbd241071	-0.040054742
69	0x3e2d93d9	0.1695093
70	0xbd1e8ea3	-0.038710248
71	0x3e0912e4	0.13386112
72	0x3cbf1c96	0.02332906
73	0x3d94f5f0	0.07273471
74	0xbb8b3871	-0.0042486717
75	0x3b757223	0.0037452064
76	0x3d62ce37	0.055372443
77	0x3baad7e6	0.0052137254
78	0x3aabb7b4	0.0013101012
79	0xbbd0a8c4	-0.0063677747
80	0x3c74599d	0.014913944
81	0x3d2de4ef	0.042454656
82	0x3dc45fb9	0.0958857
83	0xbd0c37a9	-0.03423277
84	0x3d08f4ee	0.03343671
85	0x3d86e5bb	0.06586786
86	0x3c82012a	0.015869696
87	0xbde42e64	-0.11141661
88	0xbb392bad	-0.0028254793
89	0x3e36c070	0.17846847
90	0x3cb50d48	0.02210106
91	0xbd720cfd	-0.059094418
92	0xbc88bc41	-0.016691329
93	0x3e30cf46	0.17266569
94	0x3d89b713	0.06724372
95	0x3bb18c67	0.0054183486
96	0xbc40b18a	-0.011761079
97	0x3d5f3492	0.054493494
98	0x3dc2b6ca	0.095075205
99	0x3cdeebee	0.02721211
100	0x3c9094b6	0.017649036
101	0x3c88b6e1	0.016688766
102	0xbd771400	-0.060321808
103	0x3ba64563	0.0050741895
104	0x3ddf4b6e	0.10903059
105	0xbbab220b	-0.005222564
106	0xbc96b232	-0.018395517
107	0x3db9a40d	0.09064493
108	0x3da9b607	0.08286672
109	0xbc881690	-0.016612321
110	0x3d495825	0.049156327
111	0x3c8e339a	0.01735859
112	0x3d7271a6	0.059190415
113	0x3e23cea6	0.15996799
114	0x3d16f1ce	0.036851697
115	0x3ce71a11	0.028210672
116	0x3dea2eee	0.114347324
117	0x3d844599	0.06458587
118	0x3c96c05b	0.01840227
119	0xbc282302	-0.010262253
120	0x3c17e880	0.009271741
121	0x3c021d7b	0.007941599
122	0xbc03819c	-0.008026507
123	0x3cdf2bbe	0.027242538
124	0x3b36e525	0.0027907577
125	0x3d3cbeed	0.04608052
126	0xbc8b9b26	-0.017041754
127	0xbdc83dfb	-0.09777447
128	0xbcd806fc	-0.026370518
129	0xbd6c2d3d	-0.05766033
130	0xbd88fb72	-0.066885844
131	0xbbe6dde2	-0.0070454935
132	0xbd27a284	-0.04092647
133	0x3beeb177	0.007284339
134	0x3d4f3c28	0.05059448
135	0xbc6aa45c	-0.014321413
136	0x3c55e451	0.013054923
137	0x3c6b2a3c	0.014353331
138	0x3d9124bb	0.07087084
139	0xbd5138ad	-0.05107944
140	0x3e0836a4	0.13302094
141	0x3b8a7883	0.004225792
142	0xbcfec962	-0.031101886
143	0x3d9b5e99	0.075864024
144	0x3da8e61c	0.08247015
145	0x3d9c5e1c	0.076351374
146	0xbceaaec3	-0.028647786
147	0x3d1024a9	0.03519121
148	0x3c8f2ae9	0.017476516
149	0x3dde1bb2	0.10845126
150	0xbcd29932	-0.025707815
151	0x3ceee4a2	0.029161755
152	0x3de7b9ef	0.11314761
153	0x3c88507c	0.01663994
154	0x3dbfb145	0.09359983
155	0xbd723410	-0.059131682
156	0x3dc3e8df	0.09565901
157	0x3d853c33	0.06505623
158	0x3cb19c45	0.02168096
159	0xbcebd39f	-0.028787432
160	0x3da57d12	0.08080496
161	0xbd986875	-0.074417986
162	0xbd84f903	-0.06492808
163	0x3d906f2f	0.070524566
164	0x3cabe7bb	0.020984521
165	0xbcbd8fa8	-0.02313979
166	0x3d6ebead	0.05828731
167	0x3e04fbfc	0.1298675
168	0x3d88a233	0.06671562
169	0x3cf7b449	0.030237334
170	0x3d081636	0.033224307
171	0xbd1dab23	-0.038493287
172	0x3d29fda7	0.041501667
173	0xbd7a3a80	-0.061090946
174	0x3d99e82f	0.07514989
175	0x3d63e45a	0.055637695
176	0x3d4554c9	0.04817656
177	0x3bc6de0f	0.006068952
178	0x3d88d952	0.066820756
179	0x3da2530b	0.079259954
180	0x3dd45dd0	0.10369456
181	0x3c7c7d62	0.015410753
182	0x3d4002e0	0.04687774
183	0xbc6233ae	-0.013806267
184	0xbd923e83	-0.071408294
185	0xbbe77e74	-0.007064635
186	0x3de64732	0.11244048
187	0xbaae857d	-0.0013314929
188	0xbd0d6e94	-0.034529284
189	0xbd88d28a	-0.06680782
190	0x3e0c8351	0.13721968
191	0x3dc81243	0.09769108
192	0x3de4d24e	0.11172925
193	0xbcbd0684	-0.023074396
194	0xbd2203c8	-0.039554387
195	0xbd3cd329	-0.046099816
196	0x3cb3e8a7	0.021961523
197	0x3e0f8592	0.14015797
198	0xbd1cc865	-0.03827705
199	0xbcde1d07	-0.02711345
200	0x3c5459c1	0.012960852
201	0xbd2432ae	-0.040087394
202	0x3aa9b0fc	0.0012946422
203	0x3dd6a813	0.10481276
204	0x3d2d25c9	0.042272363
205	0x3d144041	0.03619409
206	0x3c8fc415	0.017549554
207	0xbd2dfc5e	-0.042477004
208	0xbd818a61	-0.06325222
209	0x3cd1245c	0.025530033
210	0xbac2d5d5	-0.0014864752
211	0x3c5fcc29	0.013659515
212	0x3e2507dd	0.16116281
213	0xbd9a08d9	-0.07521219
214	0x3d3f7ca5	0.04674973
215	0xbcacbd12	-0.02108625
216	0x3dd7d92c	0.10539469
217	0x3c66b771	0.014081822
218	0xbd7b0255	-0.06128152
219	0x37eb5ecc	2.8058326e-05
220	0xbd14378d	-0.03618579
221	0xbcbda4a3	-0.023149794
222	0x3d8ae3d6	0.067817375
223	0x3c9e8106	0.019348633
224	0xbc0564cb	-0.008141707
225	0x3d30bbc6	0.043147825
226	0xbc373a4e	-0.0111833345
227	0x3d97ebde	0.07418035
228	0xbc3d5f2a	-0.011558333
229	0x3c906c6e	0.017629828
230	0xbdf24b0e	-0.11830722
231	0x3cce9b4a	0.025220532
232	0x3dc452ee	0.0958613
233	0xbd2f124a	-0.04274205
234	0xbc7793aa	-0.015110889
235	0x3ddba5d5	0.10724989
236	0xbcf83cb9	-0.030302392
237	0x3d45518d	0.048173476
238	0xba90e64b	-0.0011054961
239	0x3dafb652	0.08579697
240	0x3c032542	0.008004488
241	0x3d65024e	0.0559104
242	0x3c34d22f	0.01103644
243	0xbc06f083	-0.008236053
244	0x3d8c4f21	0.0685103
245	0xbd088c78	-0.033337086
246	0x3d5d52c9	0.05403403
247	0xbd094690	-0.03351456
248	0x3e20eaf6	0.1571463
249	0x3d6293df	0.055316802
250	0xbd829b44	-0.06377271
251	0x3df513ba	0.11966653
252	0x3df739e0	0.12071586
253	0x3ce2246e	0.027605262
254	0xbc418639	-0.011811786
255	0xbcf88e02	-0.030341152

action_model._discrete_distribution.branches.0.weight f4 [7, 256]
0	0xbe8a9fb3	-0.27074966
1	0x3dae05bf	0.0849719
2	0xbc74d313	-0.014942902
3	0x3cd887e5	0.026431987
4	0xbe22ae95	-0.1588691
5	0xba25c0c1	-0.0006322973
6	0xbe97748a	-0.295811
7	0xbe839e8c	-0.257069
8	0xbbb4b104	-0.005514266
9	0xbd1e0d4c	-0.0385869
10	0xbcbc5afc	-0.022992603
11	0xbe57d2cd	-0.21076508
12	0x3da85b0c	0.08220491
13	0xbd95e27e	-0.073185906
14	0xbe16de45	-0.14733227
15	0xbd2beabd	-0.04197191
16	0xbd158ad2	-0.036509342
17	0xbd6d400e	-0.057922415
18	0xbd9256cb	-0.07145461
19	0xbe18fea5	-0.14940889
20	0x3d96e0df	0.073671095
21	0xbe388168	-0.18018115
22	0xbd6cd6ac	-0.057821915
23	0xbcf9b4aa	-0.030481655
24	0xbe7f0b29	-0.24906601
25	0xbd1e71b2	-0.038682647
26	0x3dad24dc	0.08454296
27	0xbd336a3a	-0.043802477
28	0x3b5187f8	0.0031971913
29	0xbc112234	-0.008858252
30	0xbdaf3012	-0.085540906
31	0x3da02717	0.07819956
32	0xbbe842e8	-0.007088054
33	0xbe093575	-0.13399298
34	0xbe071b6f	-0.13194059
35	0xbcedc8a3	-0.029026335
36	0x3d81ac47	0.063316874
37	0xbdccf161	-0.10006977
38	0xbd8a1d8e	-0.06743918
39	0xbde70d28	-0.11281806
40	0x3d906a6b	0.070515476
41	0xbd451c26	-0.048122548
42	0xbe3401b7	-0.17578779
43	0xbdc8a827	-0.097976975
44	0xbead799d	-0.33881846
45	0x3bcc8987	0.0062419805
46	0xbdd1b39e	-0.102393374
47	0xbe65d066	-0.22442779
48	0xbeb3204b	-0.34985575
49	0xbddb4c8e	-0.10707961
50	0xbe630a04	-0.2217179
51	0xbe7c7f41	-0.24657919
52	0x3dc417af	0.0957483
53	0xbd651f36	-0.05593797
54	0xbd20224d	-0.03909521
55	0xbdc0ac9f	-0.09407925
56	0xbe353164	-0.17694622
57	0xbd6eb828	-0.058281094
58	0xbd90d51e	-0.07071899
59	0x3dd40c75	0.103539385
60	0x3de71d79	0.11284918
61	0xbe7fb606	-0.2497178
62	0x3d6a3672	0.05718083
63	0xbe2af6da	-0.16695729
64	0xbdfcbbee	-0.12340532
65	0xbe24d9d9	-0.16098727
66	0xbe9cfa70	-0.3065982
67	0xbd80c91e	-0.0628836
68	0x3d97859b	0.0739853
69	0xbe94af17	-0.29039833
70	0x3d8e515e	0.06949113
71	0xbe07396e	-0.13205501
72	0x3e14914e	0.14508554
73	0xbe2b0bed	-0.16703768
74	0xbd46a9d6	-0.048501812
75	0xbdd5ec05	-0.10445408
76	0xbe5f2106	-0.21789941
77	0x3e3f495c	0.18680328
78	0x3beb4200	0.0071794987
79	0x3cfa8876	0.030582648
80	0xbd828146	-0.06372313
81	0x3dac3e28	0.08410293
82	0xbe9ff754	-0.31243384
83	0x3e227b24	0.15867287
84	0xbabd0984	-0.0014422392
85	0xbdaac23e	-0.0833783
86	0xbd675e80	-0.056486607
87	0x3df47759	0.11936826
88	0xbe57c4e2	-0.21071199
89	0xbdace104	-0.08441356
90	0xbcb7df8b	-0.02244546
91	0xbd87b642	-0.0662656
92	0xbe134bd1	-0.1438439
93	0xbe24f53d	-0.16109176
94	0x3e18e7ac	0.14932126
95	0xbc8be49a	-0.01707678
96	0xbcee77b4	-0.029109813
97	0xbe496abd	-0.19669624
98	0xbeb8fb65	-0.361293
99	0xbe1d1172	-0.15338686
100	0xbdf5f8b4	-0.12010327
101	0xbd5303e3	-0.05151738
102	0x3c652fd5	0.013988455
103	0xbda6d567	-0.08146172
104	0xbe825e07	-0.25462362
105	0xbc830473	-0.015993332
106	0x3d966962	0.07344319
107	0xbe5f280a	-0.21792617
108	0xbe5e3c97	-0.217028
109	0xbdc463a9	-0.09589321
110	0xbdacaf6e	-0.08431898
111	0xbe36e456	-0.17860541
112	0xbce3e21d	-0.02781778
113	0xbe84a88e	-0.25909847
114	0xbe0dc1a6	-0.13843402
115	0xbe5843fb	-0.21119682
116	0xbe77f044	-0.24212748
117	0xbe0ce154	-0.13757831
118	0x3cd93f08	0.026519313
119	0xbdab6d33	-0.083704375
120	0xbe93891a	-0.28815538
121	0xbe038a6b	-0.12845771
122	0xbdbae3bc	-0.09125468
123	0xbdb17a51	-0.08665908
124	0x3cf9b25a	0.030480552
125	0xbd58a34c	-0.052890107
126	0xbe12e709	-0.14345945
127	0xbc9ae93f	-0.018910049
128	0xbbcf9c6c	-0.0063357856
129	0xbe264c23	-0.16239981
130	0x3d9affd1	0.07568324
131	0xbc8c458e	-0.01712301
132	0x3d8f6088	0.07000834
133	0xbd7ec00f	-0.06219488
134	0xbcd7edef	-0.026358573
135	0xbcf2491d	-0.029575879
136	0xbe010664	-0.12600094
137	0x3d2cfc8d	0.04223304
138	0x3bb149a1	0.0054103886
139	0xbdb99f42	-0.09063579
140	0xbe2b7724	-0.16744667
141	0xbe55160c	-0.20809191
142	0xbd2f5b72	-0.04281182
143	0xbe69e3b2	-0.22840765
144	0xbd24a736	-0.040198527
145	0xbd328fa3	-0.043594014
146	0x3d366cb5	0.044537265
147	0xbe049137	-0.1294602
148	0xbd011184	-0.031510845
149	0xbdce6cf6	-0.100793764
150	0x3d876ae5	0.066121854
151	0xbe090d10	-0.13383889
152	0xbe325b7e	-0.17417714
153	0xbe0c6fd9	-0.13714541
154	0xbe37b5f6	-0.17940506
155	0xbd7f1c73	-0.06228299
156	0xbd9a8bf1	-0.07546223
157	0xbe04bc6d	-0.12962504
158	0x3cce52ff	0.02518606
159	0xbd869f22	-0.06573321
160	0xbd0b8bff	-0.034069058
161	0x3d7daab4	0.061930373
162	0x3d6d2264	0.057894126
163	0xbe353c69	-0.17698826
164	0xbe54fa49	-0.20798601
165	0x3da0e92c	0.07856974
166	0xbdf4e99c	-0.1195862
167	0xbe5a6ac2	-0.21329787
168	0xbce601cd	-0.02807703
169	0xbd48f8f1	-0.049065534
170	0xbd9d4ae7	-0.07680302
171	0xbda36aa0	-0.079793215
172	0xbd34fef0	-0.04418844
173	0xbe1f03e3	-0.15528826
174	0xbdc7e922	-0.097612634
175	0xbda5fc00	-0.08104706
176	0xbdbe94bd	-0.09305713
177	0xbd5dd395	-0.05415686
178	0xbe51c05b	-0.20483534
179	0xbe57437f	-0.21021841
180	0xbd46f73a	-0.048575617
181	0xbd912981	-0.07087994
182	0xbe81acb5	-0.25327078
183	0xbe6d7773	-0.23190098
184	0xbd95efdf	-0.073211424
185	0xbd812f93	-0.06307902
186	0xbeaec1e5	-0.34132305
187	0xbe09415a	-0.13403836
188	0xbdd0eb9a	-0.102011874
189	0xbd6e41db	-0.058168273
190	0xbe0bfb8c	-0.13670176
191	0xbe8823c7	-0.26589796
192	0xbe8eba5e	-0.27876562
193	0x3b4acbaf	0.0030944159
194	0xbcada695	-0.021197597
195	0xbc40cad6	-0.01176711
196	0xbd7c648f	-0.061619338
197	0xbdde8c3d	-0.10866592
198	0x3d03767e	0.032095425
199	0xbda18430	-0.07886541
200	0xbdcf6036	-0.10125773
201	0x3d3c028e	0.045900874
202	0xbd447d33	-0.04797096
203	0xbe6966a4	-0.2279306
204	0xbe7f1469	-0.2491013
205	0xbe783829	-0.24240173
206	0xbd9e00b0	-0.07714975
207	0xbdae2ddc	-0.08504841
208	0x3d19b7c5	0.037528772
209	0xbe67c076	-0.22632012
210	0xbc739fcf	-0.014869644
211	0x3d8507df	0.06495642
212	0xbe87f72f	-0.26555774
213	0x3ea80733	0.32817993
214	0xbe79a7ee	-0.24380466
215	0x3dbde14c	0.092714876
216	0xbd987387	-0.0744391
217	0xbe3e58b5	-0.18588527
218	0x3d4f3a36	0.050592624
219	0xbdaf1f42	-0.08550884
220	0xbdf96bf5	-0.12178794
221	0xbdab9fb7	-0.083800726
222	0xbdecbbb3	-0.11559238
223	0xbd25fa63	-0.04052199
224	0xbd27197c	-0.04079579
225	0xbd7ce291	-0.061739508
226	0xbd8ab81e	-0.06773399
227	0xbd98f70a	-0.07468994
228	0xbe24300d	-0.16033955
229	0xbe8ea603	-0.27861032
230	0xbc4868ac	-0.012231987
231	0x3ce5bab2	0.028043125
232	0x3e08d2b5	0.13361628
233	0x3d6390df	0.05555808
234	0x3dc56119	0.096376605
235	0xbe24445c	-0.16041702
236	0x3d0e99f7	0.0348148
237	0xbe5a291f	-0.21304749
238	0x3c4ee7dd	0.012628523
239	0xbdec873c	-0.115492314
240	0x3db16647	0.08662086
241	0xbe38d728	-0.18050826
242	0x3ddac111	0.10681356
243	0xbd6570fc	-0.056015953
244	0x3cdd48eb	0.027012309
245	0xbd91f432	-0.07126655
246	0xbe3d81ab	-0.18506496
247	0x3dc24b27	0.094869904
248	0x3e838264	0.25685418
249	0xbdf427e5	-0.11921672
250	0x3e113cce	0.14183351
251	0xbe6a1dd9	-0.22862948
252	0xbe927ef9	-0.28612497
253	0xbe44302f	-0.19159006
254	0xbc7068fd	-0.014673469
255	0xbd941c96	-0.07232015

action_model._discrete_distribution.branches.0.bias f4 [7]
0	0xbe381742	-0.17977622
1	0x3c592932	0.013254451
2	0xbde9910b	-0.11404618
3	0x3aaccbc7	0.0013183289
4	0x3c0e8803	0.00869942
5	0x3d6ed3cf	0.058307465
6	0x3cf7420d	0.030182863
