results/puzzle_expirement_2/PuzzleBehavior/PuzzleBehavior-12999968.onnx (onnx, 342923 bytes, 6 tensors)

network_body._body_endoder.seq_layers.0.weight f4 [256, 65]
00000000: 57a8 51be daed 333e 2f9c 1f3e a1ad 843e
00000010: c1f2 d2bc 5efe a93e 058a fd3d 7ae9 793e
00000020: 7247 d7bd 29ef b6be 24f8 d33d 33e5 2b3d
00000030: bfab 2b3d 4dee 173e cbda 0d3e 95f2 f73c
00000040: f2de bf3d 6453 d23d b900 0bbe 2860 763d
00000050: 7a9b 10be 9098 7bbe 9276 5ebd 51bb e5bd
00000060: e4e0 51be eb41 2c3e 376e 8bbd 0e98 8d3e
00000070: 8feb a1bd 3595 aebd 549e 2dbe 7671 31bd
00000080: 3bed fc3d fc20 a23d 7eda ed3e 92d1 cdbe
00000090: 3b90 05bd c363 7f3c 106b 2ebd d3d7 aabd
000000a0: 30a2 dd3c ab6f 45bd 6442 563e 44eb c93e
000000b0: b204 343d e41d 29bd 7bf3 5bbe 2a3c 99bc
000000c0: f16f 41be 9a5d 0bbe f67f 863d ad12 aebd
000000d0: de12 703c 16a4 a139 c1fd 153e 83cb 903e
000000e0: faf7 cabd 33ef b0bc 234d 383c 4fd3 173d
000000f0: 9bf2 d13d e439 423e a8d0 413e 538c c73d
00000100: 9833 1abd edbb 883d 2238 68bd 5810 52be
00000110: efb8 4cbd db4e e3bb 988d fcbc a8ef 2a3e
00000120: 01a0 dfbe d59d 233e 98d0 20bb 95a9 fbbd
00000130: fcd2 9dbe dfab 073e 0bd8 8ebc e2ad 8abc
00000140: 15c9 16be 064b 273e cd86 ecbc cfe0 c03d
00000150: 320e 73be 2212 ca3e d10f b33e 82cf 81bc
00000160: d647 91bc d9c6 dd3d 4f1e 3cbd 6c57 6d3d
00000170: ea49 9f3d 8169 ab3e f24a 14bd 31bd 52be
00000180: 2ba0 fc3d f9e7 673d 2340 4f3b 41a6 bd3d
00000190: a1eb 2e3d 8d98 2b3e df1e 603e 943c a63c
000001a0: 336c 203e db60 02be 0a95 82bd 0561 613d
000001b0: 1c0b b8be 1657 26bc 1aa9 15bf 905b 3ebe
000001c0: cdf5 a5bc 9f96 e13d c500 363c aaa2 2a3e
000001d0: 33ca 9aba 67bc 31bd 6d70 d5be 780e 5f3e
000001e0: b88d 37be 4901 49be e2f0 eb3e 768d 8bbd
000001f0: 6274 65bd 8a83 0f3b 8263 9cbd 7c9c e13c
00000200: 707e 54bc 21f7 28be 6e12 953c 4404 66ba
00000210: 02b5 17be a278 9c3e 10f5 903c f2a6 483e
00000220: 3c69 573e 0fb4 c0bd 5ebc 9e3e 22da f23d
00000230: 4c0c 783c 08e1 f1bd 6d50 fbbb 00f4 c2bd
00000240: 6d70 613e c655 87bd ad5f 6abd b2e4 e33d
00000250: 340d 2fbd aed8 dcbc ebb1 88be cc25 94bd
00000260: 9f19 813d 61aa d93d 036f 163d f4fc 3a3e
00000270: 0106 0c3f 7e30 d5bd ade3 df3c 999d 173c
00000280: 33da 74be c2bc 2cbe 8aae 963d 8a8d 883d
00000290: 2b69 00bf 828a b13b 8a5a cbbc 5c49 883e
000002a0: 597b 90be a37a 3dbc 7fec 003e 5919 a53d
000002b0: 3294 4e3e be51 5e3d 2bbc 29bc 5f96 1dbe
000002c0: f416 90bc 7e8e 2fbe 1920 10be 5e0d 2abc
000002d0: 7031 e7be 0714 51ba 590d 4ebe 429b 913e
000002e0: 9d78 9d3d 1103 06bb 53e1 8abc 32a5 d23d
000002f0: a0ec dd3c ad15 1d3e 9348 a13c 22ad aa3d
00000300: 4acf cdbd 4b9a 13bc 53d6 fe3d c62f 20bf
00000310: 1e4d 2fbd 0a49 fbbd 88e7 a53e f39d d1bc
00000320: 2e73 b93b e4a1 7ebe 9984 dcbd 8d6c 543e
00000330: 76ee 82be 15af 46be 2c7d 14bd e359 763d
00000340: 8df1 79bc a186 fcbd 51a9 1bbd 520a 0bbe
00000350: a1ea 903d d27b 6abe 87a6 443d 3e4a 15be
00000360: 50fa a9be 8ab0 073e 36d7 c5be c753 68bc
00000370: cddd 273e 6b52 c63e 57d4 bebd 0b16 b4bd
00000380: 6481 09be 973d 9bbe 4953 01bd b6eb 86bc
00000390: c78d f33d 8f1e a4be f6fe 06be d9c6 e6be
000003a0: af7f 663e 1d83 b5bd 3779 6dbe 2eec bbbc
000003b0: 2dbc 1bbd 5983 4fbe 26bf a8bb 90c2 953d
000003c0: e80c 6fbe c2b7 303e 96b0 2dbd 8472 b9bb
000003d0: cce2 7bbd d042 d8bd 58f1 d4bd 54c6 35be
000003e0: c41f 023e 2190 90be 5f5c 423e b545 82bc
000003f0: ed5c a43d dc94 b13d 7201 533e f7ec d93d
-0.20474373 0.17571202 0.15586923 0.25913718 -0.02575052 0.3320188 0.12379841 0.2440547
-0.10511674 -0.3572934 0.103500634 0.04196663 0.041911837 0.14836998 0.13852994 0.03026704
0.09368695 0.10269812 -0.13574494 0.060150295 -0.1412181 -0.24569917 -0.054312296 -0.112173684
-0.20495945 0.1682202 -0.06808131 0.2765507 -0.07906257 -0.08524553 -0.16954929 -0.043321095
0.123499356 0.079164475 0.4645576 -0.40198952 -0.032608252 0.01558775 -0.04258257 -0.083419465
0.027054876 -0.048202198 0.20923764 0.39437306 0.04394979 -0.04128827 -0.21479599 -0.018705446
-0.18890359 -0.13609925 0.06567375 -0.08499656 0.014652936 0.00030830567 0.1464758 0.28280267
-0.09910579 -0.021598434 0.01124886 0.037066754 0.102513514 0.18967396 0.18927252 0.097435616
-0.03764686 0.06676469 -0.056694157 -0.20514047 -0.049981054 -0.0069368905 -0.030829236 0.16692984
-0.4367676 0.15978177 -0.0024538394 -0.122882046 -0.3082503 0.13249157 -0.017437002 -0.016928617
-0.14725144 0.16337213 -0.028872872 0.09417879 -0.23735884 0.3946696 0.34973004 -0.015846018
-0.01773445 0.10828943 -0.045927342 0.0579447 0.0777777 0.3347893 -0.036204286 -0.20579983
0.12335237 0.05661771 0.0031623922 0.09260226 0.042705182 0.16757412 0.21886776 0.020292558
0.15666275 -0.1273226 -0.06376083 0.055024166 -0.35945976 -0.010152599 -0.58461154 -0.18589616
-0.020258809 0.11015057 0.011108582 0.16663614 -0.0011809528 -0.043392565 -0.41687337 0.21782863
-0.17925155 -0.19629396 0.46082217 -0.06814091 -0.056019194 0.0021898472 -0.07636167 0.027540438
-0.012969598 -0.16500522 0.018197265 -0.00087744393 -0.14815143 0.30560786 0.01769498 0.19594935
0.21036237 -0.094093435 0.31003088 0.11858012 0.015139651 -0.118104994 -0.0076694996 -0.095191956
0.22015543 -0.06608157 -0.05722015 0.111276045 -0.0427372 -0.02695879 -0.2669824 -0.07233772
0.06303715 0.106282 0.036726963 0.18260556 0.5469666 -0.1040964 0.027330244 0.009253883
-0.23911361 -0.1686888 0.073575094 0.066676214 -0.50160474 0.0054181227 -0.024823446 0.2661847
-0.28219107 -0.011564883 0.12590216 0.08061475 0.2017372 0.054277174 -0.010359804 -0.15389393
-0.01758907 -0.171442 -0.14074744 -0.010379164 -0.45154905 -0.00079757016 -0.20122279 0.28438765
0.07689021 -0.0020448605 -0.016953146 0.10285415 0.02709037 0.153403 0.019687926 0.08333804
-0.10049303 -0.009008954 0.12443223 -0.62572896 -0.042798154 -0.122697905 0.32403207 -0.025588011
0.0056594824 -0.24866444 -0.107674785 0.20744534 -0.25572556 -0.19402726 -0.036252186 0.060144316
-0.015255344 -0.12330366 -0.03800327 -0.13578156 0.07076002 -0.22898796 0.048010375 -0.14579102
-0.33198786 0.13250938 -0.38640755 -0.01418013 0.16393204 0.38734755 -0.09317844 -0.08793267
-0.13428265 -0.30320427 -0.031573568 -0.016469818 0.11892276 -0.32054564 -0.13183197 -0.45073584
0.22509645 -0.088628985 -0.23190771 -0.022939768 -0.038021255 -0.20264949 -0.00514974 0.073125005
-0.23344767 0.17257598 -0.042404734 -0.0056594033 -0.061495587 -0.105596185 -0.10397595 -0.17751437
0.1270743 -0.28234962 0.1898055 -0.01590238 0.08025537 0.08670971 0.2060602 0.106409006

network_body._body_endoder.seq_layers.0.bias f4 [256]
00000000: ed45 523d 01b9 9cbd 8aa6 80bd c221 9cbd
00000010: 4586 573d 288e 0ebd 74cb df3d 86b2 ea3c
00000020: a6cd 0f3c ff98 a33d 5ec4 153d b83d 8d3d
00000030: 9200 6d3d f3c3 2abd f134 35be c9da 473d
00000040: a877 0fbb 75d5 993c 0e0a 8d3d 8e00 9d3c
00000050: 629b a93d 9dbb b63d b158 aeba 8935 85bb
00000060: 36f2 503c 3fb6 523d c029 5a3d 3984 f9bd
00000070: 535d b53d b7b6 0dbd b7be 0d3d d61b 2e3d
00000080: 2d1c ba3d 5250 f03d 641c 273d b279 cdbd
00000090: f9b4 fe3c e245 5c3d a3f6 363b 51c8 0c3e
000000a0: b985 18bd 3397 cb3c b9d2 c83b 42cc c33c
000000b0: f877 443d 2b4a ab3d 0beb f23c 763f 98bc
000000c0: 070e 693d 3398 47bd 36f3 bd3d c824 5dbd
000000d0: 596e 033b c63e adbd 841e de3c f641 bc3d
000000e0: 39c2 e33d fbd9 843d fa9a c03d d09b 58bd
000000f0: b201 c2ba bbb2 a03d d14d 0fbe 8b18 ac3d
00000100: 782d 453d 56a6 853d c4f0 e33d 84ef c73c
00000110: c415 4dbc 9535 86bd 2b12 513c 5cf3 22bc
00000120: fcbd e4bc 687f 06bd f90a 803b 01e6 57bb
00000130: 40ad 1cbd 185c 513d f5f4 873d fe4b 9dbd
00000140: 4691 a93d cdbc 053d 2272 1d3c 96dd 8d3d
00000150: 035d 913d 3021 d9bd f3b2 06bd 0654 c43d
00000160: bcbf 82bc 0918 883d 14c3 cc3d 9532 b1bd
00000170: fee8 cd3d 5bb6 d33b 50eb b83d 4bb3 be3c
00000180: e632 bb3d a05f 25bd 2f58 a23c 68d3 8c3d
00000190: ccfd 133d 5304 a53d 2ff5 f13a 5356 8fbd
000001a0: 93b8 ba3d 6900 6ebd f12c 403c 858a bb3d
000001b0: e4fe 48bb 4b5e 143e 7183 b8bb 7b65 ce3c
000001c0: f670 a83d 9043 bd3d f99e bbbd 41c0 e93c
000001d0: e86d 9c3c 1794 0d3c d220 243d 24b0 de3d
000001e0: 6321 323d 98ab 783d 8608 0d3c 5bcc 8dbb
000001f0: 3943 d13c 9f6d 5fbb 4825 eebd 3e60 b7bc
00000200: 6821 a53d 95e4 4e3b 60d1 1bbc c787 20bc
00000210: c141 dbbc 2c82 543c 98c5 adbd f938 0bbd
00000220: 9726 2dbc f0f7 25bc 70c7 18be 2f77 bbbd
00000230: a5c7 053e fd19 b9bc fc5e 3fbb 862e ee3d
00000240: 8b1f 363d db6e 6dbd 3214 99bc d103 1fbd
00000250: 5ee4 4abe 4bda a23d 194c 803d 5bc2 323d
00000260: d84e 86bc 7628 14bc c31c 563d 2a27 b3bb
00000270: 3b14 093e d6f8 a33d 8928 a73d 0565 263b
00000280: fc6f 5a3d 9d2d 44bc 0601 123d 50f9 80bd
00000290: 1081 003e 98e0 ea3d f48b d63c 330c a23d
000002a0: 0ddd 893d a99c 50bc f49a 553d 095c 45bd
000002b0: 56ca 1abd 355b cb3c a70c c93d 91b0 d6bc
000002c0: ad21 613d 111f b73d fc10 143d 6992 c43c
000002d0: 49a0 fc3c 7b81 b23b 1275 43bc 65d1 8e3d
000002e0: 4e3c e53d 88c0 96bc 2333 45be a11f e2bc
000002f0: 2174 143e 8d3f 15bd 42b7 943d baca 413b
00000300: 2053 6a3d a8b7 773d 11c5 6e3c 5a7d a73d
00000310: 6796 c63d 1caa 1b3e 5947 bc3d 2a1e 763b
00000320: 02ea a6bd f9ed a13d 34f1 f93c 5e9b 513d
00000330: 15dc 963c b853 d93d a57d 9dbd 2df4 0d3d
00000340: dece ad3d 2593 49bd 07a9 09ba 9070 633d
00000350: c2ff 103e 3c68 083e e6d1 c83d 7d21 103d
00000360: c763 3bbd aefc 3cbd 7e62 81bc f3eb e53d
00000370: 51f7 5fbc 96fe a93c 5729 89bc bae8 e83c
00000380: 3974 5d3d 7371 afbb 5f1b 21bb 70ac 2c3c
00000390: 3a24 5a3d 85a1 933d 888b 083c f1d1 acbb
000003a0: cd2f 8bbd 5ef0 573d becd a73d 47de 863d
000003b0: 1422 473d faef f93c 5266 0b3d b695 e93a
000003c0: 51d7 2bbd a0e2 7c3c 2317 903d 0a79 9abc
000003d0: 3579 eeb9 e90a 4f3d 74ad 23bc f779 64bd
000003e0: 10ae 0f3d b05f 76bd f8cf f03d 335c 8f3d
000003f0: 67ec 2cbd 8007 15bd 2539 b03d f212 113d
0.051336218 -0.07652474 -0.06281765 -0.07623626 0.052618284 -0.03480354 0.109274775 0.02864958
0.008777058 0.07988166 0.036564223 0.068965375 0.057861872 -0.041690778 -0.17695977 0.048792634
-0.002189139 0.018778542 0.068866834 0.019165304 0.0828159 0.08922503 -0.0013301579 -0.00406522
0.01275306 0.051443335 0.053262472 -0.121834226 0.08855691 -0.03459808 0.034605708 0.042507015
0.09087405 0.1173407 0.04079856 -0.10032977 0.031092154 0.053777583 0.0027918003 0.1374829
-0.037236903 0.02485237 0.0061286357 0.023901109 0.047965974 0.08363756 0.029653093 -0.018584948
0.056898143 -0.048729133 0.092749044 -0.053990155 0.0020054786 -0.08459239 0.02711416 0.091922686
0.111210294 0.06486889 0.094045594 -0.05288297 -0.0014801531 0.0784659 -0.13994528 0.08403119
0.048139066 0.06525867 0.11129907 0.024406202 -0.012517396 -0.06553189 0.012760679 -0.009945717
-0.027922623 -0.032836348 0.003907558 -0.003294349 -0.03825116 0.051113218 0.06638519 -0.0768051
0.08279662 0.032650758 0.009609731 0.0692703 0.07097819 -0.10602033 -0.032885503 0.09586339
-0.015960567 0.06645209 0.09998146 -0.08652226 0.10054205 0.0064609475 0.09029257 0.023278853
0.091405675 -0.0403744 0.01981744 0.0687626 0.03613071 0.080574654 0.0018459911 -0.06998887
0.09117236 -0.05810586 0.011729465 0.0915728 -0.0030669505 0.14489095 -0.0056309034 0.025194874
0.082246706 0.09241402 -0.09161181 0.028534057 0.019095376 0.008641264 0.040070362 0.1087344
0.04348887 0.06071052 0.008607989 -0.0043273396 0.02554475 -0.003409244 -0.116282046 -0.022384759
0.08063012 0.003156935 -0.009510368 -0.009797997 -0.026764752 0.0129704885 -0.08484954 -0.03398988
-0.010568283 -0.010129914 -0.1491983 -0.09153592 0.1306444 -0.0225954 -0.0029200902 0.116299674
0.044463675 -0.05796705 -0.018686388 -0.038822 -0.19813678 0.07951792 0.062645145 0.043642383
-0.016395018 -0.00904285 0.052273523 -0.005467315 0.13386624 0.08006446 0.08162028 0.0025389802
0.053329453 -0.011973766 0.035645507 -0.062975526 0.12549233 0.11468619 0.026189782 0.07912483
0.06731615 -0.012732663 0.052149728 -0.048183475 -0.03779062 0.024823764 0.09816866 -0.02620724
0.054963756 0.08941472 0.03614901 0.023995595 0.030838149 0.005447564 -0.011929767 0.069735326
0.11193143 -0.018402353 -0.19257788 -0.027602972 0.14497425 -0.03643756 0.07261516 0.0029570297
0.05720818 0.060477883 0.0145733515 0.08178206 0.09696656 0.1520161 0.09193296 0.00375546
-0.08150102 0.07906718 0.030510522 0.05117356 0.01841549 0.10611671 -0.076899804 0.034656692
0.084867224 -0.049212594 -0.0005251322 0.05552727 0.14160064 0.13321012 0.0980566 0.035188187
-0.045749452 -0.04613941 -0.015794035 0.11226644 -0.013669805 0.020751279 -0.016743345 0.028431285
0.054065917 -0.0053541004 -0.0024582965 0.010539159 0.053257205 0.07208542 0.008334048 -0.0052740504
-0.06796227 0.052719466 0.08193539 0.06585365 0.048616484 0.030509938 0.034033127 0.0017821107
-0.04195339 0.015434891 0.07035663 -0.018856544 -0.00045485204 0.050547514 -0.009990085 -0.055780377
0.03507811 -0.06014985 0.11758417 0.070000075 -0.04221764 -0.036384106 0.086046495 0.03541846

network_body._body_endoder.seq_layers.2.weight f4 [256, 256]
00000000: 40b6 0ebd 7e56 b3bd 9ce1 b43c a1dc 75bd
00000010: d340 cbbc 2088 373e 7512 8a3d 8bd5 8abe
00000020: c9dd aebd df03 233d e65a 4abe 7ffd 2cbe
00000030: f197 1c3e 9a80 29be 05bb 24be bdad 0ebe
00000040: 5505 2bbd f821 4d3d 7059 3bbe 111e 113e
00000050: b77c c83e d3e8 53bd 4fd0 e03d 04b5 36bd
00000060: c901 dd3a 319b 15be e6d1 64bc 8129 82be
00000070: faa6 c1bd e33c f13c f9de 463e 91cc cebd
00000080: 21a4 5d3e 4d38 6d3e bd27 d9bd 1274 adbd
00000090: d282 ca3e dc94 293e f483 2a3e 1e6d 563c
000000a0: fdfc dabc e794 29be f0eb 5bbd aa62 4d3d
000000b0: 8e42 e0bb e3de a13d 5bd3 523e b0bd 45bc
000000c0: 1688 803a be94 d7bd 4f0e 723e ccae 59bd
000000d0: 76f9 57be 2e84 493e e269 98bd 0655 fc3d
000000e0: ced0 23be 17fc e6bc 7049 583e 6c66 f2bd
000000f0: 5f1e d5bd bfed de3c ea90 dfbd c164 23be
00000100: f5dd 89be 43b7 ddbd 7bf8 a23e a379 05bd
00000110: e879 9dbd e8f2 74be a0be 653d aa39 f9bd
00000120: 30f2 5d3e b96d c6be 5e61 503d 61d3 2dbe
00000130: 2de0 4bbe 28e7 59be fe08 3abd fc20 733d
00000140: 0298 8b3d 7085 28bc ee5b 51bd 6567 83bd
00000150: f2bf 2abd b22d 09bd 220c febc 30e9 a3bd
00000160: 4b7c bdbd c402 e5bb d14e 0d3e 9dea 01bd
00000170: 9ab6 843d 8d97 03bd ceef 8ebd bd3f 34be
00000180: 486b 533e 0d51 d2bd b5aa 7abd 0686 0bbd
00000190: 5f02 673d dec3 2b3e d74a ac3c 73e8 0abe
000001a0: 7c8b babd 268d d4bd 3718 673c 7f5f 803d
000001b0: d46f c5bc d01f 033e 981c 35be 9832 703e
000001c0: 12e8 073e f457 c7bc 5419 81be 9222 313d
000001d0: 9ad0 00be a7f3 f4bd 3e5e 08bd cd19 d43b
000001e0: 77aa e6bd c635 51bd e2a7 fabd f443 a1bd
000001f0: c3e0 e7bd f521 59bd 4a39 2cbe fbec e1bd
00000200: 0a95 9b3d baf3 04be fbd5 433e 711f 22be
00000210: b9af 00bc 9c08 c1bc 4585 8fbd 8230 c9bd
00000220: 0c5b 333d 4a53 fdbd 2e56 3cbd fd37 f839
00000230: 6a18 e93d 4b1d b0be abde 17be d7f6 aa3d
00000240: 6745 a0bd bbf9 0bbe b046 2a3b 6c45 28ba
00000250: 2844 0cbe c908 af3d 27ea 18be d3cd 36be
00000260: fa94 aabe 85c0 61be 22db d8bc 3d54 983d
00000270: 5aa8 083d 6b03 833e 5117 ae3d 0129 ffbd
00000280: 8fef eb3c 369d b23c ad55 a43d ea28 29be
00000290: b513 d03d b21f 463c c7fa 8e3d c614 1cbd
000002a0: 4ff1 d7bd 626d cabb 0b53 ec3c 2fab 5abd
000002b0: 55d4 37be 6bfb 003e 3a98 c5bd 6839 2abe
000002c0: aa51 2bbc bb90 7a3e b3a5 da3d dafe 9e3e
000002d0: e86b e7bc a0ad 553c 6440 ff3a c853 103d
000002e0: abcf f2bd 0bca 03be e267 23bd 4fef a53d
000002f0: a706 893e d59a 9c3b f9b5 3e3d 09ad a9be
00000300: 7cce 333e ac55 2c3d d00b 99be 4b1d 5f3d
00000310: cb3c d6bd 369b 953e eed2 ae3d 2653 8f3d
00000320: 63fd f7bd 2bed 123e e91a 3dbe 71fe 233e
00000330: aa9e 623d c3c8 29bc e700 fa3d f340 29be
00000340: bdc3 283e 7d47 15be 1e8c 7dbe 583f 08bd
00000350: 815f 213e 42ee 5a3e f395 67be 8acb d7bd
00000360: 2c2f 60be aedc 22bd 2e78 b13c 5b28 14bd
00000370: ec87 efbd da54 5b3c 75b6 9bbe d902 3d3e
00000380: b018 013c 2b19 c1bd 3406 3dbd dccd 76bd
00000390: 3a1c c6bd 5bd8 843e 126f 0abe f14e 483d
000003a0: 563d 87be 546c ccbd ebe5 393e ae2a 7abd
000003b0: 4fd7 ccbc cc56 cebd 5bba fe3d 1050 26be
000003c0: f3f7 4ebe 8eae 0fbd 77a4 613e 41b4 3bbe
000003d0: b007 debb 60b6 b33d 3a06 21be ca39 eabd
000003e0: 885b 8f3d 5b60 07be 0b0f 8cbd dba7 763e
000003f0: e44d 493c 4ff2 10be f9f1 dbbc 77a3 3dbd
-0.034841776 -0.087567315 0.022080235 -0.06002486 -0.024811184 0.17923021 0.06741802 -0.27116045
-0.08538396 0.039798614 -0.19761238 -0.16893576 0.15292336 -0.16552964 -0.16086967 -0.13933463
-0.041753132 0.050081223 -0.18295836 0.14171626 0.3915765 -0.05173571 0.10977232 -0.044606224
0.0016861494 -0.14609982 -0.013966059 -0.2542229 -0.094556764 0.029447978 0.19420995 -0.10097612
0.21644641 0.23166008 -0.106032826 -0.08469404 0.39552933 0.16560692 0.16651899 0.013087539
-0.026731962 -0.16560708 -0.053691804 0.05014292 -0.0068438714 0.079038404 0.20588438 -0.012069151
0.0009806182 -0.10526417 0.23638271 -0.053145215 -0.21091256 0.19679329 -0.074420705 0.123209044
-0.15997621 -0.028196378 0.21121764 -0.11835942 -0.104061835 0.027212976 -0.10916312 -0.15956403
-0.26927152 -0.1082597 0.318302 -0.032586705 -0.076892674 -0.23920786 0.056089997 -0.12169202
0.21674418 -0.38755587 0.050874107 -0.16975166 -0.19909735 -0.21279585 -0.045418732 0.05935763
0.068161026 -0.01028572 -0.05111306 -0.06416205 -0.04168696 -0.033490844 -0.031011645 -0.08003461
-0.092522226 -0.006988855 0.13799597 -0.031717885 0.06480141 -0.032126952 -0.06979333 -0.17602439
0.20646393 -0.102693655 -0.061197955 -0.03406336 0.056398746 0.16773936 0.02103178 -0.13565235
-0.09108636 -0.103784844 0.014104894 0.062682144 -0.024101175 0.12805104 -0.17686689 0.234568
0.13272122 -0.024333932 -0.25214636 0.04324586 -0.12579575 -0.119605355 -0.033293 0.0064728023
-0.11262982 -0.051076673 -0.12239052 -0.07874289 -0.11322167 -0.0530109 -0.16818729 -0.110315286
0.07596786 -0.129836 0.19124596 -0.15832306 -0.007854396 -0.023563676 -0.07007841 -0.09823705
0.043788 -0.12369402 -0.045980625 0.0004734396 0.1138161 -0.3439735 -0.14831035 0.08347862
-0.078257374 -0.13669483 0.0025982074 -0.0006419036 -0.13697875 0.085465975 -0.14933072 -0.17851953
-0.33316785 -0.22046097 -0.026471678 0.07437942 0.033363678 0.25588545 0.08500541 -0.12458993
0.028800754 0.02180348 0.08024154 -0.16519514 0.10160009 0.012092518 0.06981426 -0.03810575
-0.10544073 -0.00617759 0.028848192 -0.05338591 -0.17952092 0.12595908 -0.096481755 -0.16623461
-0.010456482 0.24469273 0.10676136 0.3105381 -0.028249696 0.013041884 0.0019474146 0.03523615
-0.11856016 -0.12870042 -0.039893992 0.08102285 0.26762888 0.0047791996 0.04656026 -0.33139828
0.17559236 0.04207389 -0.29891825 0.054471295 -0.10460814 0.2921998 0.085363254 0.06998281
-0.121088766 0.14348285 -0.18467297 0.1601503 0.055327095 -0.010362807 0.12207203 -0.16528682
0.16480918 -0.14578052 -0.24760482 -0.033263534 0.15759088 0.2137995 -0.22615795 -0.10536869
-0.21892995 -0.039761238 0.021663751 -0.0361713 -0.11695847 0.013386929 -0.3041264 0.18458118
0.007879421 -0.094286285 -0.046148494 -0.060254917 -0.096733525 0.25946316 -0.13518932 0.04890341
-0.26413983 -0.099815995 0.18154113 -0.06107586 -0.02500501 -0.10075149 0.12437888 -0.16241479
-0.20211773 -0.035078578 0.22035395 -0.1833048 -0.0067758188 0.0877502 -0.15725031 -0.11436804
0.0699988 -0.1322035 -0.06838807 0.2408747 0.012286637 -0.14154933 -0.02684878 -0.04629847

network_body._body_endoder.seq_layers.2.bias f4 [256]
00000000: 637b ac3d a81a 883c 38be 0cbd ed16 a43c
00000010: e549 5abd 67ef 4a3c 236e ea3d a97c be3d
00000020: cd03 80bd fc97 293d 3ae9 d83c 026c da3d
00000030: fc29 5ebd 6816 7f3c f74e 7c3c 667f 553d
00000040: 941b dbbc 4d69 27bd 95f3 fd3c dcaf 513b
00000050: 920a 9cbc 0f9f 753c 53b2 1abc bb9b babc
00000060: 9e4e f93b 035b b13d a5fd 683c e023 aa3c
00000070: 9c16 a53d f5d6 19bc a83c 893d 8452 2fbd
00000080: cba0 efbc 39ee bb3d cd70 ff3c 2859 e53b
00000090: 1544 573a 35af 053b 9720 983d f6b7 91bc
000000a0: fb21 2dbd 110e 9bbd c8df 5e3b b105 8dbd
000000b0: e14d 133e 0f21 85bb c09a a73c 3f3d c13d
000000c0: f2ae eb3d 101c 05bd ac7c 0a3e 4916 343d
000000d0: e667 2ebd e7fe b23b 1be1 0a3e 9dfd 1abd
000000e0: 642f 303d 6606 54ba 401d 70bc 5280 9cbd
000000f0: 7d8d 2e3d 0c7a 9f3d f3df 5f3b 95ed b63c
00000100: e8cd 93bc 4109 6e3c b265 c33d 335f 203c
00000110: c6fe 23bd 7e0e 2c3e 1b5c 2fbd 42b7 0a3e
00000120: ee84 033d 2038 963d 67ef e4ba e4b6 413c
00000130: 86f0 783d 2069 713b 619f 8e3b c869 1cb9
00000140: 7b8b 213c 08c8 3e3d 5a9e bf3d 6809 02bd
00000150: a276 163d 7d6c 813d 587d 683c ebff e5bd
00000160: 808c 9db9 0b42 373e 3550 c23c f9d2 6dbd
00000170: 6ee0 6bbc bb8d 303e 86f4 773d 8859 483b
00000180: bc9d 75bc 57c3 6f3d 9df3 d63d c83c 023d
00000190: 528e 233c 18c0 8d3c 4d9c 75bd 087b 7e39
000001a0: f29a d93d cdc3 55bb c29e 6cbc bb23 bc3d
000001b0: 115e af3d c400 3fbc 083c 743d 6800 cf3c
000001c0: 43d9 4e3d 1380 1c3e 8cae ed3c 016a 283d
000001d0: dd04 fd3d cbc4 643d ecc4 ad3c fd0e 26bc
000001e0: f22d 8c3c f6c1 003c 960b 00bc 4aad fc3c
000001f0: d1b5 a83a dfcb 373d f760 63bc 2372 b8bd
00000200: 2488 e4bc e3e5 73bd b1d7 83bd 4471 5c3b
00000210: 9d24 2fbd 9cb4 4b3c 42b8 4e3d 6806 74bc
00000220: 1475 fc3b b907 823c c4df 8c3d 86b5 3ebd
00000230: 2fb6 043e b659 6e3b 9850 d1bc 60a2 903d
00000240: 8b6b a53d eef8 983d 7683 6bbc 96be 2e3d
00000250: f85c aa3c 60c3 d13d b41d c3bc aec9 1b3d
00000260: e7aa e53d d4f0 683c 17a7 c73d 2ecb 55bd
00000270: 2975 bc3d 6fd4 873d 8a31 8b3c d795 d1bc
00000280: c86b a13d 043c 96bd 197c 86bd fe31 983d
00000290: 6462 ab3c d9d0 48bc c45f 663d 3a4d 083e
000002a0: 8379 8c3d a492 023d 1466 2a3d 9233 10bd
000002b0: 2eb3 193d f276 6abd a046 8c3d 0f83 543d
000002c0: de18 3a3d 2ba1 353c c51e 7e3d 863b a63d
000002d0: d0b9 c83d 9d0e 4b3c e423 6a3d 0638 3bbc
000002e0: 6959 80bd 10f4 94bb e950 e13d 5720 0fb9
000002f0: e4e7 f6bc 53aa 86bd 8009 063e 0816 d33d
00000300: 9bfb d03d 35e2 e8bc 1cb6 31bd 61b4 33bd
00000310: 10ee 8b3c 05a3 0d3e 7cb9 0ebd 14aa cfbc
00000320: b23f a13c 5301 2bbd 32c2 90bb 8605 d73d
00000330: 4f03 243d 7b05 1d3d 0d15 563c 6fe4 24bd
00000340: b562 7abd c4d6 d93c 217c f839 8601 8b3c
00000350: dc5f 253e a989 9cbd 66a3 253d 99ef a2bc
00000360: 8239 d03d d3de 923c db83 80bd e7bf 4db9
00000370: 7ccd 0bbd 039f c4bc 1762 9b3d e2f7 853c
00000380: b533 2abc 4683 393d dfaa 29bb 1f9a 9a3d
00000390: 9261 d4bb 6f41 e53c dfa5 ecbd 24e5 cd3c
000003a0: 9bfb c53d f236 23bd a2e1 75bc 3226 cd3d
000003b0: 113c f4bc dbd3 333d 6be2 25ba 9510 aa3d
000003c0: 0cc2 fd3b 3541 703d cad8 1a3c 7b67 c3bb
000003d0: decd 853d 8a33 05bd a072 6e3d bebd ffbc
000003e0: 93ef 183e c59d 433d 43f9 82bd fb03 e93d
000003f0: f569 f33d 1c4c f23c 33d6 1bbc 8453 d1bc
0.08421972 0.016614273 -0.034361094 0.020030463 -0.053293128 0.0123861795 0.11446788 0.09301121
-0.06250725 0.04140471 0.026478399 0.10665132 -0.05423926 0.015569307 0.015399686 0.05212345
-0.026746549 -0.040871907 0.030999938 0.003199569 -0.019048009 0.014991536 -0.00944193 -0.022779336
0.007608249 0.08659937 0.01422063 0.02076906 0.08060953 -0.009389629 0.067010224 -0.042803302
-0.029251477 0.09176297 0.031181717 0.0069991536 0.0008211744 0.002039862 0.07428091 -0.017787915
-0.042268734 -0.07571042 0.0034007896 -0.06885851 0.14385177 -0.004062779 0.020459533 0.0943551
0.115079775 -0.032497466 0.13524121 0.043966565 -0.042579554 0.0054625156 0.13562433 -0.03783952
0.043013945 -0.00080881116 -0.014655411 -0.07641663 0.042615402 0.077869505 0.0034160584 0.022330085
-0.01804252 0.0145285735 0.09540881 0.009788322 -0.040037893 0.16802403 -0.042812448 0.1354647
0.032109194 0.07334924 -0.0017466367 0.01182339 0.060776256 0.003683634 0.0043524955 -0.00014916726
0.009859915 0.046577483 0.09356375 -0.03174725 0.03673423 0.063195206 0.0141900405 -0.11230453
-0.00030050054 0.17896287 0.023719886 -0.058062527 -0.01439677 0.17241566 0.06053593 0.0030570943
-0.01499122 0.0585359 0.10495684 0.031796247 0.009982662 0.017303512 -0.059963513 0.0002426916
0.106252566 -0.0032617927 -0.014442148 0.091865025 0.085628636 -0.011657897 0.059627563 0.025268748
0.050500166 0.15283231 0.029013894 0.04111672 0.12354443 0.05585174 0.021212064 -0.010135409
0.017111752 0.007858744 -0.007815262 0.03084435 0.0012871568 0.04487216 -0.013878099 -0.09006145
-0.027896948 -0.05954541 -0.06437624 0.0033636848 -0.042759527 0.012433197 0.05046869 -0.0148941055
0.0077043865 0.015872823 0.068786174 -0.046559833 0.12960123 0.003636939 -0.025551125 0.070622206
0.08077153 0.074693546 -0.014374604 0.042662226 0.020796284 0.10242343 -0.023817874 0.038034134
0.11214238 0.014217574 0.09748667 -0.05219572 0.09202034 0.06632315 0.016991396 -0.025584145
0.07881886 -0.07335666 -0.065666385 0.0743141 0.02092094 -0.012256824 0.056243673 0.1331071
0.06859114 0.03187813 0.041601256 -0.03520543 0.037524395 -0.05724234 0.06849408 0.0518828
0.04543387 0.011085789 0.062041063 0.08116822 0.09801066 0.012393621 0.057163134 -0.011426931
-0.06267054 -0.004545696 0.110017605 -0.0001364959 -0.030139871 -0.065754555 0.13089561 0.103069365
0.1020424 -0.028428176 -0.043386564 -0.043873195 0.01708129 0.13831718 -0.03484486 -0.025349654
0.019683693 -0.04174931 -0.004417681 0.104991004 0.040042218 0.038335305 0.013066542 -0.040256914
-0.06112929 0.026591666 0.0004739473 0.0169685 0.16149849 -0.07643444 0.040439032 -0.01988964
0.10167219 0.017928516 -0.062751494 -0.00019621813 -0.034131512 -0.024001604 0.075870685 0.016353551
-0.0103883045 0.045291208 -0.00258892 0.075489275 -0.006481358 0.027985303 -0.11555075 0.025133677
0.096671306 -0.03984732 -0.015007408 0.10017051 -0.029813798 0.043903213 -0.00063279894 0.08303944
0.0077440795 0.058655936 0.009451101 -0.0059632636 0.06533407 -0.032519855 0.058214784 -0.031218406
0.1493514 0.047757883 -0.06395199 0.11377712 0.11885444 0.029577307 -0.009511518 -0.025552519

action_model._discrete_distribution.branches.0.weight f4 [7, 256]
00000000: cef8 8cbe 3968 9c3d 7de6 b6bc a49e e13c
00000010: b494 2fbe 1137 a6bb 08ea 95be a4e2 83be
00000020: c016 1fbc 9a1d 42bd ed1b adbc ce47 5abe
00000030: 51e2 9d3d 1cd3 9abd 6e2e 06be 2111 1ebd
00000040: 12a4 65bd 0dda 7fbd 4831 7ebd e7d7 2dbe
00000050: 9806 993d 5bb1 2ebe 0bc1 75bd ff96 46bd
00000060: 6e59 6ebe 4da1 47bd b6c1 a43d cc3e 27bd
00000070: 98c9 053c d8a0 14bc 8d75 a4bd cd7b 9e3d
00000080: 236c 45bc e979 04be 9ac1 ffbd 0787 03bd
00000090: c89d 7e3d 9c1e d6bd e48b 7bbd 4d6c 02be
000000a0: 5b54 7b3d be35 30bd d565 3bbe f0c7 debd
000000b0: 147e adbe db36 c23b 4160 c9bd 86b1 69be
000000c0: c92d b4be 9aac 0cbe a30b 4abe 4420 81be
000000d0: 0982 b33d de7d 8cbd 53a6 35bd 1307 d2bd
000000e0: d688 2dbe 1065 80bd ed45 b5bd b9ba b83d
000000f0: a1ac f63d c28d 7fbe ee72 703d 191b 25be
00000100: 1b74 15be c2ac 31be 3dbd 9bbe a3c4 b3bd
00000110: bd6b 8b3d a05e 90be 4c3f 933d cbe5 02be
00000120: 3f80 1c3e 2c9e 2bbe fb1b 53bd 5be1 cbbd
00000130: 4a8c 5abe f28c 443e 9138 7d3c 8211 c33c
00000140: 1ae9 5bbd 6e81 b43d 3379 9bbe 5ab9 223e
00000150: 7165 abba 7b92 a5bd f8e5 6abd 36a8 ed3d
00000160: 1d2b 5bbe e1be afbd 6ab7 26bd 5f35 aabd
00000170: 56ba 07be 3f21 25be 6fb4 133e 2cc8 a1bc
00000180: 83e9 e1bc f721 4abe 6d95 bfbe 6b35 24be
00000190: a33c f6bd f75b 6fbd 9cf5 b13a 4589 b2bd
000001a0: 0cfd 7ebe 2919 bebc 7361 833d ef35 69be
000001b0: 63a9 6dbe ac86 e9bd ab7c a0bd 3658 45be
000001c0: e3b4 dbbc fe5a 74be 7e44 09be c4cc 4fbe
000001d0: 49c6 81be a0b1 04be 7c10 c23c d42d a9bd
000001e0: 86b9 a3be 09ba f7bd fcfa c2bd 631c b2bd
000001f0: 00fa df3c 99ec 65bd dc59 0abe 36dc adbb
00000200: c027 73bc 6aab 2cbe c429 783d 98c9 41ba
00000210: c6f0 653d e709 8dbd 963a 28bd 14be 0bbd
00000220: 42c0 f4bd f054 2f3d 5d87 853b 529f ccbd
00000230: 73d4 21be d933 4cbe 2c12 83bd 47db 6fbe
00000240: 3fb4 18bd a7dd 31bd d277 6e3d e273 ffbd
00000250: fe51 f4bc 2c12 bfbd 0a12 683d 3a8c 16be
00000260: c710 2abe d0df 10be 5c55 3abe 8f60 a8bd
00000270: c157 75bd e93d 06be 85fd 143d 947b b2bd
00000280: d93e d2bc 34ac 733d 0b0b 3d3d b007 45be
00000290: 25e1 52be 4bd3 a23d f50e eebd a1e7 5dbe
000002a0: 590d 19bd f01e 59bd 10d6 84bd 6e4f d8bd
000002b0: a50c 26bd 088f 29be d559 b0bd a86b a4bd
000002c0: feae b7bd 89d8 54bd fed2 54be 4b9a 55be
000002d0: 854e 45bd 0636 a2bd bf5c 8fbe e9c9 62be
000002e0: 707c a4bd 8a3b a0bd 9b2b b2be 29a4 0ebe
000002f0: 008f f3bd 0cd2 82bd d2b8 fdbd 84bc 85be
00000300: 7972 89be 8838 8a3b 1949 eabc 7ddb f5bc
00000310: 2255 69bd dc97 d8bd 69f3 f33c 27e4 8cbd
00000320: 8969 e7bd c747 413d 5ced bcbc 41d1 5abe
00000330: b15a 7abe 4790 77be 9cfa 85bd 93d9 b4bd
00000340: ada4 0a3d c923 6dbe 79cd edbc c137 7a3d
00000350: 51c2 89be ed53 a63e c797 78be 7d54 c13d
00000360: 2820 8fbd b5c0 3dbe 0c27 343d fed1 bbbd
00000370: 774f 0cbe c8be adbd 646e dcbd 21cd 3abd
00000380: 9aa9 26bd 5fb7 58bd 4209 85bd 44c6 2dbd
00000390: 792c 39be f3bf 9abe b231 20bc fff0 be3c
000003a0: b260 103e cd48 673d c7f8 ab3d 40b5 17be
000003b0: 59d0 033d 1236 59be ae96 633c 4541 d2bd
000003c0: 7b58 ce3d 036e 5fbe 4c34 df3d 98ab 7dbd
000003d0: 0a74 003d 310a 88bd e0f2 3ebe 3fb4 b03d
000003e0: ba9d 823e 12c8 e2bd d057 0f3e 2a59 66be
000003f0: 8528 92be d4f8 4cbe 0768 9dbc bb50 66bd
-0.27533573 0.076370664 -0.022326702 0.027541466 -0.1714657 -0.0050724824 -0.29280114 -0.2575885
-0.009710014 -0.04739151 -0.02113148 -0.21316454 0.07709182 -0.07559797 -0.13103649 -0.038590554
-0.056064673 -0.06246381 -0.062058717 -0.16976891 0.07471961 -0.17059843 -0.059998553 -0.048483845
-0.23276302 -0.048737813 0.0804476 -0.040831372 0.0081657395 -0.009071551 -0.080302335 0.07738457
-0.012049708 -0.1293713 -0.124880984 -0.032111194 0.06216219 -0.10455057 -0.061412707 -0.12736626
0.061359745 -0.043020003 -0.18300565 -0.10877979 -0.33885252 0.0059269494 -0.09832812 -0.22821626
-0.3519118 -0.13737717 -0.19731002 -0.2521993 0.087650366 -0.06859945 -0.044348072 -0.102552556
-0.1694673 -0.06269276 -0.08851228 0.090199895 0.12044645 -0.2495642 0.058703355 -0.16123618
-0.14595072 -0.17351058 -0.30417815 -0.0877774 0.06807659 -0.28197193 0.07189807 -0.12782972
0.15283297 -0.16759557 -0.051540356 -0.099550925 -0.21342579 0.19194391 0.015455381 0.02381206
-0.0536891 0.08813749 -0.30365905 0.15891019 -0.0013076497 -0.080845796 -0.05734822 0.11604349
-0.21403165 -0.08581329 -0.04070226 -0.08310961 -0.13254675 -0.16125964 0.14424299 -0.01974877
-0.027577167 -0.19739519 -0.3741869 -0.16036002 -0.12023284 -0.058437314 0.0013577226 -0.08717588
-0.24901217 -0.023205357 0.06415071 -0.2277448 -0.23209147 -0.1140264 -0.078362785 -0.19271931
-0.026819652 -0.23862836 -0.13405034 -0.20292956 -0.25346592 -0.12958384 0.023689501 -0.08260694
-0.3197748 -0.1209603 -0.09520528 -0.086968206 0.027340889 -0.05613384 -0.13510841 -0.005305792
-0.01484102 -0.16862264 0.060586706 -0.00073924055 0.056137823 -0.06886654 -0.041071497 -0.03411682
-0.11950733 0.042805612 0.0040749745 -0.099913254 -0.15803699 -0.19941653 -0.063999504 -0.23423491
-0.03728127 -0.043424275 0.05821974 -0.12473275 -0.029824253 -0.09329638 0.05665783 -0.1470193
-0.16607963 -0.14147878 -0.18196625 -0.08221542 -0.05989814 -0.13109554 0.036374588 -0.08714977
-0.025664734 0.059490398 0.04615311 -0.19241214 -0.20593698 0.07950457 -0.116239466 -0.2167039
-0.037366245 -0.05300802 -0.06486142 -0.10562025 -0.040539403 -0.16558468 -0.08610884 -0.08028346
-0.08968924 -0.051964317 -0.20783612 -0.2085964 -0.048170585 -0.079204604 -0.28000447 -0.22147335
-0.08031547 -0.07823856 -0.34798893 -0.1392981 -0.118925095 -0.063877195 -0.12388767 -0.26120389
-0.26845148 0.004218165 -0.028599309 -0.030011887 -0.056965955 -0.1057584 0.029779153 -0.06879454
-0.11299426 0.047187593 -0.0230624 -0.21368887 -0.24448659 -0.24176131 -0.065419406 -0.088305615
0.033848453 -0.23158182 -0.029028641 0.061088327 -0.26906064 0.32485905 -0.24276648 0.09439943
-0.06988555 -0.18530543 0.04398255 -0.09170912 -0.13702188 -0.08483654 -0.10763243 -0.045605782
-0.04068909 -0.05290925 -0.064959064 -0.04242541 -0.18083371 -0.3022457 -0.009777473 0.023308275
0.14099386 0.056465913 0.0839706 -0.14815235 0.032181118 -0.21212032 0.013890905 -0.102663554
0.1007547 -0.2181931 0.10898647 -0.061931223 0.031360663 -0.06642569 -0.18647337 0.08628129
0.2551096 -0.11073317 0.13998342 -0.22494951 -0.2854654 -0.20016795 -0.019214643 -0.056229334

action_model._discrete_distribution.branches.0.bias f4 [7]
00000000: 1d44 37be 8645 213c 600d dfbd 7d37 a23a
00000010: d8f1 783c a991 5e3d 6f03 d43c
-0.17897077 0.009843236 -0.10891223 0.0012376156 0.015194379 0.05433813 0.025880544
