results/puzzle_expirement_2/PuzzleBehavior/PuzzleBehavior-11999968.onnx (onnx, 342923 bytes, 6 tensors)

network_body._body_endoder.seq_layers.0.weight f4 [256, 65]
-0.18189964 0.16394392 0.18059021 0.25757322 -0.02575052 0.3320188 0.12379841 0.22000386
-0.116155915 -0.35377958 0.09523613 0.04196663 0.047729842 0.14836998 0.13852994 0.03026704
0.07784149 0.08997388 -0.1372217 0.064317934 -0.14563055 -0.20920824 -0.054312296 -0.112173684
-0.20495945 0.12951536 -0.07761493 0.2672425 -0.08369722 -0.08524553 -0.1374608 -0.043321095
0.123499356 0.079164475 0.43060213 -0.41085413 -0.02936767 0.0088996645 -0.04258257 -0.077023044
0.027054876 -0.048202198 0.20923764 0.39198527 0.039106514 -0.06460546 -0.21581955 -0.047385614
-0.19110836 -0.13609925 0.06567375 -0.08499656 0.027926328 0.020035714 0.14812298 0.261526
-0.09910579 -0.02080801 0.01124886 0.037066754 0.102513514 0.16384853 0.15462956 0.105236806
-0.026935762 0.062187403 -0.056622528 -0.17922333 -0.05501218 -0.0069368905 -0.030829236 0.16692984
-0.42400694 0.157202 -0.017080326 -0.11509477 -0.3082503 0.14507432 -0.017437002 -0.016928617
-0.14725144 0.1591153 -0.018640142 0.09825929 -0.23752134 0.33098987 0.3429903 -0.015846018
-0.01773445 0.10828943 -0.028577495 0.08042326 0.08458789 0.3280518 -0.036204286 -0.16754198
0.12335237 0.05661771 0.0031623922 0.11089803 0.039990637 0.17506126 0.211998 0.020292558
0.15209682 -0.1273226 -0.06376083 0.055024166 -0.36948055 -0.01713708 -0.5774399 -0.17817321
-0.009968483 0.1006644 0.011108582 0.16663614 -0.0011809528 -0.070528425 -0.40200117 0.22679274
-0.16645356 -0.19629396 0.46274796 -0.06814091 -0.056019194 0.0021898472 -0.072985515 0.058059044
-0.025074493 -0.16242197 0.027111286 0.0022396257 -0.1281779 0.27892902 0.01769498 0.19594935
0.21036237 -0.089139126 0.3261768 0.13880056 0.011865064 -0.118104994 0.018480107 -0.095191956
0.22015543 -0.06608157 -0.064593524 0.120004624 -0.03560556 -0.0155644845 -0.24016227 -0.045548737
0.06303715 0.106282 0.036726963 0.16608599 0.5351836 -0.11016784 0.026931208 0.009253883
-0.20423453 -0.1686888 0.073575094 0.066676214 -0.49853355 0.011444378 -0.013464812 0.273823
-0.28219107 -0.005369819 0.12590216 0.08061475 0.2017372 0.06867915 -0.023775835 -0.1560778
-0.01648933 -0.14516608 -0.12848903 -0.010379164 -0.45154905 -0.00079757016 -0.18424402 0.29478124
0.09354225 0.0039649024 -0.016953146 0.10119904 0.02709037 0.153403 0.019687926 0.09339698
-0.08942212 -0.027415104 0.106056936 -0.59734064 -0.043992326 -0.09837295 0.31174082 -0.025588011
0.0056594824 -0.24866444 -0.12646694 0.206836 -0.23306186 -0.19925614 -0.036252186 0.08071517
-0.015255344 -0.12330366 -0.03800327 -0.14525624 0.06105201 -0.2219485 0.057485174 -0.110411316
-0.31039214 0.13250938 -0.38640755 -0.01418013 0.121128686 0.36743996 -0.09297193 -0.08561872
-0.13428265 -0.31136665 -0.031573568 -0.016469818 0.11892276 -0.33148238 -0.1396032 -0.4371438
0.22979268 -0.088628985 -0.2209414 -0.022939768 -0.038021255 -0.20264949 -0.025203455 0.058110055
-0.2592191 0.17175826 -0.027234975 -0.015164418 -0.061495587 -0.105596185 -0.10397595 -0.15713634
0.14244491 -0.2366764 0.1850887 -0.01590238 0.0905974 0.08670971 0.2060602 0.106409006
00000000: e643 3abe eae0 273e a4ec 383e a3e0 833e
00000010: c1f2 d2bc 5efe a93e 058a fd3d b148 613e
00000020: 27e3 edbd 9922 b5be 290b c33d 33e5 2b3d
00000030: 5e80 433d 4dee 173e cbda 0d3e 95f2 f73c
00000040: 5c6b 9f3d 3a44 b83d d883 0cbe 1fb9 833d
00000050: 2d20 15be af3a 56be 9276 5ebd 51bb e5bd
00000060: e4e0 51be ad9f 043e 94f4 9ebd 02d4 883e
00000070: 7369 abbd 3595 aebd 86c2 0cbe 7671 31bd
00000080: 3bed fc3d fc20 a23d e277 dc3e 795b d2be
00000090: 7894 f0bc e6cf 113c 106b 2ebd 42be 9dbd
000000a0: 30a2 dd3c ab6f 45bd 6442 563e 4bb2 c83e
000000b0: 272e 203d de4f 84bd cdff 5cbe 6b17 42bd
000000c0: e9b1 43be 9a5d 0bbe f67f 863d ad12 aebd
000000d0: c1c5 e43c f021 a43c 8dad 173e bce6 853e
000000e0: faf7 cabd 8f75 aabc 234d 383c 4fd3 173d
000000f0: 9bf2 d13d e9c7 273e 3657 1e3e 6586 d73d
00000100: 63a8 dcbc 38b8 7e3d 06ed 67bd 5286 37be
00000110: 7454 61bd db4e e3bb 988d fcbc a8ef 2a3e
00000120: 7017 d9be 90f9 203e 0aec 8bbc cfb6 ebbd
00000130: fcd2 9dbe 5d8e 143e 0bd8 8ebc e2ad 8abc
00000140: 15c9 16be 1fef 223e 36b3 98bc 2b3c c93d
00000150: cb38 73be 8177 a93e 6d9c af3e 82cf 81bc
00000160: d647 91bc d9c6 dd3d 5a1b eabc f3b4 a43d
00000170: 6a3c ad3d 68f6 a73e f24a 14bd 2090 2bbe
00000180: 2ba0 fc3d f9e7 673d 2340 4f3b 821e e33d
00000190: 39cd 233d 4243 333e 0116 593e 943c a63c
000001a0: 45bf 1b3e db60 02be 0a95 82bd 0561 613d
000001b0: 8e2c bdbe 1063 8cbc 1ad3 13bf 0a73 36be
000001c0: d952 23bc 2329 ce3d c500 363c aaa2 2a3e
000001d0: 33ca 9aba 3571 90bd 19d3 cdbe 5b3c 683e
000001e0: cd72 2abe 4901 49be 4ded ec3e 768d 8bbd
000001f0: 6274 65bd 8a83 0f3b 6e79 95bd 52cf 6d3d
00000200: 0669 cdbc f251 26be 7d18 de3c afc6 123b
00000210: 1141 03be c9cf 8e3e 10f5 903c f2a6 483e
00000220: 3c69 573e 938e b6bd a500 a73e bc21 0e3e
00000230: af65 423c 08e1 f1bd 9863 973c 00f4 c2bd
00000240: 6d70 613e c655 87bd 9c49 84bd fcc4 f53d
00000250: 23d7 11bd 2e02 7fbc 19ed 75be 5091 3abd
00000260: 9f19 813d 61aa d93d 036f 163d 7212 2a3e
00000270: cb01 093f ad9f e1bd d69e dc3c 999d 173c
00000280: db22 51be c2bc 2cbe 8aae 963d 8a8d 883d
00000290: ca3f ffbe 3381 3b3c 849b 5cbc 8732 8c3e
000002a0: 597b 90be 4ef5 afbb 7fec 003e 5919 a53d
000002b0: 3294 4e3e a7a7 8c3d 8ac5 c2bc dcd2 1fbe
000002c0: a214 87bc 6ba6 14be a192 03be 5e0d 2abc
000002d0: 7031 e7be 0714 51ba 77aa 3cbe 91ed 963e
000002e0: 1493 bf3d 03ec 813b 53e1 8abc 7141 cf3d
000002f0: a0ec dd3c ad15 1d3e 9348 a13c ea46 bf3d
00000300: f222 b7bd a495 e0bc 6134 d93d 51eb 18bf
00000310: 4c31 34bd c277 c9bd 7e9c 9f3e f39d d1bc
00000320: 2e73 b93b e4a1 7ebe 8d80 01be d1cc 533e
00000330: c5a7 6ebe cd09 4cbe 2c7d 14bd ff4d a53d
00000340: 8df1 79bc a186 fcbd 51a9 1bbd 0dbe 14be
00000350: ac11 7a3d 7846 63be 9375 6b3d 541f e2bd
00000360: b8eb 9ebe 8ab0 073e 36d7 c5be c753 68bc
00000370: 5112 f83d 1721 bc3e 1168 bebd de58 afbd
00000380: 6481 09be 736b 9fbe 4953 01bd b6eb 86bc
00000390: c78d f33d 0fb8 a9be 24f4 0ebe 50d1 dfbe
000003a0: c64e 6b3e 1d83 b5bd 763e 62be 2eec bbbc
000003b0: 2dbc 1bbd 5983 4fbe 7a77 cebc cf04 6e3d
000003c0: 5eb8 84be 66e1 2f3e e21b dfbc 2e74 78bc
000003d0: cce2 7bbd d042 d8bd 58f1 d4bd 59e8 20be
000003e0: 14dd 113e 4c5b 72be e487 3d3e b545 82bc
000003f0: 218b b93d dc94 b13d 7201 533e f7ec d93d

network_body._body_endoder.seq_layers.0.bias f4 [256]
0.05311394 -0.07178805 -0.059317604 -0.079760626 0.054264262 -0.037991446 0.11511549 0.036937293
0.0050320127 0.077482596 0.036377672 0.07317571 0.054871403 -0.038307626 -0.18495451 0.05477735
-0.005311033 0.01984353 0.06679899 0.01588771 0.07727082 0.09683471 -0.0028357015 0.00057190825
0.010827465 0.056245834 0.04148948 -0.1198266 0.091013655 -0.03358391 0.031525902 0.045280434
0.087508634 0.11815028 0.040577006 -0.106058426 0.03273844 0.052191168 0.003008256 0.14280458
-0.037738085 0.028933384 0.004664139 0.020674221 0.047768123 0.087626494 0.028840939 -0.02064628
0.056618165 -0.049610622 0.099069335 -0.05361533 0.00426905 -0.09465294 0.029407475 0.08748289
0.11767139 0.06049156 0.09329727 -0.04925076 -0.0025666936 0.078343876 -0.15030247 0.08635325
0.053107534 0.06764426 0.11139598 0.027295994 -0.013233171 -0.06770685 0.014812073 -0.014490172
-0.033828847 -0.029146781 -0.0046139155 -0.0040007136 -0.04760659 0.05070978 0.06382489 -0.08086147
0.078648396 0.042597275 0.010487566 0.07103293 0.07385176 -0.10308635 -0.030921873 0.100353606
-0.013768825 0.06777445 0.08943769 -0.08722154 0.10275238 0.00407236 0.09197258 0.025006732
0.08998726 -0.03475062 0.023949528 0.07399684 0.03529462 0.085697636 0.0033984215 -0.06386285
0.09054933 -0.059300702 0.015266558 0.09659904 -0.00703219 0.14310005 -0.0054173507 0.026606085
0.07961933 0.09387557 -0.09325163 0.025164546 0.02321178 0.00455763 0.03675998 0.11035186
0.04200866 0.06642066 0.012404928 0.005293942 0.031163443 -0.0018341338 -0.11875852 -0.022970423
0.08572208 0.0035840813 -0.012724603 -0.008427829 -0.03493576 0.014117121 -0.091657385 -0.027453331
-0.014634763 -0.004971514 -0.15770155 -0.091979586 0.1260697 -0.024673402 -0.0038828042 0.122174665
0.051078625 -0.061013777 -0.02309781 -0.037764043 -0.20826152 0.085936785 0.06532104 0.04354381
-0.020065073 -0.006720961 0.05572724 -0.0038665459 0.13191204 0.080230355 0.08185252 0.0043700733
0.050802708 -0.014879903 0.029394535 -0.07057329 0.12414044 0.1158677 0.030760624 0.085632466
0.06506863 -0.014923947 0.050442245 -0.046818778 -0.036278322 0.030862952 0.096302666 -0.026813056
0.049929474 0.0923442 0.030978126 0.021303503 0.03391953 0.008228948 -0.009660843 0.06432942
0.11158936 -0.020178646 -0.20380326 -0.037921607 0.14886332 -0.04055798 0.075735465 0.0062572
0.057925384 0.06588195 0.021198984 0.08399794 0.0928194 0.1536879 0.094700314 -0.0025257666
-0.07866055 0.077835985 0.035534084 0.05566872 0.021048589 0.11367253 -0.08079061 0.042452637
0.083682865 -0.044157114 0.002026947 0.051719956 0.14054358 0.13391908 0.09826975 0.046603628
-0.049182862 -0.04451398 -0.0174451 0.11886857 -0.0074444646 0.023705166 -0.013114141 0.025581954
0.055264164 -0.011046532 -0.0020684758 0.01150325 0.059971664 0.07336756 0.0119831 -0.0051527224
-0.07762474 0.05139448 0.08486257 0.07014455 0.05388264 0.029581092 0.03124078 0.0071093435
-0.041558996 0.014172759 0.06705188 -0.018614376 0.0029270246 0.052894514 -0.006651895 -0.055642214
0.031449355 -0.060929853 0.11936958 0.06360612 -0.038493052 -0.038909186 0.09001917 0.044135295
00000000: 018e 593d 9d05 93bd 04f7 72bd 8a59 a3bd
00000010: 3444 5e3d eb9c 1bbd acc1 eb3d 8f4b 173d
00000020: 95e3 a43b 32af 9e3d c100 153d 26dd 953d
00000030: d6c0 603d 75e8 1cbd b764 3dbe 375e 603d
00000040: 2d08 aebb e68e a23c e9cd 883d f126 823c
00000050: 2a40 9e3d 4751 c63d 2dd7 39bb 1dec 153a
00000060: ae65 313c 0862 663d dff0 293d a667 f5bd
00000070: 5e65 ba3d 488f 09bd 4e21 013d fa77 393d
00000080: ba37 b33d c6f8 f13d 1334 263d 2935 d9bd
00000090: be18 063d 68c6 553d 2926 453b 5d3b 123e
000000a0: 4093 1abd b405 ed3c a2d5 983b fc5c a93c
000000b0: 82a8 433d 8575 b33d d543 ec3c 6322 a9bc
000000c0: 73e8 673d 8234 4bbd dde4 ca3d c09b 5bbd
000000d0: 63e3 8b3b 67d9 c1bd f2e7 f03c 3b2a b33d
000000e0: b3fd f03d ffc5 773d a412 bf3d 2abb 49bd
000000f0: f935 28bb c172 a03d e4e8 19be f9d9 b03d
00000100: 4987 593d 1389 8a3d 9323 e43d d99b df3c
00000110: f1cf 58bc e4a9 8abd 56ae 723c 3068 6dbc
00000120: 1e90 0abd 3bc5 eebc 5430 97bb 6b18 83bb
00000130: 21ff 42bd 0fb5 4f3d a0b6 823d b39a a5bd
00000140: 6912 a13d 7b7a 2e3d 0ad4 2b3c b679 913d
00000150: 973f 973d f01e d3bd de4f fdbc 3186 cd3d
00000160: a396 61bc 55cd 8a3d 1c2b b73d 35a1 b2bd
00000170: d76f d23d 6f71 853b 1f5c bc3d ebda cc3c
00000180: 3e4b b83d ab56 0ebd cd31 c43c a88b 973d
00000190: 1791 103d 3e82 af3d 0db8 5e3b 87ca 82bd
000001a0: ed71 b93d 4be5 72bd 9620 7a3c b8d5 c53d
000001b0: 496e e6bb d288 123e 0884 b1bb 01f5 d93c
000001c0: 760f a33d d641 c03d b6fa bebd e125 ce3c
000001d0: a126 be3c 2c58 953b a291 163d 2800 e23d
000001e0: 4611 2c3d 8e07 883d 0a3e 4b3c ce78 ad3b
000001f0: 7a4a ff3c 5167 f0ba ab37 f3bd 782c bcbc
00000200: 0f8f af3d e8e2 6a3b da7a 50bc e014 0abc
00000210: cd18 0fbd 7f4b 673c deb6 bbbd cfe5 e0bc
00000220: a5c6 6fbc 15e8 a2bb 847c 21be cb5f bcbd
00000230: 6a18 013e e01f cabc a576 7ebb b636 fa3d
00000240: d237 513d 95e9 79bd 9e37 bdbc 78ae 1abd
00000250: 8242 55be a0ff af3d 0ac7 853d fe5a 323d
00000260: 825f a4bc 823b dcbb 3f42 643d e065 7dbb
00000270: f313 073e d04f a43d 4ba2 a73d d532 8f3b
00000280: 8016 503d d6ca 73bc cfcc f03c bb88 90bd
00000290: 583d fe3d 0b4c ed3d b4fd fb3c 1360 af3d
000002a0: b442 853d 9283 74bc 879c 4e3d 0cc5 3fbd
000002b0: 9498 14bd 4dd4 fc3c 553a c53d 0ea7 dbbc
000002c0: d982 4c3d f51e bd3d d7c5 fd3c af84 ae3c
000002d0: 35ef 0a3d b6d2 063c 8348 1ebc 25bf 833d
000002e0: f688 e43d b04d a5bc cdb1 50be b053 1bbd
000002f0: a06f 183e 2020 26bd 321b 9b3d 3309 cd3b
00000300: 2b43 6d3d 1eed 863d 7ea9 ad3c 1d07 ac3d
00000310: 1918 be3d 5c60 1d3e 3df2 c13d 5587 25bb
00000320: c818 a1bd 7968 9f3d 308c 113d e204 643d
00000330: 176e ac3c 25cd e83d 8c75 a5bd d1e2 2d3d
00000340: ec61 ab3d 17de 34bd 87d6 043b 4ed8 533d
00000350: a8ea 0f3e 1522 093e a741 c93d 72e3 3e3d
00000360: f873 49bd 4b54 36bd 07e9 8ebc 5d71 f33d
00000370: b2f0 f3bb 5631 c23c b2dc 56bc 3f91 d13c
00000380: ad5c 623d 83fc 34bc 448f 07bb 2178 3c3c
00000390: d9a4 753d bb41 963d c454 443c 2bd8 a8bb
000003a0: b8f9 9ebd 0583 523d 6dcc ad3d f2a7 8f3d
000003b0: 0bb4 5c3d 0c54 f23c aaec ff3c 7ff5 e83b
000003c0: c439 2abd dc34 683c 7f52 893d 2d7d 98bc
000003d0: 53d3 3f3b eba7 583d 24f8 d9bb 17e9 63bd
000003e0: 0ad1 003d 9591 79bd 0a78 f43d ed43 823d
000003f0: e4aa 1dbd 3d5f 1fbd f85b b83d 36c7 343d

network_body._body_endoder.seq_layers.2.weight f4 [256, 256]
-0.03320004 -0.08725107 0.030436456 -0.05510398 -0.015934575 0.17921203 0.05861922 -0.27119932
-0.08020886 0.03960066 -0.1606461 -0.15227672 0.13696092 -0.15061404 -0.1350265 -0.11105411
-0.032839138 0.044764593 -0.17016602 0.14772695 0.34659904 -0.051630884 0.10068036 -0.027212862
0.004198722 -0.12151153 0.010509089 -0.2080552 -0.05131426 0.029565092 0.19032979 -0.0812829
0.1960509 0.23668486 -0.08401232 -0.080350734 0.39484096 0.12754062 0.14464812 0.0078072445
-0.026468037 -0.14590491 -0.044674907 0.041635938 -0.005904238 0.0855246 0.19474943 -0.014370447
-0.001491333 -0.09135288 0.23775317 -0.05484718 -0.17131521 0.17360009 -0.053227425 0.05500569
-0.12190432 -0.02317259 0.19404934 -0.10144944 -0.09717687 0.018453954 -0.10304989 -0.11607378
-0.24337688 -0.11539942 0.31153113 -0.013434895 -0.06246498 -0.23364654 0.029805137 -0.098893926
0.18507564 -0.35225606 0.013785217 -0.15804322 -0.21380876 -0.21651657 -0.02806741 0.04892612
0.06184041 -0.009493035 -0.050673354 -0.058002766 -0.034588832 -0.038930062 -0.002335074 -0.08238213
-0.09603466 0.014266331 0.13573278 -0.028134348 0.08232939 -0.017567068 -0.052268703 -0.19783568
0.18994673 -0.0986906 -0.060262192 -0.02217708 0.043662027 0.17555337 0.02078915 -0.12895021
-0.090203546 -0.11124987 0.018920163 0.06154077 -0.021521715 0.1161348 -0.17407769 0.21755287
0.12716603 -0.027144782 -0.2317188 0.041030318 -0.13210374 -0.11893593 -0.0077642007 0.008562731
-0.08647075 -0.026740013 -0.119221635 -0.07745813 -0.12113721 -0.052637376 -0.1601619 -0.103079356
0.0805221 -0.11272308 0.18802868 -0.17792596 -0.011222239 -0.001822695 -0.05216958 -0.087962106
0.046225682 -0.123255 -0.033988185 0.005016918 0.101980135 -0.33133325 -0.15197474 0.078806154
-0.07982521 -0.124650486 -0.031471603 0.013008933 -0.1307627 0.10294102 -0.14596003 -0.17835817
-0.3213382 -0.19769157 -0.016562322 0.08786115 0.02750618 0.24800307 0.09213233 -0.12728164
0.043578956 0.031084526 0.082986966 -0.15382566 0.07994449 0.022945935 0.07548591 -0.026720002
-0.10974492 0.0022980743 0.03910992 -0.054027356 -0.19055496 0.12518147 -0.10123852 -0.16805886
-0.009233331 0.24268106 0.10448047 0.28678814 -0.026707338 0.011872574 0.0039413557 0.05193804
-0.10979232 -0.131355 -0.035627656 0.07116282 0.26387042 -0.006875598 0.053043332 -0.2954202
0.17300792 0.06395429 -0.28670642 0.044870753 -0.09065958 0.27897704 0.09377731 0.075063415
-0.119148314 0.1413991 -0.1802847 0.14540912 0.05915304 -0.015422906 0.13323748 -0.1646429
0.17175992 -0.13813034 -0.24520075 -0.03311633 0.1646191 0.21069606 -0.20405456 -0.11005639
-0.20081957 -0.04315914 0.017808458 -0.019105839 -0.119928814 0.011239196 -0.29020083 0.17734294
0.011044249 -0.092481345 -0.04280894 -0.04524898 -0.07789198 0.2565335 -0.12937984 0.0383976
-0.24658033 -0.12683408 0.18401547 -0.06461345 -0.023399387 -0.088562876 0.13309981 -0.16359805
-0.19884133 -0.019899502 0.20656672 -0.15281959 -0.006136181 0.0630931 -0.16065699 -0.08995712
0.059131484 -0.11393477 -0.06535617 0.2261958 0.034184985 -0.11573713 -0.01739918 -0.022794146
00000000: c4fc 07bd b0b0 b2bd e055 f93c b6b4 61bd
00000010: 3a89 82bc 5c83 373e b51a 703d a3da 8abe
00000020: 8b44 a4bd 4d34 223d 6980 24be 6eee 1bbe
00000030: 7c3f 0c3e 913a 1abe 6344 0abe 5670 e3bd
00000040: 5582 06bd 145b 373d 0040 2ebe bc45 173e
00000050: 6e75 b13e e87a 53bd 8131 ce3d 82ed debc
00000060: 6f95 893b 09db f8bd 502e 2c3c 6c0c 55be
00000070: e72e 52bd 7e32 f23c d0e5 423e a677 a6bd
00000080: 91c1 483e 845d 723e a70e acbd ed8e a4bd
00000090: 9828 ca3e 029a 023e a31e 143e ead3 ff3b
000000a0: 7fd3 d8bc 1968 15be 09fd 36bd 728a 2a3d
000000b0: 5778 c1bb 8627 af3d 656c 473e 0672 6bbc
000000c0: d578 c3ba 3817 bbbd 9175 733e 70a7 60bd
000000d0: 416d 2fbe 39c4 313e 0005 5abd a54d 613d
000000e0: f9a8 f9bd 72d4 bdbc dfb4 463e b9c4 cfbd
000000f0: ab04 c7bd bf2c 973c d20b d3bd 17b8 edbd
00000100: ca37 79be 8856 ecbd 0281 9f3e 091e 5cbc
00000110: 47db 7fbd 0a41 6fbe e729 f43c e688 cabd
00000120: 7884 3d3e e85a b4be 64db 613c 15d6 21be
00000130: aff0 5abe 85b6 5dbe a0ed e5bc c166 483d
00000140: 5f4c 7d3d ad88 1bbc dd8e 4fbd 4f94 6dbd
00000150: 05ad 0dbd 2175 1fbd 0a08 19bb f6b7 a8bd
00000160: d2ad c4bd 54bd 693c 89fd 0a3e 017a e6bc
00000170: 509c a83d d0e8 8fbc b517 56bd 7095 4abe
00000180: 6581 423e 4c1e cabd 7dd5 76bd b5ac b5bc
00000190: f4d6 323d 43c4 333e 024e aa3c 860b 04be
000001a0: a3bc b8bd f9d6 e3bd 75fe 9a3c 2d12 7c3d
000001b0: 4f4e b0bc 15d8 ed3d 6c41 32be 2ec6 5e3e
000001c0: d037 023e bc5e debc b147 6dbe 680f 283d
000001d0: 3446 07be ae94 f3bd d66a febb b24a 0c3c
000001e0: 9417 b1bd df0d dbbc 792a f4bd 5ea2 9ebd
000001f0: c916 f8bd 4a9a 57bd 7b01 24be 451b d3bd
00000200: c5e8 a43d 5cdb e6bd 978a 403e 3932 36be
00000210: 7bdd 37bc 7fe7 eeba c5af 55bd 7a25 b4bd
00000220: 2457 3d3d 1e6d fcbd 3237 0bbd f564 a43b
00000230: f6da d03d 83a4 a9be 449f 1bbe 1f65 a13d
00000240: 667b a3bd c148 ffbd 5ee8 00bd 6b23 553c
00000250: a8e6 05be bed2 d23d 8c76 15be 86a3 36be
00000260: 7186 a4be a96f 4abe b5ad 87bc 8cf0 b33d
00000270: a454 e13c 84f4 7d3e e0af bc3d 1e56 02be
00000280: d97f 323d faa4 fe3c 12f5 a93d 7984 1dbe
00000290: f0b9 a33d 1df9 bb3c 5b98 9a3d e8e3 dabc
000002a0: f2c1 e0bd 4a9b 163b b931 203d ca4b 5dbd
000002b0: d720 43be 922f 003e 2456 cfbd 9f17 2cbe
000002c0: 6647 17bc 6281 783e dbf9 d53d e5d5 923e
000002d0: 59c9 dabc 2f85 423c 7d26 813b fbbc 543d
000002e0: ccda e0bd ed81 06be 4eee 11bd d0bd 913d
000002f0: 061a 873e b24c e1bb f743 593d 5141 97be
00000300: fd28 313e 77fa 823d 2fcb 92be 65ca 373d
00000310: bbab b9bd 14d6 8e3e 510e c03d d9ba 993d
00000320: 0804 f4bd edca 103e 8d9c 38be 21e6 143e
00000330: 754a 723d 5bb0 7cbc 686f 083e 2698 28be
00000340: d5e1 2f3e 0a72 0dbe e815 7bbe fda4 07bd
00000350: e991 283e b5c0 573e aef3 50be 3f65 e1bd
00000360: a5a3 4dbe a3c7 30bd 0be3 913c d983 9cbc
00000370: 3d9d f5bd 9b24 383c 3495 94be 6399 353e
00000380: f0f2 343c dc66 bdbd 6d58 2fbd ff56 39bd
00000390: d585 9fbd 5c58 833e 267c 04be cd46 1d3d
000003a0: 8e7f 7cbe cbe0 01be 8d6e 3c3e 0e54 84bd
000003b0: 12b0 bfbc 7460 b5bd 514b 083e 3f86 27be
000003c0: 109d 4bbe 4804 a3bc 3a86 533e bd7c 1cbe
000003d0: 0412 c9bb f536 813d 4483 24be 703b b8bd
000003e0: db33 723d a256 e9bd 75d9 85bd df9f 673e
000003f0: 8e05 0c3d 9707 edbd ba88 8ebc caba babc

network_body._body_endoder.seq_layers.2.bias f4 [256]
0.075927526 0.019136371 -0.031819258 0.023679847 -0.05096075 0.00992273 0.10015467 0.07910394
-0.06263398 0.034515835 0.021214714 0.11017068 -0.053938653 0.004222396 0.014962618 0.05266426
-0.027240328 -0.032680836 0.0121848 -0.00056079775 -0.023436306 0.016735377 -0.0007020654 -0.024495125
0.0006789558 0.0886584 0.014630588 0.02677728 0.085258275 -0.006142407 0.0830416 -0.03393696
-0.024349833 0.081911735 0.025132021 0.0051979898 0.0022232344 -0.0017831015 0.0791731 -0.01977947
-0.04272467 -0.08398399 0.0027686981 -0.06396241 0.14127795 -0.003405675 0.02587987 0.1011958
0.11125736 -0.039011378 0.1430222 0.058562074 -0.047937334 0.0020080446 0.13939051 -0.03721443
0.049534936 -0.0054338924 -0.012125598 -0.07091335 0.041452657 0.084543474 -0.0013481207 0.0047923024
-0.022478422 0.013240034 0.08792626 0.015050213 -0.036167458 0.16955309 -0.03856581 0.1345004
0.02864907 0.07106176 -0.0052392003 -0.0005156356 0.04659965 0.006157337 0.007831246 -0.013699523
0.018135775 0.041446324 0.089289054 -0.03382955 0.036057938 0.062313553 0.01387844 -0.10753051
-0.003947915 0.17088479 0.014066907 -0.056182604 -0.021005131 0.17052974 0.064772554 0.006261202
-0.013581104 0.053453717 0.09233819 0.027481599 0.01652325 0.017906671 -0.055255827 0.0024634276
0.10404413 -0.008417925 -0.018043844 0.08749547 0.077644624 -0.016686387 0.04698636 0.0123222405
0.057892572 0.16398895 0.032468855 0.018994352 0.10862411 0.06456925 0.02057716 -0.0112793455
0.0085285045 0.009729477 -0.011610118 0.026655339 0.0013716855 0.046186972 -0.013107256 -0.096931346
-0.02816184 -0.060308 -0.06115213 0.0045271763 -0.03735906 0.0002686306 0.045623265 -0.015885802
0.020426657 0.018140672 0.07286633 -0.052504938 0.13352333 -0.0045678853 -0.02935347 0.07827851
0.08558994 0.07721803 -0.0235548 0.026344793 0.023576032 0.11253718 -0.023805063 0.028455837
0.11057537 0.022238694 0.0897832 -0.058048904 0.10008897 0.056116223 0.017692521 -0.032403298
0.083024755 -0.071808025 -0.06537299 0.073323414 0.022579819 -0.018417863 0.055330217 0.12701637
0.060365543 0.027749592 0.041931253 -0.039894488 0.043231186 -0.05890344 0.08098464 0.060226303
0.047737893 0.010708691 0.07021149 0.07708735 0.10397719 0.014538981 0.03693965 -0.021232652
-0.07318709 -0.007832914 0.1056528 -0.009045862 -0.034469318 -0.06764511 0.13695864 0.09372513
0.11450174 -0.022706863 -0.032436736 -0.044575635 0.027996931 0.13667233 -0.040845543 -0.032941576
0.0075800754 -0.04356042 0.0028632788 0.10274209 0.04226752 0.03874364 0.018915692 -0.039152805
-0.063714385 0.025026742 0.0001546588 0.0122085735 0.15957367 -0.07419242 0.04740018 -0.02130672
0.10685163 0.014374647 -0.059129484 0.000521669 -0.035318963 -0.020911586 0.0691582 0.013296604
-0.008759967 0.044867948 -0.013307181 0.0822377 -0.014650773 0.013067277 -0.111305065 0.022006864
0.09180106 -0.038511865 -0.014319138 0.1098354 -0.027266216 0.050393302 -0.0028164668 0.09301402
0.006776916 0.0509688 0.009738351 -0.000929133 0.07243354 -0.033892702 0.039721597 -0.034898818
0.15945375 0.054938458 -0.06041263 0.12328806 0.12440235 0.02938857 3.8155733e-05 -0.028355675
00000000: e47f 9b3d e1c3 9c3c e954 02bd 3dfc c13c
00000010: 38bc 50bd f292 223c e41d cd3d 3f01 a23d
00000020: 3e46 80bd 7a60 0d3d 7bca ad3c 2aa1 e13d
00000030: c7ee 5cbd 065c 8a3b c525 753c 7bb6 573d
00000040: 1c27 dfbc 57dc 05bd c1a2 473c 8002 13ba
00000050: 7ffd bfbc a118 893c d00a 38ba 00aa c8bc
00000060: f4fb 313a 8992 b53d 22b5 6f3c 075c db3c
00000070: e49b ae3d 3f46 c9bb b711 aa3d 7b01 0bbd
00000080: 4d79 c7bc 57c1 a73d abe1 cd3c e653 aa3b
00000090: afb3 113b f5b6 e9ba 8225 a23d 8e08 a2bc
000000a0: 1000 2fbd ccff abbd 0c73 353b b9fe 82bd
000000b0: 2bab 103e bf31 5fbb 0502 d43c be3f cf3d
000000c0: e6da e33d 65ca 1fbd 6974 123e c9de 6f3d
000000d0: f059 44bd 6699 033b 63bc 0e3e 286e 18bd
000000e0: 25e5 4a3d cb0e b2bb 72aa 46bc 053b 91bd
000000f0: 43ca 293d 2125 ad3d 6db3 b0ba bf08 9d3b
00000100: ab24 b8bc baec 583c af12 b43d 2b95 763c
00000110: 5424 14bd 539f 2d3e 2ff7 1dbd 79ba 093e
00000120: 74b1 ea3c d488 913d 99ad abbb b82b 07ba
00000130: 46df 3e3d 7dc3 c93b a04e 003c f773 60bc
00000140: 7a91 943c 9fc3 293d 2edd b63d db90 0abd
00000150: 7db1 133d 7f3c 7f3d 6562 633c f538 dcbd
00000160: 835d 81bb 6cfc 2e3e e278 663c bb1f 66bd
00000170: f412 acbc 599f 2e3e 79a7 843d c52a cd3b
00000180: 4783 5ebc 49f2 5a3d ce1b bd3d 1721 e13c
00000190: c45b 873c 03b1 923c ef53 62bd 7571 213b
000001a0: 1715 d53d 56eb 09bc afd0 93bc d330 b33d
000001b0: 2504 9f3d e4b1 88bc c574 403d 39e3 493c
000001c0: c320 6d3d b8ec 273e 10fe 043d 0b9a 9b3c
000001d0: 5176 de3d e23c 843d 6f91 a83c 01cd 38bc
000001e0: 24bb 0b3c 6268 1f3c 5d38 3ebc 4c5c da3c
000001f0: 21ca b33a 8d2e 3d3d d1bf 56bc f183 c6bd
00000200: a9b3 e6bc 8505 77bd a87a 7abd b558 943b
00000210: d005 19bd fdd6 8c39 76df 3a3d f122 82bc
00000220: ce55 a73c bf9b 943c f13a 953d 6b0f 57bd
00000230: 57ba 083e 33ae 95bb b076 f0bc 7c50 a03d
00000240: c749 af3d 7d24 9e3d fff5 c0bc 09d1 d73c
00000250: 8622 c13c e579 e63d d602 c3bc 371c e93c
00000260: 5775 e23d ec2d b63c 41e0 b73d b0c4 6dbd
00000270: 72fb cc3d 20da 653d e8ef 903c 52b9 04bd
00000280: e208 aa3d 1610 93bd 46e2 85bd 962a 963d
00000290: 50f9 b83c 0fe1 96bc f0a1 623d 9410 023e
000002a0: dc41 773d 1d53 e33c 1bc0 2b3d 6768 23bd
000002b0: 2f13 313d bc44 71bd 46db a53d dbaf 763d
000002c0: cf88 433d 8173 2f3c 0bcb 8f3d f9df 9d3d
000002d0: fef1 d43d e834 6e3c 084e 173d 19f0 adbc
000002e0: 1de3 95bd 9f55 00bc 7f60 d83d 1835 14bc
000002f0: b32f 0dbd 8589 8abd e33e 0c3e f6f2 bf3d
00000300: e37f ea3d be03 babc 62dc 04bd f194 36bd
00000310: d259 e53c d5f3 0b3e a84d 27bd bfed 06bd
00000320: 4862 f83b 696c 32bd d9a5 3b3b 726a d23d
00000330: b520 2d3d a7b1 1e3d 15f5 9a3c b15e 20bd
00000340: b07c 82bd e204 cd3c e82b 2239 7806 483c
00000350: 4867 233e 32f2 97bd b126 423d 6e8b aebc
00000360: 07d5 da3d a483 6b3c c231 72bd 9dc0 083a
00000370: 9eaa 10bd c64e abbc d0a2 8d3d 00da 593c
00000380: f785 0fbc 74c7 373d 5d06 5abc 3d6c a83d
00000390: cc09 70bc 2218 563c e9f3 e3bd bd47 b43c
000003a0: 3202 bc3d 9ebe 1dbd d19a 6abc 62f1 e03d
000003b0: 665d dfbc 3569 4e3d 7994 38bb 227e be3d
000003c0: e410 de3b a9c4 503d 9b8d 1f3c 0f91 73ba
000003d0: 0958 943d 13d3 0abd 1db3 223d 10f2 0ebd
000003e0: d847 233e 2607 613d 3c73 77bd 737e fc3d
000003f0: a9c6 fe3d 4cc0 f03c 6809 2038 294a e8bc

action_model._discrete_distribution.branches.0.weight f4 [7, 256]
-0.25940505 0.09090269 -0.026988825 0.017546793 -0.13887188 0.005381565 -0.2844682 -0.24961564
-0.0011307659 -0.04384343 -0.02424479 -0.207561 0.08069637 -0.073772155 -0.14089105 -0.046125602
-0.034563087 -0.0700995 -0.062377315 -0.15389669 0.0688263 -0.1737458 -0.06623517 -0.031040614
-0.24859734 -0.03386519 0.073798135 -0.04535753 0.014966619 -0.016310727 -0.094328634 0.07406956
0.0010889953 -0.12583937 -0.13143042 -0.03575362 0.06068166 -0.100853026 -0.06950008 -0.113107026
0.051275708 -0.051557414 -0.15277071 -0.08574973 -0.33316666 -0.003165416 -0.11075062 -0.21916111
-0.3339354 -0.09724044 -0.23192206 -0.24492902 0.08589698 -0.057755426 -0.051136125 -0.09570319
-0.16706163 -0.064297475 -0.05492414 0.11507484 0.109815836 -0.24590985 0.05038702 -0.14835775
-0.120024905 -0.15895225 -0.29188988 -0.07429383 0.07147184 -0.2783833 0.069388255 -0.13850269
0.13666925 -0.17463341 -0.043910936 -0.08674134 -0.2123843 0.1747502 0.0027094202 0.025696177
-0.06405651 0.07635227 -0.28879082 0.15441073 -0.008053774 -0.07943958 -0.05170343 0.119874224
-0.21039884 -0.08970199 -0.02450479 -0.05777894 -0.14510547 -0.15163437 0.13155179 -0.027306447
-0.022523057 -0.18986242 -0.35762516 -0.15110989 -0.11089713 -0.04638812 0.013741228 -0.072472624
-0.24086633 -0.017302696 0.05843431 -0.21977483 -0.22056505 -0.10219455 -0.080703795 -0.17877129
-0.032641742 -0.25823876 -0.13913952 -0.19374204 -0.23657675 -0.14993714 0.024208762 -0.09181595
-0.28375393 -0.11993878 -0.079342395 -0.085985415 0.032042984 -0.048286878 -0.13823405 -0.016736627
-0.009859303 -0.13859043 0.07146254 -0.0182523 0.07877186 -0.060661096 -0.020493787 -0.027524564
-0.13343059 0.031990428 0.012115484 -0.09281545 -0.17004688 -0.19805026 -0.047266334 -0.23015983
-0.040994808 -0.051296335 0.046758033 -0.10414341 -0.022053873 -0.09512646 0.060717836 -0.12997565
-0.18040591 -0.14264159 -0.17694601 -0.07537361 -0.08033231 -0.13057104 0.02852949 -0.059391145
-0.036760963 0.062417254 0.063485935 -0.17771325 -0.2019801 0.07319738 -0.114652246 -0.20839356
-0.04391376 -0.056153126 -0.08079222 -0.080890365 -0.026156409 -0.15373386 -0.100844026 -0.080395125
-0.09426533 -0.052569766 -0.20610303 -0.21757619 -0.05472731 -0.07255865 -0.23955964 -0.22619894
-0.06131832 -0.06416741 -0.3035892 -0.13640904 -0.08370355 -0.05108515 -0.12708841 -0.24981262
-0.28206417 0.009722007 -0.039121594 -0.026558887 -0.06825545 -0.096446685 0.017940074 -0.07828458
-0.09867039 0.047317218 -0.05693681 -0.22881424 -0.2293011 -0.2423737 -0.07306993 -0.09299085
0.041460358 -0.22405174 -0.017584637 0.05500234 -0.25667754 0.30327728 -0.23831727 0.092282794
-0.06674316 -0.17932792 0.04830339 -0.086154945 -0.12296987 -0.087386325 -0.110363774 -0.035269085
-0.040472396 -0.058161404 -0.06877777 -0.073033914 -0.15071568 -0.27565202 -0.003526147 0.024377437
0.12597167 0.05058938 0.09285861 -0.16793677 0.038256425 -0.20669028 0.010634186 -0.11923619
0.079368204 -0.18609977 0.10563524 -0.062306944 0.022334252 -0.06592419 -0.16367038 0.08943097
0.24565491 -0.1247692 0.13254704 -0.22314541 -0.28027168 -0.18482399 -0.0051430576 -0.070675105
00000000: bdd0 84be 312b ba3d ab17 ddbc 4bbe 8f3c
00000010: 6e34 0ebe d757 b03b d1a5 91be 3e9b 7fbe
00000020: 3536 94ba 2b95 33bd 039d c6bc df8a 54be
00000030: 2344 a53d db15 97bd be45 10be 33ee 3cbd
00000040: 0692 0dbd 5490 8fbd 5b7f 7fbd 1897 1dbe
00000050: cef4 8c3d 6bea 31be 4ea6 87bd e348 febc
00000060: 4d90 7ebe 3ab6 0abd 7a23 973d d1c8 39bd
00000070: 8d36 753c 139e 85bc 5f2f c1bd c8b1 973d
00000080: 9ebc 8e3a 09dc 00be b295 06be 6372 12bd
00000090: 558d 783d 088c cebd 0f56 8ebd a8a4 e7bd
000000a0: 7a06 523d de2d 53bd ed6f 1cbe 8e9d afbd
000000b0: d294 aabe de72 4fbb 39d1 e2bd c56b 60be
000000c0: 95f9 aabe ff25 c7bd fa7c 6dbe acce 7abe
000000d0: c1ea af3d f490 6cbd 1d74 51bd 0900 c4bd
000000e0: 3412 2bbe 65ae 83bd 23f8 60bd 5cac eb3d
000000f0: 20e7 e03d cbcf 7bbe 9f62 4e3d 18eb 17be
00000100: 9ecf f5bd 61c4 22be 9772 95be 5d27 98bd
00000110: d45f 923d 4288 8ebe 6e1b 8e3d a6d3 0dbe
00000120: 06f3 0b3e 1ad3 32be f4db 33bd 72a5 b1bd
00000130: 457b 59be b7f1 323e 8790 313b ca80 d23c
00000140: 0f30 83bd 945e 9c3d 64dc 93be d91d 1e3e
00000150: faf3 03bc 38b1 a2bd fac6 53bd 9e80 f53d
00000160: cb72 57be adb5 b7bd 45be c8bc 9ca9 6cbd
00000170: 8796 14be 0a46 1bbe 83b5 063e c5b1 dfbc
00000180: 4682 b8bc 4b6b 42be a51a b7be 8dbc 1abe
00000190: 091e e3bd 7801 3ebd e322 613c 876c 94bd
000001a0: aaa5 76be 62be 8dbc d158 6f3d a70c 61be
000001b0: cedb 61be 604b d1bd 0848 a5bd d20f 37be
000001c0: 59b3 05bd df37 84be 977a 0ebe 5064 46be
000001d0: 2d41 72be 1f89 19be 7451 c63c 000a bcbd
000001e0: 3248 91be 77a2 f5bd 447e a2bd 1f19 b0bd
000001f0: 813f 033d 76c8 45bd 3a8d 0dbe 401b 89bc
00000200: ea88 21bc a6ea 0dbe f45a 923d d985 95bc
00000210: 2453 a13d c577 78bd 96e2 a7bc 327b e1bc
00000220: 07a2 08be 6508 033d 0680 463c 0716 bebd
00000230: c520 2ebe b0cd 4abe 589a 41bd 05af 6bbe
00000240: 2cea 27bd 1b1c 52bd 5a85 3f3d 2449 d5bd
00000250: 53aa b4bc a9d1 c2bd 44b3 783d 5618 05be
00000260: 54bc 38be a310 12be 5631 35be 7b5d 9abd
00000270: 4485 a4bd 6ab4 05be adb6 e93c 2144 73bd
00000280: aa92 16bd 3ca9 7f3d ea04 823d 76fa 35be
00000290: dfd3 4ebe 82e8 953d ccce eabd 1f65 55be
000002a0: eade 33bd d200 66bd 6476 a5bd d9a9 a5bd
000002b0: f745 d6bc 696c 1dbe 5087 cebd 33a6 a4bd
000002c0: 2e0e c1bd 6553 57bd ac0c 53be 4bcc 5ebe
000002d0: be29 60bd a199 94bd 1f4f 75be b2a0 67be
000002e0: eb28 7bbd 346a 83bd 0b70 9bbe d0ae 0bbe
000002f0: c46c abbd aa3e 51bd 7723 02be e1ce 7fbe
00000300: b76a 90be 0e49 1f3c f73d 20bd 0692 d9bc
00000310: 83c9 8bbd d785 c5bd 10f7 923c aa53 a0bd
00000320: b413 cabd b3cf 413d 9336 69bd 484e 6abe
00000330: e8cd 6abe d030 78be b0a5 95bd fd71 bebd
00000340: 56d2 293d d26d 65be a80d 90bc 224a 613d
00000350: 3d6b 83be 2947 9b3e 7109 74be c3fe bc3d
00000360: a3b0 88bd bda1 37be c7d9 453d 0172 b0bd
00000370: a1d7 fbbd 9af7 b2bd 6706 e2bd 5176 10bd
00000380: 62c6 25bd a73a 6ebd 5cdb 8cbd ce92 95bd
00000390: 3655 1abe 4322 8dbe ee16 67bb 31b3 c73c
000003a0: b8fe 003e cf36 4f3d a82c be3d 9ef7 2bbe
000003b0: c5b2 1c3d 9ea6 53be 023b 2e3c 1b32 f4bd
000003c0: cc8b a23d f090 3ebe 4a57 d83d 9135 7fbd
000003d0: 52f6 b63c 4303 87bd 3599 27be 9627 b73d
000003e0: f68c 7b3e ff86 ffbd 69ba 073e 3b80 64be
000003f0: c57f 8fbe 8042 3dbe 1887 a8bb 1cbe 90bd

action_model._discrete_distribution.branches.0.bias f4 [7]
-0.18009214 0.014039817 -0.113185726 -0.0019501466 0.009309018 0.060477056 0.029688748
00000000: 136a 38be 4307 663c ebcd e7bd 109c ffba
00000010: da84 183c cab6 773d d135 f33c
