results/puzzle_expirement_2/PuzzleBehavior/PuzzleBehavior-13499968.onnx (onnx, 342923 bytes, 6 tensors)

network_body._body_endoder.seq_layers.0.weight f4 [256, 65]
-0.2118838 0.19017838 0.1514243 0.21049924 -0.02575052 0.3320188 0.12379841 0.25875568
-0.09954917 -0.36544114 0.10909105 0.022026625 0.057427503 0.14836998 0.13852994 0.03026704
0.08321806 0.10689199 -0.1376124 0.05702923 -0.13030319 -0.2102272 -0.054312296 -0.112173684
-0.20495945 0.18509828 -0.07248505 0.2810619 -0.07841207 -0.0987425 -0.15653035 -0.043321095
0.123499356 0.079164475 0.48785278 -0.39042467 -0.035054952 0.013557049 -0.04428001 -0.09153849
0.027054876 -0.048202198 0.20923764 0.4072767 0.038991682 -0.010688394 -0.22079787 0.0036272574
-0.20398755 -0.13609925 0.06567375 -0.08499656 0.012768022 -0.00800299 0.14276738 0.29787013
-0.10250508 -0.00948368 0.01124886 0.037066754 0.102513514 0.18945707 0.20107898 0.097435616
-0.04885632 0.063092396 -0.052986074 -0.1994802 -0.044783443 -0.0069368905 -0.030829236 0.16692984
-0.44521838 0.1556904 0.0040167845 -0.13195293 -0.29094335 0.13130532 -0.017437002 -0.016928617
-0.14725144 0.17539842 -0.018464101 0.0955484 -0.22720179 0.377407 0.34120995 -0.015846018
-0.01773445 0.10828943 -0.069878146 0.04115004 0.06951771 0.34041137 -0.049869783 -0.20257296
0.12335237 0.05661771 0.0031623922 0.08801582 0.04454253 0.16549048 0.21693684 0.020914119
0.15693344 -0.1273226 -0.06376083 0.055024166 -0.35566828 -0.014188179 -0.59563 -0.18413603
-0.012072381 0.12525772 0.011108582 0.16663614 -0.0011809528 -0.052044526 -0.4278825 0.21242715
-0.17402704 -0.17579031 0.48210195 -0.06814091 -0.056019194 0.0021898472 -0.10165466 0.010621479
-0.012969598 -0.14891383 0.03457096 -0.006641805 -0.15027055 0.29796022 0.01769498 0.19594935
0.21036237 -0.10158188 0.30694568 0.11971404 0.00581792 -0.098615654 -0.015062977 -0.095191956
0.22015543 -0.06608157 -0.035733372 0.11811966 -0.03612421 -0.030139575 -0.26811168 -0.057418946
0.06303715 0.106282 0.036726963 0.17381053 0.553971 -0.11196643 0.030979693 -0.004445913
-0.22450699 -0.1686888 0.073575094 0.066676214 -0.49933398 0.001972177 -0.02383861 0.26117197
-0.2822966 -0.0141956955 0.12590216 0.08061475 0.2017372 0.06625258 -0.003026965 -0.16020714
-0.017441273 -0.16606568 -0.13807505 -0.010379164 -0.45154905 -0.00079757016 -0.19895367 0.28778052
0.07725253 -0.0102490885 -0.029645437 0.13721114 0.02709037 0.153403 0.019687926 0.07885231
-0.11272079 -0.009008954 0.1214499 -0.617478 -0.046963986 -0.12394677 0.30552578 -0.025588011
0.0056594824 -0.24866444 -0.10914008 0.21277803 -0.27345216 -0.20131454 -0.016714012 0.057965465
-0.015255344 -0.12330366 -0.03800327 -0.12195934 0.07873772 -0.21086921 0.05026142 -0.14444345
-0.310577 0.13250938 -0.38640755 -0.01418013 0.1611491 0.39201787 -0.10979645 -0.08786947
-0.14789626 -0.2875432 -0.031573568 -0.016469818 0.11892276 -0.3081113 -0.12887439 -0.45497862
0.22505476 -0.09572125 -0.23939835 -0.022939768 -0.038021255 -0.20264949 -0.0032718626 0.0673787
-0.247066 0.17119698 -0.04170542 -0.0065166447 -0.061495587 -0.105596185 -0.10397595 -0.17363559
0.12776652 -0.29174253 0.1892019 -0.0019407421 0.10968622 0.08670971 0.2060602 0.106409006
00000000: 11f8 58be 1fbe 423e f90e 1b3e 1d8d 573e
00000010: c1f2 d2bc 5efe a93e 058a fd3d a07b 843e
00000020: 6fe0 cbbd 1a1b bbbe 216b df3d 2e71 b43c
00000030: 1a39 6b3d 4dee 173e cbda 0d3e 95f2 f73c
00000040: 3b6e aa3d 30ea da3d 44ea 0cbe 7b97 693d
00000050: 336e 05be cd45 57be 9276 5ebd 51bb e5bd
00000060: e4e0 51be 678a 3d3e 0b73 94bd 58e7 8f3e
00000070: 8296 a0bd 8239 cabd 7e49 20be 7671 31bd
00000080: 3bed fc3d fc20 a23d d7c7 f93e bee5 c7be
00000090: c895 0fbd 631e 5e3c f55e 35bd 8878 bbbd
000000a0: 30a2 dd3c ab6f 45bd 6442 563e 9286 d03e
000000b0: beb5 1f3d 601e 2fbc d618 62be 48b7 6d3b
000000c0: 1de2 50be 9a5d 0bbe f67f 863d ad12 aebd
000000d0: f730 513c f91e 03bc 9d31 123e 6f82 983e
000000e0: 2fee d1bd 7061 1bbc 234d 383c 4fd3 173d
000000f0: 9bf2 d13d 0901 423e a6e7 4d3e 538c c73d
00000100: 911d 48bd 9636 813d ed07 59bd 8a44 4cbe
00000110: d86e 37bd db4e e3bb 988d fcbc a8ef 2a3e
00000120: aaf3 e3be 4e6d 1f3e 3b9f 833b ab1e 07be
00000130: 87f6 94be e774 063e 0bd8 8ebc e2ad 8abc
00000140: 15c9 16be a59b 333e 0742 97bc e1ae c33d
00000150: 96a7 68be 7e3b c13e 12b3 ae3e 82cf 81bc
00000160: d647 91bc d9c6 dd3d 461c 8fbd f28c 283d
00000170: 4d5f 8e3d 664a ae3e 4244 4cbd 496f 4fbe
00000180: 2ba0 fc3d f9e7 673d 2340 4f3b a341 b43d
00000190: 3a72 363d 5676 293e b124 5e3e 1654 ab3c
000001a0: 29b3 203e db60 02be 0a95 82bd 0561 613d
000001b0: 271a b6be 8975 68bc 357b 18bf 288e 3cbe
000001c0: 3ccb 45bc 8f43 003e c500 363c aaa2 2a3e
000001d0: 33ca 9aba a42c 55bd 6a13 dbbe 8186 593e
000001e0: 2534 32be 6002 34be 11d6 f63e 768d 8bbd
000001f0: 6274 65bd 8a83 0f3b 5230 d0bd b605 2e3c
00000200: 707e 54bc de7c 18be 479a 0d3d 80a3 d9bb
00000210: 86e0 19be 3e8e 983e 10f5 903c f2a6 483e
00000220: 3c69 573e 290a d0bd fc27 9d3e a22c f53d
00000230: 40a4 be3b 01f7 c9bd b4ca 76bc 00f4 c2bd
00000240: 6d70 613e c655 87bd 285d 12bd b8e8 f13d
00000250: fbf6 13bd 45e7 f6bc ef45 89be 2130 6bbd
00000260: 9f19 813d 61aa d93d 036f 163d 63fb 313e
00000270: 0bd1 0d3f a84e e5bd 20c9 fd3c 05af 91bb
00000280: 29e5 65be c2bc 2cbe 8aae 963d 8a8d 883d
00000290: b4a8 ffbe a43f 013b 3049 c3bc 55b8 853e
000002a0: 2e89 90be 1095 68bc 7fec 003e 5919 a53d
000002b0: 3294 4e3e 6faf 873d 0c60 46bb 570d 24be
000002c0: 00e1 8ebc 1f0d 2abe 8c63 0dbe 5e0d 2abc
000002d0: 7031 e7be 0714 51ba 83ba 4bbe f857 933e
000002e0: 9336 9e3d cbeb 27bc fdda f2bc 1481 0c3e
000002f0: a0ec dd3c ad15 1d3e 9348 a13c 527d a13d
00000300: 28da e6bd 4b9a 13bc baba f83d 0a13 1ebf
00000310: 4f5d 40bd ced7 fdbd e06d 9c3e f39d d1bc
00000320: 2e73 b93b e4a1 7ebe d684 dfbd 7ce2 593e
00000330: ec01 8cbe 6625 4ebe d3eb 88bc 326d 6d3d
00000340: 8df1 79bc a186 fcbd 51a9 1bbd d2c5 f9bd
00000350: 3e41 a13d 19ee 57be ebde 4d3d fce8 13be
00000360: f303 9fbe 8ab0 073e 36d7 c5be c753 68bc
00000370: 4504 253e 91b6 c83e f6dc e0bd e9f4 b3bd
00000380: 1e72 17be dd38 93be 4953 01bd b6eb 86bc
00000390: c78d f33d c4c0 9dbe a6f7 03be f5f2 e8be
000003a0: c174 663e 8109 c4bd d724 75be 2eec bbbc
000003b0: 2dbc 1bbd 5983 4fbe bf6c 56bb d8fd 893d
000003c0: dffe 7cbe 434e 2f3e 4dd3 2abd 9489 d5bb
000003d0: cce2 7bbd d042 d8bd 58f1 d4bd 87cd 31be
000003e0: 3ad5 023e 475f 95be 25be 413e 8060 feba
000003f0: 2ba3 e03d dc94 b13d 7201 533e f7ec d93d

network_body._body_endoder.seq_layers.0.bias f4 [256]
0.04798694 -0.08354022 -0.06344907 -0.07440755 0.046950746 -0.030807482 0.10586635 0.017811656
0.00512729 0.076478176 0.030480947 0.067603886 0.06058239 -0.04785802 -0.17551935 0.040414944
-0.00036798982 0.019828217 0.07062001 0.010745504 0.086852014 0.08482149 0.00063410454 0.0003563586
0.018623848 0.043773923 0.057069022 -0.1288098 0.086613804 -0.033419576 0.03632685 0.03491991
0.10277608 0.122197635 0.03942109 -0.10881829 0.029688682 0.05804938 0.0072815246 0.12995377
-0.034235228 0.0119891465 0.011035039 0.021262754 0.053130962 0.07363596 0.030541772 -0.023065051
0.0632922 -0.049415246 0.09261329 -0.05171907 -0.0064982236 -0.07708216 0.034429584 0.09373262
0.10049836 0.06795737 0.10069934 -0.04310441 -0.00052821636 0.083722316 -0.13835761 0.082907885
0.04275389 0.06600541 0.11220734 0.01761236 -0.014040064 -0.06563954 0.013775874 -0.0012193865
-0.0192519 -0.032893796 0.013130846 -0.010784076 -0.031235578 0.05516528 0.059032593 -0.07567494
0.09070999 0.02805011 0.0101467185 0.07255337 0.06856079 -0.11317676 -0.036873847 0.08830431
-0.016180478 0.05753575 0.10559199 -0.08452887 0.100568995 0.0006943276 0.08779784 0.0208414
0.097042136 -0.043591086 0.025163207 0.068747714 0.033982527 0.07708506 0.0038790035 -0.06803455
0.08643756 -0.056207303 0.007902316 0.08776336 -0.0041164453 0.14431709 -0.0124694845 0.028515521
0.08898307 0.08815315 -0.09540446 0.02806834 0.0119681945 0.003824572 0.036800794 0.10508577
0.042258404 0.05147964 0.0057904376 -0.009824985 0.02267212 -0.0058994573 -0.10781585 -0.022542521
0.08229632 -0.0022705633 -0.0039633615 -0.0061657466 -0.021324815 0.007908262 -0.08589074 -0.036312617
-0.0065327412 -0.010458785 -0.13552207 -0.090524144 0.13722588 -0.020298682 -0.004528095 0.109646775
0.04098904 -0.051170513 -0.014441379 -0.036173686 -0.2037209 0.07074954 0.05854577 0.042712986
-0.017338691 -0.021183684 0.048452903 -0.007823719 0.13634169 0.085139856 0.08258491 -0.00024756478
0.048621316 -0.011678136 0.044803727 -0.05530328 0.121154 0.11475195 0.019623699 0.07837638
0.070928834 -0.007795476 0.054764666 -0.0439467 -0.03734596 0.015741356 0.10126191 -0.023903852
0.05781738 0.09009496 0.04088258 0.01903715 0.03222936 0.0017598217 -0.008112075 0.07528375
0.109025605 -0.0118929595 -0.17934626 -0.017999368 0.1366608 -0.0284084 0.07005177 -0.001243296
0.05365173 0.056523744 0.010561014 0.078121014 0.09658478 0.15125456 0.093340196 0.014861796
-0.0794172 0.08667131 0.02587232 0.055747274 0.018280113 0.101010814 -0.07624497 0.02548207
0.08526891 -0.04673485 -0.002737119 0.05408495 0.15807214 0.13421147 0.10576265 0.018625941
-0.049292963 -0.052435253 -0.012528044 0.11001462 -0.029670823 0.023085468 -0.020318488 0.03885458
0.062129766 -0.00087993377 -0.007895535 0.006775137 0.043691397 0.0669063 0.006610252 -0.011152895
-0.06543691 0.048614156 0.07754049 0.0558156 0.046699487 0.024984553 0.038068295 -0.0064762547
-0.040030833 0.013785132 0.0792476 -0.018052222 0.0007942927 0.05430539 -0.013330287 -0.055582955
0.038030192 -0.055623442 0.10921735 0.0736971 -0.04084091 -0.036435273 0.08157128 0.018747875
00000000: f48d 443d 2317 abbd 96f1 81bd fc62 98bd
00000010: 6d4f 403d f95f fcbc 75d0 d83d c0e9 913c
00000020: d302 a83b 97a0 9c3d 2eb3 f93c e873 8a3d
00000030: 3d25 783d c506 44bd 58bb 33be 248a 253d
00000040: c2ee c0b9 c96e a23c 39a1 903d e90d 303c
00000050: 78df b13d e4b6 ad3d 093a 263a a4d5 ba39
00000060: 0a91 983c 494c 333d 35c1 693d b7e6 03be
00000070: 9462 b13d f7e2 08bd 77cb 143d 2e08 0f3d
00000080: 447c d23d c142 fa3d 0278 213d 20dc debd
00000090: ae35 f33c 30c5 6d3d db99 ee3b 9a12 053e
000000a0: 3d3a 0cbd 206e 443c 4fcc 343c 3a2f ae3c
000000b0: da9f 593d 73ce 963d bd32 fa3c ebf2 bcbc
000000c0: 579f 813d a467 4abd 09ac bd3d 60d7 53bd
000000d0: 0def d4bb 40dd 9dbd 0906 0d3d e3f6 bf3d
000000e0: 16d2 cd3d 3c2d 8b3d 753b ce3d 408e 30bd
000000f0: 0078 0aba 9b76 ab3d 9ead 0dbe 9ccb a93d
00000100: b41e 2f3d d82d 873d f6cc e53d cc47 903c
00000110: 4c08 66bc 066e 86bd 34b4 613c d2d3 9fba
00000120: 29b6 9dbc a5bb 06bd c322 573c b1af 30bc
00000130: c1e1 ffbc fdf4 613d 29cc 713d 77fb 9abd
00000140: 29c6 b93d 58c9 e53c 6c3e 263c dc96 943d
00000150: 9969 8c3d 38c9 e7bd 0809 17bd e4d8 b43d
00000160: ec8c 84bc 9baa 6b3d 9d40 d83d 791d adbd
00000170: 1ef7 cd3d 8903 363a 5bcf b33d 95bb aa3c
00000180: 07be c63d 918c 32bd 1223 ce3c 9acb 8c3d
00000190: 4331 0b3d c6de 9d3d e136 7e3b b355 8bbd
000001a0: 2d06 b13d a139 66bd b778 013c 47bd b33d
000001b0: 3fe3 86bb dcc7 133e cf4c 4cbc 6299 e93c
000001c0: c13c b63d a489 b43d 6a63 c3bd 93ef e53c
000001d0: 3f16 443c aca5 7a3b 6ebc 163d 3537 d73d
000001e0: 2617 2d3d 51dc 523d b6bd bd3b f9f8 20bc
000001f0: e2ba b93c 3c50 c1bb 8ece dcbd 18ab b8bc
00000200: f98a a83d bbcd 14bb 16df 81bb 080a cabb
00000210: 61b1 aebc a891 013c 7ce7 afbd 8abc 14bd
00000220: 9b10 d6bb 535b 2bbc 4cc6 0abe b964 b9bd
00000230: f184 0c3e 6c49 a6bc 6a60 94bb 7d8e e03d
00000240: 20e4 273d 2c98 51bd 899b 6cbc dc2a 14bd
00000250: 369c 50be 23e5 903d b0cd 6f3d d0f3 2e3d
00000260: df09 8ebc 6889 adbc 8d76 463d 0e2f 00bc
00000270: 289d 0b3e ce5d ae3d 4722 a93d 95cb 81b9
00000280: 2527 473d a755 3fbc 1d84 373d b185 62bd
00000290: 971f f83d 1203 eb3d e1c1 a03c cc83 a03d
000002a0: 2343 913d 3171 ffbb ea50 603d 7401 34bd
000002b0: 14f8 18bd 04f4 803c 6762 cf3d 03d2 c3bc
000002c0: ebd1 6c3d b583 b83d 7e74 273d ccf3 9b3c
000002d0: ef02 043d d1a9 e63a 82e8 04bc 5e2e 9a3d
000002e0: d148 df3d b0da 42bc 8ca6 37be 6973 93bc
000002f0: cff0 0b3e bcb8 e8bc 4d77 8f3d 17f6 a2ba
00000300: ebc1 5b3d 7185 673d 1a08 2d3c e9fd 9f3d
00000310: 3ece c53d 7ae2 1a3e 2529 bf3d e47e 733c
00000320: 7ca5 a2bd ba80 b13d 30f2 d33c 4157 643d
00000330: 2dc0 953c c2de ce3d 5326 9cbd c6bf d03c
00000340: 77a1 ae3d 0b6d 3fbd 3d61 33bb 2e88 5d3d
00000350: aadd 213e bb6e 093e 179a d83d 6e95 983c
00000360: 6be7 49bd 59c6 56bd 6d42 4dbc 584f e13d
00000370: 3a10 f3bc bc1d bd3c f572 a6bc fb25 1f3d
00000380: c87b 7e3d 5bab 66ba 465c 01bc f801 de3b
00000390: c0f5 323d 2c06 893d d09a d83b a2ba 36bc
000003a0: c903 86bd a31f 473d 8ccd 9e3d e69e 643d
000003b0: f647 3f3d 68ac cc3c 80ed 1b3d c336 d4bb
000003c0: 5ff7 23bd 09db 613c 914c a23d 41e2 93bc
000003d0: 1538 503a 546f 5e3d 4767 5abc f4aa 63bd
000003e0: 8cc5 1b3d 68d5 63bd 59ad df3d 81ee 963d
000003f0: cc48 27bd 273d 15bd d80e a73d 2595 993c

network_body._body_endoder.seq_layers.2.weight f4 [256, 256]
-0.021936346 -0.106879316 0.0013715026 -0.061277963 -0.03934324 0.1855138 0.06563814 -0.2975064
-0.07892931 0.036746737 -0.19071174 -0.1712011 0.16816376 -0.17722635 -0.16270031 -0.12556544
-0.04436632 0.040257752 -0.19122513 0.14230138 0.4148278 -0.053824563 0.10817394 -0.037338983
0.010003767 -0.15700875 -0.00020084962 -0.2747126 -0.08427188 0.033951 0.19391702 -0.10238519
0.2366131 0.24191846 -0.099243306 -0.08123277 0.39841226 0.16727522 0.17385526 0.009479328
-0.026655044 -0.190994 -0.04844754 0.041320805 0.00021243993 0.0747695 0.2118366 -0.022685682
-0.004567054 -0.113438524 0.24537136 -0.057394125 -0.21365288 0.18578176 -0.08661419 0.1191497
-0.16451126 -0.021207854 0.23367712 -0.119121686 -0.12510765 0.026712488 -0.11316879 -0.15172932
-0.26463294 -0.11105323 0.32138273 -0.02046882 -0.076855 -0.24154222 0.06636818 -0.12612838
0.2112399 -0.3997511 0.061238006 -0.19217639 -0.21155526 -0.19745913 -0.032909118 0.04421676
0.06253739 0.020182457 -0.056421608 -0.059905406 -0.03775955 -0.036601674 -0.028073506 -0.08847758
-0.10951648 0.0047509526 0.14033793 -0.022355232 0.079422556 -0.02914921 -0.07997076 -0.18550092
0.20480585 -0.12942679 -0.075701155 -0.03501578 0.0505956 0.16586876 0.019600699 -0.14871322
-0.09040932 -0.10442566 -0.0023070956 0.056076042 -0.020055631 0.12472257 -0.17448668 0.24024191
0.132578 -0.023607587 -0.26378328 0.023064248 -0.11876668 -0.12310262 -0.02429639 0.011174014
-0.11641596 -0.07650694 -0.13525458 -0.089442536 -0.1187136 -0.061192546 -0.18461214 -0.1103813
0.08095832 -0.16330904 0.18930806 -0.1735616 -0.0072018635 -0.048438106 -0.07129912 -0.10247069
0.050116196 -0.12889744 -0.04887132 -0.03619891 0.113446966 -0.33840337 -0.1546551 0.09130595
-0.086751394 -0.14107761 0.000116901654 0.0054230723 -0.13801093 0.08022237 -0.1529523 -0.18373919
-0.31886205 -0.21366294 -0.022357356 0.06403973 0.034417607 0.25721073 0.08362844 -0.1362841
0.029704358 0.025319863 0.082399204 -0.18883863 0.090815075 0.01061684 0.063524194 -0.026049575
-0.10794439 -0.0071515525 0.03382372 -0.062447272 -0.19195369 0.12664184 -0.090703964 -0.1769797
0.002948389 0.2607568 0.10834341 0.31015846 -0.028403694 0.021700444 -0.0012522385 0.044165764
-0.1083394 -0.12120212 -0.037500802 0.09862581 0.269657 0.008882018 0.04109787 -0.3283002
0.16014208 0.05128572 -0.30563954 0.057898324 -0.09920071 0.2897276 0.096419334 0.078367345
-0.1301752 0.15503348 -0.19420528 0.15744664 0.053787626 -0.011157791 0.13095796 -0.16764519
0.16648115 -0.15576988 -0.2360276 -0.039673567 0.18836735 0.2211426 -0.22013149 -0.107132226
-0.21818417 -0.04324224 0.017513193 -0.026643174 -0.15083201 0.010704844 -0.3191317 0.20430157
0.010461639 -0.08547752 -0.044937316 -0.05501798 -0.10962744 0.2578635 -0.13690251 0.02673674
-0.2565556 -0.110972516 0.1928591 -0.06595911 -0.032074798 -0.10176696 0.13880025 -0.1706848
-0.20442374 -0.029335018 0.22650686 -0.1898408 0.0065108226 0.08922741 -0.16441104 -0.11622593
0.06614981 -0.13960756 -0.07487798 0.24097699 -0.01748067 -0.1437601 -0.027700763 -0.049258113
00000000: dab3 b3bc 8be3 dabd fec3 b33a 9afe 7abd
00000010: 6126 21bd 54f7 3d3e 4a6d 863d c252 98be
00000020: b1a5 a1bd bf83 163d f049 43be 574f 2fbe
00000030: 1f33 2c3e d37a 35be e99a 26be 3a94 00be
00000040: 75b9 35bd 50e5 243d 85d0 43be 74b7 113e
00000050: 4f64 d43e 2577 5cbd 4c8a dd3d c3f0 18bd
00000060: d7e6 233c e7c6 20be 299b 52b9 21a7 8cbe
00000070: bc96 acbd 3410 0b3d 2f92 463e 54af d1bd
00000080: b44a 723e 79b9 773e 1340 cbbd 5e5d a6bd
00000090: b1fc cb3e 324a 2b3e 1d07 323e 2f4f 1b3c
000000a0: ae5b dabc ee93 43be ed70 46bd 0140 293d
000000b0: 69c2 5e39 c020 993d b2eb 583e 53d7 b9bc
000000c0: 3aa7 95bb 7552 e8bd a142 7b3e 1a16 6bbd
000000d0: d2c7 5abe 933d 3e3e c862 b1bd c204 f43d
000000e0: a475 28be 18bc adbc 0e49 6f3e 12f6 f3bd
000000f0: 381c 00be 26d4 da3c 0ac5 e7bd ee5e 1bbe
00000100: f87d 87be e06f e3bd 478c a43e 3aae a7bc
00000110: 2766 9dbd d856 77be 0aec 873d cc27 01be
00000120: 464f 583e 2dac ccbe b4d4 7a3d e3c9 44be
00000130: f1a1 58be ba32 4abe b6cb 06bd a21c 353d
00000140: 9a13 803d ae55 a53c 581a 67bd 5f5f 75bd
00000150: c2a9 1abd a3eb 15bd 69fa e5bc bc33 b5bd
00000160: 2d4a e0bd e1ad 9b3b bfb4 0f3e 5222 b7bc
00000170: 4ba8 a23d 53ca eebc b6c7 a3bd f4f3 3dbe
00000180: a0b8 513e 7588 04be 3509 9bbd b56c 0fbd
00000190: 553d 4f3d 80d9 293e a591 a03c 4748 18be
000001a0: 8628 b9bd 1fdd d5bd a432 17bb feaf 653d
000001b0: b54b a4bc 8c6e ff3d a3ac 32be fa01 763e
000001c0: 87c2 073e b364 c1bc 9a0e 87be 3cf1 bc3c
000001d0: f23b f3bd 3a1d fcbd 3909 c7bc 3613 373c
000001e0: 7e6b eebd acaf 9cbd 2d80 0abe a62d b7bd
000001f0: 1e20 f3bd 09a5 7abd f70a 3dbe 970f e2bd
00000200: 7acd a53d 7c3a 27be f9d9 413e 22ba 31be
00000210: 9cfd ebbb 0967 46bd 4605 92bd 27dc d1bd
00000220: a446 4d3d b1fd 03be 4b2d 48bd 4f45 14bd
00000230: e256 e83d 3543 adbe e85d 1ebe 9dfe ba3d
00000240: b7aa b1bd a676 10be 1929 f538 07b4 b13b
00000250: bd52 0dbe a04b a43d 879f 1cbe 2026 3cbe
00000260: e341 a3be 75ca 5abe c626 b7bc 4327 833d
00000270: 7af9 0c3d 20b1 833e 6345 ab3d 0f8e 0bbe
00000280: 8e56 f33c 9a6b cf3c eac0 a83d ea5e 41be
00000290: 41fd b93d 41f2 2d3c f918 823d eb65 d5bc
000002a0: f311 ddbd 9257 eabb be8a 0a3d b6c8 7fbd
000002b0: 828f 44be 66ae 013e 00c3 b9bd 2b3a 35be
000002c0: c239 413b ea81 853e 26e3 dd3d 17cd 9e3e
000002d0: ddae e8bc 21c5 b13c 2722 a4ba 29e7 343d
000002e0: 0ce1 ddbd d138 f8bd 719a 19bd 54fc c93d
000002f0: 7b10 8a3e e285 113c 3d56 283d f716 a8be
00000300: 49fc 233e fa10 523d c97c 9cbe cb26 6d3d
00000310: be29 cbbd 2d57 943e 8077 c53d 0f7f a03d
00000320: a64c 05be 19c1 1e3e c0dd 46be b139 213e
00000330: 6a50 5c3d 2bcf 36bc d819 063e 2eab 2bbe
00000340: 097a 2a3e 2482 1fbe 38b1 71be c080 22bd
00000350: 5fe3 403e 3573 623e 266a 61be 2468 dbbd
00000360: ac6b 5fbe c61e 31bd d477 8f3c c942 dabc
00000370: b573 1abe 5f63 2f3c 3b65 a3be 6e34 513e
00000380: 4b67 2b3c d70e afbd 3110 38bd 895a 61bd
00000390: 5a84 e0bd af06 843e 2c30 0cbe 0207 db3c
000003a0: 415b 83be 8f45 e3bd db7c 453e 9215 87bd
000003b0: dd60 03bd 326b d0bd a721 0e3e ffc7 2ebe
000003c0: 7554 51be fe4f f0bc 6af1 673e a065 42be
000003d0: bd58 d53b dcbc b63d 5e5b 28be dc07 eebd
000003e0: 8d79 873d 49f5 0ebe a059 99bd acc2 763e
000003f0: 9f33 8fbc d935 13be b6ec e2bc e0c2 49bd

network_body._body_endoder.seq_layers.2.bias f4 [256]
0.092962295 0.01575889 -0.033541203 0.024792286 -0.051925775 0.008029042 0.12184606 0.12010612
-0.05299079 0.044016436 0.04067038 0.10603392 -0.05947081 0.02213236 0.0010769569 0.05513813
-0.022853274 -0.043671153 0.05036748 0.003925248 -0.012388283 0.004365559 -0.009078272 -0.014793659
0.011857053 0.08552267 0.023608865 0.016693499 0.079429515 -0.0054840515 0.06310149 -0.049021862
-0.044062253 0.10130701 0.040052943 0.014974248 -0.0013673303 0.003239506 0.0751512 -0.016144617
-0.036507905 -0.074740574 0.0049291076 -0.0793712 0.13591889 0.0005233194 0.02002144 0.09682697
0.118941836 -0.030399725 0.12725158 0.04584065 -0.031028606 0.0055466997 0.12988958 -0.03758992
0.034485478 0.0030365859 -0.018603237 -0.079344444 0.03997446 0.0741785 0.010937383 0.034073945
-0.014995137 0.013752749 0.104262 0.0061759357 -0.03903582 0.1610795 -0.045895495 0.14112218
0.02422474 0.072815135 0.0060541285 0.020016588 0.07513817 0.0032054996 0.0011404095 0.0014688823
0.0017461875 0.050492965 0.09048306 -0.03673815 0.044122428 0.048083335 0.018689623 -0.11842508
0.0016724708 0.18502596 0.025868371 -0.045946237 -0.008985845 0.17033744 0.048227135 0.00742843
-0.028500581 0.0597192 0.11930601 0.04315998 0.008038457 0.016689373 -0.05378298 -0.009535535
0.111551724 0.0020519027 -0.007582567 0.09379861 0.09501148 -0.009649852 0.09405154 0.028532403
0.051321153 0.14192416 0.03023746 0.05141249 0.13633122 0.046831343 0.02251065 -0.0033574903
0.023931477 -0.0076973937 0.004724252 0.0315073 -0.0064001423 0.045995377 -0.02647919 -0.08880642
-0.029124962 -0.057748854 -0.07672804 0.0009112197 -0.043232266 0.0132835945 0.049301095 -0.012855917
-0.001963599 0.019081732 0.054809537 -0.039029125 0.12642673 0.010888169 -0.020183207 0.069036484
0.076658174 0.0734114 -0.011898529 0.05588897 0.02095453 0.09627982 -0.016738987 0.0422195
0.11647516 0.016206292 0.106757805 -0.042663407 0.089760356 0.066955514 0.012468726 -0.019359186
0.07688099 -0.07559528 -0.06318889 0.06596314 0.026119353 0.004208273 0.05731617 0.14294448
0.07045663 0.039999187 0.04224411 -0.027399372 0.032269996 -0.051491577 0.059572607 0.041611888
0.042777453 0.021945124 0.054795586 0.08747476 0.0881369 0.012360901 0.08939037 -0.0042540147
-0.0598225 -0.0007571954 0.11393103 0.006061079 -0.029510358 -0.050438523 0.1294655 0.10730383
0.093291655 -0.038678877 -0.04578719 -0.037787896 0.010607274 0.13316628 -0.0384554 -0.019553676
0.026086781 -0.04689073 -0.010310029 0.11081775 0.033712152 0.04267514 0.014002947 -0.03305391
-0.07102085 0.02272157 0.006207382 0.021154985 0.160239 -0.089757666 0.033373393 -0.019976526
0.104921564 0.015101863 -0.06874721 -0.0021749379 -0.026658863 -0.02653971 0.08127795 0.014888817
-0.0064735254 0.04619486 0.0072527872 0.069579355 -0.002047773 0.041668016 -0.10165107 0.028548947
0.09946041 -0.0440912 -0.022971759 0.09444956 -0.023255717 0.039502207 0.0066950307 0.07890135
0.0057519567 0.058924235 0.008041335 -0.0053646807 0.061509933 -0.028618343 0.07154055 -0.02838426
0.14387745 0.044477146 -0.07987275 0.10505606 0.11036023 0.029187368 -0.016804816 -0.02722671
00000000: 0463 be3d ca18 813c 8062 09bd 3119 cb3c
00000010: 1fb0 54bd 3e8c 033c 6d8a f93d 33fa f53d
00000020: df0c 59bd 944a 343d fc95 263d 5028 d93d
00000030: aa97 73bd ec4e b53c ad28 8d3a 85d8 613d
00000040: ca36 bbbc 86e0 32bd 214e 4e3d 5e9f 803b
00000050: 3af8 4abc f70c 8f3b 08bd 14bc 1a61 72bc
00000060: 1644 423c 8226 af3d 6167 c13c cec0 883c
00000070: f1ab a23d 8fb3 b3bb 5b3b 813d 26cb 48bd
00000080: 9f7a 34bd 0d7a cf3d 8e0e 243d 8c56 753c
00000090: fe37 b3ba e44d 543b dfe8 993d b741 84bc
000000a0: 5089 15bd 9611 99bd 5a84 a13b 5e8d a2bd
000000b0: 522e 0b3e 5f2f 093a 0104 a43c 384d c63d
000000c0: c797 f33d d808 f9bc 3d4e 023e 68c3 3b3d
000000d0: b42f febc 17c1 b53b c601 053e e3f7 19bd
000000e0: a540 0d3d 7501 473b d165 98bc 577f a2bd
000000f0: 42bc 233d e6ea 973d b632 333c 1f91 0b3d
00000100: 2aae 75bc 3653 613c 5187 d53d 815f ca3b
00000110: 06e4 1fbd 06f2 243e eafc 3bbd 5582 103e
00000120: f672 c63c 1a20 953d b661 c63b d4f9 a33c
00000130: 0ae2 993d 5c13 523b cb79 953a 8387 c03a
00000140: 54e0 e43a b6d1 4e3d 2f4f b93d be7a 16bd
00000150: b8b9 343d 08f3 443d fb1a 993c d988 f2bd
00000160: cf36 db3a 7277 3d3e e8e9 d33c 1f32 3cbd
00000170: 5e39 13bc f06c 2e3e d189 453d 306a f33b
00000180: 0d7a e9bc 1f9c 743d b656 f43d 85c8 303d
00000190: bbb3 033c 27b8 883c 8b4b 5cbd ef3a 1cbc
000001a0: 3b75 e43d 3779 063b 2f77 f8bb 7c19 c03d
000001b0: 6195 c23d 6a1a 1ebc 189e c03d c9bc e93c
000001c0: 2136 523d 9154 113e 8db4 f73c e795 523d
000001d0: 699a 0b3e 39d2 3f3d 4168 b83c 5709 5cbb
000001e0: f20b c43c 6b3a fcbb e6cd 9a3b cc0d 013d
000001f0: 49b8 d1bb a665 3c3d e3ea d8bc 24e0 b5bd
00000200: 7997 eebc 108a 6cbd 9723 9dbd ebde 6e3a
00000210: 5114 31bd 6fa3 593c f2ef 493d a0a1 52bc
00000220: b9af 00bb 4b51 9c3c f77f 603d 01dd 1fbd
00000230: 0276 013e 4a64 323c 4157 a5bc 0063 8d3d
00000240: f6fe 9c3d b758 963d 0cf2 42bc d5eb 643d
00000250: d6a8 ab3c 5b2e c53d 3320 89bc 5bee 2c3d
00000260: 878a ee3d 0fc3 843c d6a3 da3d d3bf 2ebd
00000270: 47d4 b73d f91f 893d a149 4c3c 2897 9ebc
00000280: c873 9d3d b3d1 9abd 2d69 81bd af17 873d
00000290: 41f8 d53c 8de5 893b 5cc4 6a3d 0a60 123e
000002a0: 914b 903d 30d6 233d 2908 2d3d a674 e0bc
000002b0: 8b2d 043d d5e8 52bd 6802 743d 3a71 2a3d
000002c0: 6937 2f3d 43c6 b33c 5671 603d f825 b33d
000002d0: 1e81 b43d 6085 4a3c 4c12 b73d 4365 8bbb
000002e0: 7008 75bd 867e 46ba ac54 e93d 049c c63b
000002f0: b5bf f1bc a098 4ebd 9b92 043e 1cc2 db3d
00000300: b20f bf3d be6d 1ebd 598b 3bbd 7bc7 1abd
00000310: 22ca 2d3c be5c 083e 6983 1dbd 082f a0bc
00000320: f2b3 d53c 7e10 40bd 65eb 28bc 6bf4 e23d
00000330: c115 0a3d 21cc 2e3d 9e6c 653c 8963 07bd
00000340: 6173 91bd 9622 ba3c 4b67 cb3b 384d ad3c
00000350: b115 243e ded2 b7bd 8ab2 083d d0a5 a3bc
00000360: 1ee1 d63d ce6d 773c 56cb 8cbd 6789 0ebb
00000370: b063 dabc ce69 d9bc 0e75 a63d 3af0 733c
00000380: de1f d4bb d236 3d3d caa8 ed3b 9f7f 8e3d
00000390: ee33 06bb 15ac 2a3d 702e d0bd 7bdf e93c
000003a0: e6b1 cb3d f998 34bd 452f bcbc c56e c13d
000003b0: c682 bebc 11cd 213d fd61 db3b 0897 a13d
000003c0: e97a bc3b 8a5a 713d cebf 033c 34ca afbb
000003d0: d7f1 7b3d 0471 eabc da83 923d 1c86 e8bc
000003e0: 9c54 133e ab2d 363d 5394 a3bd a227 d73d
000003f0: 8b04 e23d 591a ef3c 41aa 89bc 8d0a dfbc

action_model._discrete_distribution.branches.0.weight f4 [7, 256]
-0.27190492 0.061190117 -0.010645203 0.03145427 -0.16581757 0.0022513506 -0.29248196 -0.26534292
-0.009751955 -0.059646927 0.010855399 -0.228394 0.06432127 -0.04992944 -0.10214709 -0.013344547
-0.067483954 -0.05051027 -0.029301638 -0.16635609 0.07123942 -0.14270164 -0.058285158 -0.05036614
-0.21323061 -0.07596202 0.09247005 -0.061243888 -0.011953162 -0.02017249 -0.07638214 0.083731025
-0.032064885 -0.10552768 -0.1196579 -0.031479485 0.078231886 -0.1104018 -0.06106384 -0.11731797
0.057230048 -0.046415612 -0.1644022 -0.0932224 -0.34535345 0.011175429 -0.06707858 -0.242732
-0.3591726 -0.13563797 -0.17244002 -0.25898078 0.084923826 -0.061614726 -0.03526274 -0.08600282
-0.13812633 -0.062496804 -0.08019364 0.06985939 0.115116365 -0.251601 0.059386745 -0.15807806
-0.13670379 -0.15136373 -0.3118222 -0.07315456 0.05933169 -0.27772313 0.08517801 -0.12073376
0.13608748 -0.15364814 -0.07381162 -0.08323542 -0.21260743 0.19817801 0.03260079 0.031487558
-0.028446967 0.09784918 -0.2914473 0.17384906 0.0036062247 -0.06413079 -0.036516596 0.09831511
-0.19979014 -0.07985814 -0.060188655 -0.104627416 -0.12632377 -0.16047941 0.13862412 -0.0053443597
0.0020886601 -0.18948531 -0.3653246 -0.16239028 -0.11104063 -0.05282835 -0.012563987 -0.056313366
-0.265865 -0.019474138 0.07469476 -0.23430954 -0.24911898 -0.10865442 -0.067004725 -0.17803432
-0.022018822 -0.23326765 -0.12142098 -0.1705204 -0.2666423 -0.11889085 0.032509334 -0.055123456
-0.3189738 -0.089639775 -0.10250599 -0.07606582 0.041425325 -0.08065378 -0.13565306 -0.01811051
-0.021312013 -0.16766562 0.050139178 0.008915466 0.032061033 -0.07880737 -0.06378596 -0.0106055755
-0.13574016 0.045452096 -0.023913277 -0.075773515 -0.13805003 -0.17126736 -0.061848637 -0.23366812
-0.057025786 -0.046227828 0.07227824 -0.10239537 -0.050613787 -0.08761952 0.05098365 -0.12982179
-0.16840957 -0.13132627 -0.18823862 -0.06805757 -0.075023785 -0.095736384 0.059159894 -0.087001294
-0.026435398 0.04481358 0.026304862 -0.2089025 -0.20368944 0.08271531 -0.11330936 -0.24068284
-0.02474254 -0.057268903 -0.054227296 -0.108668566 -0.050425462 -0.16178356 -0.105761304 -0.07084507
-0.069097236 -0.061352316 -0.21464951 -0.19573757 -0.0603609 -0.09658446 -0.2760417 -0.20127434
-0.087401435 -0.07809639 -0.37013486 -0.1466069 -0.11116529 -0.069453515 -0.1458605 -0.27060637
-0.2563328 0.02717083 -0.026408453 -0.029849302 -0.051168367 -0.101205535 0.027815124 -0.0676181
-0.11189083 0.04101536 -0.04974407 -0.22033684 -0.21915802 -0.23621812 -0.052672036 -0.055938177
0.030492779 -0.2018473 -0.024835851 0.06252181 -0.27125934 0.31974792 -0.23834561 0.10871845
-0.098790005 -0.15777768 0.033411503 -0.06332415 -0.13163629 -0.06976137 -0.10413673 -0.06964412
-0.036022715 -0.03647766 -0.07706303 -0.013540429 -0.17756091 -0.29849735 -0.0040319487 0.028970147
0.15057221 0.04624877 0.08408954 -0.14761135 0.04104765 -0.21617848 0.034846615 -0.120052174
0.116200246 -0.19883758 0.1316704 -0.04424923 0.031877305 -0.054698166 -0.19024955 0.079034455
0.25551203 -0.11422024 0.16067606 -0.24181458 -0.27596655 -0.20608066 -0.04453959 -0.07040733
00000000: 1f37 8bbe 7da2 7a3d 3869 2ebc 31d6 003d
00000010: 15cc 29be 658b 133b 32c0 95be 07db 87be
00000020: aac6 1fbc 5650 74bd d8da 313c 1ee0 69be
00000030: dfba 833d d082 4cbd 7e32 d1bd 16a3 5abc
00000040: 0735 8abd dbe3 4ebd fd09 f0bc 4059 2abe
00000050: f9e5 913d 6120 12be 6bbc 6ebd ba4c 4ebd
00000060: 2059 5abe fa91 9bbd f060 bd3d dfda 7abd
00000070: 32d7 43bc c740 a5bc 3d6e 9cbd 2c7b ab3d
00000080: 7856 03bd e51e d8bd 330f f5bd a2f0 00bd
00000090: 0a38 a03d 571a e2bd 141e 7abd 6744 f0bd
000000a0: 0e6a 6a3d 4c1e 3ebd 0d59 28be 63eb bebd
000000b0: 2bd2 b0be 2619 373c 7f60 89bd bd8e 78be
000000c0: 79e5 b7be aee4 0abe 1e94 30be 2199 84be
000000d0: 8bec ad3d b95f 7cbd aa6f 10bd 3f22 b0bd
000000e0: fd70 0dbe a6fc 7fbd 903c a4bd 7112 8f3d
000000f0: 21c2 eb3d d9d1 80be 843f 733d 37df 21be
00000100: 14fc 0bbe 18ff 1abe 29a7 9fbe 0fd2 95bd
00000110: c905 733d ba31 8ebe cf71 ae3d 4343 f7bd
00000120: 845a 0b3e f055 1dbe 8c2a 97bd 5577 aabd
00000130: c3b5 59be 2def 4a3e 6888 053d 19f9 003d
00000140: 9d09 e9bc 2765 c83d 9538 95be 7d05 323e
00000150: 6956 6c3b 0157 83bd 6d92 15bd 6f59 c93d
00000160: c995 4cbe aa8c a3bd 6188 76bd e646 d6bd
00000170: 055b 01be b754 24be 7bf3 0d3e bd1f afbb
00000180: e7e1 083b 7008 42be d30b bbbe a349 26be
00000190: 4569 e3bd 8a62 58bd 2ed9 4dbc d8a8 66bd
000001a0: 751f 88be 3a88 9fbc 91f9 983d d7ee 6fbe
000001b0: 0c19 7fbe 3586 debd c639 89bd a14e 36be
000001c0: d160 b4bc b7dd 6ebe 90ab f8bd e69c 2ebe
000001d0: 5785 88be 0c7d f3bd 8228 053d 22c9 61bd
000001e0: 8950 a3be 0f95 b7bd a9ee d1bd 66c8 9bbd
000001f0: 9aad 293d cf2d a5bd a3e8 0abe 7e5c 94bc
00000200: 8896 aebc 89b0 2bbe bd5e 4d3d 2d12 123c
00000210: 6e52 033d c265 a1bd 37a2 82bd 02c3 2dbc
00000220: 78ff 0abe fa2b 3a3d c7e5 c3bc 252f 9bbd
00000230: fd5c 0dbe b660 2fbe ff54 7dbd b246 6fbe
00000240: df93 69bd 6459 3dbd 9d06 943d aab4 d1bd
00000250: 6750 4fbd dd71 b3bd 3bd4 503d 01f0 04be
00000260: 8f73 2cbe 657a 06be a0c1 40be c461 8bbd
00000270: 12a6 99bd 7011 c4bd a551 723d bc2d b2bd
00000280: 0c8f d8bc 728e 373d 4b7d d73c 89ea 55be
00000290: f793 50be a566 a93d bd0e e8bd 9075 76be
000002a0: deb0 cabc cc92 6abd 711d 5ebd a08d debd
000002b0: ee8a 4ebd 97aa 25be 6299 d8bd 3817 91bd
000002c0: da82 8dbd 914c 7bbd 15cd 5bbe 6e6f 48be
000002d0: fe3c 77bd 13ce c5bd 5655 8dbe dc1a 4ebe
000002e0: 86ff b2bd 00f1 9fbd 5182 bdbe 1f20 16be
000002f0: a1aa e3bd a53d 8ebd 745c 15be eb8c 8abe
00000300: 0e3e 83be 5c95 de3c 8a56 d8bc 8686 f4bc
00000310: ec95 51bd d944 cfbd 8bdc e33c 5c7b 8abd
00000320: 0527 e5bd b9ff 273d 70c0 4bbd fb9f 61be
00000330: f66a 60be 2ae3 71be a2be 57bd 6e1f 65bd
00000340: fecb f93c 0fb1 4ebe 8e74 cbbc 6f0b 803d
00000350: 81e2 8abe 00b6 a33e df10 74be c7a7 de3d
00000360: 6a52 cabd 7990 21be 80da 083d 18b0 81bd
00000370: aacb 06be 0ddf 8ebd a345 d5bd 94a1 8ebd
00000380: 8e8c 13bd 9969 15bd 39d3 9dbd add8 5dbc
00000390: 87d2 35be a5d4 98be 701e 84bb cd52 ed3c
000003a0: 9a2f 1a3e 5a6f 3d3d 2337 ac3d 6e27 17be
000003b0: 9521 283d e45d 5dbe 53bb 0e3d eadd f5bd
000003c0: 65fa ed3d 149c 4bbe 9bd4 063e ae3e 35bd
000003d0: c791 023d 2f0b 60bd c7d0 42be d1dc a13d
000003e0: 79d2 823e 4dec e9bd 4488 243e 3e9e 77be
000003f0: 7d4b 8dbe cf06 53be 256f 36bd b831 90bd

action_model._discrete_distribution.branches.0.bias f4 [7]
-0.18758434 0.002135306 -0.107144065 0.0048157107 0.024896652 0.056409374 0.021129912
00000000: 1c16 40be 7df0 0b3b 596e dbbd 1ccd 9d3b
00000010: 10f4 cb3c 840d 673d a318 ad3c
