results/puzzle_experiment_6/PuzzleBehavior/PuzzleBehavior-36999936.onnx (onnx, 342923 bytes, 6 tensors)

network_body._body_endoder.seq_layers.0.weight f4 [256, 65]
0.074300565 -0.08625286 0.11232871 0.3113296 0.1671245 -0.02269788 0.18028675 0.14724576
0.12227569 -0.066381805 0.1506478 0.23157404 0.11345385 0.0452569 -0.22903483 0.120532416
-0.19966872 -0.11811517 0.22279438 -0.10299162 -0.012551041 0.16207 -0.15434758 -0.069253735
-0.021223238 0.11021353 0.1448878 0.004475943 0.24196348 0.07295788 0.47651255 0.09926821
-0.021827346 -0.015656136 0.040755656 0.014339475 0.28157026 -0.20317604 0.21024594 0.24880688
-0.03643655 -0.06771335 -0.16263306 0.39913633 0.00979827 0.31276634 -0.10878009 0.26306945
0.11273618 0.0034605463 -0.08281226 -0.06975048 0.19984058 0.37225577 -0.004655584 0.072920606
0.11596538 0.12901914 0.01987034 -0.22143506 0.0018652037 0.3050797 -0.57355326 0.1563568
-0.23169066 -0.15910918 0.10956741 -0.30384228 -0.09616217 0.25431076 -0.11322376 -0.043627627
-0.29847428 -0.07530781 -0.14957492 0.06580747 -0.039416395 -0.15698344 -0.10058821 -0.02930872
-0.012962225 0.0686655 0.29883882 -0.95385176 0.17692287 0.114787064 0.20363322 -0.02372532
0.1485264 0.05586108 -0.37340254 0.0718463 -0.3648419 0.1854704 -0.3017413 0.053679407
-0.08558476 0.09164335 -0.039835453 0.08250089 0.17473166 -0.50923157 0.13988033 0.15639773
-0.0950552 0.16295469 -0.13180384 0.02499635 0.101629876 0.18242589 -0.7040178 -0.064053886
-0.18811756 0.2978527 -0.093986355 -0.23795809 0.14863582 -0.15522444 0.2503993 -0.29921147
0.08987168 0.05513704 0.20578359 0.09259928 0.034164697 0.039558236 -0.13516045 0.39292136
0.4562338 0.15491608 -0.12169209 -0.08196063 -0.036288813 0.32403442 -0.15414503 -0.03443039
0.042128455 -0.09622406 0.29419273 0.22737244 -0.002353211 0.19705264 0.09721271 -0.074865386
-0.05514036 0.056253828 -0.042123884 0.116063274 0.04585947 -0.09401574 0.08956752 0.1627581
-0.09272147 -0.04120361 -0.105032176 -0.1822265 0.03214766 -0.08487756 0.08313728 0.10384811
-0.18073088 0.23458208 0.19395593 0.24469541 0.18612868 0.00025123634 0.048873845 -0.11996156
0.074401066 -0.037595715 0.08995212 -0.04293107 -0.08711502 -0.16840142 -0.09482375 0.08895635
0.24355288 -0.11758405 -0.007973871 0.09398245 0.23111044 -0.35393494 0.3832136 -1.0379769
-0.047004584 0.3567845 0.5736637 0.09556259 -0.012543336 -0.17404735 -0.23470086 -0.027652869
0.11684 0.1588513 0.11613121 0.177799 0.12609038 0.16272531 0.0994996 -0.16572417
0.119963214 -0.02175851 0.06961066 0.1527134 -0.14056131 -0.108785294 -0.0027804626 0.33636606
0.2367813 -0.02511096 0.103413805 0.118444405 -0.09965427 0.21159835 0.31851768 0.10788728
0.07012908 -0.13476336 0.089301206 -0.041067023 0.27475724 -0.28371125 -0.10320259 0.062068023
0.54925126 -0.2506321 -0.10622213 0.022978345 -0.11058688 -0.34993923 -0.033200152 0.29494163
0.123253345 -0.108258486 0.3036776 -0.07740061 -0.31048787 -0.2825452 0.1147635 -0.58629054
-0.17055392 -0.08168374 0.1568913 0.10454343 0.12091965 0.088407174 -0.029090676 -0.039324902
0.59341604 -0.12511222 0.09726507 -0.3771966 -0.056770947 -0.041512 0.045409866 0.21791138
00000000: e52a 983d 57a5 b0bd 980c e63d 9866 9f3e
00000010: af22 2b3e e8f0 b9bc 179d 383e 98c7 163e
00000020: ad6b fa3d 2ff3 87bd 6b43 1a3e bf21 6d3e
00000030: 7e5a e83d 4d5f 393d 1b88 6abe b3d9 f63d
00000040: f575 4cbe 5ee6 f1bd 3624 643e 45ed d2bd
00000050: e2a2 4dbc aef5 253e 4b0d 1ebe e7d4 8dbd
00000060: 5bdc adbc a2b7 e13d 785d 143e eeaa 923b
00000070: 46c5 773e f16a 953d 74f9 f33e 224d cb3d
00000080: 43cf b2bc 4c41 80bc 67ef 263d 1ef0 6a3c
00000090: fa29 903e 610d 50be b64a 573e 3bc7 7e3e
000000a0: 7e3e 15bd 4cad 8abd 4889 26be 995b cc3e
000000b0: ec88 203c e922 a03e 19c8 debd 0ab1 863e
000000c0: 3ae2 e63d 55ca 623b 7999 a9bd 57d9 8ebd
000000d0: 02a3 4c3e 4f98 be3e df8d 98bb 6657 953d
000000e0: 427f ed3d 981d 043e 20c7 a23c dfbf 62be
000000f0: da79 f43a 6833 9c3e 63d4 12bf ff1b 203e
00000100: 5140 6dbe 84ed 22be e164 e03d 3791 9bbe
00000110: acf0 c4bd 0535 823e dce1 e7bd e2b2 32bd
00000120: 9fd1 98be fb3a 9abd 2b2a 19be 11c6 863d
00000130: 1673 21bd 44c0 20be 3101 cebd d718 f0bc
00000140: 835f 54bc 7fa0 8c3d 6701 993e a12f 74bf
00000150: 452b 353e 7b15 eb3d 3a85 503e 9a5b c2bc
00000160: 4e17 183e 96ce 643d 9e2e bfbe 2724 933d
00000170: 8fcc babe f4eb 3d3e d67d 9abe f0de 5b3d
00000180: 1047 afbd 82af bb3d 802a 23bd 3af6 a83d
00000190: dbec 323e 005d 02bf ca3c 0f3e ba26 203e
000001a0: 4dac c2bd 98dd 263e 96f7 06be 25c5 cc3c
000001b0: 5323 d03d dacd 3a3e 833a 34bf af2e 83bd
000001c0: e4a1 40be 2680 983e eb7b c0bd 49ab 73be
000001d0: fd33 183e 28f3 1ebe 5634 803e 3f32 99be
000001e0: a50e b83d 60d7 613d efb8 523e b1a4 bd3d
000001f0: 48f0 0b3d d107 223d 8067 0abe fd2c c93e
00000200: 7a97 e93e 52a2 1e3e b439 f9bd fada a7bd
00000210: 94a3 14bd d7e7 a53e 32d8 1dbe e106 0dbd
00000220: e38e 2c3d 1f11 c5bd 6ea0 963e 52d4 683e
00000230: 5438 1abb 2bc8 493e 7517 c73d 0653 99bd
00000240: dcda 61bd 6a6a 663d 188a 2cbd 95b2 ed3d
00000250: 24d7 3b3d 538b c0bd 2d6f b73d 0faa 263e
00000260: c1e4 bdbd 1ec5 28bd 1c1b d7bd 9599 3abe
00000270: 44ad 033d 49d4 adbd e143 aa3d 51ae d43d
00000280: 8411 39be 4936 703e 629c 463e 6f91 7a3e
00000290: 8498 3e3e 5fb8 8339 f12f 483d 68ae f5bd
000002a0: 965f 983d f7fd 19bd d138 b83d 7dd8 2fbd
000002b0: 5c69 b2bd 6c71 2cbe f432 c2bd bf2e b63d
000002c0: ed65 793e e8cf f0bd d7a4 02bc df79 c03d
000002d0: 37a8 6c3e f636 b5be 9334 c43e 6ddc 84bf
000002e0: e187 40bd 75ac b63e a0db 123f 52b6 c33d
000002f0: 9082 4dbc 7839 32be 6c55 70be 4588 e2bc
00000300: cf49 ef3d eaa9 223e 33d6 ed3d f110 363e
00000310: d61d 013e 77a1 263e 72c6 cb3d 99b3 29be
00000320: 46af f53d e73e b2bc 0990 8e3d e760 1c3e
00000330: 4eef 0fbe d3ca debd 6c38 36bb 2c38 ac3e
00000340: cc76 723e 80b5 cdbc 9eca d33d fb92 f23d
00000350: 8a17 ccbd 3dad 583e c014 a33e 02f4 dc3d
00000360: d69f 8f3d 68ff 09be 8de3 b63d e535 28bd
00000370: fbac 8c3e 9a42 91be e15b d3bd 0a3b 7e3d
00000380: bb9b 0c3f da52 80be fd8a d9bd 153d bc3c
00000390: 607b e2bd 3c2b b3be e2fc 07bd 9702 973e
000003a0: 406c fc3d a0b6 ddbd a17b 9b3e 3684 9ebd
000003b0: 44f8 9ebe c4a9 90be 2009 eb3d 2317 16bf
000003c0: b0a5 2ebe ce49 a7bd 1da8 203e de1a d63d
000003d0: b9a4 f73d d20e b53d 924f eebc 2613 21bd
000003e0: 1dea 173f 6b1d 00be e932 c73d ea1f c1be
000003f0: a788 68bd 7d08 2abd b2ff 393d 2924 5f3e

network_body._body_endoder.seq_layers.0.bias f4 [256]
0.018631011 0.015568565 0.004638909 0.0635367 -0.0071917027 0.034445573 0.06977435 0.04578346
0.030328175 -0.020052914 0.05040243 0.16927855 -0.053106185 0.051064912 0.009992401 -0.0041272864
0.14471743 0.12144789 0.04241706 0.022442004 0.10211729 0.06965833 0.03695484 0.033701275
-0.055828877 0.024295209 0.10086008 0.011245897 0.009921334 0.011882573 -0.021782998 -0.006393092
-0.025760548 0.06058762 0.012861316 0.20373479 0.053241458 0.13319072 0.047626 0.025839586
0.08110578 -0.05839918 0.0073996624 0.048907503 0.034775905 0.16317324 0.07310757 -0.030635606
0.03147762 0.011714246 -0.072962835 -0.060675565 0.18454786 0.093527526 -0.15199248 -0.05573407
0.09496326 0.06563535 -0.078305736 0.11686693 0.09732381 -0.024383854 -0.028273104 -0.009067256
-0.018472543 -0.019806322 -0.03687264 0.049368598 -0.014813652 0.04646081 0.07845247 0.09466822
0.03432465 0.058885485 -0.024176167 0.04082016 -0.052106168 -0.039799057 0.019140093 0.015142079
0.05706691 -0.018788915 -0.08057983 0.0341416 0.047881696 -0.03031646 0.028862191 0.09038984
0.06893718 0.016998716 0.060498897 0.00978231 0.056053538 0.113680385 0.07665215 0.005983274
-0.0034994995 0.022026213 -0.061863862 0.11574411 -0.02391413 0.06283325 -0.009562028 -0.12038031
0.047251362 0.054606616 0.009806296 0.01978913 0.08029202 0.11465173 0.0032050589 0.020139335
-0.10430882 -0.009122972 0.051412456 0.021760525 0.108636 0.076316565 0.032334596 0.050461642
0.059411786 -0.053513035 0.045298595 -0.0033868244 0.046221137 -0.013526307 0.09568225 0.050587714
-0.0028101746 0.09263851 -0.036568508 -0.01226662 0.07280541 0.05725356 -0.10852892 0.048183326
0.08126223 0.03543461 -0.01923696 -0.008029687 0.05636679 0.0044290866 0.034754388 -0.0129808895
0.029587297 -0.010935174 0.07491042 0.0845654 -0.08942249 -0.22126375 -0.017579846 0.11341753
0.031415943 0.0539344 0.03602054 -0.009285143 0.06279718 -0.0030558202 0.020569937 0.068936
0.021511633 -0.06462483 -0.0039572557 0.06829983 0.05603423 0.06902707 0.056672584 0.08542671
0.08336805 -0.013414002 0.0002070905 -0.0015126549 0.040799927 0.088274404 0.03732342 -0.03310742
0.057877563 0.043404676 0.13561217 0.06146321 0.04474556 -0.048334688 -0.024151262 0.0085713
0.029103842 0.036049124 0.03555063 -0.0014248498 0.07512496 -0.04418855 -0.012243698 0.049124073
-0.05312347 0.12216949 0.035219956 -0.015968509 0.04613276 -0.017947068 0.11640975 -0.06492227
0.033107467 0.044744946 -0.012772894 0.039111853 0.009748991 -0.04872879 0.07836539 -0.023364766
0.05853304 -0.0040988494 0.007453317 -0.008922397 0.10506571 -0.0040384573 -0.007062718 0.010205674
0.019119643 -0.024042554 -0.032552365 -0.022103965 0.014585893 0.028805844 0.0010740516 0.059049267
-0.076113716 0.030076446 0.0015516955 0.079702586 -0.061523218 -0.02321332 0.036854506 0.03910133
-0.082247466 0.007281875 0.08027372 -0.031783406 -0.0004092743 -0.0067723487 0.108027734 0.09446048
0.04658822 0.059065294 0.061071385 0.0034127778 0.07432918 -0.026308956 0.11967242 0.0052278424
0.046279997 0.020587107 0.11523768 -0.005385004 0.061422933 0.067486584 -0.01907088 0.08468996
00000000: 10a0 983c 4b13 7f3c fd01 983b 881f 823d
00000010: 60a8 ebbb cd16 0d3d dbe5 8e3d 7087 3b3d
00000020: cb72 f83c 0246 a4bc c772 4e3d 5b57 2d3e
00000030: df85 59bd 7129 513d 2bb7 233c 303e 87bb
00000040: ce30 143e acb9 f83d 83bd 2d3d 4bd8 b73c
00000050: df22 d13d 07a9 8e3d f55d 173d 590a 0a3d
00000060: d2ac 64bd bf06 c73c bb8f ce3d b640 383c
00000070: 178d 223c 20af 423c 4272 b2bc 257d d1bb
00000080: c907 d3bc b92a 783d 45b8 523c da9f 503e
00000090: b713 5a3d 2663 083e 7b13 433d 8aad d33c
000000a0: ca1a a63d fb33 6fbd de78 f23b 3c53 483d
000000b0: 2e71 0e3d e316 273e 6cb9 953d 86f7 fabc
000000c0: adee 003d 1ced 3f3c 8a6d 95bd f186 78bd
000000d0: 1dfa 3c3e 5c8b bf3d eba3 1bbe 6849 64bd
000000e0: 197c c23d d46b 863d c25e a0bd ee57 ef3d
000000f0: b551 c73d a6c0 c7bc ff9c e7bc d48e 14bc
00000100: bb53 97bc de40 a2bc c407 17bd ba36 4a3d
00000110: f6b4 72bc b14d 3e3d b0ab a03d 69e1 c13d
00000120: 0198 0c3d e831 713d 190d c6bc 0a33 273d
00000130: 476d 55bd 5604 23bd afcb 9c3c 7c16 783c
00000140: febe 693d 36eb 99bc 0a07 a5bd 10d8 0b3d
00000150: 991f 443d 3a5a f8bc 6770 ec3c 4f1e b93d
00000160: f02e 8d3d e440 8b3c b1cd 773d fb45 203c
00000170: 6598 653d 43d1 e83d cdfb 9c3d 570f c43b
00000180: dc57 65bb 5170 b43c f664 7dbd 3f0b ed3d
00000190: 91e7 c3bc b8ae 803d 0daa 1cbc f489 f6bd
000001a0: a58a 413d 30ab 5f3d 96aa 203c d01c a23c
000001b0: 2570 a43d 87ce ea3d f70b 523b 3ffb a43c
000001c0: dd9f d5bd 8578 15bc de95 523d 2143 b23c
000001d0: 8d7c de3d dc4b 9c3d 4871 043d deb0 4e3d
000001e0: c659 733d 7c30 5bbd 058b 393d 7cf5 5dbb
000001f0: 6052 3d3d 729d 5dbc 0ef5 c33d 1035 4f3d
00000200: e82a 38bb 42b9 bd3d dcc8 15bd eff9 48bc
00000210: 011b 953d b582 6a3d 6944 debd e15b 453d
00000220: d06c a63d e223 113d d496 9dbc f38e 03bc
00000230: dde0 663d df21 913b 9e5a 0e3d ccad 54bc
00000240: 0f61 f23c 7229 33bc a26a 993d a030 ad3d
00000250: 2323 b7bd f792 62be 9c03 90bc 7347 e83d
00000260: 01ae 003d 51ea 5c3d 468a 133d b620 18bc
00000270: cf9b 803d 2844 48bb 4982 a83c 512e 8d3d
00000280: 2a39 b03c 065a 84bd deab 81bb c8e0 8b3d
00000290: 2684 653d 115e 8d3d 8321 683d 33f4 ae3d
000002a0: debc aa3d 67c6 5bbc 6f26 5939 4744 c6ba
000002b0: d31d 273d 36c9 b43d 71e0 183d a59b 07bd
000002c0: 0611 6d3d 1ac9 313d ebdd 0a3e d9c0 7b3d
000002d0: 1f47 373d 98fa 45bd ded8 c5bc a36e 0c3c
000002e0: 2e6b ee3c 3fa8 133d 8a9d 113d 07c2 baba
000002f0: 1ddb 993d 0eff 34bd cb99 48bc 5336 493d
00000300: ff97 59bd ff33 fa3d cd42 103d 64d0 82bc
00000310: b4f5 3c3d bb05 93bc 3c68 ee3d f8f5 84bd
00000320: b29b 073d 7a46 373d 6745 51bc c033 203d
00000330: 3bba 1f3c d797 47bd 097e a03d 7767 bfbc
00000340: 57c0 6f3d a44f 86bb f43a f43b 3f2f 12bc
00000350: b12c d73d 0955 84bb 5f6e e7bb b335 273c
00000360: cca0 9c3c e4f4 c4bc a155 05bd 6013 b5bc
00000370: abf9 6e3c 3cfa eb3c 31c7 8c3a a5dd 713d
00000380: 82e1 9bbd e162 f63c 4362 cb3a 1c3b a33d
00000390: c5ff 7bbd dc29 bebc c0f4 163d b728 203d
000003a0: 5c71 a8bd cb9c ee3b 8c66 a43d 512f 02bd
000003b0: de93 d6b9 94ea ddbb a53d dd3d 7f74 c13d
000003c0: 4ad3 3e3d 73ee 713d fd25 7a3d e9a8 5f3b
000003d0: e639 983d e185 d7bc d016 f53d 524e ab3b
000003e0: 1890 3d3d 4ba6 a83c bc01 ec3d b074 b0bb
000003f0: 9d96 7b3d 6836 8a3d 893a 9cbc ee71 ad3d

network_body._body_endoder.seq_layers.2.weight f4 [256, 256]
0.09095337 0.0043091704 -0.06369113 0.058373332 -0.04874463 -0.06833267 -0.2041327 -0.12759219
0.081106715 -0.06653504 -0.15337507 -0.042643674 0.16403812 -0.1465219 0.036120728 0.13629745
0.020094344 0.22761825 -0.007854085 0.06166818 0.0023083482 0.22764748 -0.07757828 0.13800201
0.11401582 -0.16649656 0.11816091 0.098662935 -0.28961903 -0.11817878 0.21538834 0.19828188
0.00026151477 -0.28125188 0.0085565355 -0.20571499 0.0007838976 -0.13080081 -0.006491206 -0.009288677
0.12078505 -0.08455002 0.061121363 -0.014818766 0.06944213 0.04557356 -0.37306345 -0.19523661
-0.09235198 0.08827962 -0.1015539 0.122690685 -0.18205497 -0.21790558 -0.14500614 0.067345284
-0.062245376 0.0868973 0.1404755 -0.29815575 -0.0447245 0.104551144 -0.13907628 -0.057679113
0.16310346 0.18884808 -0.024238408 0.12324192 0.14007065 -0.042783324 0.085079566 -0.024072006
-0.13384145 -0.09353714 0.009464355 -0.13258158 -0.10043684 -0.17193395 -0.11533368 0.22251211
0.13920565 -0.026794463 0.016900888 -0.27226204 0.28018218 -0.23873569 -0.12642388 -0.25757343
0.25500166 0.0037623984 0.097907536 0.029338941 -0.07969495 -0.16388471 0.19490425 0.17677823
0.41312996 -0.14275447 -0.23981087 0.14026889 -0.15349752 0.046219084 0.33512294 0.07209522
-0.076765165 -0.020259183 -0.30751535 -0.08511669 -0.22731966 -0.2163236 0.08217056 0.05099576
0.2529823 0.10717311 0.029657738 0.07957294 -0.23498523 -0.19603373 -0.036161967 -0.17224078
-0.30789325 0.1424881 -0.004258411 -0.04155821 0.054043986 0.057498842 -0.15229894 -0.11120155
0.29022238 0.108768515 0.32976297 0.23854049 -0.15198351 -0.023808852 0.020826448 0.019805554
-0.06523943 -0.1747275 0.13673587 -0.04500555 -0.09500979 0.13760269 -0.17730567 0.018862428
0.17962007 0.2045896 -0.14049892 -0.051869344 -0.05305893 0.18783638 -0.119940296 -0.01827401
-0.04775423 0.25858185 -0.072668664 -0.010868573 0.103841834 0.10009038 -0.04370316 -0.016072655
-0.02132727 -0.0065620947 -0.044128582 0.12784068 -0.20355509 -0.017781315 -0.11406838 0.06749614
-0.08869559 -0.046670962 0.06977212 0.026346179 -0.06093795 -0.17309046 -0.104636736 0.13918327
0.06966609 -0.29231074 0.07531484 0.004478206 -0.45818695 0.2639039 -0.07172705 -0.0066843084
-0.103183955 -0.04642058 0.026249098 0.008024462 0.15085062 0.113595456 0.18377832 -0.08624953
0.10620624 -0.10897334 0.16667946 -0.0049442356 0.11618663 0.016323352 -0.029689401 0.23197307
0.19214329 0.1008263 0.06101695 0.05447632 -0.023644548 -0.05107732 0.05372102 0.040690772
-0.06341396 -0.17130503 -0.15081282 -0.07543932 -0.09672358 0.00042721367 0.14783101 -0.15400858
-0.011106814 0.18903358 0.06372836 0.09313777 0.07993145 -0.23555769 0.20981774 -0.1473883
-0.08495068 -0.061488174 0.05456003 0.26276782 0.017420474 0.024704525 -0.07557563 -0.25221336
-0.06560542 0.031238127 -0.3212326 0.28717613 0.08768803 -0.02254415 -0.37704223 -0.08614381
-0.12529516 -0.18402983 -0.09975517 0.018223172 -0.066024356 0.0804759 0.06632819 -0.35094172
-0.16063803 -0.12609786 -0.14518456 0.14845192 0.019568315 0.10152748 0.09248748 -0.00027802255
00000000: c345 ba3d f133 8d3b 7f70 82bd e018 6f3d
00000010: 73a8 47bd 00f2 8bbd 2a08 51be 87a7 02be
00000020: 471b a63d 8643 88bd 5b0e 1dbe 22ab 2ebd
00000030: 9cf9 273e d609 16be 54f3 133d 8f91 0b3e
00000040: e59c a43c c214 693e 6cae 00bc c697 7c3d
00000050: a847 173b 6c1c 693e 5ce1 9ebd 6650 0d3e
00000060: 2081 e93d 137e 2abe 59fe f13d cb0f ca3d
00000070: f248 94be b707 f2bd c38e 5c3e 680a 4b3e
00000080: eb1b 8939 3f00 90be b630 0c3c f3a6 52be
00000090: 7a7e 4d3a a6f0 05be 2fb4 d4bb 892f 18bc
000000a0: 275e f73d 9028 adbd 655a 7a3d 69ca 72bc
000000b0: ad37 8e3d 57ab 3a3d 2c02 bfbe 1bec 47be
000000c0: 0923 bdbd f2cb b43d 7efb cfbd 4145 fb3d
000000d0: 9e6c 3abe a422 5fbe 7d7c 14be 53ec 893d
000000e0: 02f5 7ebd 36f7 b13d cfd8 0f3e dfa7 98be
000000f0: 0a31 37bd e91e d63d 036a 0ebe ef40 6cbd
00000100: 9804 273e 6461 413e a08f c6bc 4266 fc3d
00000110: ae6e 0f3e 913d 2fbd 323e ae3d a832 c5bc
00000120: bc0d 09be 6690 bfbd 6210 1b3c 77c3 07be
00000130: d4b1 cdbd 740f 30be 1034 ecbd 37da 633e
00000140: ed8b 0e3e 1080 dbbc bb73 8a3c ee65 8bbe
00000150: 0a74 8f3e 2177 74be 4375 01be aae0 83be
00000160: 948f 823e 9292 763b bf83 c83d 3858 f03c
00000170: 1b37 a3bd 65d1 27be fb94 473e 5a05 353e
00000180: c585 d33e 3a2e 12be fb90 75be a6a2 0f3e
00000190: 742e 1dbe 3950 3d3d 3c95 ab3e a9a6 933d
000001a0: 0e37 9dbd 96f6 a5bc a772 9dbe a951 aebd
000001b0: 7cc6 68be ef83 5dbe 0a49 a83d eee0 503d
000001c0: e586 813e 937d db3d c9f4 f23c 23f7 a23d
000001d0: f89f 70be 11bd 48be 921e 14bd e35f 30be
000001e0: 2fa4 9dbe 67e8 113e 248a 8bbb f138 2abd
000001f0: 3a5d 5d3d e883 6b3d 41f4 1bbe a3bd e3bd
00000200: 0798 943e 07c2 de3d b1d6 a83e f543 743e
00000210: 91a1 1bbe c80a c3bc 3a9c aa3c 423f a23c
00000220: 409c 85bd c4eb 32be 7d04 0c3e bd57 38bd
00000230: 7e94 c2bd b8e7 0c3e 9e8f 35be 6185 9a3c
00000240: 53ee 373e f07f 513e f3de 0fbe f374 54bd
00000250: 5254 59bd 2e58 403e 42a3 f5bd 60b3 95bc
00000260: f199 43bd d764 843e 4fd3 94bd 1912 32bc
00000270: 07ab d43d 2ffc cc3d 1602 33bd cdaa 83bc
00000280: 87b6 aebc d706 d7bb 2cc0 34bd abe8 023e
00000290: bf70 50be 1faa 91bc af9c e9bd 6b3b 8a3d
000002a0: 09a6 b5bd 0d2a 3fbd afe4 8e3d f1d3 d73c
000002b0: 129a 79bd a03e 31be c94b d6bd 0f86 0e3e
000002c0: 18ad 8e3d c1a9 95be ab3e 9a3d eabd 923b
000002d0: 7b97 eabe 691e 873e a2e5 92bd 0b08 dbbb
000002e0: 1c52 d3bd 8223 3ebd 5908 d73c 0879 033c
000002f0: 9678 1a3e bca4 e83d 6230 3c3e 98a3 b0bd
00000300: a882 d93d 6a2d dfbd 05ae 2a3e 4103 a2bb
00000310: 42f3 ed3d 8db8 853c 3037 f3bc 598a 6d3e
00000320: 36c1 443e 057e ce3d e9ec 793d 9022 5f3d
00000330: 36b2 c1bc 7436 51bd 930a 5c3d 5eab 263d
00000340: 2edf 81bd 966a 2fbe ad6e 1abe ee7f 9abd
00000350: 0317 c6bd a6fb df39 0361 173e 6db4 1dbe
00000360: 5bf9 35bc 0592 413e 0484 823d 04bf be3d
00000370: 1ab3 a33d 0936 71be 76da 563e f5ec 16be
00000380: 9ffa adbd 06db 7bbd 577a 5f3d 8189 863e
00000390: 62b5 8e3c 2561 ca3c 65c7 9abd 1c22 81be
000003a0: 225c 86bd 1ae7 ff3c 9978 a4be c008 933e
000003b0: c895 b33d 82ae b8bc ae0b c1be 2a6c b0bd
000003c0: 604d 00be 5172 3cbe 704c ccbd c348 953c
000003d0: c737 87bd 8cd0 a43d 13d7 873d a2ae b3be
000003e0: 4c7e 24be cc1f 01be 43ab 14be c803 183e
000003f0: bb4d a03c a4ed cf3d 136a bd3d 8ec3 91b9

network_body._body_endoder.seq_layers.2.bias f4 [256]
-0.09895599 -0.029869366 0.021147374 -0.08213533 -0.36812735 0.067115955 0.1310143 0.07472717
0.024622392 -0.09329964 0.035027813 0.12707895 0.033747878 -0.16182236 -0.030584333 -0.01657419
-0.043940436 -0.049426988 0.13477594 0.2202168 -0.03913669 0.13110742 -0.05608778 -0.05375399
0.002268985 -0.057553817 -0.05324155 -0.035885047 -0.028259998 -0.045045584 0.025163865 0.1182978
-0.0031361568 -0.0059806807 0.12123597 0.0078044166 -0.06463711 0.062323723 -0.0452151 -0.005131032
-0.05306114 -0.017528452 -0.14908509 -0.057535313 -0.15722676 -0.11058369 -0.17334315 -0.10784226
-0.05323152 -0.043171346 0.10864985 -0.23481932 -0.030423563 -0.038080756 -0.012357501 0.1648876
-0.049030807 -0.033803094 -0.07397528 -0.003542759 -0.05440849 0.016299805 -0.0064857984 -0.06489257
0.1464306 -0.15029109 -0.03386424 0.037593856 -0.31544083 -0.19397044 -0.07633077 0.13889983
-0.057562 -0.016351582 -0.04854939 0.033833638 -0.009340119 -0.007866814 -0.06087245 -0.13909839
-0.041033797 -0.032055404 0.048498336 0.082059875 -0.089190416 -0.088677555 -0.1448981 0.042109475
0.051348317 -0.35296032 -0.0709732 0.13967647 0.07281427 -0.12689447 0.06860501 0.15239906
0.02968912 -0.09284637 -0.012400769 0.0077877366 0.03984593 -0.059125338 0.05752731 0.056021072
-0.036564324 0.014444636 -0.058647435 -0.0013835678 -0.044768617 0.008743905 -0.17148326 0.022768352
-0.080107525 0.062997065 0.0577289 0.039598037 -0.112524636 -0.024425905 0.033534106 0.09134853
0.22091118 -0.23889977 0.05658414 0.10935617 0.07398132 -0.023627792 0.0055886093 0.09046161
0.07178162 -0.023310231 0.03403437 -0.029630937 0.020338949 -0.06763389 0.08524586 -0.08091843
-0.011467857 0.016719697 -0.0042416565 -0.017687082 -0.07145885 0.04807472 -0.11444966 0.20001008
-0.0076311347 0.0029477915 0.08629898 -0.011092689 0.012426849 0.03503851 -0.016081031 -0.013368866
0.05801388 0.017264524 0.14783259 -0.07645036 0.027957074 0.0017435186 0.034031756 -0.021245204
0.070113264 0.09750774 0.046208523 -0.14928529 0.11895351 -0.016268235 -0.00620636 -0.06053533
-0.049783736 0.029317519 0.112834804 -0.10945279 0.16148886 0.024662562 0.014375829 0.066895746
0.056747053 -0.1456786 0.03431188 -0.10701066 -0.008638413 -0.046926044 0.08743608 0.058350556
-0.038927555 0.03009915 0.16470034 0.012043598 -0.05184454 0.00270719 -0.01017761 -0.13229555
-0.09946482 0.033408407 -0.026385896 0.058558993 -0.11499997 0.06827791 -0.12155222 0.005666748
0.1451999 -0.114492774 -0.11923817 0.07424095 -0.10673304 0.1274134 -0.030075673 0.15214536
-0.047337968 0.05745242 -0.034420136 0.02704849 0.039852828 -0.034095418 0.1336047 -0.16607085
0.22426726 0.07777775 -0.09317279 -0.12248459 -0.060710754 0.016356045 -0.015276656 0.017416105
0.122279525 0.032189045 0.08508006 -0.079888426 -0.017627234 -0.22219267 -0.02461598 -0.022699084
-0.006883766 -0.021131385 -0.117919035 -0.16507997 0.030305745 -0.017886383 -0.10094634 0.057316545
-0.18293324 0.14048243 -0.044956185 -0.14523587 -0.034060292 -0.018574588 0.07656531 0.055027865
-0.052201312 -0.08603017 -0.0013177743 0.0118344575 -0.1625504 -0.022580005 0.011815912 0.14569835
00000000: 70a9 cabd 9ab0 f4bc 423d ad3c 9136 a8bd
00000010: 307b bcbe 1774 893d 9d28 063e 8f0a 993d
00000020: e6b4 c93c e213 bfbd 5379 0f3d fc20 023e
00000030: 373b 0a3d c3b4 25be ff8b fabc 99c6 87bc
00000040: e3fa 33bd f473 4abd b402 0a3e 8380 613e
00000050: cb4d 20bd 0641 063e 4dbc 65bd 252d 5cbd
00000060: 40b3 143b 8dbd 6bbd d013 5abd 33fc 12bd
00000070: 8381 e7bc b881 38bd 7324 ce3c 1e46 f23d
00000080: fb87 4dbb 96f9 c3bb 904a f83d 31bc ff3b
00000090: 7660 84bd 2947 7f3d 7833 39bd 3722 a8bb
000000a0: a356 59bd d497 8fbc c3a9 18be 26aa 6bbd
000000b0: 0d00 21be b479 e2bd de80 31be 67dc dcbd
000000c0: 4b09 5abd 70d4 30bd d083 de3d 7a74 70be
000000d0: d63a f9bc 91fa 1bbd 1e77 4abc 4cd8 283e
000000e0: 87d4 48bd 1d75 0abd 5a80 97bd a22d 68bb
000000f0: 70db 5ebd 2b87 853c d286 d4bb 65e6 84bd
00000100: e7f1 153e e8e5 19be 3bb5 0abd 04fc 193d
00000110: 7681 a1be 30a0 46be 4f53 9cbd c23b 0e3e
00000120: 22c6 6bbd c1f3 85bc badb 46bd 2495 0a3d
00000130: 4c07 19bc cfe3 00bc 6455 79bd cf6f 0ebe
00000140: 0e13 28bd 874c 03bd 31a6 463d 020f a83d
00000150: 77a9 b6bd 949c b5bd 2b60 14be fc7a 2c3d
00000160: 9d52 523d 37b7 b4be 665a 91bd 5907 0f3e
00000170: a61f 953d a0f0 01be c980 8c3d 800e 1c3e
00000180: 9936 f33c 3d26 bebd 982c 4bbc 4530 ff3b
00000190: 7c35 233d 692d 72bd c2a1 6b3d 5a76 653d
000001a0: 79c4 15bd 32a9 6c3c 4b38 70bd d558 b5ba
000001b0: 4c5f 37bd 9942 0f3c 4f99 2fbe b284 ba3c
000001c0: 6a0f a4bd 9b04 813d 2475 6c3d 8d31 223d
000001d0: 5173 e6bd d618 c8bc 0f5b 093d f014 bb3d
000001e0: 8a36 623e 24a2 74be c5c4 673d 21f6 df3d
000001f0: 8583 973d 128f c1bc a720 b73b f043 b93d
00000200: 3e02 933d 19f5 bebc a067 0b3d 94bc f2bc
00000210: de9d a63c a383 8abd 6295 ae3d 90b8 a5bd
00000220: aee3 3bbc bff7 883c 98fd 8abb 80e4 90bc
00000230: 0459 92bd ffe9 443d 9564 eabd 71cf 4c3e
00000240: 990e fabb bc2f 413b 85bd b03d 1cbe 35bc
00000250: fc99 4b3c 8a84 0f3d 5ebc 83bc 1709 5bbc
00000260: f69f 6d3d 556e 8d3c 6d61 173e 0292 9cbd
00000270: 3c06 e53c c786 e43a e264 0b3d 6c0a aebc
00000280: 8b97 8f3d 23b2 c73d 2645 3d3d 3ede 18be
00000290: e69d f33d f644 85bc b95e cbbb e5f3 77bd
000002a0: 08ea 4bbd 4b2b f03c ef15 e73d c928 e0bd
000002b0: 565d 253e 2409 ca3c 9988 6b3c a300 893d
000002c0: 996f 683d c52c 15be 9d8a 0c3d 6828 dbbd
000002d0: 2188 0dbc 8635 40bd b011 b33d fe00 6f3d
000002e0: 8072 1fbd 7e92 f63c 35a7 283e 8352 453c
000002f0: f15a 54bd 1d6b 313b febf 26bc 7c78 07be
00000300: 36b4 cbbd 41d7 083d 3c27 d8bc 8edb 6f3d
00000310: 1b85 ebbd 4ad5 8b3d 5ff0 f8bd 21b0 b93b
00000320: 48af 143e 307b eabd 2433 f4bd a40b 983d
00000330: da96 dabd a978 023e 4261 f6bc fecb 1b3e
00000340: 75e5 41bd 3b53 6b3d 21fc 0cbd cb94 dd3c
00000350: b83c 233d a3a7 0bbd accf 083e 7a0e 2abe
00000360: 51a6 653e f149 9f3d 60d1 bebd 33d9 fabd
00000370: d7ab 78bd 1dfd 853c f04a 7abc 38ac 8e3c
00000380: b06d fa3d a9d8 033d 743e ae3d 8b9c a3bd
00000390: fd66 90bc 7a86 63be 74a7 c9bc 6ef3 b9bc
000003a0: 3791 e1bb ba1b adbc 897f f1bd b90a 29be
000003b0: c143 f83c 7786 92bc f4bc cebd c1c4 6a3d
000003c0: da52 3bbe a0da 0f3e fa23 38bd b6b8 14be
000003d0: ce82 0bbd bc29 98bc 46ce 9c3d e664 613d
000003e0: 0bd1 55bd 9630 b0bd 2bb9 acba 50e5 413c
000003f0: 9d73 26be b4f9 b8bc 8797 413c f331 153e

action_model._discrete_distribution.branches.0.weight f4 [7, 256]
-0.19499446 -0.06323352 -0.14639841 0.22481954 0.31134433 -0.025158433 0.14180273 -0.22121416
-0.23850651 0.073685735 0.12530743 -0.059087712 -0.07614199 0.060658906 0.17814472 0.08118533
0.072113864 0.110118315 -0.051600493 -0.30107868 0.0056168362 -0.26179665 -0.13361621 -0.25806195
0.02452835 -0.28456414 0.37119246 0.21458468 0.056179926 0.5052616 -0.0318642 0.12820709
-0.096522346 -0.09603507 -0.060262818 -0.18582083 -0.068044096 -0.100677185 -0.16210131 -0.06014219
0.13551033 -0.048691075 0.20206136 0.046652485 0.11348586 0.205618 -0.06066515 -0.12308123
0.23038661 0.090391256 -0.11436592 0.1998311 -0.10076368 0.026424894 0.15459941 -0.14146064
-0.09915938 -0.44192302 -0.04114523 -0.10913649 0.059996787 -0.17128725 -0.3642011 0.31005508
-0.10627798 0.060877703 -0.38730183 0.06812631 0.2983812 0.08981545 -0.0938509 -0.15640937
0.02220124 -0.080569625 0.19834298 0.026241254 0.07415014 0.015472786 -0.09640888 0.22155079
0.07423971 0.06790385 -0.061865173 -0.18210737 0.11779391 0.08847024 0.3056548 -0.064821996
-0.22810657 0.28705314 -0.10748531 -0.27857268 0.11533992 0.110642664 -0.28402984 -0.43687004
-0.25014076 0.043355968 -0.087337896 0.024533693 -0.031671476 0.08227165 -0.20553778 -0.031692296
0.052698147 0.0061991015 -0.019456184 -0.32288754 0.06523916 -0.33365834 0.10564804 -0.02103846
0.15762444 -0.095989145 -0.2798747 -0.012497753 -0.19514534 0.15487216 -0.14117284 0.053771347
-0.043156084 0.25793424 -0.15159826 -0.008987999 -0.17904106 0.2758083 0.14838532 -0.10332529
0.007278812 0.12609108 0.11303274 -0.16165192 -0.16954906 0.12487872 -0.30668312 0.14047961
0.27116528 -0.12883218 0.060791742 0.011125324 0.086540505 0.041783314 0.118264124 -0.119332686
0.16886733 0.07706137 -0.15406449 0.118649036 -0.051881835 -0.047338955 0.010339727 0.039460804
-0.26933816 -0.13915807 -0.10964972 0.19054389 -0.12972948 0.22275642 -0.13085231 -0.008104953
-0.08763107 -0.023838742 -0.10579989 0.14419182 -0.150288 -0.016209679 -0.04270759 0.18335158
-0.051642958 -0.027582752 -0.44688132 -0.09228907 0.21787871 -0.010449701 -0.06544945 -0.034763712
-0.12284916 0.030597055 -0.06995781 -0.08038221 -0.024561137 0.15226161 0.14921276 -0.08400984
-0.0005228316 -0.09868823 -0.03796496 -0.1481272 0.062825255 -0.044529945 -0.11775656 0.23607346
0.1809406 -0.06733787 -0.015878659 0.12804101 -0.071470775 -0.03391413 -0.042068314 0.0149762295
-0.11429844 -0.054940443 0.15006346 -0.079371385 0.04446303 -0.24416968 0.06603329 -0.14853431
-0.060247514 0.051974237 0.060916696 0.016413484 -0.18325204 -0.08317695 -0.08563509 -0.055559177
-0.1797574 -0.2576145 -0.2754399 0.3883249 0.10205232 -0.11726479 -0.038913567 -0.13647416
-0.17488655 0.18713477 0.066939995 0.1948714 0.17560415 -0.018464701 0.14645034 0.002538605
0.028979326 0.047918584 0.028394287 -0.02840723 -0.062935576 0.025561651 0.09516301 -0.08823591
0.08034283 -0.028001217 0.019122146 -0.029495005 -0.09359735 0.07642051 -0.103118315 0.12578186
0.18860975 0.12102436 0.1665779 -0.061151084 0.2583407 0.11276817 0.070287354 -0.25374743
00000000: a1ac 47be 9380 81bd 77e9 15be 1837 663e
00000010: 8668 9f3e 0f19 cebc bc34 113e f785 62be
00000020: 0d3b 74be 8ce8 963d 9750 003e f505 72bd
00000030: 55f0 9bbd 7975 783d 926b 363e 7f44 a63d
00000040: 6fb0 933d b685 e13d 0a5b 53bd fc26 9abe
00000050: 700d b83b 360a 86be b0d2 08be b220 84be
00000060: aeef c83c 64b2 91be f00c be3e 16bc 5b3e
00000070: ec1c 663d d358 013f 0984 02bd b848 033e
00000080: 82ad c5bd 09ae c4bd 25d6 76bd d147 3ebe
00000090: b45a 8bbd d72f cebd e3fd 25be a857 76bd
000000a0: 38c3 0a3e 4b70 47bd 2ce9 4e3e ad16 3f3d
000000b0: 466b e83d 868d 523e 057c 78bd 0312 fcbd
000000c0: 78ea 6b3e 0d1f b93d ae38 eabd 86a0 4c3e
000000d0: 305d cebd 0579 d83c 4f4f 1e3e 0fdb 10be
000000e0: 1314 cbbd bc43 e2be e787 28bd f482 dfbd
000000f0: 31bf 753d ed65 2fbe 9178 babe 8abf 9e3e
00000100: 45a8 d9bd e65a 793d 6d4c c6be cf85 8b3d
00000110: 6cc5 983e 2af1 b73d e734 c0bd c729 20be
00000120: 60df b53c b001 a5bd 6c1a 4b3e e6f7 d63c
00000130: 07dc 973d 9181 7d3c 0572 c5bd 36de 623e
00000140: fd0a 983d 2c11 8b3d 5666 7dbd 5b7a 3abe
00000150: ef3d f13d e32f b53d c97e 9c3e 65c1 84bd
00000160: c594 69be a1f8 923e 4221 dcbd 14a1 8ebe
00000170: 5637 ec3d 9f98 e23d 5c6c 91be 6ead dfbe
00000180: 7312 80be 0796 313d 36de b2bd e2fa c83c
00000190: f3b9 01bd 0a7e a83d 7f78 52be c8cf 01bd
000001a0: 03da 573d d521 cb3b 9362 9fbc 8451 a5be
000001b0: 1c9c 853d 44d5 aabe 005e d83d d958 acbc
000001c0: 4d68 213e f595 c4bd bd4b 8fbe 60c3 4cbc
000001d0: 2ed4 47be cf96 1e3e 9d8f 10be 583f 5c3d
000001e0: 6fc4 30bd f50f 843e 933c 1bbe 6642 13bc
000001f0: 8a56 37be bf36 8d3e 52f2 173e 369c d3bd
00000200: 1a83 ee3b 051e 013e b67d e73d 1588 25be
00000210: 459e 2dbe 6ac0 ff3d 9205 9dbe e3d9 0f3e
00000220: 2dd6 8a3e 95ec 03be c300 793d fe46 363c
00000230: 263c b13d fb24 2b3d 7634 f23d b264 f4bd
00000240: 8feb 2c3e 5ad2 9d3d 15c3 1dbe 44fe f23d
00000250: 0c82 54bd 7ee6 41bd f567 293c a7a1 213d
00000260: b1e6 89be 747f 0ebe 0890 e0bd f01d 433e
00000270: ced7 04be 421a 643e 26fe 05be a3ca 04bc
00000280: eb77 b3bd 7749 c3bc 9dad d8bd 05a7 133e
00000290: 19e5 19be 29ca 84bc 27ee 2ebd 84c0 3b3e
000002a0: 9187 53bd 39f5 e1bc a1cd e4be 0d02 bdbd
000002b0: 991b 5f3e 3935 2bbc 5c0a 86bd 6564 0ebd
000002c0: 5798 fbbd ada6 fa3c 0a46 8fbd 6e9f a4bd
000002d0: 7034 c9bc 78ea 1b3e 3bcb 183e 5a0d acbd
000002e0: a20e 09ba 0e1d cabd 2581 1bbd a8ae 17be
000002f0: 87aa 803d 0865 36bd 5a2a f1bd 3ebd 713e
00000300: 7e48 393e 70e8 89bd f613 82bc 2f1d 033e
00000310: 455f 92bd 8be9 0abd d34f 2cbd dc5e 753c
00000320: 4d15 eabd 3b09 61bd 3caa 193e 778d a2bd
00000330: de1e 363d 9e07 7abe 763c 873d 6119 18be
00000340: 19c6 76bd f0e2 543d c983 793d 9275 863c
00000350: 6ca6 3bbe ad58 aabd 7361 afbd 0592 63bd
00000360: 5312 38be 0ce6 83be 7506 8dbe 85d2 c63e
00000370: cf00 d13d 8628 f0bd d563 1fbd e2bf 0bbe
00000380: 7615 33be 42a0 3f3e d617 893d 5e8c 473e
00000390: 93d1 333e 4943 97bc 14f7 153e b95e 263b
000003a0: 0d66 ed3c 4746 443d 239b e83c 47b6 e8bc
000003b0: 5ee4 80bd ab66 d13c d3e4 c23d 07b5 b4bd
000003c0: c88a a43d cf62 e5bc 0ca6 9c3c 829f f1bc
000003d0: f8af bfbd 5b82 9c3d b22f d3bd f6cc 003e
000003e0: ea22 413e 9fdb f73d 6693 2a3e 8f79 7abd
000003f0: 3b45 843e 00f3 e63d d1f2 8f3d 2feb 81be

action_model._discrete_distribution.branches.0.bias f4 [7]
-0.47162625 0.004670723 -0.19968072 0.07433197 0.1568585 0.024384715 0.02714403
00000000: ff78 f1be dd0c 993b 1a79 4cbe 5c3b 983d
00000010: 849f 203e 74c2 c73c 285d de3c
