results/puzzle_experiment_6/PuzzleBehavior/PuzzleBehavior-35999936.onnx (onnx, 342923 bytes, 6 tensors)

network_body._body_endoder.seq_layers.0.weight f4 [256, 65]
000000 b3 52 99 3d 81 fb 9d bd 9b b2 9c 3d 11 d8 98 3e
       0.07486477 -0.07713986 0.07651254 0.29852346
000010 af 22 2b 3e de 01 8c bc 17 9d 38 3e a1 ff 1c 3e
       0.1671245 -0.017090734 0.18028675 0.1533189
000020 8c ee ee 3d 26 78 2d bd c6 8d 19 3e 98 ce 6a 3e
       0.11666593 -0.04235091 0.14995489 0.22930372
000030 27 f5 b1 3d 4d 5f 39 3d 12 50 63 be b3 d9 f6 3d
       0.08689337 0.0452569 -0.22198513 0.120532416
000040 6a c6 5c be 96 d9 05 be 5e e4 84 3e fc 52 d7 bd
       -0.21560064 -0.13071284 0.2595548 -0.10513875
000050 be bd f2 bc 1a c2 15 3e 4b 0d 1e be 7c 5a 82 bd
       -0.029631492 0.14624825 -0.15434758 -0.06364915
000060 5b dc ad bc d7 b7 fc 3d 37 e1 19 3e ec f4 55 ba
       -0.021223238 0.12339752 0.15027319 -0.00081618014
000070 44 e8 74 3e bf e3 d8 3d 8a 54 ef 3e 22 4d cb 3d
       0.23916727 0.10590314 0.46744186 0.09926821
000080 46 a3 ff bc 4c 41 80 bc 1e ef 97 3d 5b d9 b9 3c
       -0.031205785 -0.015656136 0.07418655 0.022686651
000090 ca 5e 9e 3e 6f c4 6a be 6f e4 63 3e 88 86 8f 3e
       0.30931693 -0.22926496 0.22255109 0.28032327
0000a0 7e 3e 15 bd 2b 61 7e bd 48 89 26 be 0f 93 ca 3e
       -0.03643655 -0.062104385 -0.16263306 0.39565322
0000b0 ea 68 c8 3b a4 8c 9e 3e 5d 37 bd bd 0f 62 89 3e
       0.0061160224 0.30966675 -0.09239075 0.26832625
0000c0 f4 ac aa 3d 55 ca 62 3b bf 4b aa bd 57 d9 8e bd
       0.083337694 0.0034605463 -0.08315229 -0.06975048
0000d0 37 d6 43 3e 20 2d c1 3e 27 82 af 3c 82 8c 88 3d
       0.19124685 0.3772974 0.021424366 0.06667425
0000e0 44 c0 ce 3d 3f 10 0f 3e 20 c7 a2 3c 3c d6 65 be
       0.100952655 0.13971041 0.01987034 -0.22445005
0000f0 da 79 f4 3a 54 6c 98 3e 1c 59 10 bf 08 ea 36 3e
       0.0018652037 0.29770148 -0.5638597 0.17862713
000100 6d 8d 5e be d3 a9 1a be 4f 06 c0 3d fa a5 61 be
       -0.21733637 -0.15103845 0.09376203 -0.22035971
000110 be a3 cd bd 05 35 82 3e 5c 75 04 be e2 b2 32 bd
       -0.10040997 0.25431076 -0.12935394 -0.043627627
000120 ce 52 9d be e3 6c 9c bd 4a 8d 36 be 06 5f 7c 3d
       -0.30727237 -0.07637956 -0.17827335 0.06161406
000130 7e b6 ab bc 7d 35 08 be 31 01 ce bd 7c 05 35 bd
       -0.020961042 -0.13301654 -0.10058821 -0.044194683
000140 83 5f 54 bc 50 eb 7f 3d b4 95 9c 3e 85 a8 73 bf
       -0.012962225 0.06248027 0.30582964 -0.95179015
000150 a5 68 1d 3e fb c7 ea 3d ae 97 3a 3e 9a 5b c2 bc
       0.1537195 0.114639245 0.18221924 -0.02372532
000160 e7 92 07 3e 96 ce 64 3d 6c 38 b7 be c5 eb 86 3d
       0.13239633 0.05586108 -0.35785234 0.06587938
000170 e0 6e ba be 92 49 32 3e 4b d3 98 be 20 bb 52 3d
       -0.36412716 0.17410877 -0.29848704 0.051447988
000180 10 47 af bd d3 73 aa 3d 80 2a 23 bd fd 27 8f 3d
       -0.08558476 0.08322873 -0.039835453 0.06990049
000190 29 fa 34 3e 23 42 03 bf 6e e8 03 3e 95 23 15 3e
       0.17673554 -0.5127279 0.12881634 0.14564355
0001a0 b4 09 cf bd 98 dd 26 3e 28 7c 17 be 25 c5 cc 3c
       -0.101092726 0.16295469 -0.14793456 0.02499635
0001b0 a7 67 eb 3d 9d e6 3d 3e 1c c1 2f bf c1 e7 96 bd
       0.114943795 0.18545003 -0.68654037 -0.07368422
0001c0 59 80 3c be 84 53 95 3e eb 7b c0 bd b7 65 88 be
       -0.18408336 0.2916528 -0.093986355 -0.26640102
0001d0 fd 33 18 3e 96 21 06 be 2d e0 7c 3e cc 1a a0 be
       0.14863582 -0.1309875 0.24694891 -0.31270444
0001e0 1c 95 a0 3d 96 cd 97 3d 22 b6 49 3e b1 a4 bd 3d
       0.0784094 0.07412259 0.19698384 0.09259928
0001f0 33 cc 3c 3d d1 07 22 3d 6b dc 02 be f7 df c2 3e
       0.046093177 0.039558236 -0.12779395 0.38061497
000200 6e c9 d8 3e a4 37 16 3e ae c6 05 be cd 22 aa bd
       0.4234118 0.14669663 -0.13064072 -0.08307419
000210 b9 d0 b5 bc 5f e1 ae 3e 32 d8 1d be c4 58 2e bd
       -0.022194253 0.3415632 -0.15414503 -0.042565122
000220 e3 8e 2c 3d 73 0b df bd 6b 95 98 3e 25 49 70 3e
       0.042128455 -0.10890856 0.29801497 0.23465402
000230 85 cb c0 bb 5e 9b 5e 3e fc e2 da 3d 06 53 99 bd
       -0.0058836364 0.21738955 0.10687825 -0.074865386
000240 03 b5 41 bd 6a 6a 66 3d 6b 37 25 bd cb fa f2 3d
       -0.047291767 0.056253828 -0.040336054 0.11864241
000250 8f 1c 3f 3d 73 e2 d1 bd 88 1c d0 3d 80 73 26 3e
       0.046658095 -0.1024827 0.10161692 0.16254997
000260 c1 e4 bd bd c1 16 4a bd 1c 1b d7 bd 59 87 2d be
       -0.09272147 -0.049338106 -0.105032176 -0.16946162
000270 11 ce c2 3c c1 89 9d bd ac e9 ad 3d 8f d0 ca 3d
       0.0237799 -0.0769229 0.08491835 0.09903061
000280 d5 ac 18 be 49 36 70 3e 52 5f 39 3e 6f 91 7a 3e
       -0.1490968 0.23458208 0.18102768 0.24469541
000290 17 1e 31 3e 39 05 99 3c f1 0e 22 3d 46 16 fa bd
       0.17296635 0.018679248 0.03956503 -0.122112796
0002a0 d1 a0 89 3d 9e e8 53 bd d1 38 b8 3d 20 2a 51 bd
       0.067201264 -0.051735513 0.08995212 -0.051065564
0002b0 5c 69 b2 bd 78 59 20 be 17 4f c9 bd 85 c8 c6 3d
       -0.08711502 -0.1565913 -0.09829538 0.09706215
0002c0 74 82 6e 3e f8 0d 10 be 96 29 07 3d df 79 c0 3d
       0.23291951 -0.14067829 0.032998644 0.09398245
0002d0 29 2e 53 3e f6 36 b5 be dc 3a be 3e a7 c1 83 bf
       0.20623077 -0.35393494 0.3715428 -1.0293473
0002e0 dd 3c 5d bd 30 1e b6 3e 46 62 0d 3f 1a 70 bc 3d
       -0.054013122 0.35569906 0.5522808 0.09201069
0002f0 90 82 4d bc fd 74 30 be 6c 55 70 be 89 66 b4 3a
       -0.012543336 -0.17232127 -0.23470086 0.0013763468
000300 e2 58 02 3e 0f 2f 26 3e eb 86 b0 3d 83 4d 2a 3e
       0.12729219 0.16228889 0.086194836 0.16631131
000310 c8 b1 0c 3e 61 8c 12 3e da ae b0 3d 99 b3 29 be
       0.13739693 0.14311363 0.086271 -0.16572417
000320 59 f6 c5 3d e7 3e b2 bc bd 89 5a 3d f2 0c 07 3e
       0.09666128 -0.02175851 0.053354014 0.13188532
000330 d6 83 0a be 57 05 e0 bd 55 d7 7b bc aa 4c 9d 3e
       -0.13526854 -0.109385185 -0.015371163 0.30722553
000340 cc 76 72 3e 81 17 8b bc 9e ca d3 3d f3 bf f6 3d
       0.2367813 -0.016978981 0.103413805 0.1204833
000350 47 9b d0 bd d8 0d 65 3e 9e 31 a0 3e 5b 13 d0 3d
       -0.10185867 0.22368562 0.31287855 0.10159942
000360 33 24 a0 3d 68 ff 09 be c0 23 87 3d e5 35 28 bd
       0.078194045 -0.13476336 0.06598616 -0.041067023
000370 f0 5d 86 3e 88 6d 95 be 69 de b4 bd 15 cc 73 3d
       0.26243544 -0.29185128 -0.08831484 0.0595208
000380 a8 94 0d 3f 46 15 84 be fd 8a d9 bd fb 1f 2e 3d
       0.55304956 -0.2579748 -0.10622213 0.042510968
000390 60 7b e2 bd 49 f4 ae be 3a 0c 12 bd 9b 7a 95 3e
       -0.11058688 -0.3417075 -0.03565619 0.29195103
0003a0 30 e2 f9 3d cd 94 fa bd 4a be 9d 3e 36 84 9e bd
       0.12201345 -0.12235413 0.30809242 -0.07740061
0003b0 8e e6 aa be c4 a9 90 be 13 e0 fe 3d f8 b3 15 bf
       -0.33379024 -0.2825452 0.124450825 -0.58477736
0003c0 62 c4 23 be d5 59 b0 bd 08 92 3f 3e a6 09 92 3d
       -0.15992883 -0.08610884 0.1870805 0.071307465
0003d0 b9 a4 f7 3d b0 78 f9 3d 92 4f ee bc 6b 01 3d bd
       0.12091965 0.121812224 -0.029090676 -0.04614393
0003e0 0a d1 17 3f dc ce 03 be 4c 4c c1 3d 97 3b b3 be
       0.59303343 -0.1287188 0.094383806 -0.350064
0003f0 1d e4 f8 bc 7d 08 2a bd a4 aa 21 3d 29 24 5f 3e
       -0.03038221 -0.041512 0.039469376 0.21791138

network_body._body_endoder.seq_layers.0.bias f4 [256]
000000 87 73 4c 3c 81 27 90 3c f6 99 04 3c 12 55 45 3d
       0.012478716 0.017596962 0.008093348 0.048176832
000010 ab 5a a2 bc 07 93 09 3d 46 d2 88 3d d5 27 68 3d
       -0.019818624 0.03358748 0.066807315 0.05667861
000020 01 70 82 3c f3 d0 fa bc 80 82 3d 3d 2a fe 30 3e
       0.015922548 -0.030617213 0.046267033 0.17284456
000030 fe 34 63 bd c8 22 06 3d 44 98 aa 3c 0c 67 b9 39
       -0.05547046 0.032748014 0.020824559 0.00035362726
000040 c4 6b 1b 3e 8d 2d 02 3e c2 ba 30 3d bc f4 0e 3d
       0.15177828 0.12712689 0.043146856 0.034901366
000050 45 1c e0 3d bc fc 98 3d da 57 33 3d 14 39 ee 3c
       0.10942892 0.0747008 0.043784954 0.029079951
000060 7e cb 32 bd 8c aa a9 3c f3 63 ec 3d f9 02 1a bb
       -0.043651097 0.020711206 0.11542501 -0.0023500307
000070 4a 4a 0f bc 93 c0 f2 38 44 f1 bb bc 40 be 5f 3b
       -0.008745739 0.00011575329 -0.022942193 0.0034140497
000080 17 46 ed bc aa e3 50 3d c5 c5 4c 3c c1 61 4c 3e
       -0.028964086 0.050998367 0.012498324 0.19959165
000090 b4 09 81 3d c2 19 f0 3d f6 40 2b 3d 3b 0b 00 3d
       0.06300679 0.11723663 0.04181 0.03126071
0000a0 9b e3 ae 3d ef 31 96 bd 25 0c f1 b9 85 1d 12 3d
       0.08539506 -0.07333743 -0.0004597615 0.035672683
0000b0 78 12 ae 3c 54 d6 2c 3e ff a1 7c 3d f4 f9 2a bd
       0.021249041 0.16878635 0.06167793 -0.04174228
0000c0 b9 35 61 3c 81 fc d6 3b aa f7 9c bd cc c6 67 bd
       0.013745719 0.0065608625 -0.07664426 -0.05658607
0000d0 37 ea 3e 3e 59 c5 9e 3d 29 05 25 be 23 e7 52 bd
       0.18644033 0.07752485 -0.1611525 -0.05148996
0000e0 54 a9 d8 3d 7c 7e 94 3d 51 cf ae bd ad dd da 3d
       0.10579172 0.072506875 -0.08535636 0.106868125
0000f0 5c e3 d1 3d 66 4d 8f bc 39 49 ae bc b0 00 40 bc
       0.102484435 -0.017492961 -0.02127515 -0.011718914
000100 c1 93 c5 bc f4 5a d3 bc ea 0f 06 bd 02 d0 77 3d
       -0.024118306 -0.025800206 -0.03273002 0.060501106
000110 92 be b9 bb b0 3b 3f 3d db 8f 9f 3d 0f ee b0 3d
       -0.0056684697 0.04668778 0.0779111 0.08639156
000120 fb 72 44 3d 29 1b 72 3d a6 86 ca bc 13 27 64 3d
       0.047961216 0.059107933 -0.024722409 0.055701327
000130 5e ef 61 bd cc d8 10 bd eb 4a 3d 3c 49 c4 9b 3c
       -0.05515992 -0.035363004 0.011553506 0.019014494
000140 bc b0 53 3d 34 8e 00 bd cc ee cc bd 36 04 27 3d
       0.05168222 -0.031385615 -0.100064844 0.0407755
000150 b4 33 83 3d e3 84 f8 bc 32 77 b5 3c a1 8b 93 3d
       0.06406346 -0.030336803 0.022151563 0.072043665
000160 7a 65 96 3d ec 8e aa 3c da d2 51 3d 7c 68 fa 3c
       0.07343574 0.020820104 0.051226474 0.0305674
000170 65 15 7f 3d 77 94 dd 3d 71 3f 98 3d 2e 76 2c 3a
       0.062276263 0.10819333 0.074339755 0.00065788894
000180 be e1 81 bb a0 bf a1 3c f9 e9 90 bd e1 2a 03 3e
       -0.003963678 0.019744694 -0.07075877 0.12809326
000190 74 86 b0 bc bb 78 7d 3d 82 db ab 39 42 43 f9 bd
       -0.021548487 0.061882716 0.00032779208 -0.121710315
0001a0 aa 4a 5d 3d 27 6b 46 3d 73 e0 67 3b 96 6a 64 3c
       0.054026283 0.048442032 0.0035381585 0.013941428
0001b0 cf 89 80 3d 65 6f bb 3d 91 98 a6 3a 88 1e 29 bb
       0.06276285 0.09152106 0.0012710263 -0.0025805552
0001c0 6b b6 bc bd 1d 2d 21 bc 69 95 35 3d b1 e2 be 3c
       -0.09214481 -0.009837416 0.04433194 0.023301454
0001d0 18 82 ca 3d 49 4b 88 3d 49 d7 0e 3d 67 70 83 3d
       0.09888095 0.066549845 0.03487328 0.064179234
0001e0 ac f9 8f 3d 41 65 5e bd 54 f0 17 3d c1 8b 76 bc
       0.07030043 -0.054295782 0.03709443 -0.015047968
0001f0 db d3 60 3d 2f 54 0a bd bc 0f d4 3d 93 8f 55 3d
       0.05488954 -0.03377169 0.103545636 0.052138876
000200 49 68 a1 bb 0c 33 bb 3d 24 13 e0 bc 9d 4b cb bb
       -0.004925762 0.09140596 -0.027352877 -0.006204082
000210 39 7e a1 3d a2 68 32 3d 20 00 d1 bd 15 a9 51 3d
       0.07885403 0.043556817 -0.10205102 0.05118664
000220 24 02 5a 3d e9 a2 27 3d cc ce e3 bc 35 43 fb 37
       0.053224698 0.040926848 -0.02780857 2.9952827e-05
000230 9a 79 1a 3d 68 5b 9c ba 9e 5f a0 3c b4 b5 7e bb
       0.037713625 -0.0011929097 0.019576844 -0.0038865628
000240 7c 2b 85 3c 8e c0 54 bb 6e 1e 7d 3d 61 71 ba 3d
       0.016256087 -0.0032463404 0.061796598 0.091036566
000250 9d c8 c0 bd c2 ee 6f be f7 9f 1b bc 93 fe c4 3d
       -0.09413264 -0.23430923 -0.009498588 0.09618869
000260 a3 08 2e 3d c9 4c 82 3d c2 71 16 3d 12 31 07 bd
       0.042488705 0.06362302 0.03672958 -0.03300578
000270 34 02 6a 3d 35 2d 4c 3a 54 ea e6 3c 87 ed 88 3d
       0.057131007 0.0007788719 0.028187908 0.0668593
000280 7d 1e 8c 3c 26 e9 86 bd 1c a0 13 bc 23 2f a8 3d
       0.017104382 -0.06587438 -0.009010341 0.082121156
000290 71 ff 39 3d bc f0 7a 3d 87 b2 4b 3d 6d b2 9e 3d
       0.045409624 0.06126474 0.049730804 0.07748876
0002a0 c1 55 c0 3d 84 c7 4a bc 88 c6 fd ba bd c6 63 3b
       0.09391356 -0.01237667 -0.0019361535 0.0034755908
0002b0 a3 3d f6 3c 0c 3e 9e 3d c4 e8 2e 3d 8f dd 40 bd
       0.030058688 0.07726678 0.04270245 -0.047086295
0002c0 6f 77 7c 3d b6 ff dd 3c 6d 2b 06 3e 4d 49 1f 3d
       0.06163734 0.027099472 0.13102503 0.038888264
0002d0 08 1b 15 3d ed f7 24 bd 48 17 73 bc 77 30 89 3c
       0.036402732 -0.040275503 -0.014837094 0.016746743
0002e0 c8 94 8a 3c d7 fc f9 3c 05 48 f4 3c d7 46 07 bc
       0.016916648 0.030516071 0.029819498 -0.008256636
0002f0 a6 36 a3 3d ef bb 59 bd 06 9a 62 3b ad 9b 65 3d
       0.07969408 -0.053157743 0.0034576668 0.056056667
000300 3a 57 33 bd a8 75 f0 3d dc 53 80 3c f8 f4 d0 bc
       -0.043784358 0.11741191 0.015664987 -0.025507435
000310 a9 55 54 3d a9 39 91 bc 0f 2e f7 3d 44 30 83 bd
       0.051839504 -0.01772769 0.12069332 -0.0640569
000320 b3 42 37 3d 37 42 17 3d 2f 5f 7d bc 3a 98 12 3d
       0.044741344 0.03692838 -0.015464588 0.035789706
000330 ea e3 7a 3b 89 80 32 bd b7 7f 7b 3d ad d5 ed bc
       0.003828282 -0.043579612 0.061401095 -0.029032553
000340 40 37 82 3d 28 a1 b3 bb ef 4c 26 bc e8 a4 ea bc
       0.06358194 -0.005481858 -0.010150178 -0.028643087
000350 ac 3b e7 3d 2e 2a 7d bb 33 90 59 bc f9 fd b9 3c
       0.112906784 -0.0038629877 -0.013279009 0.022704111
000360 81 e3 42 3c 9e d5 d6 bc ae 76 e4 bc b7 5d 06 bd
       0.0118950615 -0.026224907 -0.027888622 -0.032804217
000370 03 4f b6 3c ca cb 82 3c fc a0 86 bb 37 2c 47 3d
       0.022254473 0.015966315 -0.0041085463 0.04862615
000380 b8 a3 a8 bd b2 37 c9 3c ed b2 94 3b c1 48 b6 3d
       -0.08234352 0.02456269 0.004537931 0.089005955
000390 9c ed 5f bd b1 d2 14 bd f8 c1 42 3d bc 4d 02 3d
       -0.05466996 -0.036333743 0.047548264 0.031812415
0003a0 de dd cd bd 50 8a 85 3b 53 24 95 3d f7 cd 19 bd
       -0.100520834 0.004075326 0.07282319 -0.03754994
0003b0 9f 59 03 bb a3 90 05 bc 16 31 ac 3d a4 15 9f 3d
       -0.0020042432 -0.00815216 0.084078 0.077677995
0003c0 4f d0 73 3d b3 82 5c 3d 67 43 7b 3d 46 7d 38 3b
       0.05952483 0.053835582 0.061343577 0.002815084
0003d0 46 3a 90 3d 3c cf 01 bd 2f 71 00 3e 98 61 76 3c
       0.07042365 -0.031691775 0.12543176 0.015037917
0003e0 0f f6 40 3d 72 ef 93 3c d8 ea f5 3d be a7 2b bc
       0.04710966 0.018058512 0.120076835 -0.010477005
0003f0 d6 95 11 3d 10 cf 89 3d 92 4d 02 bd 85 fc a9 3d
       0.035543285 0.06728947 -0.031812258 0.083001174

network_body._body_endoder.seq_layers.2.weight f4 [256, 256]
000000 ea 12 b3 3d 91 43 97 3a 0c aa 34 bd 26 89 a7 3d
       0.08743842 0.0011540522 -0.04410748 0.08180456
000010 c8 7b d8 bc b8 61 b4 bd 2c 7d 23 be 34 d5 e1 bd
       -0.026426211 -0.08807701 -0.15965718 -0.110269934
000020 03 3e c5 3d 5d dc 26 bd c9 42 01 be 57 7b 3c bc
       0.096309684 -0.0407375 -0.12623133 -0.011504016
000030 aa 4b 08 3e a0 ba 1d be c0 02 17 3d 42 b4 1a 3e
       0.13310114 -0.15403223 0.036867857 0.15107825
000040 d8 fa 49 3d af a0 6e 3e e4 b0 b6 3b 97 dd b0 3d
       0.04931149 0.23303483 0.005575286 0.08636015
000050 3c e4 40 3c 0b 33 83 3e 89 7f a3 bd 33 bb ba 3d
       0.011773165 0.2562488 -0.0798331 0.09117737
000060 4b d1 f2 3d 86 5b 05 be a0 cc de 3d 38 c4 0e 3e
       0.11856326 -0.13023195 0.10878873 0.13942039
000070 1a 33 83 be ff 4c ec bd 90 98 5a 3e d7 d7 46 3e
       -0.25624925 -0.11538123 0.2134726 0.19418274
000080 0c 7a 9a 3c 28 5e 87 be 12 58 2c bc 8d c2 7c be
       0.018857025 -0.26439023 -0.0105190445 -0.2468359
000090 30 f7 0a bb 3c d8 0d be fa c4 24 bc 29 25 00 bc
       -0.0021204464 -0.13852018 -0.0100567285 -0.00782136
0000a0 bd 6b e7 3d 7a d0 50 bd 7b 61 8b 3d 12 31 0d ba
       0.11299846 -0.05098007 0.06805702 -0.0005386035
0000b0 93 18 6b 3d 04 37 f4 3c 00 8b b0 be 02 a0 47 be
       0.057396483 0.02981139 -0.3448105 -0.19494632
0000c0 ba f4 67 bd ae 86 d7 3d 18 7a e4 bd 8a 76 04 3e
       -0.056629874 0.10523735 -0.111561 0.12935844
0000d0 a5 e0 32 be 00 54 65 be 6c 18 33 be 39 95 84 3d
       -0.17468508 -0.22395325 -0.17489785 0.064737745
0000e0 63 8f a9 bd f3 4e b3 3d fd 73 09 3e 6e 33 8f be
       -0.08279302 0.08755293 0.13423152 -0.27968925
0000f0 bb 5d 0b bd 3b fa e6 3d 6d 77 ec bd f4 75 9d bd
       -0.034024935 0.112781964 -0.11546216 -0.076885134
000100 f5 b3 33 3e 14 c9 64 3e 27 62 51 bd 1f 9f 09 3e
       0.17549117 0.2234233 -0.051118996 0.13439606
000110 2a b5 1d 3e 57 ff 51 bd 33 3d 65 3d ef d6 03 3d
       0.1540114 -0.0512689 0.055966567 0.0321874
000120 ff 47 e9 bd 89 2e b5 bd 1c 30 6e 3a 4f 72 11 be
       -0.11390685 -0.088467665 0.00090861483 -0.14203762
000130 4d b3 34 bd 43 5a ff bd 08 39 e1 bd 80 9e 46 3e
       -0.044116307 -0.12468388 -0.10997206 0.193964
000140 72 eb 10 3e 40 09 6c 3d d7 f2 1b 3d 9a cf 95 be
       0.14152315 0.05762601 0.038073387 -0.2925995
000150 14 bd 88 3e ab f2 89 be 28 3e d4 bd dc 7b 6c be
       0.26706755 -0.26942953 -0.10363418 -0.23094124
000160 d8 fd 71 3e 6f 04 d1 3a e3 4a 01 3e d6 89 ac 3c
       0.2363199 0.0015946756 0.12626223 0.021061819
000170 6c 48 39 bd 6a 4f 12 be 8a e0 6e 3e 17 74 51 3e
       -0.045235083 -0.14288107 0.23327842 0.20454441
000180 ab 30 d7 3e 5d 72 19 be f1 43 55 be 34 88 44 3e
       0.42029318 -0.14985032 -0.20826699 0.19192582
000190 94 d6 03 be f7 19 02 3d 52 5f 9e 3e 7b 9e 8e 3d
       -0.12874824 0.031763043 0.309321 0.069638215
0001a0 b0 57 c0 bd 48 28 0e bb f1 6b 91 be 45 fd a6 bd
       -0.09391725 -0.002169149 -0.28402665 -0.08153776
0001b0 25 ac 51 be 4a cd 50 be d9 3c af 3d 3f 1a bf 3d
       -0.20475824 -0.20390812 0.08556528 0.09331178
0001c0 b4 4d 8d 3e 43 9b a3 3d e7 50 57 3d f2 d8 ad 3d
       0.27598345 0.07988598 0.05256739 0.08488645
0001d0 b6 59 5b be 6e db 38 be fa ae 4f bd af aa 36 be
       -0.21420941 -0.18052456 -0.05070398 -0.17838548
0001e0 38 7d 94 be f3 df 03 3e 5a 18 c1 bc c2 78 b6 bc
       -0.29001784 0.12878399 -0.023571182 -0.022274379
0001f0 9a 13 49 3d 86 eb 8d 3d 88 f0 0f be df 45 02 be
       0.04909096 0.06929688 -0.14056599 -0.12721966
000200 1d 33 7c 3e 1f bc ca 3d ab 98 9f 3e 13 b9 84 3e
       0.24628873 0.098991625 0.31171164 0.2592245
000210 cd 5c 04 be 20 ae 06 bc 24 c6 a0 bb 7a 8e 7a 3c
       -0.12926026 -0.008220226 -0.0049064327 0.015292758
000220 c7 3d 94 bc 42 81 01 be 22 24 2c 3e 1c 20 11 bd
       -0.018095864 -0.12646964 0.16810659 -0.035431013
000230 de 5f 53 bd 9c 74 03 3e f5 cb 15 be f6 44 97 3c
       -0.051605098 0.12837452 -0.14628585 0.0184655
000240 c3 03 45 3e ef 3f 69 3e 72 9e 0b be 37 6e 3d bd
       0.19239716 0.22778295 -0.13634661 -0.046247687
000250 8a c4 33 bd 10 f5 49 3e 2b 7b d3 bd e1 21 80 3c
       -0.043888606 0.1972239 -0.10326227 0.015641155
000260 4e 99 37 bd 61 a7 72 3e f6 e0 4b bd cf a2 53 39
       -0.044823937 0.23696662 -0.049775086 0.00020183179
000270 51 45 e1 3d 94 06 c4 3d df 10 28 bd e2 35 a9 3c
       0.10999549 0.09571567 -0.041031715 0.020655576
000280 e3 9a 78 3c 40 b3 b3 ba 88 bc e6 bc dd fa a5 3d
       0.015173647 -0.0013710037 -0.02816607 0.08104489
000290 c7 03 1b be aa cd 8c ba 45 42 fb bd de 14 d3 3d
       -0.1513816 -0.0010742445 -0.12268499 0.103067145
0002a0 08 cd ce bd f0 de 83 bd d5 cf 9b 3d 77 9c f2 3c
       -0.100977 -0.06439006 0.07608 0.029615624
0002b0 f8 ef 63 bd 22 b5 25 be 96 85 77 bd f5 54 04 3e
       -0.055648774 -0.16182378 -0.06043013 0.12923034
0002c0 e5 56 2a 3d 2a ca 72 be 3f 56 d2 3d a1 e0 9f 3d
       0.041586775 -0.23709932 0.102703564 0.078065164
0002d0 76 fb d0 be 7e 0e 75 3e e6 35 6e bd 53 24 c2 bc
       -0.4081685 0.2393131 -0.05815687 -0.023698961
0002e0 0d 8a c8 bd c5 f9 a7 bd f1 ac 0b 3d c9 a8 72 3c
       -0.09791956 -0.08201937 0.034100477 0.014810749
0002f0 3f 43 3c 3e 04 6b f6 3d 80 32 65 3e 9a 11 c4 bd
       0.18385027 0.1203213 0.22382545 -0.0957367
000300 34 65 e9 3d 9b 34 d7 bd f6 19 2a 3e 38 f3 e8 ba
       0.11396256 -0.105080806 0.16611466 -0.001777268
000310 ec 68 ee 3d ef d1 22 3c cd 77 0a bd 17 2e 80 3e
       0.11641106 0.009937747 -0.033805657 0.25035164
000320 82 ad 65 3e 1c 58 9f 3d d2 ad 24 3d cf ab a2 3d
       0.22429469 0.077804774 0.04020483 0.07942926
000330 ff 16 6b 3b 8c f9 23 bd 46 09 4f 3d 0e ba 35 3d
       0.003587186 -0.04003291 0.050545953 0.04436689
000340 9e 6e 88 bd 32 70 14 be 5b 2d f1 bd 40 c3 5d bd
       -0.066617236 -0.14495924 -0.11776229 -0.054141283
000350 7c e0 7d bd 11 87 18 3b e1 58 27 3e b6 b0 30 be
       -0.061981663 0.0023273865 0.16342498 -0.1725491
000360 46 e5 d3 bc ca 0e 3a 3e 18 f4 58 3d 5b c7 e9 3d
       -0.025866162 0.18169704 0.05296716 0.11414977
000370 a4 0b 80 3d 77 c1 69 be bc 01 41 3e fb ba 03 be
       0.0625222 -0.22827707 0.18848318 -0.12864296
000380 33 b3 d0 bd d4 1d 65 bd 1f 95 19 3d 1a 74 77 3e
       -0.101904295 -0.05593665 0.03749573 0.24165383
000390 34 35 34 bc fa b2 ed 3c 09 e8 94 bd e3 78 69 be
       -0.010999013 0.029016007 -0.0727082 -0.22800021
0003a0 ed cb bd bd da cf 34 3d 75 d5 a1 be e8 21 91 3e
       -0.092674114 0.044143535 -0.31608167 0.2834618
0003b0 23 37 72 3d e2 32 37 3c 83 f4 c0 be 17 d4 b3 bd
       0.059134614 0.011181565 -0.37686548 -0.08780687
0003c0 f8 77 f0 bd ea ee 41 be 94 89 c7 bd 0b cd b3 3c
       -0.11741632 -0.18938795 -0.09743038 0.021948358
0003d0 1c 66 bc bd 7a ac 48 3d 05 63 8a 3d 4e da ae be
       -0.09199163 0.04899261 0.06757168 -0.34150928
0003e0 6f 28 2c be 42 16 1a be 5b ea ea bd 01 95 0c 3e
       -0.16812299 -0.15047553 -0.11470481 0.13728715
0003f0 43 e5 1a bc a3 c9 fe 3d 62 f4 d9 3d 5f 97 7f bc
       -0.009454074 0.12440803 0.106423154 -0.0156000545

network_body._body_endoder.seq_layers.2.bias f4 [256]
000000 15 ee 8a bd 3f d6 37 bc 43 3c 22 3d be b7 b8 bd
       -0.06783692 -0.011220514 0.03960825 -0.09019421
000010 5f f0 b7 be b5 b5 69 3d bf 1f e1 3d 97 8c a8 3d
       -0.35925576 0.057058055 0.10992383 0.082299404
000020 5e ef bb 3c 13 ab c4 bd 5e c5 2f 3d 77 dd f1 3d
       0.022941288 -0.09602942 0.042912833 0.11809819
000030 c5 02 21 3d 38 5a 34 be 86 3c 17 bd 27 bc d6 bc
       0.03930928 -0.1761254 -0.036922954 -0.026212765
000040 4e 0e 35 bd 7a 55 53 bd b3 12 0c 3e ad 81 52 3e
       -0.044203095 -0.05159519 0.13679008 0.2055728
000050 e4 33 44 bd 85 07 ff 3d 3d b2 82 bd 69 1b 4c bd
       -0.04790105 0.12452606 -0.063816525 -0.049830828
000060 02 3b f6 bb 0e de 4e bd 72 55 2d bd 87 75 1b bd
       -0.0075143585 -0.050504737 -0.042317815 -0.03795388
000070 70 14 97 bc 78 3f 46 bd 78 13 19 3d 37 3c ed 3d
       -0.018442363 -0.048400372 0.037372082 0.11583751
000080 0d ee cf 3b aa ca 34 3c 57 68 ec 3d ae f4 22 bb
       0.0063455165 0.011034647 0.11543339 -0.0024865079
000090 06 4a 80 bd 07 c5 83 3d 53 b0 2a bd 2d 8e 6a 3a
       -0.06264119 0.06434064 -0.041672062 0.00089475774
0000a0 eb a5 55 bd 08 38 21 bc f7 7e e5 bd 49 0a 58 bd
       -0.052160185 -0.009840019 -0.11205857 -0.052744184
0000b0 65 a1 1d be b4 89 da bd 09 0c 31 be c8 b2 ea bd
       -0.15393598 -0.10670796 -0.17289747 -0.11459881
0000c0 a9 07 81 bd 2c 7d 27 bd d5 fe c5 3d c5 f9 7b be
       -0.06300289 -0.040890858 0.09667746 -0.24606998
0000d0 87 18 c2 bc 56 48 12 bd 7e 9e a5 bb ca 42 1e 3e
       -0.023693336 -0.035713516 -0.005054294 0.15455166
0000e0 83 e4 5c bd 89 ca 3f bd a4 b9 a7 bd b5 22 e0 3c
       -0.053928863 -0.046824012 -0.08189705 0.0273603
0000f0 f9 0a 74 bd 91 bf 0a 3d 16 01 b6 bc 67 c9 a5 bd
       -0.059580777 0.0338741 -0.022217315 -0.08095055
000100 26 7c 15 3e 5d b3 19 be d2 4c 15 bd 9d 34 84 3d
       0.1459814 -0.15009828 -0.036450215 0.06455348
000110 89 5a a4 be c4 59 45 be 76 5f 89 bd 6d 24 12 3e
       -0.32100323 -0.19272524 -0.06707661 0.14271708
000120 3f d3 1d bd 0a e2 f3 ba fb 02 69 bd fe 22 39 3d
       -0.038531538 -0.0018606794 -0.056887608 0.045199387
000130 e2 7d 3f bc c5 da 38 bb 6e 6d 88 bd 81 22 1a be
       -0.011687728 -0.0028206569 -0.06661497 -0.15052225
000140 80 ec 9c bc f0 66 91 bc fe 77 20 3d f1 64 ae 3d
       -0.01915574 -0.01774928 0.039176933 0.08515347
000150 98 b3 cb bd b7 15 e4 bd 77 d9 24 be bf b1 4e 3d
       -0.09946364 -0.11136954 -0.16098581 0.05046248
000160 7b 78 75 3d f8 e6 c8 be d5 5e 75 bd 00 05 04 3e
       0.059929352 -0.39238715 -0.059904892 0.12892532
000170 e5 9b c5 3d 0f 86 00 be 61 4b 7d 3d 4e 64 19 3e
       0.09648875 -0.1255114 0.061839465 0.1497967
000180 9f bb 00 3d 58 28 ae bd 27 29 17 bc da a3 25 3a
       0.03142893 -0.08503789 -0.00922612 0.0006318666
000190 99 a6 1a 3d 0d af 35 bd cf da 68 3d 1e f1 62 3d
       0.037756536 -0.044356395 0.056849297 0.05540573
0001a0 78 e6 f5 bc 6d 5d 64 3d 80 a5 90 bc 7f 2a f1 ba
       -0.030017123 0.05575316 -0.017657042 -0.0018399506
0001b0 a8 48 40 bd 13 21 c9 bb 75 74 30 be 0b 57 e3 3c
       -0.04694429 -0.006137976 -0.17231925 0.027751466
0001c0 e3 d0 be bd eb 9e 9e 3d ae 27 59 3d d1 ec fe 3c
       -0.09317186 0.07745155 0.053016357 0.031118782
0001d0 cb 2f 06 be 1f 4e 92 bb d7 dc 9f 3c 8f f7 b4 3d
       -0.13104169 -0.004464879 0.019514484 0.088362806
0001e0 10 a8 5b 3e b9 89 7b be 5d af 8b 3d f7 db fc 3d
       0.2145083 -0.24564256 0.06820557 0.123466425
0001f0 27 0d a2 3d c3 ce a8 bb 0f 28 c9 3c 0b 0f a6 3d
       0.07912665 -0.005151601 0.024555234 0.08108338
000200 7b df 6f 3d 5c ff 18 bc ce b5 16 3d bc f5 a0 bc
       0.058562737 -0.009338226 0.036794476 -0.019648425
000210 26 63 95 3c 09 b1 78 bd af 32 a5 3d 91 0c a6 bd
       0.018235754 -0.06071571 0.08066308 -0.081078656
000220 01 43 74 bc 34 f7 c3 3c 8d 11 60 3c bf 26 95 bc
       -0.014908553 0.023921587 0.013676059 -0.018206952
000230 1f 63 97 bd 0a af 5a 3d 55 ce 07 be 51 5f 3a 3e
       -0.07391953 0.053389587 -0.13262303 0.18200423
000240 50 3a 80 bc bf eb d4 3b 8c 53 b6 3d fc 0e 1e bb
       -0.015652806 0.0064978297 0.08902654 -0.0024117818
000250 d4 e3 0b 3c b8 1d 69 3d f5 95 c4 bc fa 4e 38 bc
       0.008538205 0.056913108 -0.023997286 -0.011249298
000260 a5 f2 71 3d 46 8b 3f 3c 76 b5 17 3e 24 e3 af bd
       0.059069294 0.01169092 0.14815316 -0.085882455
000270 d2 8a de 3c 94 57 08 3b 58 fd 28 3d 17 a7 1d 3c
       0.027165804 0.0020804154 0.041257232 0.009622357
000280 45 60 cf 3d 39 ab c6 3d e6 f8 56 3d d7 d8 1d be
       0.10125784 0.09700627 0.05248346 -0.15414749
000290 5e 92 ef 3d 17 94 5b bb 87 cf 86 bc ef 84 74 bd
       0.11697839 -0.0033505016 -0.016456379 -0.059697088
0002a0 02 60 45 bd 35 ab 0c 3d 45 2c e7 3d f8 c7 d2 bd
       -0.048187263 0.034342963 0.112877406 -0.10292047
0002b0 b7 30 1e 3e 43 6c 12 3d 26 67 bc 3c fe b8 81 3d
       0.1544827 0.035747778 0.022998404 0.063341126
0002c0 a2 72 6b 3d c0 93 12 be 36 31 af 3c 13 2e df bd
       0.05748237 -0.14314175 0.02138577 -0.1089746
0002d0 44 e4 87 3c d3 1f 7f bd d2 a9 de 3d 7b d2 a0 3d
       0.016588338 -0.06228621 0.108722344 0.07852646
0002e0 19 0a 01 bd 31 43 02 3d b6 a0 27 3e 1f a1 77 b7
       -0.03150377 0.03180236 0.163699 -1.4759861e-05
0002f0 67 c6 37 bd 62 7c 5d 3c ba 4e 76 bc 31 28 18 be
       -0.044866946 0.013518425 -0.015033418 -0.14859082
000300 17 6b b7 bd b7 01 f8 3c fb 6c f1 bc 1a 62 77 3d
       -0.08955973 0.030274255 -0.029470911 0.06039629
000310 99 33 ce bd 53 ae ad 3d 7a db 00 be 3d 4f b4 bb
       -0.10068435 0.08480515 -0.12583724 -0.00550261
000320 5e a9 15 3e ad 22 12 be 77 9a 09 be 41 28 cb 3d
       0.1461539 -0.1427104 -0.1343783 0.09919787
000330 9b fb e1 bd 2f 45 03 3e 9f 99 01 bd b1 5e 26 3e
       -0.11034318 0.1281936 -0.031640645 0.1624706
000340 6c 2a 28 bd da 36 7d 3d 99 61 12 bd 99 85 49 3d
       -0.04105608 0.06181989 -0.035737608 0.049199674
000350 fe ca 2e 3d 62 9d 14 bd 43 ee 04 3e a2 9e 31 be
       0.042674057 -0.036282904 0.12981515 -0.1734567
000360 1a c0 53 3e ea 7f 8e 3d 08 55 9d bd e7 67 02 be
       0.2067875 0.069579914 -0.07682234 -0.12734948
000370 38 94 97 bd 58 61 e6 3c ea 17 d3 bb e7 54 d8 3c
       -0.07401317 0.028122589 -0.0064420598 0.026407672
000380 e3 23 f2 3d fe 75 b7 3c c2 28 ae 3d 03 9e 9c bd
       0.11823251 0.02239513 0.08503868 -0.07647326
000390 19 61 bc bb 21 e8 68 be 93 2a d3 bc d2 8e 94 bc
       -0.0057488796 -0.227448 -0.025777137 -0.018134508
0003a0 3d 5d ce bb c0 c8 88 bc 6b fa 03 be 33 67 2c be
       -0.006297736 -0.016697288 -0.12888496 -0.16836242
0003b0 ff 1e 18 3d 15 d0 3f 3c fe bf df bd 78 61 94 3d
       0.037138935 0.0117073255 -0.109252915 0.07245153
0003c0 81 1b 28 be b1 24 0f 3e 4a d4 22 bd 44 fb 04 be
       -0.16416742 0.1397884 -0.039753236 -0.12986475
0003d0 91 b7 68 bc 18 04 8e bc f9 84 99 3d e9 0b 79 3d
       -0.014203922 -0.017335936 0.07496066 0.060802374
0003e0 a8 74 c0 bc fd 35 8f bd e6 3e d0 3c 5e d5 bc 3c
       -0.023493126 -0.06992719 0.025420617 0.02305096
0003f0 d7 a5 1e be 54 c0 f8 bc df 4c 4c 3d 79 06 0d 3e
       -0.1549295 -0.030365147 0.049877997 0.13772

action_model._discrete_distribution.branches.0.weight f4 [7, 256]
000000 d9 cf 44 be 17 c9 86 bd 97 6c 2d be 50 0b 67 3e
       -0.19219913 -0.065813236 -0.16935955 0.22562909
000010 a1 76 9c 3e 4c 16 59 bc 4a fe 21 3e 2a e2 52 be
       0.30559257 -0.013249945 0.1581966 -0.20594087
000020 88 fb 7d be 76 10 9a 3d 42 15 07 3e 99 1d f5 bc
       -0.24802983 0.07522671 0.13191703 -0.02992134
000030 bd 45 b0 bd 8f aa 7c 3c 79 e1 28 3e ac ed a0 3d
       -0.086070515 0.015421524 0.16492261 0.07857832
000040 65 14 85 3d f5 45 01 3e 90 e0 4c bd f9 17 97 be
       0.064980306 0.12624343 -0.050018847 -0.29510477
000050 09 73 29 bc 3b aa 84 be 30 27 29 be 20 1c 77 be
       -0.010342368 -0.25911126 -0.16518855 -0.24131823
000060 a2 2a fc 3c ae 38 90 be da 15 a9 3e f5 27 78 3e
       0.030782048 -0.28168243 0.33024484 0.24233992
000070 cd 00 4b 3d c3 55 03 3f b6 aa 40 bd 60 db e8 3d
       0.04956131 0.51302737 -0.047037803 0.113699675
000080 1c 86 da bd c6 09 e2 bd 22 40 5c bd fe de 33 be
       -0.106701106 -0.110370204 -0.0537721 -0.17565534
000090 9b 37 95 bd b1 1b ed bd 73 7b fe bd 76 ff 6d bd
       -0.072859965 -0.11577547 -0.1242589 -0.058104955
0000a0 a8 fa 10 3e 14 b7 72 bd 6a 4b 4b 3e 9f fa 89 3d
       0.14158118 -0.05925663 0.19852987 0.06737255
0000b0 1e 95 eb 3d b4 ae 50 3e ae 25 61 bd ed b5 eb bd
       0.11503051 0.20379144 -0.054967575 -0.11509309
0000c0 11 7e 7b 3e 60 4b 79 3d 4d 80 e5 bd 15 c0 33 3e
       0.2455981 0.0608629 -0.11206112 0.17553742
0000d0 01 3e bd bd 82 9d a3 3c 93 25 0d 3e 9a b8 11 be
       -0.09240342 0.019972567 0.13783865 -0.14230576
0000e0 59 0b bc bd 97 fd e4 be 33 ce 8a bd e9 3f fd bd
       -0.09181852 -0.44724724 -0.06777611 -0.123657055
0000f0 73 bf 3a 3d 6f 6f 1c be 7f 00 b7 be f8 8c 94 3e
       0.045592736 -0.15276884 -0.35742566 0.290138
000100 ce 1f de bd d9 2f 83 3d 53 b5 c4 be 8b bd a6 3d
       -0.1084591 0.064056106 -0.3841959 0.08141621
000110 78 68 9d 3e 80 45 95 3d fa b2 c1 bd 12 aa 1c be
       0.30743766 0.07288647 -0.09457965 -0.15299252
000120 c8 2a dd 3c 56 1e d5 bd a3 c4 57 3e a2 df 1f 3d
       0.026997939 -0.10406177 0.21071105 0.039031632
000130 b0 d9 87 3d df 67 bf bc d3 a7 d2 bd 55 5f 50 3e
       0.066333175 -0.02336496 -0.10285916 0.20348866
000140 23 c3 86 3d 7b 99 61 3d 0c cc 71 bd 95 c3 4d be
       0.06580188 0.05507801 -0.059032485 -0.2009414
000150 68 12 e9 3d d6 0f ba 3d ce 9a 88 3e f1 1a 5d bd
       0.11380464 0.09085052 0.26680607 -0.05398077
000160 f4 78 7f be 59 ad 92 3e 66 19 f9 bd 91 cd 8d be
       -0.24948484 0.2864788 -0.121630475 -0.27695897
000170 80 75 fe 3d 6c 7f de 3d 13 fc 8a be ef 4b e5 be
       0.12424755 0.108641475 -0.27145442 -0.44784495
000180 da 85 75 be 2d 53 f5 3c 49 9e 98 bd 5f dc 60 3c
       -0.23976842 0.029946888 -0.074520655 0.013724416
000190 26 f6 2a bd eb a5 74 3d ca 10 53 be cb 10 41 bd
       -0.04173865 0.059728544 -0.20611873 -0.047135156
0001a0 ed 40 54 3d 5a 7a f4 3c 76 27 33 bd 5e 41 9e be
       0.05181973 0.029843498 -0.043738805 -0.30909246
0001b0 87 2e 91 3d 13 a7 a0 be a6 24 df 3d 20 17 47 bd
       0.070889525 -0.31377468 0.10895662 -0.048606038
0001c0 15 9b 1b 3e f8 6c d5 bd eb fd 83 be 52 36 2b bc
       0.15195878 -0.10421175 -0.25779662 -0.010449963
0001d0 a4 5b 61 be f7 8a 28 3e b6 84 32 be 47 4e 6a 3d
       -0.22007614 0.16459261 -0.17433438 0.057203557
0001e0 48 4f 0a bd eb c9 83 3e 0d e4 18 be 1c 43 63 bc
       -0.033767015 0.2573999 -0.14930744 -0.013870981
0001f0 fe 23 24 be 37 2b 8f 3e 0a 61 02 3e 9d 17 c7 bd
       -0.16029355 0.27962658 0.1273233 -0.09721301
000200 aa ec 3a 3c ad d8 cb 3d 3a 3c bc 3d c7 55 33 be
       0.011408964 0.09953437 0.09191175 -0.1751319
000210 d9 e4 27 be 74 e2 f0 3d 87 db 8f be c4 fb 17 3e
       -0.16395892 0.117619425 -0.28097174 0.14842135
000220 d2 2d 8f 3e e5 cf 05 be 77 55 04 3d c5 cb 90 3c
       0.27964646 -0.13067587 0.032308068 0.01767529
000230 30 90 9e 3d 84 cb 06 3d a3 e2 0e 3e 58 4d ea bd
       0.07742345 0.03290893 0.13953643 -0.114405334
000240 1f 1c 14 3e c9 7c 7d 3d 13 80 29 be 26 34 08 3e
       0.14463852 0.061886583 -0.16552763 0.13301143
000250 31 0b 94 bd e4 71 4c bd f7 68 9c bb 2d 9b 2f 3d
       -0.07228697 -0.049913302 -0.004773255 0.042872597
000260 30 4d 93 be 31 39 0a be 14 5c e3 bd 4c f0 2c 3e
       -0.28769827 -0.1349838 -0.11101547 0.16888541
000270 5a b2 fd bd c0 e3 54 3e 87 06 1b be 91 1d 9a bb
       -0.123875335 0.20790005 -0.15139209 -0.0047032316
000280 db 6e 73 bd 5c 88 f9 bc b7 2c cb bd d2 56 e5 3d
       -0.059431892 -0.030460529 -0.09920638 0.111982
000290 69 3f 25 be a4 3f f8 bc 93 be 61 bd 0a 60 3d 3e
       -0.1613747 -0.030303784 -0.055113386 0.18493667
0002a0 be 62 91 bd 8a e5 d5 bc 2d c6 d4 be 66 33 f9 bd
       -0.07098912 -0.02611043 -0.41557446 -0.121680066
0002b0 28 3b 62 3e 71 a5 dd 3b 20 5d 9e bd 72 0d 46 bd
       0.22092879 0.006764107 -0.07732606 -0.048352666
0002c0 20 d2 fc bd c0 a4 a1 3c 22 8a 95 bd ff 5e 05 be
       -0.12344766 0.01973188 -0.07301737 -0.1302452
0002d0 eb 1f 17 bd 22 0b e0 3d 44 9e 0e 3e 77 2a 97 bd
       -0.036895674 0.109396234 0.13927561 -0.073811464
0002e0 b7 d1 89 bc 7c 31 b8 bd d8 8e 18 bd d6 80 18 be
       -0.016823633 -0.089938134 -0.0372456 -0.14892897
0002f0 2f 22 46 3d fe f2 96 bc d0 bc 06 be bb e5 71 3e
       0.048372444 -0.018426415 -0.13157964 0.23622791
000300 f2 7d 3f 3e 1c 40 7b bd 53 1f 4e bb 52 c5 1a 3e
       0.18700388 -0.061340436 -0.0031451776 0.15114334
000310 e4 3f 8d bd 1c dd 52 bd 55 f2 70 bd 5d 3f 1a 3d
       -0.06896952 -0.051480398 -0.058824856 0.037658084
000320 36 c6 c2 bd 8a f3 37 bd 59 74 fb 3d 18 3b 93 bd
       -0.09510462 -0.04490999 0.12278051 -0.071890056
000330 61 6a 1f 3d 61 8f 7f be 34 77 51 3d 2e 3e 0b be
       0.03891981 -0.24957038 0.05113907 -0.13597938
000340 a4 2b 26 bd 0c 5b 8d 3d bb b6 1c 3d 8d e3 20 3d
       -0.040568963 0.069021314 0.038260203 0.03927951
000350 d0 90 3c be e3 28 cb bd 56 2e bc bd 34 9f 94 bd
       -0.18414617 -0.09919908 -0.091885254 -0.07256928
000360 57 38 33 be 32 57 81 be 26 6d 8e be 4e 3d c6 3e
       -0.1750196 -0.25261837 -0.2781765 0.38718647
000370 62 05 ac 3d 06 49 08 be 5a 86 43 bd 0e c2 12 be
       0.08399464 -0.13309106 -0.04773555 -0.14331838
000380 45 9d 31 be 3b 53 45 3e 21 dd a8 3d 0d 3f 46 3e
       -0.1734515 0.19270031 0.08245302 0.1935999
000390 85 67 19 3e 34 8d 0a bd bc b7 fe 3d f6 e9 34 bc
       0.14980896 -0.033826068 0.12437388 -0.011042109
0003a0 0f 58 86 3c a7 cf 25 3d 72 1e 2f 3d 48 a4 cb bc
       0.016399411 0.040481236 0.042753644 -0.024858609
0003b0 2f 40 85 bd 99 d5 7f 3c 0b f0 dc 3d 8c cb ab bd
       -0.06506383 0.0156148905 0.10787972 -0.08388433
0003c0 32 cb ab 3d 93 ab d0 bc 0c 8e 9b 3c 99 f8 06 bd
       0.08388366 -0.025472438 0.018988632 -0.032951925
0003d0 47 e5 a7 bd 20 c2 99 3d 30 5d ff bd fe cf e8 3d
       -0.08198028 0.075077295 -0.12468946 0.11367796
0003e0 8b 8f 3e 3e 98 02 d2 3d ea f3 29 3e 05 92 3a bd
       0.18609445 0.10254401 0.16596952 -0.04554941
0003f0 e8 4c 86 3e 0d cb db 3d 9c 49 9e 3d ab 93 71 be
       0.2623055 0.10732088 0.077288836 -0.23591487

action_model._discrete_distribution.branches.0.bias f4 [7]
000000 1c 83 e8 be a6 8c 28 ba 43 ac 47 be 85 79 9f 3d
       -0.4541253 -0.00064296497 -0.19499306 0.0778685
000010 59 a2 25 3e 9a 37 2a 3c ed c5 f3 3c
       0.16175212 0.010389233 0.029757464
