results/puzzle_expirement_2/PuzzleBehavior.onnx (onnx, 342923 bytes, 6 tensors)

network_body._body_endoder.seq_layers.0.weight f4 [256, 65]
000000 0e 37 72 bd 61 8a 04 3e 59 42 b5 3d 46 5f 03 3e
       -0.059134535 0.12943412 0.088505454 0.12829313
000010 c1 f2 d2 bc 5e fe a9 3e 38 f9 18 3e 04 fd b9 3d
       -0.02575052 0.3320188 0.1493882 0.09081462
000020 fa 55 0b bd 98 73 6f be 10 96 78 3d f3 b6 55 3d
       -0.03401754 -0.2338394 0.060689986 0.052176427
000030 ca 8f c7 3d 4d ee 17 3e a5 0a 09 3e 45 06 55 3d
       0.097442225 0.14836998 0.13382967 0.052007932
000040 bc 46 f0 3c 2c a0 3e 3e 73 5a 43 be bb 04 06 3e
       0.029330604 0.18615788 -0.19077472 0.13087742
000050 7f 5a d6 3d 7c 45 44 ba 92 76 5e bd 24 d3 d1 bd
       0.104664795 -0.00074871606 -0.054312296 -0.1024535
000060 86 b6 21 be a3 9d 7f 3d 7e a0 d6 bd b5 f0 86 3e
       -0.15792283 0.062406193 -0.1047983 0.2635552
000070 7e 5c 53 bd d8 de c8 bd 57 89 5a 3c 76 71 31 bd
       -0.05160188 -0.09808129 0.013338408 -0.043321095
000080 a4 0e e8 3d 9a 5b 9a 3d 02 95 76 3e 93 f0 ab be
       0.113309175 0.07537003 0.2408028 -0.3358198
000090 17 dd f6 bc 4c ab d7 3c 1f 92 c9 3b 8e 3e 97 bd
       -0.03013472 0.026326798 0.006151452 -0.07384978
0000a0 30 a2 dd 3c a3 e5 55 bd 1d 2f 80 3e 71 26 66 3e
       0.027054876 -0.05222095 0.25035945 0.22475602
0000b0 6b 21 9a b9 57 18 c6 bb 04 cf 2e be 35 e3 27 bd
       -0.00029398067 -0.006045382 -0.17071158 -0.040988166
0000c0 bc 80 1d be 9a 5d 0b be 19 6a 60 3d 19 b9 f4 bd
       -0.1538114 -0.13609925 0.054788683 -0.11949367
0000d0 7f 82 63 bd 80 28 b5 3c 5e 55 26 3e 9c 64 93 3e
       -0.055544373 0.022114038 0.16243502 0.28787696
0000e0 bf 2a 93 bc ad 1c bb bd 23 4d 38 3c 10 3e 80 3d
       -0.017964719 -0.09136329 0.01124886 0.062618375
0000f0 ab 54 ef 3d 96 e9 ad 3c 03 d9 a0 3d b5 14 b9 3c
       0.11686071 0.021229547 0.07853892 0.022592882
000100 50 fc a0 3c ed 0f 72 bc 6d e1 60 be 91 73 a5 bd
       0.019651562 -0.014774305 -0.21960993 -0.08078683
000110 03 12 fa bc db 4e e3 bb 98 8d fc bc 0e d6 13 3e
       -0.030526167 -0.0069368905 -0.030829236 0.14437124
000120 53 4d 88 be 48 d4 ea 3d c9 17 01 bc 3d 12 11 be
       -0.26621494 0.11466271 -0.007879206 -0.14167114
000130 b9 4f a7 be 80 1f 67 3d 0b d8 8e bc 76 1d 80 bc
       -0.3267801 0.056426525 -0.017437002 -0.015639048
000140 a9 23 3a be d6 dc 90 3d b5 9a 08 bd 20 bc c3 ba
       -0.18177666 0.07073371 -0.033350665 -0.0014933385
000150 38 83 97 be 97 93 84 3e da 0f 59 3e 82 cf 81 bc
       -0.295923 0.25893852 0.21197453 -0.015846018
000160 d6 eb 73 bc d0 46 a9 3d a3 e6 0f be ab 66 9b 3b
       -0.014887771 0.082654595 -0.14052825 0.0047424636
000170 49 88 f5 3d cd e5 39 3e d7 b6 2f bb 60 16 f1 bd
       0.11988885 0.18154068 -0.0026811862 -0.11771846
000180 2b a0 fc 3d f5 9b 00 bd 5a 2b 84 3c 75 f1 8f 3d
       0.12335237 -0.031398732 0.016133953 0.07028476
000190 55 7e 90 bd 66 b9 15 3e fc 60 1a 3e 99 92 44 3c
       -0.07055346 0.14621505 0.15076059 0.011997842
0001a0 49 21 e2 3d db 60 02 be f3 c7 6b bd 2b 8c d1 3c
       0.11041505 -0.1273226 -0.057563733 0.025579533
0001b0 d1 c3 4f be 17 a1 b5 bd 82 c9 f2 be ed c1 2d be
       -0.20289542 -0.08868616 -0.47419363 -0.16968508
0001c0 be 82 83 3c e1 0d 8f 3c c5 00 36 3c 84 9e 21 3e
       0.016053554 0.017462673 0.011108582 0.15783125
0001d0 08 18 0a 3d 8e e8 c8 bd 4c b0 9b be d6 e0 1d 3e
       0.033714324 -0.09809981 -0.3040794 0.154178
0001e0 c0 bf eb bd 2d 15 31 be 70 e9 a5 3e 76 8d 8b bd
       -0.11511183 -0.17293234 0.3240466 -0.06814091
0001f0 10 ac b4 bd 19 c4 15 3d 5b c8 c4 bd 74 c1 0e 3e
       -0.08821881 0.036563966 -0.09608527 0.13940984
000200 19 d1 8d 3b fb 07 2a be d7 3d e0 3d c9 63 d8 3c
       0.004327905 -0.16604607 0.10949295 0.026414769
000210 84 e0 09 be ef ad 5f 3e 10 f5 90 3c f2 a6 48 3e
       -0.13464552 0.21843694 0.01769498 0.19594935
000220 b7 29 5b 3e b5 96 11 be 63 2c 8e 3e e7 05 17 3e
       0.21402632 -0.14217646 0.2776824 0.14748345
000230 dd 74 4e 3d 08 39 04 be cf 66 7a bb 00 f4 c2 bd
       0.05040442 -0.1291238 -0.0038208251 -0.095191956
000240 8f 82 63 3e 43 06 45 bd c1 39 61 3d 07 44 0f 3e
       0.22217773 -0.048101675 0.05498672 0.13990794
000250 d8 bb 19 bd 58 37 ea 3c de 16 21 be 84 87 a1 3d
       -0.037532657 0.028590843 -0.1573138 0.07887176
000260 9f 19 81 3d 69 d0 cd 3d ab ce b4 3c 8c ac b7 3d
       0.06303715 0.10049517 0.022071203 0.089684576
000270 e5 33 f6 3e 2b fc 20 be 08 37 98 3d 8f ee af 3d
       0.48086467 -0.15721194 0.074323714 0.08590423
000280 92 d8 5e be c2 bc 2c be 71 a1 04 bd 6f 51 c2 3d
       -0.21762303 -0.1686888 -0.032380525 0.094881885
000290 c5 4e e1 be 20 45 6d 3d 07 86 2b 3d 99 0b 9a 3e
       -0.4400541 0.05792725 0.041875865 0.30086973
0002a0 8b 7c 5b be cf 59 5d bb 7f ec 00 3e bb 11 a2 3d
       -0.21434228 -0.0033775454 0.12590216 0.07913538
0002b0 a2 76 30 3e 25 c7 9f 3d fb d9 03 3d 43 02 9d bd
       0.17232755 0.07801656 0.032190304 -0.07666447
0002c0 8b 12 b4 bc 0c a1 0f bd 7d 13 ff bd 5e 0d 2a bc
       -0.021981498 -0.035065696 -0.12454889 -0.010379164
0002d0 e5 90 e1 be 94 0d ff 3c 88 c3 8b bd 84 b0 72 3e
       -0.44055858 0.031134404 -0.06824404 0.23700148
0002e0 ed 32 a2 3d 44 70 7b bc 03 be c2 ba 81 99 7d bd
       0.079198696 -0.01534659 -0.0014857653 -0.06191397
0002f0 a0 ec dd 3c 21 88 ec 3d 62 5d 1b 3c 27 54 7d 3c
       0.02709037 0.11549402 0.009482713 0.015461958
000300 4c 07 86 bd fe fd 03 be 48 b7 c1 3d 3d 91 97 be
       -0.065443605 -0.12889859 0.09458786 -0.29602996
000310 ee 75 e3 bd 60 6a 4d bd 06 dd 43 3e f3 9d d1 bc
       -0.11106478 -0.050150275 0.19127283 -0.025588011
000320 2e 73 b9 3b 56 fa 74 be 93 3f 1a be 1f 39 10 3e
       0.0056594824 -0.2392362 -0.15063314 0.1408429
000330 4f a0 26 be b1 17 51 be 02 42 98 bc 41 9d ed ba
       -0.1627209 -0.20419194 -0.018586162 -0.001812853
000340 8d f1 79 bc 88 33 f6 bd 22 32 0a bc 20 13 25 bc
       -0.015255344 -0.120215476 -0.008434804 -0.010075361
000350 f7 ec 9b 3d d0 c3 4b be c4 bf 4a 3d 26 87 98 bd
       0.07613557 -0.19898915 0.04949929 -0.074476525
000360 e4 41 75 bd 8a b0 07 3e 40 91 c4 be c0 6c 29 bd
       -0.05987729 0.13250938 -0.38392067 -0.041363478
000370 47 d4 0b bc 25 17 83 3e 71 96 fc bd 12 b3 92 bd
       -0.008534498 0.25603595 -0.12333382 -0.07163061
000380 b5 ac 0e bd be 68 76 be 49 53 01 bd 08 c7 f4 bd
       -0.034832675 -0.24063393 -0.031573568 -0.11952025
000390 36 a2 01 3e bc 0d 88 be 43 3c cf bd 25 84 46 be
       0.12659535 -0.26572978 -0.10118916 -0.19386347
0003a0 8d 7f 2f 3e 9a 0e ee bc 5a 83 d4 bd 2e ec bb bc
       0.171385 -0.029059697 -0.10376616 -0.022939768
0003b0 ed f4 0f bd 83 3d 82 be ad 94 4a bd 4d ea ad 3d
       -0.03514569 -0.25437555 -0.049458195 0.08491955
0003c0 60 bb de bd 42 d9 0d 3e ef 35 d7 3c e6 18 2f bc
       -0.10875583 0.13852409 0.026270835 -0.010687089
0003d0 cc e2 7b bd db d5 d7 bd fa f7 86 bd 8c 08 91 bd
       -0.061495587 -0.105388366 -0.065902665 -0.07081708
0003e0 bd 95 f9 3c dd 4a 87 bd e3 75 e5 3d 4e e4 c7 3c
       0.030466909 -0.06606076 0.11204126 0.024400856
0003f0 c4 6f 12 be dc 94 b1 3d 1d 0e 2f 3e b7 49 cb 3d
       -0.14300448 0.08670971 0.17095228 0.09926169

network_body._body_endoder.seq_layers.0.bias f4 [256]
000000 47 7a 8f 3d 2d ce 0d be 41 73 aa bc 46 84 a0 bd
       0.070057444 -0.13848181 -0.02080691 -0.07837729
000010 0a 54 c9 ba 28 cd 54 bc 50 41 52 3d 71 e6 2e bb
       -0.0015360129 -0.012988366 0.051331818 -0.0026687647
000020 94 00 09 ba c0 fe 20 3d f5 97 a6 bc 52 00 32 3d
       -0.00052262214 0.03930545 -0.02033613 0.043457337
000030 3a 50 b6 3d 7e e7 0e bd a1 58 47 be b0 80 83 3d
       0.08902021 -0.034888737 -0.19467403 0.064210296
000040 06 9e 8a bc dd 1e 40 3d 34 c0 26 3d e7 df 76 3c
       -0.016921055 0.046904434 0.040710643 0.015068031
000050 e9 7b 5e 3d 5e ab 03 3d 88 6f 70 bd e6 90 93 3d
       0.05431739 0.03214585 -0.058700114 0.072053716
000060 87 5d 9d 3d 79 14 c8 3c e8 00 9a 3d 95 15 10 be
       0.076838546 0.024423825 0.07519704 -0.14070733
000070 13 5b b2 3d 9a 41 92 3c e0 5a 55 3d 11 f7 15 3d
       0.08708777 0.017853547 0.05208862 0.036612574
000080 1f dd de 3d d1 c3 ef 3d d1 ba 04 3d 56 38 cc bd
       0.10882019 0.11707271 0.032404725 -0.09971683
000090 a2 48 75 3d 39 d4 4e 3c 32 61 4a 3d f1 02 bb 3d
       0.05988372 0.01262384 0.0494091 0.091314204
0000a0 d5 6b 11 3c ea 10 e8 bc c3 3b 89 3d 88 65 e0 3c
       0.008875807 -0.028328378 0.06700852 0.027392164
0000b0 d1 db b4 3d c0 82 49 3d eb 50 28 3d ff f6 1a 3d
       0.08830989 0.04919696 0.041092794 0.03783321
0000c0 3c 94 4c 3d 10 06 f6 bc 90 83 a6 3d 0a 42 e5 39
       0.049946055 -0.030032188 0.08130562 0.00043727487
0000d0 63 f5 cd bc e4 ab bb bd 70 04 2c 3d fb 50 4d 3d
       -0.025141424 -0.09163645 0.04199642 0.050126057
0000e0 37 7e e5 3c 32 1b b4 3d aa df bc 3d aa c4 47 3d
       0.028014285 0.087942496 0.09222348 0.048771538
0000f0 e9 fe 2d bb 96 5c a2 3d b2 8a 3f be 3b c0 2f 3d
       -0.0026549643 0.079278156 -0.18705252 0.042907935
000100 31 0d ba bb b6 f5 20 3c 22 0d c2 3d a7 da 2a 3d
       -0.005677842 0.009824207 0.09475161 0.04171243
000110 e3 6b c4 3c 7f 91 68 bd 17 0a ca 3c 84 d1 cb 3c
       0.023977226 -0.05677938 0.024663014 0.024880178
000120 e5 61 44 bc 39 7a 85 bc b0 01 56 bc 83 0a 17 3a
       -0.0119862305 -0.016293632 -0.013061926 0.0005761759
000130 97 34 32 bc af 69 4b 3d 78 fa ae 3d 00 c2 0c be
       -0.010876796 0.049661335 0.08543867 -0.1374588
000140 82 2d 54 3d 91 04 96 3c 1c 02 9f 3b 20 70 89 3d
       0.051801212 0.018312724 0.0048525464 0.06710839
000150 bc 23 81 3d 48 2a e9 bd 35 be 30 3b 1e 93 4c bc
       0.06305644 -0.11385018 0.002696884 -0.012486247
000160 20 73 33 bb 81 1f ae 3d ac 7c 9f 3d d8 78 a9 bd
       -0.0027381852 0.08502103 0.07787451 -0.08275002
000170 a6 1f c5 3d 3c f9 2a 3d 9c 48 7c bc 36 f2 32 bc
       0.09625177 0.041741595 -0.015398171 -0.010922005
000180 b2 16 9b 3d 2d 9c d7 bc 39 78 d7 ba 54 5b 4f 3d
       0.07572688 -0.026319588 -0.0016439027 0.050624207
000190 8c 9a f9 bc a7 6b 70 3d 64 55 22 3d 99 b3 29 bd
       -0.030469202 0.058696415 0.039632216 -0.041431043
0001a0 db 05 4c 3d f0 e7 95 bc 22 f4 90 3c d1 e2 34 3d
       0.04981027 -0.018299073 0.017694537 0.04416162
0001b0 06 37 d3 bc e5 1b c2 3d 00 15 7d bb 57 b7 98 3d
       -0.025783073 0.09477977 -0.0038617253 0.07456844
0001c0 b7 53 c4 3d ac da 0e 3d 54 81 15 be 3a b0 29 bd
       0.0958628 0.03487651 -0.14600116 -0.04142783
0001d0 20 6c 3c 3c 09 48 8c bd 3f fb fd bc cf 51 76 3d
       0.011500388 -0.06849677 -0.031003593 0.060136613
0001e0 ee d5 5a 3d 71 61 b8 3c d1 30 b6 3b 98 a1 a9 3c
       0.053426675 0.022507401 0.0055600186 0.020706937
0001f0 7d 1d 8e 3c 01 af 35 3b 45 4e 93 bd db 80 b7 bc
       0.017348045 0.0027722719 -0.07192663 -0.02240031
000200 c5 04 92 3d 02 91 57 bd 57 b5 d9 3b 4a d7 a7 bc
       0.07129816 -0.052628525 0.006643932 -0.0204884
000210 5b 34 c5 3b 2a 09 b5 ba f6 48 e9 bd 56 f3 64 bc
       0.006018204 -0.0013811935 -0.11390869 -0.013974031
000220 3f 7f 1f ba ef fb 22 bc 00 55 2b be f9 ee 9b bd
       -0.000608433 -0.009947761 -0.16731644 -0.0761394
000230 19 5d bd 3d cb 52 2a bc 6d 87 0b 3d d7 24 43 3d
       0.092462726 -0.010395716 0.0340647 0.047642555
000240 1d dc b2 bc 49 b6 be bc 06 b4 4d bc 61 12 ad 3c
       -0.021833474 -0.02328028 -0.012555128 0.021126928
000250 74 1c 52 be d2 7f f3 3c 69 4f 77 3d 3e 70 d7 3c
       -0.20518667 0.029724035 0.060378466 0.026298638
000260 4f 4f 9d bb dc 7e e8 3c 5d 30 52 3d c6 c3 75 3c
       -0.004800714 0.028380804 0.051315654 0.015000289
000270 e3 84 b5 3d 73 21 d6 3d 91 68 63 3d c6 82 ca b9
       0.08863237 0.10455599 0.055519644 -0.00038625876
000280 a8 73 78 3d d9 3e 82 3c 0d 9c a2 3d ea da 62 bd
       0.060657173 0.015899109 0.079399206 -0.055384554
000290 96 cb 28 3d cf a8 a3 3d cb 21 2a 3d 04 8c 42 3d
       0.04120978 0.07991182 0.041536134 0.04749681
0002a0 38 33 a8 3d e3 d2 66 3b b3 77 6a 3d 31 89 eb bc
       0.08212894 0.0035220913 0.05724306 -0.028751941
0002b0 e5 54 e3 bc e9 e1 86 bc 91 94 cb 3d 55 71 d6 bc
       -0.027750442 -0.016465144 0.09940446 -0.026177088
0002c0 d2 55 01 3d 6a ac c1 3d d8 df 8d 3d 70 36 23 3c
       0.031575985 0.094567135 0.069274604 0.009961709
0002d0 e5 c6 e8 3c ff 03 2b 3d 53 08 03 3d 67 12 98 3d
       0.028415153 0.041751858 0.03199036 0.07425385
0002e0 5a 08 a6 3d 2c e1 8b bb 72 55 5d be 01 10 06 3d
       0.08107062 -0.004268786 -0.21614626 0.032730106
0002f0 25 dc 08 3d 91 22 a1 3c 72 1c 8e 3d 63 9b 00 3b
       0.03341307 0.019669803 0.06939019 0.0019623868
000300 15 c2 76 3d 2f 66 6d 3d 40 00 47 3d c2 9c 18 3d
       0.060243685 0.057958778 0.048584223 0.03725887
000310 8f 8c 09 3d 22 99 da 3d 83 1c c8 3d a6 bf 8d 3d
       0.033581313 0.10673739 0.09771063 0.0692132
000320 1d ad 91 bd 99 20 c4 3d 29 7a 29 3c 2a b2 73 3c
       -0.07113097 0.0957653 0.010344067 0.014874021
000330 ac 3b 91 3d 56 ff 69 3d ae 17 16 bc 01 14 c9 3a
       0.0709146 0.057128273 -0.009160919 0.0015341045
000340 af 2e 6e 3d 30 28 52 bd fe 07 b0 3c 18 c4 83 3d
       0.05814999 -0.051307857 0.021488186 0.06433886
000350 11 69 09 3e 9a a0 da 3d 93 6a 8e 3d b4 b9 c9 ba
       0.13418986 0.106751636 0.06953921 -0.0015390427
000360 8e 1e c2 bd 1b c3 94 bd 21 d7 88 3c 31 d0 92 3d
       -0.09478484 -0.07263776 0.016704144 0.071686156
000370 68 4b b5 bd 87 6d b4 3b b3 4e 42 bd 68 24 91 3d
       -0.08852273 0.0055062207 -0.047438335 0.07087022
000380 d8 78 8c 3d 79 42 9b 3d 1d d9 41 3c 45 1f 13 ba
       0.068589866 0.07581038 0.011831549 -0.00056122645
000390 13 9f 14 3d 01 9a 36 3d 3e 50 39 ba 7b 65 f9 bb
       0.036284517 0.044580463 -0.0007069147 -0.0076109744
0003a0 5e 81 98 bd a8 d7 ce 3a 50 33 83 3d eb d8 78 bc
       -0.0744655 0.0015780823 0.064062715 -0.015188436
0003b0 9a dd 21 3c 06 4e e4 3c 9e 55 d4 3c 99 b8 82 bd
       0.009879494 0.027869236 0.025919732 -0.063828655
0003c0 91 90 df bc d8 a6 59 3d 83 c1 c7 3d 98 5c ee bc
       -0.027290614 0.05313763 0.09753706 -0.029096887
0003d0 0e 21 1f 3c 7e d7 b5 3c e8 22 c8 bc 4f e7 de bc
       0.009712471 0.022197481 -0.024430707 -0.027209906
0003e0 d9 f1 13 3d 5c b2 2b bd 52 53 2f 3d b5 79 b6 3d
       0.036119316 -0.041918144 0.04280407 0.089099325
0003f0 82 12 0a bc 86 3c 77 bd 80 f7 15 3d cf 4b 0e bc
       -0.008427264 -0.060360454 0.036612988 -0.008685066

network_body._body_endoder.seq_layers.2.weight f4 [256, 256]
000000 47 7f 8b 3d f6 82 2e bd 74 f6 00 3c c0 9d 90 bd
       0.068113856 -0.042605363 0.007871259 -0.070613384
000010 47 45 74 3d a7 2e 73 3c 8b 62 36 bd 58 77 07 be
       0.05963638 0.014842666 -0.04452757 -0.1322912
000020 7e ca 1e be ba d5 ad 3c 11 3f 2e 3d e5 3e b0 bc
       -0.15506932 0.021220077 0.042540614 -0.021514365
000030 06 d8 16 3e 1b 21 b4 bc b0 d2 ad bd 66 7d 38 3c
       0.14730844 -0.021988442 -0.08487451 0.011260366
000040 78 d5 e7 bc 04 74 d1 bc 17 9e da 3c a2 e0 d4 3d
       -0.028300032 -0.025568016 0.026686711 0.10394408
000050 56 17 25 3e 2f 7f a6 bd 3a 2e 56 3d e7 bb 5e 3d
       0.16122183 -0.08129727 0.05229018 0.054378416
000060 e9 45 95 3d 13 5c 26 3d b1 bf 9f 3d ea 75 91 bd
       0.07288725 0.040615153 0.07800234 -0.071025684
000070 89 a5 0d 3e 32 8d d4 3d 82 a9 93 3d 5b fc 36 3d
       0.13832678 0.10378493 0.072100654 0.04467426
000080 7d 9a ac 3d c6 93 46 3e b0 d4 6f 3d 11 71 af bd
       0.08427904 0.19392309 0.058552444 -0.085664876
000090 99 71 9b 3e b0 7a 25 bc 05 cd 9e 3d da 16 a5 3d
       0.30360106 -0.010100052 0.07753948 0.08060999
0000a0 c7 1a 4f bd 0d 51 77 bd f5 56 32 bd 6b 74 b4 3d
       -0.050562646 -0.06038003 -0.04353996 0.088112675
0000b0 b5 25 bb 3d fc 9b 99 3d 29 05 77 3e a1 9c 98 3d
       0.091380514 0.07500455 0.24123062 0.074517496
0000c0 43 f1 b7 3c 6d 3a 3c bc ee 5c 4a 3e a7 a5 3b bd
       0.02245391 -0.011488539 0.19762012 -0.045812275
0000d0 bf a0 d8 bc 06 4d cb bc a2 7d e8 3d 0d 4d d1 3c
       -0.026443837 -0.024817001 0.113520876 0.025549436
0000e0 c5 76 b5 3b 27 69 a0 bb 9b be 03 3e 21 c7 f3 3c
       0.00553784 -0.0048953476 0.12865679 0.029758038
0000f0 d0 99 9d bd 54 bd 81 3c 46 db ac bd 22 c0 ae 3c
       -0.07695353 0.015837349 -0.084402606 0.02133185
000100 a1 ed 26 bd 87 06 1e 3c 5b 36 0e 3e d3 fc 00 3e
       -0.040753964 0.009645111 0.13887922 0.12596445
000110 89 c5 b8 bb e6 b4 35 bd 98 79 13 3d 51 53 82 3d
       -0.0056387824 -0.04436197 0.036004633 0.063635476
000120 39 df c4 3c 37 c6 97 bd 4a ec 6e 3c eb b1 0d be
       0.024032222 -0.07410853 0.014582703 -0.13837402
000130 5c 4a a4 bd 10 8f 1e bd 46 28 a2 3d e2 51 87 3d
       -0.080219954 -0.038710654 0.07917838 0.06607415
000140 de 80 a4 3c 2f 40 58 3d ae 2a 84 bd 12 e4 07 bd
       0.02008098 0.052795585 -0.06453453 -0.03317649
000150 68 f1 9a bd 9b 73 28 bd de d7 3b 3d 9c 26 04 be
       -0.07565576 -0.041125875 0.045860164 -0.12905353
000160 c9 6e 91 bd d4 bb c0 3d 2e 94 35 3d 41 3d 21 bd
       -0.07101209 0.09410825 0.04433077 -0.039365057
000170 ea 8e 25 3e 05 ca 70 3b 8c 1b 9b bc 71 8a 3a be
       0.16167799 0.0036741507 -0.018934034 -0.18216874
000180 75 60 9a 3d 14 84 59 bd bb 3a 25 bb b1 40 6e 3d
       0.07537929 -0.053104475 -0.0025212008 0.058167163
000190 e1 65 8e 3d dd 38 24 3e 38 fd 01 3e e4 97 66 bd
       0.069530256 0.16037317 0.12694252 -0.056297198
0001a0 54 37 bf bd 33 31 8e 3d 69 6f 17 3d f4 89 0d 3d
       -0.09336725 0.06942978 0.036971483 0.03455539
0001b0 f1 fc 74 3d 23 63 8d 3c 39 ff bf bd 2e 5b be 3d
       0.059811536 0.017259186 -0.09374852 0.09294735
0001c0 a7 be a6 3d a3 1c be bd b0 6b ba bd 5a f9 34 3c
       0.08141833 -0.09282806 -0.09102571 0.011045778
0001d0 c0 9b 0d bc 0a ae 72 bd 88 ff 62 3c e8 d2 cc 3c
       -0.008643091 -0.059248008 0.013854869 0.025002912
0001e0 47 95 ab 3d 58 8a 35 3e 97 e7 04 be 31 3f e4 bc
       0.08378082 0.17728555 -0.1297897 -0.027862163
0001f0 31 40 a3 bd 43 5c ae 3c 7f 43 0b bc 51 5d d6 bd
       -0.07971228 0.021284228 -0.008499979 -0.104670174
000200 d5 10 fa 3d eb 75 55 bd 09 4f 8b 3d 72 f6 09 be
       0.12210242 -0.05211441 0.06802184 -0.13472918
000210 ee 8c 46 bd 83 af f1 3c a6 b7 ad 3b c3 c4 3e bc
       -0.048474245 0.029502636 0.0053014336 -0.011643591
000220 6c e0 e5 3c 6c 4c 74 bd 25 8c 98 bd 02 de ec bc
       0.028061114 -0.059643194 -0.074486054 -0.028914455
000230 d9 a1 30 3d 7a 9f d5 bd b1 96 31 bc 9a 9c 78 3c
       0.0431231 -0.10430808 -0.01083915 0.0151740555
000240 30 d8 4a bd ea 48 fe bc ce 27 71 bd ef b9 b1 3d
       -0.04952258 -0.031040628 -0.05887585 0.08678042
000250 23 73 0a be 74 4f a5 3d 87 3c 87 3d c8 97 ca bc
       -0.13520484 0.08071795 0.066033415 -0.024730578
000260 ee 97 6e be 1b 23 d8 bc 80 4d 28 ba 2d e7 9d 3d
       -0.23300144 -0.026383927 -0.000642024 0.07710109
000270 59 16 f5 3c c1 3a 05 3e 40 91 e2 3c 56 ca a3 bd
       0.029917883 0.13010694 0.027657151 -0.07997577
000280 ff 93 8d 3d ed d9 5a 3d 9e 90 14 bc 2f 8c 6a bd
       0.06912994 0.053430486 -0.009067683 -0.057262596
000290 c3 78 0d 3d dc f4 55 bd 8e 7e c7 3d d2 e2 c5 3d
       0.034538995 -0.05223547 0.09740935 0.09662403
0002a0 c2 30 cc bd c4 ef bc b9 69 db fd 3b 1c a3 a8 bc
       -0.09970237 -0.00036036794 0.007747103 -0.02058559
0002b0 60 db 28 be bf e1 c2 bb 29 3b b4 bd 58 fc 36 be
       -0.16489935 -0.005947321 -0.088003464 -0.17869699
0002c0 2e e6 e3 3d 33 4e 08 3e 3d e6 00 3d 2b d3 37 3e
       0.11127888 0.1331108 0.031469572 0.17951648
0002d0 28 ea e9 bb 47 eb 65 bd 3c 7c 49 3d 76 a6 d2 3d
       -0.0071385093 -0.05613258 0.049190745 0.10285656
0002e0 16 92 8a bc bd 7b a0 bd 05 8d 31 ba 13 1c 40 ba
       -0.016915362 -0.07836101 -0.00067730277 -0.0007328402
0002f0 aa 61 12 3e 07 ff 95 bd 6c 73 eb 3d fc fb 4f be
       0.14295068 -0.07324033 0.11496624 -0.20310968
000300 a1 98 81 3e cd d1 d9 3d de f8 00 be 11 dc bb 3c
       0.2531176 0.106357194 -0.12594935 0.022932084
000310 ef 26 14 bc 5a 2f 0d 3e 4d 56 0f 3e fe 65 b6 3d
       -0.009042486 0.13787594 0.13997765 0.08906172
000320 c7 f5 20 bd 5c 28 72 3d 97 84 0b be 48 01 ba 3d
       -0.03929689 0.05912052 -0.13624798 0.09082276
000330 10 fc b5 3d 6e 11 cc bd 66 dc 21 3d f9 73 61 be
       0.08885968 -0.09964262 0.03951683 -0.22016896
000340 9c 88 38 3e bc 6f d0 bd 1c 14 6e bd 14 f9 02 3d
       0.18020862 -0.10177562 -0.058124647 0.03197582
000350 77 f1 b5 3d 7e 84 26 3e c9 9e 75 bd 9a cf bf bd
       0.088839464 0.1626148 -0.059965882 -0.09365769
000360 39 ba 16 be 6d 1c df bc d7 8d e9 bc 93 7e 11 bd
       -0.14719476 -0.027235234 -0.028510017 -0.0355211
000370 21 6b 1d 3d e1 72 ec 3b 0b d9 b7 bd 4a 63 1a 3e
       0.038432244 0.007215843 -0.089769445 0.15076938
000380 17 f4 cc 3d 84 34 c4 3c 0f f0 86 bc 0c 4a a5 3c
       0.10007494 0.023950823 -0.01647189 0.02017691
000390 83 24 b6 3d fe 3a 0f 3d 9e e4 cd bd 16 eb 8f 3d
       0.08893683 0.03496837 -0.10053371 0.07027261
0003a0 b8 35 3b be 06 4b c7 bd e6 af fd 3d 7f bc bd bd
       -0.18282211 -0.097311065 0.123870656 -0.092644684
0003b0 85 c8 1b bd d0 93 0d bd 8c af 5b 3d 2d 61 f3 bd
       -0.038033027 -0.034564793 0.05363421 -0.11883769
0003c0 3f 42 1e be ea 03 bd 3d e1 14 0c 3e af 54 2a bb
       -0.15454958 0.09229262 0.1367984 -0.0025990417
0003d0 89 29 ff bb af 91 66 bc 7f e4 fa bd 92 36 f0 bc
       -0.007786934 -0.01407282 -0.122506134 -0.029322896
0003e0 a7 1f 40 bd 9e 6d 1d bc 4b 6d 42 bd bf f7 30 3e
       -0.046905186 -0.009608654 -0.04746751 0.17282008
0003f0 56 08 cb 3d fd 02 b2 3c 18 c1 d7 bc 9b 39 39 3d
       0.09913699 0.02172994 -0.026337191 0.045220952

network_body._body_endoder.seq_layers.2.bias f4 [256]
000000 7e 77 c1 3d cb 68 08 bd fd 57 8a bb 95 d7 11 bc
       0.094466195 -0.033303063 -0.004221915 -0.008901496
000010 18 aa e3 3c 0f 80 64 bc 20 ba b1 3d cd ed ee 3d
       0.027791068 -0.013946547 0.08678079 0.11666451
000020 e5 9a ab bb cc 50 08 3d 6e e7 16 3d 09 da 82 3d
       -0.0052369707 0.03328018 0.036841802 0.06389243
000030 d3 54 b4 bc 82 9a 27 3d f7 8c 6b 39 56 82 23 3d
       -0.022013104 0.040918835 0.0002246386 0.03991922
000040 2c 2f 94 bb f9 4f 51 bc ae e2 2b 3d c3 87 58 3c
       -0.004522225 -0.012775415 0.041964225 0.013215962
000050 dc 15 bf 39 04 29 1c 3c a1 d5 e9 3a e0 02 9f bb
       0.00036446645 0.009531263 0.0017840156 -0.0048526376
000060 f7 ba 2c 3d 21 23 f4 3c 83 48 a0 bc 1e ff be 3c
       0.04217049 0.029801907 -0.019565826 0.023315009
000070 20 f6 a8 bb 9b 06 26 bc 75 88 96 3d 1e fc 8b bc
       -0.0051562935 -0.010133411 0.07350246 -0.017087992
000080 15 00 37 bd cc 7b 79 3d ae a6 94 3d 72 59 26 3c
       -0.044677813 0.060909078 0.07258354 0.010153161
000090 ab 18 b3 bb 12 3d 21 3d c2 9b ab 3d 8b 18 cc bc
       -0.005465587 0.03936488 0.08379318 -0.024914047
0000a0 c1 f1 05 3c 45 c9 01 3d 20 ca 96 3d 2a 01 c4 3c
       0.008175314 0.031686086 0.07362771 0.023926336
0000b0 bc 59 da 3d 1e ef 08 3c 53 4f 97 bb 6f 62 99 3d
       0.10661647 0.008357791 -0.0046176105 0.07489478
0000c0 77 7b bb 3d ee 36 6c 3d 29 61 a5 3d 83 ad be 3d
       0.091544084 0.057669573 0.080751725 0.093104385
0000d0 59 b7 64 3c dd 96 0f 38 39 58 7a 3d 56 b0 6e 3c
       0.013959729 3.423436e-05 0.061119292 0.014568409
0000e0 e2 d4 56 3d 8b a5 92 bb d3 70 9d 3c 3e 23 eb bd
       0.052449115 -0.0044753007 0.019218838 -0.11481331
0000f0 56 b9 1f 3c cf b3 91 3d 01 e3 4b 3c a0 4d 68 3d
       0.009748777 0.07114374 0.012444259 0.056714654
000100 96 b4 89 bc 97 60 fd 3c d6 29 b2 3d 0e 11 98 3d
       -0.016809743 0.030929847 0.08699386 0.07425128
000110 bd 38 f5 bc 26 f4 aa 3d 84 fe 6f bb c4 0b c0 3d
       -0.029934281 0.08347349 -0.003662021 0.09377244
000120 c3 4a a6 3c 3a 9c a6 3d 78 a6 b6 3c f9 ed 4a 3d
       0.020299321 0.081352666 0.022296175 0.049543355
000130 1b 12 bb 3d 86 ba 8a bd d9 81 74 3d b7 a5 64 3d
       0.09134313 -0.06773858 0.059694145 0.0558221
000140 55 19 48 3c d1 07 b4 39 f9 51 81 3d f9 db 7c bc
       0.012213071 0.000343381 0.06314463 -0.015433305
000150 be 52 d2 3b 45 b8 4b bb 4f 38 2b bc 6e d1 c4 bc
       0.006418555 -0.0031085175 -0.010450437 -0.024025645
000160 23 cb ef 3b 53 7b 9b 3d 36 a4 2a 3c ae f8 6e 3b
       0.007317917 0.075918816 0.0104151275 0.0036464143
000170 cf c7 10 3d 84 b4 18 3c 2e d8 00 bc 31 36 bf bc
       0.035346802 0.009320382 -0.007864041 -0.02334127
000180 e4 dd cc 3b c4 df 49 3d df e0 d7 3d 7d cb 64 3d
       0.0062520374 0.049285665 0.10540938 0.055858124
000190 5b 1d fa bc 5c 00 d0 bb a6 fb 2c bc 02 a1 e3 3c
       -0.030531576 -0.006347699 -0.010558045 0.027786735
0001a0 c4 7e b2 3d 60 47 55 3b 67 e0 82 bb 3f ee 98 3d
       0.08715585 0.0032543764 -0.003994036 0.07467317
0001b0 ba e3 b8 3d 39 bf f1 3b 22 fd cb 3d bf 8c 58 3d
       0.090278104 0.007377532 0.099603906 0.0528686
0001c0 ec 0a 83 3c 9a d5 aa 3d 35 07 8f 3d 70 f2 86 3d
       0.015996419 0.083415225 0.069837965 0.0658921
0001d0 38 69 e3 3d 6f b8 76 3d bc 1d 6c 3c c0 df a3 bc
       0.11104053 0.060234483 0.014411386 -0.020004153
0001e0 a3 4b 02 3d ed bd 9b 3c 1e ce 41 3d 4b ba cf 3c
       0.031810414 0.019011462 0.04731571 0.025357386
0001f0 e1 d8 69 3b fe 38 56 3c 92 6a d6 3c 5b 3c 5c 3c
       0.0035682248 0.013075111 0.026173864 0.013442124
000200 c0 ae 6b bd b0 f8 15 3d 8e 49 9a bd 71 4d 47 3d
       -0.0575397 0.03661412 -0.07533561 0.04865784
000210 c5 20 19 bd 16 7c 6c 3d 43 0b 05 3d d5 95 e5 bc
       -0.037384767 0.057735525 0.032481443 -0.028025547
000220 ba 99 42 3d ec 61 93 bc 00 93 ae 3b d5 7d 28 3c
       0.047509886 -0.017991029 0.0053275824 0.010283907
000230 c1 c0 ab 3d d9 27 d5 3c 94 b7 13 bc a1 be 54 3d
       0.08386374 0.026019977 -0.009015936 0.05193961
000240 d8 52 95 bc 47 33 56 3d 46 13 2d 3b 15 26 83 3d
       -0.01822798 0.052294996 0.0026409193 0.06403748
000250 a9 f6 49 bb 6d 76 cb 3c ea 54 b5 39 5d d4 7e 3d
       -0.0030817187 0.024836743 0.00034586276 0.062214244
000260 9a ea da 3d 37 bc 6d bb 4f d8 99 3d a8 cc 96 ba
       0.10689278 -0.0036275515 0.07511961 -0.0011505084
000270 a2 3a a9 3c e7 2f f3 3c 10 7f 3a bc c9 68 a6 3c
       0.020657841 0.029685928 -0.011382833 0.020313637
000280 a0 80 76 b9 dd 2d b0 bd 2c eb 8e bd 52 cd 71 3d
       -0.00023508305 -0.08602498 -0.06978449 0.0590337
000290 bb 54 89 3d 48 20 57 3d a2 ee a3 3c 65 69 ab 3d
       0.06705614 0.05252102 0.02001125 0.08369712
0002a0 12 0c 04 3d 69 04 64 3d cd 49 43 3d d3 73 c8 3b
       0.032238074 0.05566827 0.047677804 0.006117323
0002b0 be 39 2e bd aa 23 1f bc 3d 1e 19 3d cb bd 2d 3d
       -0.042535536 -0.009713093 0.037382353 0.04241733
0002c0 1d b9 0c 3c 4f bb 3c 3c af a2 72 3d 3f a2 8d 3d
       0.008589056 0.011519267 0.05923718 0.069157116
0002d0 32 a2 3e 3c a4 9d 09 3d 10 12 90 3d 9f 74 b8 3c
       0.01163535 0.033597603 0.07034695 0.022516547
0002e0 c1 e7 07 3d 54 bc a0 bc 2d 1c a8 3d 13 1d 95 3c
       0.033180002 -0.019621052 0.08208499 0.01820234
0002f0 92 89 4a 3d 11 2b 18 3c f1 4e 28 3d 9d d7 a5 3d
       0.049447604 0.009287612 0.04109091 0.080977656
000300 2d 3b b0 3d c3 49 f2 bc 7d 47 19 bb 81 9f 32 3b
       0.08605037 -0.029576188 -0.0023388558 0.0027255716
000310 b0 6b 7e 3d df f8 1a 3d 7a c7 b7 39 b8 4a 40 3d
       0.062114418 0.037835 0.00035053102 0.046946257
000320 ba db 28 3d ad 19 29 3d cd d3 3c 3d 20 14 9b 3d
       0.041225173 0.041284252 0.046100426 0.07572198
000330 bd ce 77 3d 41 ba b7 3d 03 b9 56 3c 3d 81 92 bb
       0.060499895 0.08971072 0.013105634 -0.004470973
000340 2e cc 5a bd 86 e7 15 3d 25 00 52 3b 9c 7e 27 bd
       -0.053417377 0.03659775 0.0032043543 -0.04089223
000350 37 9f ad 3d a4 16 a4 bd 72 e6 6d 3b 0e d8 ff 3c
       0.084776334 -0.08012131 0.0036300686 0.031230953
000360 2d 70 59 3c 41 cc 8b 3d e9 76 80 bc 4d 8e 55 3a
       0.013271374 0.06826068 -0.0156817 0.00081465096
000370 32 5f 16 bc 83 8b d9 bc 7e c4 c6 3d dd 08 c8 3c
       -0.00917797 -0.026555782 0.09705447 0.024418289
000380 79 23 cb 3c 93 b9 9f 3d 54 96 6a 3d c3 d0 80 3d
       0.024797188 0.07799067 0.05727227 0.06289818
000390 26 6a 1e bb 73 62 f6 3c ac 3f 6c bd 4e 4a 11 bc
       -0.0024172156 0.030076241 -0.05767791 -0.008867813
0003a0 d8 73 75 bb 10 8c f6 bb 25 f0 22 bd 8e f1 95 3d
       -0.0037453081 -0.007524021 -0.0397798 0.073214635
0003b0 a1 72 c2 3c 9e 18 29 3d 57 7c d6 3b 6d cf 4f 3d
       0.0237363 0.041283242 0.006545584 0.050734926
0003c0 c5 cc d1 bc 2a 9d b0 3d 29 a0 11 bc 01 0c 76 3d
       -0.025610337 0.08623727 -0.008888283 0.06007004
0003d0 b0 be 96 3c c3 a3 51 bc 58 5b a7 3d 98 20 a6 bc
       0.018401474 -0.0127953915 0.08171719 -0.020279214
0003e0 86 5d 28 ba 8a a9 55 3d 80 01 2e bd 90 53 8c 3d
       -0.00064226275 0.05216364 -0.0424819 0.06851876
0003f0 11 28 5a 3d b0 f6 fe 3c cd 2d 95 bc ed 2f 61 3d
       0.053260867 0.03112349 -0.018210316 0.054977346

action_model._discrete_distribution.branches.0.weight f4 [7, 256]
000000 75 ca ae bd 41 c1 6d 3d d1 7b fb bc a1 21 ce bc
       -0.08534709 0.05804563 -0.030698689 -0.02516252
000010 2c f4 16 bc 76 cf 7f 3c 5c 0d a0 bd 63 0d e1 bd
       -0.009213489 0.015613427 -0.07815048 -0.109888814
000020 75 2b dc ba 87 97 4a bd 67 83 1c bd d9 9a 83 bd
       -0.0016797619 -0.049460914 -0.038211253 -0.06426019
000030 27 8f 0e bc ef d5 38 bd 70 a1 7c 3c 85 a5 35 bd
       -0.008701122 -0.045125898 0.015419349 -0.044347305
000040 6d 07 d3 bc cd a5 95 bc d3 f0 2c bd 47 df 38 bd
       -0.025760377 -0.018267537 -0.042221855 -0.04513481
000050 93 c7 c0 bc a8 bf 0c 3b 2e 10 33 bd 19 3b dd bc
       -0.023532664 0.002147654 -0.043716602 -0.027005719
000060 f8 54 a7 bd c8 00 46 bd 38 13 01 3c e3 85 5b bd
       -0.081705034 -0.04834059 0.007878117 -0.05359448
000070 a2 52 85 bb 8e 55 f2 bc cd 12 b2 bd 57 11 af ba
       -0.0040686885 -0.029581811 -0.08694992 -0.0013356608
000080 33 0e 68 3c d9 fc 8c bd be 0c d8 bd 1e 82 49 bd
       0.014163542 -0.06884164 -0.105493054 -0.049196355
000090 a6 c1 8f 3c 7e 0c 9f bd 9b 92 82 bd 02 22 ac bc
       0.017548393 -0.077660546 -0.06375619 -0.02101231
0000a0 89 13 0a bd 86 de 1b bd 9b 15 02 bd 37 28 aa bc
       -0.033710036 -0.03805401 -0.031758886 -0.020771129
0000b0 b5 0c d8 bd c5 21 35 bd 2d 96 b3 bc de ef 52 bd
       -0.10549299 -0.04422166 -0.021922195 -0.051498286
0000c0 d6 ad c4 bd 8a 21 7e bd 6a df 9a bd 76 e6 aa bd
       -0.09603469 -0.062043704 -0.07562144 -0.08344738
0000d0 e5 87 3a bd 5d 8f c5 bc 43 62 3b bd d0 89 4e bd
       -0.045539755 -0.024116213 -0.045748007 -0.050424397
0000e0 d7 22 3b bd a1 3b 1b bd e6 77 0f bd 68 2c c3 3d
       -0.045687523 -0.037898663 -0.035026453 0.09529954
0000f0 78 0e c4 3a b3 73 c9 bd dc 4d ca bc df 11 ac bd
       0.0014957925 -0.09836521 -0.02469533 -0.08401846
000100 a4 23 b5 bc eb b3 8a bd cf fd db bd 72 08 a4 bd
       -0.022111721 -0.06772598 -0.107417695 -0.08009423
000110 de 2f dc 3c 20 77 c4 bd f0 f2 b5 3c 44 8e 8a bd
       0.026878294 -0.09593034 0.022210568 -0.06765416
000120 ca 10 0a bc fe e0 bc bd 86 91 11 bd 4d 27 ed bc
       -0.008426854 -0.09222601 -0.035539173 -0.028949404
000130 0e 4e ea bd d6 37 5b 3d 98 00 24 bc 29 26 76 bd
       -0.11440669 0.053520046 -0.010009907 -0.060094986
000140 f2 df 67 bd b3 4d 76 3c 42 c7 d0 bd 63 8e 9b 3c
       -0.056610055 0.015033173 -0.101942554 0.018988794
000150 08 b8 03 bd 68 d4 9b 3a ce 72 7b bc d8 73 21 3d
       -0.032157928 0.0011888864 -0.015347196 0.039417118
000160 0e b7 46 bd 39 03 78 bd 3c 15 58 bd 17 b1 a9 bc
       -0.04851442 -0.06054995 -0.052754626 -0.020714326
000170 b4 15 86 bd 7c 93 60 ba 97 d9 2d 3d 22 88 1a bc
       -0.06547108 -0.0008566899 0.042443838 -0.009431871
000180 e3 b9 8d bc 5c 8b 37 bd 68 f1 d3 bd 08 5a 99 bd
       -0.017300552 -0.044810638 -0.10348779 -0.07487875
000190 31 7c 8f 3c ca 51 b3 bc fc b2 8a bc 67 ca 0e bd
       0.017515274 -0.021889586 -0.01693105 -0.034860995
0001a0 d6 3d f5 bd b4 ef 03 bd 8f fb 84 bc e5 ff ab bd
       -0.11974685 -0.03221102 -0.016233234 -0.083984174
0001b0 9a 46 b6 bd f5 cc 0e bd 7f b3 bc bd 04 56 a6 bd
       -0.08900185 -0.03486343 -0.09213924 -0.08121875
0001c0 27 b8 44 bd ec 5b c4 bd ee 7a ce bd a0 d5 ac bd
       -0.048027184 -0.09587845 -0.10082041 -0.08439183
0001d0 47 03 cb bd d5 cb bb bd ba 1d ae bc d5 95 5d bb
       -0.099127345 -0.09169737 -0.02125441 -0.003381123
0001e0 72 a7 9a bd b0 03 27 3b 01 e9 28 bd 07 ef 09 bd
       -0.07551469 0.0025484376 -0.041237835 -0.03367522
0001f0 91 41 80 3c 3b b8 37 bc f4 21 27 bc a5 dc a0 bb
       0.015656264 -0.011213358 -0.010200966 -0.0049091154
000200 9d 1f 4c 3c fe 77 00 bd 3d b7 fb 3c 0c d6 f3 3a
       0.012458709 -0.031364433 0.030727023 0.001860322
000210 3e 34 71 3d c0 10 b5 bd aa a6 79 bd 4f 2a c5 ba
       0.058887713 -0.088410854 -0.06094996 -0.0015042516
000220 7a 55 ac bd e6 f0 b5 bc 3f f9 77 39 94 eb 52 bd
       -0.08414741 -0.022209596 0.00023648607 -0.051494196
000230 b5 3a a4 bd d5 4c 86 bd 25 9e 56 bc 83 2f 9c bd
       -0.0801901 -0.06557623 -0.013099228 -0.0762625
000240 b8 80 c1 bc 3e 5b 9d bd 15 f2 fb 3b 3b 34 73 bd
       -0.023620948 -0.07683419 0.0076887705 -0.059375983
000250 35 ba b4 bc 64 ec df bc 04 c9 0e bd af 34 92 bd
       -0.022061447 -0.0273344 -0.034859672 -0.07138955
000260 12 2c da bd 9b 95 d7 bc 4a 59 b3 bd fb ad 1c bd
       -0.10652937 -0.026316455 -0.08757265 -0.03825186
000270 67 e9 dd bc 4d 46 52 bd 15 73 80 3c 49 83 27 bd
       -0.027088834 -0.051336575 0.015679875 -0.040896688
000280 5b c7 92 bc ed 01 55 3d 87 74 93 3d f7 4f a7 bd
       -0.017917326 0.05200379 0.0719996 -0.08169549
000290 f7 29 ca bd f3 f5 56 bd a5 f7 6e bd 3b 2d a2 bd
       -0.098712854 -0.05248065 -0.05834164 -0.07918783
0002a0 ca d2 8f bc a7 aa d6 bd 94 15 cf bc 32 fd 35 bd
       -0.017556567 -0.10481768 -0.025278844 -0.04443092
0002b0 26 96 9d 3c d7 7e fc bc dd ed 62 bd f8 8b 7a bc
       0.019236635 -0.0308222 -0.055402625 -0.01529216
0002c0 32 11 31 bd 17 72 17 bd 8d dc 75 bd ba bb 89 bd
       -0.04322929 -0.03697404 -0.060024787 -0.06725259
0002d0 8f 82 fb 3b 65 a9 45 bd cd 6c a2 bd 75 35 81 bd
       0.007675476 -0.04825725 -0.07930908 -0.06309024
0002e0 e3 72 09 bd 81 9e da bc 19 d1 fc bd 54 c7 64 bd
       -0.03355683 -0.026686909 -0.1234457 -0.055854157
0002f0 9b 25 76 bd 7c cf 42 bc fd de c1 bc f9 a3 99 bd
       -0.060094457 -0.011890288 -0.0236659 -0.075019784
000300 65 f7 dd bd 61 a8 04 3d 02 41 38 bd d2 04 1f bd
       -0.108382024 0.03238714 -0.04498387 -0.038822956
000310 0a 6c 87 bd fb 44 c6 bc 20 04 1c bd 11 1b 6f bd
       -0.06612404 -0.024202814 -0.03808987 -0.058375422
000320 7a 06 90 bd 8d 3a 2b bd fc 4f a5 bd 33 a3 c0 bd
       -0.07032485 -0.041803885 -0.080718964 -0.09406128
000330 a0 91 42 bd 9c 33 b0 bd 04 52 1a bd 27 4b fb bc
       -0.04750216 -0.08603594 -0.037675872 -0.030675484
000340 fc 48 61 3d 69 72 8e bd 39 3c 39 bc ca 05 04 bc
       0.055001244 -0.06955416 -0.011305862 -0.008058021
000350 7f d6 c2 bd 54 0f 03 3e f1 e3 23 bd 6b a8 8c 3c
       -0.09513568 0.12798816 -0.040012304 0.017170152
000360 b7 21 08 bc aa 6a 6d bd cf 25 04 bb 60 07 0a bd
       -0.0083088195 -0.05796305 -0.0020164137 -0.03369844
000370 38 66 e7 bc 4c 15 d6 bc 2c 5f d0 bd 08 f5 ab bc
       -0.028246984 -0.026133202 -0.101744026 -0.020990863
000380 d1 a5 85 bc a1 54 76 bd bc c4 ca bd 70 fe 60 bc
       -0.016314419 -0.060139302 -0.09900805 -0.013732538
000390 f9 82 0f bd 7d 53 89 bd 88 a3 5f 3c b4 1a ca bc
       -0.035037015 -0.06705377 0.013649829 -0.024670936
0003a0 25 d9 1d 3d bc 9b a4 bc 10 4c 2b 3d 3a ab d8 bd
       0.038537163 -0.020093791 0.041820586 -0.10579534
0003b0 68 6c e1 bc 47 82 a0 bd 03 c0 cf bc f7 c1 45 bd
       -0.027517512 -0.078373484 -0.025360113 -0.048280682
0003c0 d0 73 51 3d d8 9c b7 bd 9b db 1b 3d fc c4 5a bd
       0.051135838 -0.089654624 0.03805123 -0.053410515
0003d0 27 04 bb bb 10 11 b0 3c ca da a5 bd 89 47 44 3b
       -0.005707282 0.021492511 -0.08098371 0.0029949865
0003e0 4a a5 e6 3c 39 18 bc bd 7d 57 4b 3d 57 4d cc bd
       0.028154988 -0.091843076 0.049643982 -0.09975689
0003f0 17 03 c5 bd 25 ba 8f bd 27 97 79 bb c5 97 be bd
       -0.0961973 -0.07017926 -0.0038084479 -0.093062915

action_model._discrete_distribution.branches.0.bias f4 [7]
000000 04 c5 f5 bd 52 6e 0c 3d f3 61 07 bd 07 d5 3d 3d
       -0.120004684 0.034284897 -0.033052396 0.046345737
000010 ed cc 16 bb ad c5 52 bb 5a e8 07 bd
       -0.002301033 -0.003216128 -0.033180572
