results/puzzle_experiment_4/PuzzleBehavior/PuzzleBehavior-19499966.onnx (onnx, 342923 bytes, 6 tensors)

network_body._body_endoder.seq_layers.0.weight f4 [256, 65]
0	0xbf1f1619	-0.62143093
1	0x3d069a0a	0.032861747
2	0xbec51662	-0.3849364
3	0xbeb1574f	-0.34636924
4	0x3a730797	0.00092708453
5	0x3cfd434b	0.030915877
6	0x3dee5a10	0.11638272
7	0xbe1a0859	-0.15042247
8	0x3ea05934	0.31318057
9	0xbf1b4181	-0.60646826
10	0xbe0d316b	-0.13788383
11	0xba6680d3	-0.0008793
12	0x3e2305d3	0.1592019
13	0x3e0ecead	0.13946028
14	0x3e95426b	0.29152235
15	0x3b29b048	0.0025892425
16	0xbe99aeca	-0.30016166
17	0x3c253009	0.010082253
18	0xbe109c68	-0.14122164
19	0x3e3293e5	0.1743923
20	0xbd5c784f	-0.053825673
21	0x3ddedca4	0.108819276
22	0x3d075efd	0.033049572
23	0xbb48441f	-0.0030558181
24	0xbcd1f1af	-0.025627939
25	0x3c88b2ae	0.016686764
26	0xbd183230	-0.037157238
27	0xbe87ad3d	-0.26499358
28	0x3e0b7b47	0.13621245
29	0xbe587c6c	-0.21141213
30	0xbe495df2	-0.19664744
31	0x3e577d56	0.21043906
32	0x3e8c401c	0.27392662
33	0x3d6ba550	0.0575307
34	0xbe00e734	-0.12588197
35	0xbe442f3b	-0.19158642
36	0xbeaa914e	-0.33313984
37	0x3d275b91	0.04085881
38	0x3e54f2be	0.20795724
39	0xbdb59fce	-0.08868371
40	0x3d186188	0.037202388
41	0x3c8f093d	0.01746046
42	0x3e38df25	0.18053873
43	0xbeb85ace	-0.36006778
44	0xbd200fbe	-0.039077513
45	0xbe176dcf	-0.14787982
46	0xbde3b81f	-0.11119103
47	0x3e6eade6	0.23308524
48	0x3e6834aa	0.2267634
49	0xbd88d5f6	-0.06681435
50	0xbdc282b0	-0.09497583
51	0x3d8d38ae	0.068955764
52	0xbe4bb986	-0.1989499
53	0xbda7e839	-0.0819859
54	0x3df28abe	0.11842869
55	0xbda456f9	-0.08024401
56	0x3e58c999	0.21170653
57	0x3e8acea0	0.27110767
58	0xbde2ea27	-0.11079817
59	0x3c30a010	0.010780349
60	0xbdbb11bd	-0.09134243
61	0xbe91300a	-0.28356963
62	0xbf2c531a	-0.673143
63	0x3e18798f	0.14890121
64	0x3e5f27a6	0.21792468
65	0xbf5692f7	-0.83818
66	0x3d8ad9f3	0.06779852
67	0xbe74ac36	-0.23893818
68	0xbbb6d672	-0.005579763
69	0xbe5da08a	-0.21643272
70	0x3d8c457c	0.068491906
71	0x3de0d298	0.109776676
72	0x3e1f5a5f	0.15561818
73	0x3efb46e0	0.4907751
74	0xbed899ea	-0.42304927
75	0x3c3c9606	0.011510378
76	0x3e877131	0.26453546
77	0xbecb2cda	-0.39682657
78	0x3e1ab2ae	0.15107223
79	0xbd4b81ef	-0.04968446
80	0x3deeac55	0.116539635
81	0xbdb3aac5	-0.08772806
82	0x3e2f2058	0.17102182
83	0xbd3c4a75	-0.045969445
84	0x3e1c7675	0.15279563
85	0x3e550650	0.2080319
86	0xbe204696	-0.15651926
87	0x3e2e902c	0.17047185
88	0xbdb95906	-0.09050183
89	0x3ea92dbb	0.33042702
90	0xbe23af5c	-0.15984863
91	0x3ed92ef5	0.42418638
92	0x3e17aa46	0.14811048
93	0xbd94effd	-0.07272337
94	0xbe575747	-0.21029387
95	0xbdbd9fb0	-0.092589736
96	0x3df01608	0.11722952
97	0x3e4b085c	0.19827408
98	0x3e418852	0.18899658
99	0xbdbad0c8	-0.09121853
100	0xbdd64182	-0.104617134
101	0xbe873856	-0.26410168
102	0x3e3cd99a	0.18442383
103	0x3cf66f90	0.030082494
104	0xbeedf429	-0.46475342
105	0x3d45eaf9	0.04831979
106	0xbe9b907c	-0.3038367
107	0x3c05d972	0.008169519
108	0xbf0afc41	-0.5429116
109	0x3d4967f2	0.049171396
110	0xbd098a52	-0.03357918
111	0x3d90d19d	0.070712306
112	0x3de7795c	0.11302444
113	0x3e8e5365	0.27798
114	0xbb326457	-0.0027220452
115	0xbd1c6a69	-0.038187418
116	0xbe07d9e1	-0.13266708
117	0xbd9857ab	-0.07438596
118	0xbc860033	-0.016357517
119	0xbefbada5	-0.49155918
120	0x3cfcba7f	0.030850647
121	0x3dd5dfbd	0.10443065
122	0xbf21b9b2	-0.63173974
123	0x3d9b5900	0.07585335
124	0xbe7c2024	-0.24621636
125	0xbd99474e	-0.074843034
126	0xbda3108d	-0.07962141
127	0xbf5ec76c	-0.87023044
128	0xbda142e3	-0.07874086
129	0x3c38a0af	0.011268779
130	0x3eabd0fa	0.33557874
131	0xbdbaba22	-0.09117533
132	0x3e2f150a	0.1709787
133	0xbd1c98c7	-0.038231637
134	0x3dcc5c66	0.09978561
135	0xbd6cdd41	-0.05782819
136	0x3dbd4ec7	0.09243541
137	0x3e0dcef4	0.13848478
138	0xbd2c5cb4	-0.042080596
139	0xbd88424f	-0.06653272
140	0xbd75e37f	-0.06003141
141	0xbdfac4e0	-0.12244582
142	0x3ecc283e	0.39874452
143	0x3dfdf98c	0.12401113
144	0x3e52bf5b	0.20580809
145	0x3df3793e	0.118883595
146	0x3e6d4755	0.23171742
147	0x3e6da8ef	0.23208974
148	0xbdc89f2b	-0.09795984
149	0xbd849a9c	-0.06474802
150	0x3e99e50d	0.30057564
151	0x3e978575	0.29594007
152	0xbe13cf5d	-0.14434572
153	0x3de9830a	0.11401947
154	0xbe67a301	-0.22620775
155	0xbbd521cb	-0.0065042726
156	0x3c1d7fdd	0.0096130045
157	0x3e02ce6e	0.12774059
158	0xbecb45fc	-0.3970183
159	0xbe296ced	-0.16545458
160	0xbe62c35f	-0.2214484
161	0xbcc8ca5f	-0.02451056
162	0xbce6ccbd	-0.028173799
163	0x3dde1250	0.108433366
164	0x3d69e55a	0.057103492
165	0x3e3b9f79	0.18322553
166	0x3de84165	0.11340598
167	0xbd27a96c	-0.040933058
168	0x3e5c72ef	0.21528219
169	0xbd00c478	-0.031437367
170	0x3dcb02f7	0.09912675
171	0xbd1cc8c7	-0.038277414
172	0xbea91c67	-0.33029482
173	0xbe721258	-0.2363981
174	0xbd5b655a	-0.053563453
175	0x3dafd31f	0.0858519
176	0x3e86018f	0.26173064
177	0xbe8a792c	-0.27045572
178	0xbe842ebd	-0.25816908
179	0x3d23de43	0.040006887
180	0x3d9f8746	0.07789473
181	0xbe5dccd5	-0.21660168
182	0xbeb2c2cb	-0.3491424
183	0xbe141142	-0.14459708
184	0x3c323a2d	0.010878128
185	0x3e6a171c	0.22860378
186	0x3bec26c6	0.0072067706
187	0xbf5fda6b	-0.87442654
188	0x3d1351a1	0.03596652
189	0x3c4dba8d	0.012556684
190	0xbef4ccc1	-0.47812465
191	0x3c4b5cc2	0.012412252
192	0xbee310c5	-0.44348732
193	0xbd6d0c65	-0.05787315
194	0xbd24ac5c	-0.040203437
195	0xbd4145d7	-0.047185745
196	0x3e80b0b6	0.2513482
197	0x3e786d1b	0.2426037
198	0x3ea6eb4d	0.32601395
199	0xbe04a79f	-0.12954567
200	0x3d1b5bc0	0.037929296
201	0xbe19afda	-0.15008488
202	0xbe0c4ad7	-0.13700424
203	0xbed162a6	-0.40895575
204	0x3d542c43	0.051800024
205	0xbe0e9910	-0.13925576
206	0x3e3816d0	0.17977452
207	0x3e26452e	0.16237327
208	0xbd821bf5	-0.06352989
209	0xbe7dbc98	-0.24778974
210	0xbde2ea6b	-0.11079868
211	0xbdf24985	-0.11830429
212	0xbea951db	-0.33070263
213	0x3d17eefa	0.03709314
214	0xbd942118	-0.07232875
215	0x3e1464b9	0.14491548
216	0xbec79e11	-0.38987783
217	0xbe90c5c9	-0.28275898
218	0x3d2f4e06	0.04279902
219	0x3d09cae1	0.033640746
220	0x3e7d0b4e	0.24711344
221	0xbec9de35	-0.39427343
222	0xbe5a351e	-0.21309325
223	0xbd9e10e1	-0.07718063
224	0x3ef582f7	0.4795148
225	0x3dbbc178	0.091677606
226	0xbe0a342a	-0.13496462
227	0xbe16218d	-0.14661236
228	0xbe3e51c0	-0.18585873
229	0xbe655b7f	-0.22398184
230	0x3df051ec	0.11734375
231	0xbd13eff3	-0.036117505
232	0x3bfd0c26	0.0077223955
233	0xbd6b3d85	-0.057431716
234	0x3e439c85	0.19102676
235	0x3d091381	0.033465866
236	0x3e220fb6	0.15826306
237	0x3c9956bc	0.018718116
238	0x3e198471	0.14991929
239	0x3e431159	0.19049586
240	0xbdf20586	-0.1181746
241	0xbda67765	-0.081282414
242	0x3ed6e3f4	0.4197079
243	0xbd5bdcf4	-0.053677514
244	0x3d08ddf1	0.033414785
245	0xbd9b4dde	-0.07583211
246	0x3e62ddd8	0.22154939
247	0xbdcf280f	-0.101150624
248	0x3e18686f	0.14883588
249	0x3d9c1600	0.07621384
250	0x3e043fbe	0.1291494
251	0x3d05307b	0.032516938
252	0x3e9134db	0.28360638
253	0xbc6db3a1	-0.014508159
254	0xbe206638	-0.15663993
255	0x3e6f8a74	0.2339266

network_body._body_endoder.seq_layers.0.bias f4 [256]
0	0x3ad0776f	0.0015904735
1	0x3d08cfbf	0.033401247
2	0xbd4fad0c	-0.05070214
3	0x3e2875ac	0.16451138
4	0xbdb17fb3	-0.08666935
5	0x3e0865f2	0.13320139
6	0x3dc2d784	0.095137626
7	0xbcb3532e	-0.02189025
8	0x3c9c7b91	0.01910189
9	0xbd378fe4	-0.04481496
10	0x3c6db7e1	0.014509172
11	0x3e0cc6bf	0.1374769
12	0x3b8480d0	0.004043676
13	0x3e190de2	0.14946702
14	0xbb2f9362	-0.0026790728
15	0xbe6321d3	-0.22180872
16	0x3e1cfbde	0.15330455
17	0xbcf97e21	-0.03045565
18	0xbe1f8f8b	-0.15582101
19	0xbaca4861	-0.0015432948
20	0xbdb8ff32	-0.0903305
21	0x3db8f8aa	0.09031804
22	0xbd1a1384	-0.037616268
23	0xbd160da7	-0.036634114
24	0xbcc7abfb	-0.024373999
25	0x3da2c616	0.07947938
26	0xbbae1dd2	-0.0053136135
27	0x3e018c88	0.12651265
28	0x3d2f8cca	0.042858876
29	0xbc53b1dd	-0.012920824
30	0x3d426840	0.0474627
31	0x3dccace1	0.099939115
32	0xbcdb6414	-0.02678112
33	0xbdadffde	-0.084960684
34	0x3db19c15	0.086723484
35	0x3cfcbf86	0.030853044
36	0x3bb25666	0.0054424284
37	0x3cc15ed8	0.023604795
38	0x3d225dad	0.039640117
39	0xbd0d2336	-0.034457408
40	0x3ddf84bb	0.10913988
41	0x3da2cf14	0.07949653
42	0xbe3b96a0	-0.18319178
43	0x3d4d4112	0.050110884
44	0xbd108ae7	-0.035288718
45	0x3dbbecf0	0.091760516
46	0xbce66557	-0.028124494
47	0xbd694c3d	-0.056957472
48	0x3cc71d9a	0.024306107
49	0x3caf7b17	0.021420998
50	0x3cd045c6	0.025423896
51	0xbcd7d5ce	-0.026347067
52	0xbdb1c86f	-0.08680808
53	0x3dc2e969	0.09517176
54	0x3e06edb1	0.1317661
55	0x3b201ba6	0.0024430542
56	0x3dc8f5cb	0.09812506
57	0x3d4b3ca2	0.04961837
58	0xbc4ba26d	-0.012428862
59	0x3e1a500d	0.150696
60	0xbcc78e8f	-0.02435997
61	0x3e005d64	0.12535626
62	0x3c0ce70e	0.00860001
63	0x3dc90609	0.09815604
64	0xbdf4b741	-0.119490154
65	0x3cb5b99a	0.022183228
66	0xbdb93e01	-0.090450294
67	0xbe183119	-0.1486248
68	0x3dc2e397	0.095160656
69	0x3d0e1237	0.03468534
70	0xbc12aa6e	-0.008951766
71	0xbd34aa62	-0.044107802
72	0xbdc06e63	-0.093960546
73	0xbd1c477e	-0.038154118
74	0xbe2b9dd2	-0.16759422
75	0x3d0d104e	0.034439377
76	0x3d0d124c	0.034441277
77	0x3ce5a227	0.028031422
78	0xbd42ad32	-0.047528453
79	0xbc6237f2	-0.013807284
80	0x3e1bf8dd	0.15231653
81	0xbafe7766	-0.0019414246
82	0x3d730c9c	0.059338197
83	0xbd916fe7	-0.07101422
84	0xbdeba80f	-0.11506664
85	0xbc8f1af2	-0.017468903
86	0x3da126e6	0.078687474
87	0xbda12a82	-0.07869436
88	0x3e0cda19	0.13755073
89	0x3d3f3fff	0.04669189
90	0x3c071408	0.008244522
91	0xbd015693	-0.031576704
92	0xbe0a477b	-0.1350383
93	0x3e422fb0	0.18963504
94	0xbe2c3fc4	-0.168212
95	0x3b2b6c40	0.0026157051
96	0xbc5f846b	-0.013642411
97	0x3dcee383	0.10101988
98	0x3dbfbe6d	0.09362493
99	0x3d6c7868	0.057732016
100	0x3dde7df1	0.10863865
101	0x3e547b9a	0.20750275
102	0xbe80f1da	-0.25184518
103	0x3d71f494	0.05907114
104	0x3d3d1382	0.046161182
105	0xbdf86cde	-0.1213014
106	0xbd47ba7f	-0.04876184
107	0x3da7562b	0.08170732
108	0x3da29337	0.07938235
109	0x3de98e55	0.11404101
110	0x3d88b79f	0.06675648
111	0xbd85ad54	-0.065272
112	0x3da584e2	0.08081986
113	0xbb82e1b8	-0.003994193
114	0x3da132c9	0.078710146
115	0x3e00b4c6	0.1256896
116	0x3d0879cb	0.033319276
117	0x3c7fd052	0.015613632
118	0xbd82cf58	-0.06387204
119	0x3de78ecf	0.113065355
120	0x3d96358e	0.073344335
121	0xbd1327d5	-0.03592666
122	0x3d2ff870	0.042961538
123	0x3d8452d1	0.064611085
124	0x3dd19224	0.10232952
125	0x3b891646	0.0041835634
126	0x3e09a585	0.13442047
127	0x3ceca099	0.028885173
128	0x3d800cef	0.06252467
129	0x3dd7fcc8	0.10546261
130	0xbc336fdb	-0.010951961
131	0x3d712472	0.058872648
132	0x3e01164c	0.12606162
133	0x3d8fc4a0	0.07019925
134	0xbc506c4c	-0.0127211325
135	0xbd8820f4	-0.0664691
136	0xbe6dabd3	-0.23210077
137	0xbd6b223c	-0.057405695
138	0xbd964b8b	-0.073386274
139	0xbca70c56	-0.020391624
140	0x3b593ea2	0.0033148904
141	0x3d2e76a7	0.042593624
142	0xbde0853f	-0.10962915
143	0x3e0ee3c9	0.1395408
144	0xbdc01444	-0.09378865
145	0x3d4f1543	0.050557386
146	0x3c947be6	0.018125486
147	0xbd809602	-0.06278612
148	0x3cd389bb	0.025822511
149	0x3e2540ac	0.16137952
150	0xbb3a0eca	-0.0028390163
151	0xbd869d6d	-0.06572995
152	0xba033e00	-0.0005006492
153	0xbdb7698c	-0.08955678
154	0x3daa0542	0.08301784
155	0xbc8658f3	-0.016399836
156	0xbd26e83f	-0.04074883
157	0x3d800e22	0.062526956
158	0xbc35d67c	-0.0110985
159	0xbd626c49	-0.05527905
160	0x3c1c6771	0.009546147
161	0xbd0473c9	-0.032336984
162	0xbdbd65af	-0.0924791
163	0xbd08c12f	-0.03338736
164	0x3c355f66	0.011070108
165	0x3c5077c7	0.01272387
166	0x3d29a60a	0.041418113
167	0xbcf7ed68	-0.030264571
168	0x3dce87d6	0.100845024
169	0x3c8871e4	0.01665587
170	0xbc952663	-0.01820678
171	0xbd8cd377	-0.06876271
172	0xbe0d9335	-0.13825686
173	0x3d21dee3	0.039519202
174	0x3d8d256d	0.06891904
175	0x3d8349f8	0.06410593
176	0xbb0b2687	-0.002123268
177	0x3bad41b7	0.005287375
178	0x3e123530	0.14278102
179	0x3c955cf5	0.018232802
180	0x3ab8879d	0.0014078502
181	0xbde845d7	-0.11341446
182	0x3e5f0844	0.21780497
183	0xbae4ebd9	-0.0017465308
184	0xbd9145e1	-0.070934065
185	0xbe5ff051	-0.21869017
186	0xbd0e9203	-0.034807216
187	0x3d572e9f	0.052534696
188	0xbcfc27a9	-0.03078063
189	0x3bcee2c4	0.0063136537
190	0x3d976d38	0.07393879
191	0xbe2b642b	-0.1673743
192	0x3e0329ca	0.1280891
193	0xbd7ff5e6	-0.062490366
194	0x3caec6d5	0.021335045
195	0x3d606993	0.054788183
196	0x3ce8d14e	0.028420117
197	0xbcbd61c4	-0.023117907
198	0x3a45ed20	0.0007550288
199	0xbbf2b82c	-0.007407209
200	0x3dfee97b	0.124468766
201	0x3d038d0a	0.032116927
202	0x3c9f3aaf	0.019437162
203	0x3d935f3f	0.07195901
204	0x3d621d02	0.055203445
205	0xbd04015e	-0.032227866
206	0x3d77f073	0.060532045
207	0xbd323475	-0.04350706
208	0x3de29c70	0.11064994
209	0x3e13daeb	0.1443898
210	0x3da11cd2	0.07866825
211	0xbdcde1fe	-0.1005287
212	0xbd125e7e	-0.035734646
213	0x3dd43bd7	0.10362976
214	0x3e3d4b9a	0.18485871
215	0xbd931d50	-0.07183325
216	0x3e0e7a7f	0.13913916
217	0x3e209999	0.15683593
218	0x3d754561	0.059880618
219	0xbc72a178	-0.014809005
220	0x3c47dfa7	0.012199319
221	0x3c8ca547	0.017168654
222	0x3e25ee05	0.16204078
223	0xbda03a92	-0.078236714
224	0x3c9e06ec	0.01929041
225	0xbd09126c	-0.033464834
226	0x3dbc2532	0.09186782
227	0x3d77accc	0.060467526
228	0xbb698a39	-0.0035635366
229	0x3d9b537a	0.07584281
230	0x3e615db5	0.22008403
231	0xbd26e5c2	-0.040746458
232	0x3d8fb7fb	0.07017513
233	0xbc2b9b07	-0.010473973
234	0x3e242830	0.16030955
235	0xbd5b8820	-0.053596616
236	0x3dfa1805	0.122116126
237	0xbde51f87	-0.11187654
238	0xbc133faf	-0.008987351
239	0xbb80ab9d	-0.003926708
240	0x3cf4b66e	0.029872146
241	0xbd210d55	-0.039319355
242	0x3c3df081	0.011592985
243	0x3e07545b	0.13215773
244	0x3b80dbd3	0.003932455
245	0xba9fb27a	-0.0012183927
246	0xbd0bcb83	-0.03412963
247	0x3ceee255	0.029160658
248	0x3d625384	0.055255428
249	0x3dec808c	0.11547956
250	0xbba8d44c	-0.005152261
251	0xbcacaaf9	-0.02107762
252	0x3c8b3c14	0.01699642
253	0x3c3eaa9d	0.011637357
254	0xbb50fecc	-0.0031890152
255	0xbd175dba	-0.03695462

network_body._body_endoder.seq_layers.2.weight f4 [256, 256]
0	0x3d54ffe4	0.05200185
1	0xbe0793e3	-0.13240008
2	0x3c2d6ae0	0.010584563
3	0x3e4424c2	0.19154647
4	0xbe4446d1	-0.1916764
5	0x3e9731b1	0.295301
6	0x3c343109	0.010998019
7	0x3e3e66b5	0.18593867
8	0x3e5d5b1c	0.21616787
9	0xbc2f9bd0	-0.010718301
10	0xbe99a0bf	-0.30005452
11	0xbd224548	-0.039616853
12	0xbe349d45	-0.17638119
13	0xbe3bb1c5	-0.18329532
14	0xbeb96260	-0.36207867
15	0xbdb98fca	-0.09060629
16	0x3e7a7510	0.24458718
17	0xbe4850e1	-0.19562103
18	0xbde7aa58	-0.11311787
19	0x3e3e00b7	0.1855496
20	0xbea55a07	-0.32295248
21	0xbdaff387	-0.08591371
22	0xbd953eb4	-0.0728735
23	0x3d7c022e	0.061525516
24	0xbe9cc709	-0.30620602
25	0x3de11954	0.10991159
26	0xbd1948d9	-0.03742299
27	0x3dbf4622	0.09339549
28	0xbe17eb7b	-0.14835922
29	0xbdb5652e	-0.08857189
30	0xbe725ac8	-0.23667443
31	0x3dba79c3	0.091052555
32	0xbea7fd54	-0.32810462
33	0x3d13ea7d	0.036112297
34	0xbe6c4fc5	-0.23077305
35	0xbe2fef39	-0.171811
36	0xbe726aad	-0.23673506
37	0xbec3df49	-0.3825629
38	0x3d972cf4	0.07381621
39	0xbe0ac6a6	-0.13552341
40	0x3e4231b3	0.18964271
41	0xbe6074bc	-0.2191953
42	0x3d0821ba	0.03323529
43	0xbeb06660	-0.34453106
44	0xbbef612f	-0.0073052864
45	0xbe9015b6	-0.28141564
46	0xbe51839f	-0.20460366
47	0xbdd16fbe	-0.10226391
48	0x3da65992	0.08122553
49	0xbd984933	-0.07435837
50	0xbe2add5f	-0.16686009
51	0xbe85e837	-0.26153728
52	0x3d78b1ad	0.06071632
53	0xbcda7362	-0.026666347
54	0xbd60a825	-0.054847855
55	0xbe39c97e	-0.1814327
56	0x3e59874a	0.21243015
57	0xbbde58cf	-0.006785489
58	0xbdf53656	-0.119732544
59	0x3e788f75	0.24273475
60	0x3e8c6992	0.27424294
61	0x3dd699ca	0.10478552
62	0xbe66a4df	-0.22523831
63	0x3ecb5070	0.39709806
64	0xbe915398	-0.2838409
65	0xbe6aff88	-0.2294904
66	0xbeaa96b3	-0.333181
67	0xbe744326	-0.2385374
68	0x3dd96350	0.106146455
69	0xbce4bf07	-0.02792312
70	0x3e3061b6	0.17224774
71	0xbeab6772	-0.3347736
72	0xbe3af3c6	-0.18257055
73	0xbe9b8428	-0.30374265
74	0xbe39c175	-0.18140204
75	0xbe448305	-0.19190605
76	0x3e131549	0.14363588
77	0xbd395091	-0.04524285
78	0xbe1c553a	-0.15266886
79	0xbe44d69c	-0.19222492
80	0xbe5756a0	-0.21029139
81	0xbe0c86f3	-0.13723354
82	0xbc6bdd93	-0.014396089
83	0xbe977f64	-0.2958938
84	0x3db4e4d1	0.08832706
85	0xbe8dea5e	-0.2771787
86	0x3e1df339	0.15424813
87	0x3e42641f	0.18983506
88	0xbe61a89b	-0.22036974
89	0x3d63a52c	0.055577442
90	0x3dce03e0	0.10059333
91	0xbeb09cca	-0.3449462
92	0xbe2ebc7c	-0.17064089
93	0x3e91bff1	0.28466752
94	0xbdde346c	-0.108498424
95	0xbe9a24fd	-0.30106345
96	0xbd467b9b	-0.048457723
97	0x3e427781	0.189909
98	0xbd02dd18	-0.031949133
99	0x3d030cc4	0.031994596
100	0x3daafb62	0.08348729
101	0xbc80d7ee	-0.015727963
102	0x3da1d43d	0.07901809
103	0xbdfd7810	-0.12376416
104	0x3da76363	0.081732534
105	0xbdf15f64	-0.117857724
106	0x3da2653f	0.079294674
107	0xbeffd293	-0.49965343
108	0xbea0b3d9	-0.31387213
109	0x3e0bee10	0.13665032
110	0x3e24170a	0.16024414
111	0xbe10da11	-0.14145686
112	0x3e6331ed	0.22187014
113	0xbeb4fbce	-0.35348362
114	0x3e7092f1	0.23493554
115	0x3e272769	0.16323628
116	0x3dc0c510	0.09412587
117	0xbe323b30	-0.1740539
118	0xbeae5f2a	-0.3405698
119	0xbb05b4e2	-0.0020402004
120	0x3d512da4	0.051068917
121	0xbdec12aa	-0.115269974
122	0xbe5edff6	-0.21765122
123	0xbcd8003e	-0.026367303
124	0x3e50125a	0.203195
125	0xbef615ee	-0.48063606
126	0x3cbd5172	0.023110125
127	0xbe942705	-0.2893602
128	0x3dcd3889	0.10020549
129	0x3e0f1517	0.13972889
130	0xbe7f2a42	-0.24918464
131	0x3e13de71	0.14440323
132	0x3da91218	0.08255404
133	0x3e64960f	0.22322868
134	0xbd81cf3f	-0.06338357
135	0xbea2a810	-0.31768847
136	0xbe1ec3b6	-0.15504345
137	0xbedd3e6c	-0.43211687
138	0x3d6196c7	0.055075433
139	0xbdb0f556	-0.08640544
140	0xbe0fb524	-0.14033943
141	0x3cd3136a	0.025766093
142	0xbd1328a2	-0.035927422
143	0x3f16c429	0.58893067
144	0x3c5937af	0.013257905
145	0xbe75f026	-0.2401739
146	0xbe0cba0e	-0.13742849
147	0xbec9b2ce	-0.3939423
148	0xbdecf312	-0.115697995
149	0xbe420363	-0.18946604
150	0x3e305cb5	0.17222865
151	0x3df67b62	0.12035252
152	0x3db7e7c1	0.089797504
153	0xbe97c87a	-0.2964514
154	0x3ec6fcd2	0.38864762
155	0x3b892e1a	0.004186404
156	0xbd92e9f0	-0.07173526
157	0x3e3ba32b	0.18323962
158	0x3d8a6130	0.06756818
159	0x3e01c404	0.1267243
160	0xbd71c702	-0.05902768
161	0xbe7738a1	-0.24142696
162	0x3ce25ab4	0.027631141
163	0x3eb85ad8	0.36006808
164	0x3dad1972	0.08452119
165	0xbd98d252	-0.074619904
166	0xbe295833	-0.16537552
167	0xbdb3159d	-0.08744357
168	0x3e15ec5f	0.1464095
169	0xbdc44374	-0.09583178
170	0xbe88e78f	-0.26739165
171	0x3dc5103c	0.09622237
172	0xbef40f25	-0.47667804
173	0x3d1d460b	0.038396876
174	0x3da0f472	0.07859124
175	0xbb4aa2aa	-0.003091971
176	0xbe09aeac	-0.13445538
177	0xbc4e4951	-0.012590722
178	0xbdc97ecc	-0.09838638
179	0x3e756a67	0.2396637
180	0xbec4c981	-0.38434985
181	0x3dd116e5	0.10209445
182	0xbe2a2f7e	-0.1661968
183	0x3e1798e7	0.14804421
184	0xbe2af6ae	-0.16695663
185	0xbd8de61d	-0.06928656
186	0xbe6cafbf	-0.23113917
187	0xbb9c6312	-0.0047725523
188	0x3e8aa1ff	0.27076718
189	0xbdbece64	-0.0931671
190	0x3eeb2127	0.4592373
191	0x3da96302	0.08270837
192	0xbd90277d	-0.07038782
193	0x3e143686	0.14473924
194	0x3cbf9723	0.023387497
195	0x3e273cd4	0.16331798
196	0x3d916b1a	0.07100506
197	0xbe7f5787	-0.24935733
198	0xbe1267cd	-0.1429741
199	0xbe8205f6	-0.25395173
200	0x3d26eeab	0.040754955
201	0x3e2edcfc	0.17076486
202	0xbe43e17f	-0.19128989
203	0xbe3d0af4	-0.1846121
204	0xbef6d6ef	-0.48210856
205	0xbec2de2d	-0.38060132
206	0xbe6d2892	-0.23160008
207	0xbdb3568e	-0.08756743
208	0x3deac8b3	0.114640616
209	0x3e1aa90a	0.15103546
210	0xbe1fe9ca	-0.15616527
211	0xbe828ff3	-0.2550045
212	0xbd381ee0	-0.04495132
213	0x3ec9e18c	0.3942989
214	0xbe572930	-0.21011806
215	0x3cba9aab	0.02277883
216	0x3e45cd7f	0.19316672
217	0xbd8320d9	-0.064027496
218	0x3d300f8c	0.042983577
219	0xbe9c465f	-0.3052244
220	0x3e68c527	0.22731458
221	0x3eb57ca0	0.35446644
222	0x3eab8e52	0.3350702
223	0xbd7207c4	-0.059089437
224	0xbe86e293	-0.26344737
225	0x3d4f1d3a	0.050564982
226	0xbe59890a	-0.21243683
227	0xbd83cd0e	-0.064355955
228	0x3e0ba2e4	0.13636357
229	0xbdc10e2c	-0.09426531
230	0x3e86a7a4	0.26299775
231	0xbee09d0d	-0.4386982
232	0xbe07a81b	-0.13247721
233	0xbe308da7	-0.17241536
234	0x3d824a5d	0.0636184
235	0x3a2458f8	0.0006269361
236	0x3e7d5200	0.24738312
237	0x3db77afc	0.08959004
238	0x3e6e2b5a	0.23258725
239	0xbdc32ebb	-0.095303975
240	0x3dd6026c	0.10449681
241	0xbdf057f4	-0.11735526
242	0xbe21fad4	-0.1581834
243	0x3ddadf7d	0.10687158
244	0xbed01bfc	-0.4064635
245	0xbe9cac65	-0.30600277
246	0x3e059d06	0.13048181
247	0xbe407b56	-0.18797049
248	0xbe2438b0	-0.1603725
249	0xbd9c53c2	-0.07633163
250	0xbe9b1e15	-0.30296388
251	0x3d12c2e1	0.035830382
252	0x3e572d19	0.21013297
253	0x3ddd8f3a	0.10818334
254	0xbdb3c74a	-0.08778246
255	0xbe88b379	-0.26699427

network_body._body_endoder.seq_layers.2.bias f4 [256]
0	0x3d2ba4b3	0.041905116
1	0xbd25daf0	-0.040492
2	0xbe18150c	-0.14851779
3	0xbd57d746	-0.052695535
4	0xbdac8415	-0.0842363
5	0x3c275076	0.0102120545
6	0xbc3e165a	-0.011602009
7	0x3dfba52f	0.12287366
8	0x3d16dca7	0.036831524
9	0xbe1ac9a0	-0.15115976
10	0xbcb0ae50	-0.021567494
11	0xbcdc79bb	-0.026913514
12	0x3d8f1784	0.06986907
13	0x3d5a5998	0.0533081
14	0xbe1da6f1	-0.15395714
15	0xbd838274	-0.06421366
16	0x3dd15641	0.1022153
17	0xbe2b1ed8	-0.16710985
18	0xbd85ae3c	-0.06527373
19	0xbd0bf12f	-0.034165557
20	0x3c71097d	0.014711735
21	0x3c09b915	0.008405943
22	0xbd8f0de9	-0.06985075
23	0xbe034889	-0.12820639
24	0xbe287973	-0.16452579
25	0xbe10f56f	-0.14156125
26	0xbdf94228	-0.121708214
27	0x3e0e63fc	0.13905329
28	0xbe801d99	-0.2502258
29	0x3e29436a	0.16529623
30	0x3ca2f6ff	0.019893168
31	0x3cce2ee4	0.025168844
32	0xbdc32b37	-0.09529727
33	0x3e647487	0.22310077
34	0xbb7ceb23	-0.00385923
35	0xbdaf9a0c	-0.08574304
36	0x3ca80166	0.02050848
37	0x3d902505	0.07038311
38	0xbd318ac7	-0.04334524
39	0x3ce374a1	0.027765574
40	0x3db1f616	0.08689515
41	0x3c2fb0ca	0.010723302
42	0x3cbd2794	0.023090161
43	0xbd68eda3	-0.056867253
44	0xbde016b5	-0.10941831
45	0xbda8be0c	-0.082393736
46	0xbe6af2cc	-0.22944182
47	0x3d49e2ef	0.049288686
48	0xbdd6edce	-0.104945764
49	0x3b340bd6	0.0027472875
50	0xbd9e0553	-0.07715859
51	0x3c048450	0.008088186
52	0xbe140018	-0.14453161
53	0xbd928fb4	-0.071563154
54	0xbd2fbb0b	-0.042902987
55	0xbc281b6f	-0.010260447
56	0xbe0db0b5	-0.1383694
57	0x3e0a588c	0.1351034
58	0x3d013e4b	0.031553548
59	0x3d9ca015	0.07647721
60	0xbb7c703b	-0.0038519043
61	0x3eaefd48	0.34177613
62	0xbdc749c7	-0.09730869
63	0x3d0ab44d	0.033863354
64	0x3cb2ce15	0.021826783
65	0xbd0d7222	-0.034532674
66	0xbd351bcf	-0.044215973
67	0x3e5991d6	0.21247038
68	0x3d8bfb71	0.06835068
69	0xbd341cb0	-0.04397267
70	0x3de74150	0.11291754
71	0xbe07fbeb	-0.13279693
72	0x3dbdbd1c	0.092645854
73	0x3b77eaf9	0.0037829264
74	0xbda6c7c9	-0.08143575
75	0xbdc3ab1b	-0.0955412
76	0xbc8bff7f	-0.017089603
77	0xba82040f	-0.0009919422
78	0xbd80be3e	-0.06286286
79	0xbdce38d4	-0.10069433
80	0xbca5a445	-0.020219931
81	0x3cdedb14	0.027204074
82	0xb9ee95c3	-0.0004550648
83	0xbe09d613	-0.13460569
84	0x3d6d1167	0.057877924
85	0x3cdad496	0.026712697
86	0x3c5acceb	0.01335452
87	0x3b8cac11	0.004292973
88	0x3cb47b94	0.022031583
89	0xbe8df636	-0.27726907
90	0xbda22e5a	-0.07918997
91	0x3df34918	0.11879176
92	0x3daba123	0.08380344
93	0xbd79ae6d	-0.06095736
94	0xbd6f0d37	-0.058362212
95	0xbe90038f	-0.28127715
96	0x3cea1434	0.028574087
97	0xbddc64ef	-0.10761439
98	0xbcc87b83	-0.024472957
99	0xbb852f5b	-0.004064483
100	0x3d230ca7	0.039806988
101	0x3b119713	0.0022215291
102	0xbe040a72	-0.1289461
103	0xbe53405f	-0.20630024
104	0xbd6b5f0e	-0.057463698
105	0x3d0f8b10	0.03504473
106	0x3d331543	0.04372145
107	0xbe3ea984	-0.18619353
108	0x3caa522f	0.020791141
109	0xbd291e64	-0.04128875
110	0xbd367219	-0.044542406
111	0xbd951694	-0.07279697
112	0xbe91c23d	-0.28468505
113	0xbd4ad46d	-0.04951899
114	0x3d7bf0ff	0.06150913
115	0x3ccc2a2a	0.02492245
116	0x3e4b668c	0.19863337
117	0x3dd9e448	0.10639244
118	0xbc91c14f	-0.017792372
119	0xbd02a00a	-0.031890906
120	0x3e260ea2	0.1621652
121	0x3c93da26	0.018048357
122	0xbc6f8d27	-0.014621056
123	0x3e170d13	0.14751081
124	0x3dafe4e0	0.08588576
125	0xbd6121a2	-0.054963715
126	0x3d9056d1	0.07047809
127	0xbdd4f6f5	-0.10398666
128	0xbdb33cfa	-0.08751865
129	0x3c535c21	0.012900383
130	0x3d35ff71	0.04443306
131	0xbd5ef4fd	-0.054432858
132	0x3de82c81	0.113366134
133	0x3c331074	0.010929216
134	0xbe1f71b9	-0.15570726
135	0xbd9a2b90	-0.0752784
136	0x3c5267ff	0.012842177
137	0xbda39136	-0.07986681
138	0xbdfd3a74	-0.12364665
139	0xbd8f55dc	-0.06998798
140	0xbdc3b0dd	-0.09555218
141	0xbdc3240c	-0.0952836
142	0xbd14b625	-0.03630652
143	0xbcfddf5e	-0.030990299
144	0x3bad4338	0.005287554
145	0xbd973b63	-0.07384374
146	0xbd3740a2	-0.044739373
147	0xbd3b5dd8	-0.045743793
148	0xbe21724a	-0.15766254
149	0x3c90017b	0.017578831
150	0x3dc5b647	0.09653907
151	0xbda29c6f	-0.079399936
152	0x3d976d28	0.07393867
153	0x3d8c1d08	0.06841475
154	0xbdd81982	-0.1055174
155	0xbdc8b4fb	-0.09800144
156	0x3e6154d2	0.22005013
157	0x3e587b3b	0.21140759
158	0xbe7450a5	-0.23858888
159	0x3c601052	0.013675766
160	0xbd92a788	-0.0716086
161	0x3db022c8	0.08600384
162	0x3d997aa2	0.074940935
163	0x3d4f63cc	0.050632283
164	0x3d8f9868	0.07011491
165	0x3d009e49	0.031400952
166	0xbd71963d	-0.05898117
167	0x3c6084bb	0.01370352
168	0xbdc29f6d	-0.09503064
169	0x3dc53bd5	0.09630553
170	0x3e485b34	0.19566041
171	0xbccfd7dd	-0.025371486
172	0xbd704a9c	-0.058664903
173	0xbb922fd2	-0.004461267
174	0xbce012f3	-0.027352786
175	0x3dc826e9	0.097730465
176	0x3cf216cb	0.029551884
177	0xbd4a2230	-0.04934901
178	0xbc38a94b	-0.011270831
179	0xbc58dd89	-0.013236412
180	0xbdaf8d14	-0.085718304
181	0xbda50cc7	-0.08059078
182	0xbcd62c3e	-0.026144143
183	0x3d351f52	0.044219323
184	0x3cbcdd7d	0.023054833
185	0xbc688a1c	-0.014193084
186	0xbd49d89a	-0.049278833
187	0xbd1950f0	-0.037430704
188	0xbd4eca0d	-0.05048566
189	0xbdd54cbd	-0.10415027
190	0x3cb176f9	0.021663176
191	0xbdec01d8	-0.11523789
192	0xbcb8fe11	-0.022582086
193	0x3d103104	0.035202995
194	0x3b035a5d	0.0020042874
195	0x3dfb13a4	0.122596055
196	0xbdef9420	-0.116981745
197	0x3d14940c	0.036274
198	0x3e09ba87	0.13450061
199	0x3d1e8cd7	0.038708534
200	0xbdfebeae	-0.12438713
201	0xbcd6a001	-0.026199343
202	0xbe1bdaf0	-0.15220237
203	0xbe2c9157	-0.16852318
204	0xbcd09381	-0.02546096
205	0x3bc72bc1	0.006078214
206	0xbd858414	-0.065193325
207	0x3d9363f0	0.07196796
208	0xbc2a6de7	-0.010402179
209	0x3b6d2ce5	0.003619009
210	0x3b5910d3	0.00331216
211	0xbd9f445a	-0.07776709
212	0xbd3e3a59	-0.046442363
213	0xbe123f27	-0.14281903
214	0xbd5ffb2f	-0.054682907
215	0xbd9de0a7	-0.07708865
216	0xbd446bf8	-0.04795453
217	0x3d9f67d0	0.077834725
218	0xbe4bbd49	-0.19896425
219	0x3c428ded	0.011874658
220	0x3df96eaf	0.12179314
221	0xbc27e509	-0.010247477
222	0xbd47d742	-0.04878927
223	0xbcc515f0	-0.024058312
224	0xbd002d19	-0.03129301
225	0xbd23016c	-0.039796278
226	0xbe07b27f	-0.13251685
227	0xbe0e1a45	-0.13877209
228	0x3d5da3cf	0.0541113
229	0x3c8fa50b	0.017534753
230	0x3e6048ef	0.21902822
231	0x3d433f1b	0.047667604
232	0x3e488a1e	0.19583938
233	0xbd9222cf	-0.071355455
234	0xbe33b5d0	-0.17549825
235	0xbb528392	-0.003212188
236	0x3caefb6f	0.021360127
237	0x3e3a733e	0.18208024
238	0xbca77c31	-0.020444961
239	0xbcd77bf3	-0.02630422
240	0xbe08696d	-0.13321467
241	0xbdee2b48	-0.11629349
242	0x3e222e9c	0.15838093
243	0xbc7ed041	-0.015552581
244	0xbe0bf3fb	-0.1366729
245	0xbdec7d85	-0.115473785
246	0xbdb072fb	-0.08615681
247	0xba57a94f	-0.0008226828
248	0xbe0b9887	-0.13632403
249	0xbde51c1b	-0.11187001
250	0x3d9d4ed0	0.07681048
251	0xbd857c27	-0.06517821
252	0xbd808ab7	-0.06276458
253	0xbe055c0e	-0.13023397
254	0xbe22e3a1	-0.15907146
255	0xbd191240	-0.03737092

action_model._discrete_distribution.branches.0.weight f4 [7, 256]
0	0xbc070071	-0.008239851
1	0xbcfdb71a	-0.030971099
2	0xbb526c52	-0.003210802
3	0xbe4b9f0e	-0.19884893
4	0x3d8a5273	0.06754007
5	0xbe2933e6	-0.16523704
6	0x3d1934ce	0.037403874
7	0xbe322128	-0.1739546
8	0xbe3ab6dc	-0.18233818
9	0xbd25f87e	-0.040520184
10	0xbe0eade8	-0.13933527
11	0x3d8a3513	0.06748404
12	0xbe7659f3	-0.2405775
13	0xbe41a08e	-0.18908903
14	0x3e17909a	0.14801255
15	0x3ac86b01	0.0015290679
16	0x3b4b4692	0.0031017405
17	0x3d94b0ab	0.07260259
18	0xbe07af74	-0.13250524
19	0xbdfc4c52	-0.123192444
20	0xbeb364d5	-0.35037866
21	0x3d19efa0	0.03758204
22	0xbe174bcb	-0.14775006
23	0xbe2e712e	-0.17035362
24	0x3d08b2a2	0.033373483
25	0x3c884f93	0.016639506
26	0x3d640cfc	0.055676445
27	0xbee2cec8	-0.44298387
28	0x3e89cff2	0.26916462
29	0xbebe87d0	-0.37212992
30	0x3dac12fb	0.08402058
31	0x3e5c4b10	0.21513009
32	0xbdc316e1	-0.09525848
33	0xbefa6e48	-0.48912263
34	0x3ddd8e92	0.10818209
35	0xbe80427e	-0.2505073
36	0x3bc3e6ec	0.0059784558
37	0x3b6c2f11	0.0036038796
38	0x3e045f1c	0.12926906
39	0xbd9eeca5	-0.0775998
40	0x3d23a30f	0.039950427
41	0xbd3dea17	-0.046365824
42	0x3e102d2f	0.14079736
43	0x3d77d78b	0.060508292
44	0xbdf48606	-0.119396254
45	0x3c821bb2	0.015882347
46	0x3d39c0ed	0.045350004
47	0x3dd6a0e4	0.10479906
48	0xbe940ea4	-0.2891742
49	0xbd953c01	-0.072868355
50	0x3e819401	0.2530823
51	0xbd2c8056	-0.04211458
52	0x3ca7b9dd	0.020474369
53	0x3d3a1b01	0.04543591
54	0x3db61857	0.08891361
55	0x3d21d71e	0.039511792
56	0x3dd65b6a	0.104666546
57	0xbdb2738e	-0.087134466
58	0x3d6f417d	0.058412064
59	0x3c8f06a4	0.017459221
60	0xbeefa4d4	-0.4680544
61	0xbee069ff	-0.4383087
62	0x3db474b7	0.08811324
63	0x3d7a7f54	0.061156586
64	0xbdb1fee9	-0.086911984
65	0x3e183186	0.14862642
66	0x3d338e3b	0.043836813
67	0xbed16393	-0.40896282
68	0x3e8004d1	0.25003675
69	0x3b61b3b5	0.003443939
70	0xbee4f694	-0.44719374
71	0xbd26c1bd	-0.040712107
72	0xbe00b78a	-0.12570015
73	0x3d874e43	0.06606724
74	0x3d1a0d91	0.037610594
75	0xbe8f33ed	-0.27969304
76	0xbe67dd78	-0.22643077
77	0x3d547eee	0.051878862
78	0xbe2c5cae	-0.1683223
79	0x3dea3b8d	0.1143714
80	0xbd8faa28	-0.070148766
81	0xbe41e2b7	-0.18934141
82	0xbe3a95a4	-0.18221146
83	0x3e038eb5	0.12847407
84	0x3c7b8586	0.015351659
85	0x3d98b44c	0.07456264
86	0xbe79608c	-0.24353236
87	0xbed49266	-0.41517943
88	0xbd9c6aef	-0.076375835
89	0x3e57fcbd	0.21092506
90	0x3d3e6bb6	0.04648944
91	0xbe4b4d0b	-0.19853608
92	0xbd028597	-0.031865682
93	0xbe51a11f	-0.20471619
94	0x3dc69f08	0.096983016
95	0x3dc2851c	0.09498045
96	0x3d3b35f6	0.045705758
97	0x3e2e65ee	0.1703107
98	0xbe2f4f6a	-0.17120138
99	0x3d9d8daf	0.076930396
100	0x3e590358	0.21192682
101	0x3c8882cf	0.016663937
102	0x3e370697	0.17873608
103	0x3e4c089d	0.1992516
104	0x3e014bec	0.12626618
105	0x3d7913be	0.060809843
106	0xbd9be70c	-0.07612428
107	0x3ed40871	0.4141269
108	0x3cac6837	0.021045787
109	0x3e3f213c	0.18665022
110	0xbdd3fbdb	-0.10350772
111	0x3c931ba7	0.017957522
112	0x3e60affc	0.21942133
113	0x3d86ea93	0.0658771
114	0x3d296c05	0.04136278
115	0xbe966c35	-0.2937943
116	0xbecc44ba	-0.39896184
117	0x3d362e6a	0.044477858
118	0xbddc9d69	-0.10772211
119	0x3c5851e4	0.013203118
120	0xbe20f96a	-0.15720144
121	0xbd4ff32f	-0.050769027
122	0xbda29073	-0.07937708
123	0xbe1d142f	-0.1533973
124	0xbdc9ea3c	-0.0985913
125	0x3bb8ec0a	0.0056433724
126	0x3bb01318	0.00537337
127	0x3e0d63f3	0.13807659
128	0xbc2cd35c	-0.010548439
129	0xbe45d1e1	-0.19318344
130	0x3de7a3c0	0.1131053
131	0x3ba206b6	0.0049446477
132	0xbe3ffa81	-0.18747903
133	0xbc1db6b6	-0.009626081
134	0x3d33ff74	0.04394479
135	0xbd83b6e0	-0.06431365
136	0x3d39e59b	0.045384984
137	0x3e77b6c8	0.2419082
138	0x3dd9183b	0.10600325
139	0xbe8dca2c	-0.27693307
140	0xbc317ba9	-0.010832706
141	0xbd865909	-0.06559951
142	0xbe0fe5a8	-0.1405245
143	0x3dab48e4	0.08363512
144	0xbea84164	-0.3286239
145	0x3df255c4	0.11832765
146	0xbe63dd76	-0.2225245
147	0x3d8d39a5	0.068957604
148	0x3dc6782b	0.09690889
149	0x3db97517	0.09055536
150	0xbe30fc31	-0.17283703
151	0xbe0a8926	-0.1352888
152	0x3d24aef5	0.040205915
153	0xbdc161ac	-0.094424576
154	0x3e09e5c3	0.13466553
155	0x3cb2baf1	0.021817656
156	0xbe6d1cd0	-0.23155522
157	0xbef2af0e	-0.4739918
158	0x3dfda833	0.12385597
159	0xbd5c9444	-0.053852335
160	0xbdd18104	-0.10229686
161	0xbd6cd88b	-0.0578237
162	0xbce29dd1	-0.027663143
163	0x3d9617a2	0.07328726
164	0xbc4de2b9	-0.012566262
165	0xbe458824	-0.19290215
166	0xbcd832dd	-0.026391441
167	0xbe4c655e	-0.19960544
168	0xbca70481	-0.02038789
169	0xbe90c407	-0.28274557
170	0xbeec564b	-0.46159586
171	0xbd0cab00	-0.034342766
172	0xbdbcc458	-0.09217137
173	0xbe77fe9e	-0.24218222
174	0xbe2018f4	-0.15634519
175	0xbe13e05e	-0.14441058
176	0xbe8d869d	-0.27641764
177	0xbda03668	-0.07822877
178	0xbe060dfd	-0.13091274
179	0x3ccc3205	0.024926195
180	0xbddeac3b	-0.10872694
181	0x3d02200d	0.031768847
182	0xbcfe9e7f	-0.031081436
183	0xbddc17b3	-0.10746708
184	0x3c80ec74	0.01573775
185	0x3df9f25a	0.12204428
186	0xbac83afb	-0.0015276367
187	0x3d060c80	0.032726765
188	0xbd752f86	-0.059859775
189	0x3cc99633	0.024607753
190	0xbe036bbf	-0.1283407
191	0x3d99c446	0.07508139
192	0xbdb8c12c	-0.090212196
193	0xbd5af2fd	-0.053454388
194	0x3dedc8d0	0.116105676
195	0xbebd25a5	-0.36942783
196	0xbc90bc3c	-0.017667882
197	0xbe10d40d	-0.14143391
198	0xbe82f7a2	-0.25579554
199	0xbde5d8ec	-0.11223015
200	0xbe80b1e5	-0.25135723
201	0xbe4d01ba	-0.2002019
202	0x3ded8c22	0.11598994
203	0x3d40b966	0.04705181
204	0x3e9b6ea4	0.3035785
205	0xbe67debd	-0.22643562
206	0xbd5c0aa3	-0.05372108
207	0xbe260c2b	-0.16215579
208	0xbd88f02f	-0.066864364
209	0xbc9d365a	-0.019190956
210	0x3e8e5f0e	0.27806896
211	0xbe546e89	-0.20745291
212	0x3d5ebff4	0.05438228
213	0xbd801e1d	-0.06255744
214	0x3d8e9ba4	0.0696328
215	0xbdcaa375	-0.09894458
216	0x3d3b56b7	0.045736995
217	0x3d3212c2	0.04347492
218	0x3cf9daf4	0.030499913
219	0x3ad5e8d0	0.0016319994
220	0xbe942120	-0.28931522
221	0xbdadfe27	-0.08495741
222	0x3db2b545	0.08725981
223	0xbe1ec0ae	-0.15503189
224	0x3e0d4689	0.13796438
225	0x3c189231	0.0093121985
226	0xbe802b0d	-0.25032845
227	0x3df56134	0.11981431
228	0xbd2c5b76	-0.04207941
229	0xbe0675a6	-0.13130817
230	0xbe913372	-0.28359562
231	0xbe1ad698	-0.15120924
232	0xbf0370d0	-0.51344013
233	0xbbacb790	-0.005270906
234	0x3dc9402e	0.098266944
235	0x3d0ca4ff	0.03433704
236	0xbcd54c96	-0.026037496
237	0xbebf1d02	-0.3732682
238	0xbde7fe7b	-0.11327835
239	0xbdc9ce15	-0.0985376
240	0x3e86a3ed	0.2629694
241	0x3dbaaa26	0.091144845
242	0xbeca3c28	-0.3949902
243	0xbe29d9ec	-0.16587037
244	0xbd1e8b78	-0.038707227
245	0xbddd6bfb	-0.10811611
246	0xbc37b081	-0.011211515
247	0xbe6686b6	-0.22512326
248	0x3e3332b5	0.17499812
249	0xbc0d8b39	-0.00863915
250	0xbeda4c6a	-0.42636424
251	0x3cb78dfb	0.022406569
252	0xbb32ab35	-0.0027262692
253	0x3d8154a3	0.06314971
254	0xbe80bb75	-0.25143018
255	0xbbbf4a25	-0.005837696

action_model._discrete_distribution.branches.0.bias f4 [7]
0	0xbea40b9c	-0.32040107
1	0x3cbf26c1	0.023333909
2	0xbe630ccb	-0.22172849
3	0x3d39e922	0.04538835
4	0x3d83e378	0.064398706
5	0x3dba2d33	0.09090652
6	0x3d957e7a	0.07299514
