results/puzzle_experiment_4/PuzzleBehavior/PuzzleBehavior-18999998.onnx (onnx, 342923 bytes, 6 tensors)

network_body._body_endoder.seq_layers.0.weight f4 [256, 65]
00000000: 6c10 22bf 9dd2 c93c 6216 c5be 112d b3be
00000010: 9707 733a 4b43 fd3c 105a ee3d 1682 21be
00000020: 2a7e 9d3e e04e 1dbf e7bb 10be d380 66ba
00000030: 6c6b 0e3e adce 0e3e 6b42 953e 48b0 293b
00000040: 44dc a0be 6d08 823c 8f56 01be 7a58 2b3e
00000050: 4f78 5cbd 1112 d83d fd5e 073d 1f44 48bb
00000060: aff1 d1bc 6ea1 823c c56c 20bd 05fd 87be
00000070: 2b0f 053e 6c7c 58be af07 53be 567d 573e
00000080: 1c40 8c3e 50a5 6b3d 5040 0dbe 101c 42be
00000090: ea85 a5be 454b 203d bef2 543e 0266 bbbd
000000a0: 8861 183d 3d09 8f3c 25df 383e 9cd4 b3be
000000b0: b5d7 1ebd b360 20be e558 01be e6ad 6e3e
000000c0: e7a5 6d3e f6d5 88bd b082 c2bd ae38 8d3d
000000d0: ab85 3cbe 309b 9abd fd07 ed3d d79c afbd
000000e0: 99c9 583e 470c 8b3e 27ea e2bd 10a0 303c
000000f0: bd11 bbbd 0790 96be 3167 2cbf 54b0 0c3e
00000100: 6433 573e 4e5e 5abf 766f 8e3d 36ac 74be
00000110: f1ad 2abc 8aa0 5dbe 7c45 8c3d 98d2 e03d
00000120: 9248 173e 680a f93e 5119 dcbe a01e 7d3c
00000130: 3171 873e 4bb7 d3be aeb2 1a3e ef81 4bbd
00000140: 55ac ee3d e25d c7bd ed04 2f3e edbf 5dbd
00000150: 6771 1c3e 5006 553e 04ff 24be 2c90 2e3e
00000160: 0659 b9bd bb2d a93e 1313 30be 79eb d63e
00000170: b0e5 173e 399c 94bd 4757 57be 35a7 b9bd
00000180: 0816 f03d 5c08 4b3e 5288 413e 2ada c2bd
00000190: 53c4 dbbd 1eac 88be b562 403e 906f f63c
000001a0: 1519 eebe f9ea 453d 7c90 9bbe 72d9 053c
000001b0: e73f 0cbf 55e8 3e3d a88a 1fbd b005 843d
000001c0: 5c79 e73d e496 9a3e 5764 32bb 696a 1cbd
000001d0: e1d9 07be 8820 52bd 961d 61bc 1d3a fbbe
000001e0: baef 043d bddf d53d 5848 20bf 0059 9b3d
000001f0: 2420 7cbe 4e47 99bd 13fa 8ebd 97de 5ebf
00000200: 42e5 a3bd c6d4 4c3c 64a2 b13e f389 c0bd
00000210: 0a15 2f3e a4c9 2ebd 665c cc3d 41dd 6cbd
00000220: c74e bd3d 725d 0e3e f78c 56bd a255 56bd
00000230: cf4d 6ebd e0c4 fabd 525d c23e 8cf9 fd3d
00000240: 5bbf 523e 3e79 f33d 6ce3 653e f2c3 6a3e
00000250: 5e06 bebd 4df0 8bbd 0de5 993e c32e 9a3e
00000260: 5dcf 13be 0a83 e93d 01a3 67be b5fc 17bc
00000270: 95a3 403c 6d44 083e 3a31 c4be ed6c 29be
00000280: 0024 6cbe 5fca c8bc bdcc e6bc 5012 de3d
00000290: e552 543d 6b60 413e 1df4 073e 8d6a 63bd
000002a0: ef72 5c3e 903c 21bd f702 cb3d c7c8 1cbd
000002b0: 671c a9be 249b 74be d463 86bd fce0 c13d
000002c0: 8541 893e 2c79 8abe 5048 86be 43de 233d
000002d0: 4687 9f3d d5cc 5dbe 2987 aebe cf1e 13be
000002e0: ea7a 773c ad22 6e3e c626 ec3b 245b 5fbf
000002f0: a151 133d 8dba 4d3c c1cc f4be 0eac 9139
00000300: 6939 debe bdb7 4dbd 018d 1fbd 942d 2abd
00000310: affd 803e 1b6d 783e dd53 a53e 9fa7 04be
00000320: c05b 1b3d daaf 19be b22b 05be aa52 cfbe
00000330: 70a3 813d 0531 20be d016 383e 0080 2a3e
00000340: f51b 82bd 98bc 7dbe 6bea e2bd 429d dcbd
00000350: 3e08 aebe d3ed 0c3d 46b0 88bd b964 143e
00000360: 0761 c7be c9c5 90be 064e 2f3d e1ca 093d
00000370: 78b6 813e 0675 c5be 88f6 56be 4ff2 b7bd
00000380: f782 f53e c5bd c23d 2a34 0abe 8d21 16be
00000390: c051 3ebe 5ef1 71be e2c1 cf3d a8e2 2ebd
000003a0: d2ed 373c 853d 6bbd 8130 3e3e 8113 093d
000003b0: b60f 223e bc56 993c 005a 263e 23e4 463e
000003c0: c582 f5bd c766 a6bd f4e3 d63e 47c8 71bd
000003d0: f1dd 083d de4d 9bbd d8dd 623e 044c 02be
000003e0: 16ce 143e fd13 8b3d cafa 023e 7b30 053d
000003f0: 24e6 8d3e a1b3 6dbc 3866 20be 748a 6f3e
-0.6330631 0.024636561 -0.3849364 -0.3499532 0.00092708453 0.030915877 0.11638272 -0.1577228
0.30760318 -0.6144848 -0.14134179 -0.0008793 0.13908166 0.13946028 0.29152235 0.0025892425
-0.3141805 0.015873158 -0.12630676 0.1673297 -0.053825673 0.10550321 0.033049572 -0.0030558181
-0.025627939 0.015946116 -0.03916623 -0.26560226 0.12994067 -0.21141213 -0.206084 0.21043906
0.27392662 0.0575307 -0.13794065 -0.18956017 -0.3232873 0.039134283 0.20795724 -0.09150316
0.037202388 0.01746046 0.18053873 -0.35123146 -0.038779933 -0.15661888 -0.12631567 0.23308524
0.23207818 -0.06681435 -0.09497583 0.068955764 -0.18410365 -0.07549131 0.11573789 -0.08574837
0.21170653 0.27157804 -0.11079817 0.010780349 -0.09134243 -0.2940676 -0.6734496 0.13739139
0.21015698 -0.8530015 0.06954853 -0.23893818 -0.010417447 -0.21643272 0.068491906 0.109776676
0.14773777 0.48640752 -0.42988065 0.015449196 0.26453546 -0.4135078 0.15107223 -0.04968446
0.116539635 -0.097347036 0.17091723 -0.054138113 0.15277635 0.2080319 -0.16112906 0.17047185
-0.09050183 0.33042702 -0.17194776 0.41976526 0.14833713 -0.072563596 -0.21029387 -0.09065095
0.11722952 0.19827408 0.18899658 -0.09514268 -0.10730805 -0.26693815 0.18787654 0.030082494
-0.4650351 0.04831979 -0.3038367 0.008169519 -0.5478501 0.046608288 -0.038950592 0.06446397
0.11302444 0.30193245 -0.0027220452 -0.038187418 -0.13266708 -0.051300555 -0.013739964 -0.49067774
0.032455184 0.10443065 -0.6261039 0.07585335 -0.24621636 -0.074843034 -0.069812916 -0.87058395
-0.08002712 0.012501901 0.34694207 -0.09401312 0.1709787 -0.04267277 0.09978561 -0.05782819
0.09243541 0.13902834 -0.05238053 -0.05232776 -0.058179673 -0.12244582 0.37961823 0.12401113
0.20580809 0.118883595 0.22450036 0.2292631 -0.09278558 -0.06832943 0.30057564 0.301138
-0.14434572 0.11401947 -0.22620775 -0.009276559 0.011757751 0.13307352 -0.38318807 -0.16545458
-0.23060608 -0.02451056 -0.028173799 0.108433366 0.051836867 0.18884437 0.13276716 -0.055521537
0.21528219 -0.039364398 0.09912675 -0.038277414 -0.33029482 -0.23887306 -0.065620095 0.094667405
0.268078 -0.27045572 -0.26227045 0.040006887 0.07789473 -0.21660168 -0.34087494 -0.14367221
0.015104989 0.23255415 0.0072067706 -0.87248445 0.03596652 0.012556684 -0.47812465 0.00027784746
-0.43403175 -0.050224055 -0.03895283 -0.041547373 0.25193545 0.2426037 0.32290545 -0.12954567
0.037929296 -0.15008488 -0.1300495 -0.40492755 0.06330001 -0.156437 0.17977452 0.1665039
-0.06352989 -0.24778974 -0.11079868 -0.10772182 -0.33990663 0.034406494 -0.066742465 0.14491548
-0.38941213 -0.28275898 0.04279902 0.033640746 0.25334525 -0.38565844 -0.20992482 -0.089817636
0.4795148 0.09508852 -0.13496462 -0.14661236 -0.18585873 -0.2362723 0.10144402 -0.042696625
0.011226134 -0.057431716 0.1857319 0.033465866 0.15826306 0.018718116 0.1624527 0.19422965
-0.11987833 -0.08125072 0.4197079 -0.05902889 0.033414785 -0.07583211 0.22154939 -0.1272431
0.1453174 0.06790922 0.12790981 0.032516938 0.27714646 -0.014508159 -0.15663993 0.2339266

network_body._body_endoder.seq_layers.0.bias f4 [256]
00000000: 65ae 06bc 9f7f f83c c53b 36bd 6873 2a3e
00000010: 87cc b9bd 2bda fe3d d62e c13d eab0 aebc
00000020: 96e6 c73c 0372 33bd 5fde 6e3c db7d 0e3e
00000030: c93b 2b3c 7da0 0d3e 2c4e 513a 2ca9 5ebe
00000040: 05bb 1b3e 2e4b f2bc 5d9c 10be 1931 bbba
00000050: 409d abbd 52e2 b13d 0d31 21bd 9e00 08bd
00000060: 9208 fdbc 97db a93d 5c89 d7b9 fe5d 003e
00000070: 9cdc 283d 019d 8fbc 835f 503d 3724 cf3d
00000080: 1770 e4bc 16d7 b1bd c313 bd3d c116 9d3c
00000090: c318 113c d808 093d dc94 2a3d 9fd9 d5bc
000000a0: f6d8 df3d 581e ae3d dd49 41be b4da 2d3d
000000b0: 86bd 04bd 5098 bc3d d0f3 1cbd 140c 7abd
000000c0: 63aa f93c b561 f83c 3ab6 da3c c5a3 cabc
000000d0: 8ef0 b6bd fecc be3d 1ac0 f73d e1e4 66ba
000000e0: 1341 c63d 3ee7 5f3d eac4 abbc 411b 153e
000000f0: a364 f4bc b5f1 f63d 91c7 7e3c 4de1 bb3d
00000100: 9502 f8bd 4072 e83c f8fb b7bd a23b 11be
00000110: cdf9 b33d 2d29 ba3c 6042 b3bc 6579 5fbd
00000120: e618 babd 0b5e 1dbd d1cc 20be 6d52 1e3d
00000130: 6ecc 263d 4a59 c83c f4af 4ebd c674 1cbc
00000140: e89c 1d3e ac0b 883b 554f 6c3d 6e54 7bbd
00000150: afcb bdbd 1c99 9abc b3ce aa3d fd48 8fbd
00000160: 39ce 063e f9e4 263d eea0 073c b5dd e0bc
00000170: 4a58 09be cf73 2f3e 4d75 28be 4880 d93b
00000180: 4636 89bc cf0c c23d 5d6c b13d cf40 543d
00000190: e8e6 e13d 1761 513e 3456 83be 7639 633d
000001a0: 08aa 173d 95fb fcbd 4d54 56bd 01e7 a93d
000001b0: 152f a03d 1ce9 e23d 3ead 863d 9120 7bbd
000001c0: c422 9e3d b2d6 aa3a bc07 933d 5f5d f93d
000001d0: bd17 0c3d 0c46 7d3c 114e 6fbd caff df3d
000001e0: 216a 8e3d 2626 0ebd d60e 223d c84f 6f3d
000001f0: 9dfc b93d 0a4a d23b 2a13 053e c019 003d
00000200: cf7b 703d a9a1 b43d a16a b73b a4d2 5b3d
00000210: 3b22 023e b3bc 873d f6cb 7cbc 9c84 8abd
00000220: 6667 64be c9a0 6abd 57eb 92bd f86b f9bc
00000230: 5b62 cbbb ec98 fb3c 5172 e0bd 5c1d 0e3e
00000240: fb82 b6bd 23df 613d 56ae ae3c be72 7cbd
00000250: 870f ef3c 9b67 263e 69cb 94bb 4fd3 95bd
00000260: 8503 aabb 58ad b1bd d73c 8d3d f4fe 1abc
00000270: b5d3 36bd 9297 563d 232c 62bc a735 6dbd
00000280: dd0c 483c 2130 0dbd 02a9 c1bd 8be8 d7bc
00000290: 2764 eeba bfbc 6c3c f125 153d 448a dbbc
000002a0: f33d cf3d 3085 453c 99c4 cabc 7fab 8cbd
000002b0: 60bc 05be 658b 0a3d 201c 933d a3a0 733d
000002c0: f57b 923b ec15 a43a 6974 133e d7bc 2f3c
000002d0: fd99 9539 b674 f6bd add4 603e c814 233a
000002e0: 46a1 9dbd 8085 62be 274d 20bd 79a0 463d
000002f0: 1897 10bd 3cdb 983b bd1e 903d de29 2fbe
00000300: 33cf 0a3e 301a 8ebd 484a 503c 4329 743d
00000310: a383 023d cf21 a6bc 76b5 45b9 a350 cbbb
00000320: fbe7 fa3d 9649 df3c 720b 6b3c 4c9c 973d
00000330: b0f6 753d bcbe 02bd 6284 893d c9cf 22bd
00000340: cec6 d33d 69e9 093e dab3 9e3d 94ba c5bd
00000350: 5b3c 1ebd 002a db3d be9e 323e caea 96bd
00000360: dbb9 073e a270 283e aef6 653d 95cd 8abc
00000370: 43e7 483c 0d2f 8f3c 960f 223e c713 a6bd
00000380: a079 ab3c 1424 f3bc f5dc c43d 02bf 713d
00000390: 2e73 09bc 71dc a13d f638 5f3e 4f20 02bd
000003a0: f1b2 8b3d 076d 3fbc bcef 123e 7e10 5fbd
000003b0: cdbd f53d 7648 debd 2249 a9bc 3e79 bdbb
000003c0: 6e70 cf3c 41f0 2cbd 6a29 013c 31a3 043e
000003d0: c669 703b b5da 0abb efda 09bd 39de 0b3d
000003e0: 95be 593d 9be0 ef3d c459 83ba dd81 b5bc
000003f0: b89a 343c e7e9 0d3c 2119 85bb 2be3 f6bc
-0.00822029 0.030334292 -0.044490594 0.16645586 -0.090722136 0.12443956 0.09432761 -0.021324594
0.024401944 -0.043809902 0.014579385 0.13915198 0.010451266 0.13830753 0.0007984366 -0.21744221
0.15208061 -0.029576864 -0.14122148 -0.00142816 -0.083796024 0.08685745 -0.03935342 -0.033203714
-0.030887876 0.082938366 -0.00041110336 0.12535855 0.041226014 -0.01753092 0.050872337 0.10114329
-0.02788548 -0.086836025 0.09232285 0.019175889 0.008856001 0.0334557 0.04164587 -0.026104746
0.10930054 0.08501881 -0.18875833 0.0424449 -0.032407306 0.09208739 -0.038318455 -0.061046675
0.030476755 0.030320028 0.02669822 -0.024736295 -0.08932601 0.09316443 0.12097187 -0.00088079093
0.09680381 0.05466389 -0.02096792 0.14561178 -0.029833144 0.12057821 0.01555051 0.09173832
-0.121098675 0.028374791 -0.08983606 -0.14182904 0.0878788 0.022724712 -0.021882236 -0.05455913
-0.0908678 -0.038419764 -0.15703131 0.038652826 0.040722303 0.024456639 -0.05046077 -0.009549325
0.15391886 0.004151782 0.057692844 -0.061359815 -0.09267365 -0.018871836 0.08340206 -0.06996343
0.13164605 0.04074571 0.008278115 -0.027449468 -0.13412586 0.17134021 -0.16450997 0.006637607
-0.016749512 0.09475099 0.08663247 0.05181962 0.1103037 0.20447193 -0.25651705 0.05547472
0.03702739 -0.12352673 -0.05232649 0.082960136 0.0782148 0.11079618 0.06576012 -0.061310355
0.07721475 0.0013033955 0.071792096 0.12176012 0.034202326 0.015458595 -0.05842406 0.1093746
0.06953836 -0.03470435 0.03956493 0.058425695 0.09081385 0.0064175176 0.12995592 0.031274557
0.058711823 0.08819897 0.005597428 0.05366768 0.1270837 0.066277884 -0.015429487 -0.067635745
-0.22305068 -0.057282243 -0.07173794 -0.030446991 -0.0062067932 0.030712567 -0.10959304 0.13878387
-0.08911701 0.05514444 0.021323364 -0.061632864 0.029182209 0.1625046 -0.00454085 -0.073156945
-0.005188408 -0.08675641 0.0689637 -0.0094602 -0.044635493 0.052390642 -0.013804468 -0.057912495
0.012210098 -0.034469727 -0.09456064 -0.026356002 -0.0018187807 0.014449297 0.036413137 -0.026799329
0.10119238 0.01205568 -0.024751948 -0.06868648 -0.1306014 0.033824343 0.07183099 0.059479367
0.0044703432 0.001251874 0.14399876 0.010726175 0.00028534225 -0.120339796 0.2195613 0.0006221053
-0.07696776 -0.22121239 -0.03913608 0.048492882 -0.035300344 0.0046648066 0.07037113 -0.17105815
0.13555603 -0.069385886 0.0127130225 0.059609663 0.03186382 -0.020279793 -0.00018854984 -0.006204681
0.12251278 0.027256768 0.0143459905 0.07402858 0.060049713 -0.03192018 0.06714703 -0.03974894
0.10340653 0.13467945 0.07749148 -0.096547276 -0.03863178 0.1070137 0.17443368 -0.07369001
0.13254492 0.16449216 0.056143455 -0.016943732 0.012262168 0.01747849 0.15826258 -0.08109241
0.020932019 -0.02968029 0.09612457 0.05902005 -0.008389277 0.07903374 0.21799073 -0.031769093
0.0682124 -0.011683709 0.14349264 -0.054459088 0.11999092 -0.108536646 -0.020664755 -0.0057822755
0.025322165 -0.04222131 0.007883409 0.12952878 0.003668414 -0.0021187488 -0.033656057 0.034147475
0.05316027 0.11712762 -0.0010021259 -0.02215665 0.011023216 0.008661724 -0.0040618335 -0.030137619

network_body._body_endoder.seq_layers.2.weight f4 [256, 256]
00000000: 1d1d 313d 2bfa 10be 56ba 363c db3f 4c3e
00000010: 2dce 52be c784 923e 8575 2d3c 17df 2e3e
00000020: 647b 603e 1896 d7bc c702 98be c2b0 60bd
00000030: 631e 3cbe 99ae 49be ccbe aebe 9eb4 76bd
00000040: 8ff3 6e3e c3ad 56be 7820 dabd 06dd 2f3e
00000050: 72b2 abbe 9399 b8bd 4484 93bd 2dc7 763d
00000060: 7df1 97be b1af c63d 8742 64bd 2076 b63d
00000070: 38ea 08be 12b1 c0bd 8d9d 66be 9de7 813d
00000080: a334 9ebe e77a 093d 7e3f 7abe 4006 33be
00000090: 442a 85be 3c8e cabe f184 a53d 2dd5 0dbe
000000a0: 975c 363e d1db 77be 2be8 1d3c 8013 b6be
000000b0: 3b17 10bc c504 9dbe deae 73be 05e7 dcbd
000000c0: 6332 923d 2c44 a8bd 7768 34be 3f99 85be
000000d0: 5efc 323d 57eb e3bc 98b9 a6bd a671 37be
000000e0: 9247 523e 8d11 a23b 6634 03be 5e8f 673e
000000f0: 4c92 833e da6a b23d 8ab3 80be 5022 c33e
00000100: 5363 9dbe 035b 63be cc18 a5be 5f62 6cbe
00000110: f132 dd3d 7fbf 10bd 65c7 263e 61a7 adbe
00000120: 0ddf 41be 016b 9ebe 2409 4cbe e78f 5fbe
00000130: f216 0c3e a433 46bd 500f 23be d4ea 49be
00000140: 2092 68be 6816 0bbe 03e5 b7bc 9bf6 a2be
00000150: d58d 8b3d d43f 8bbe 948c 123e cbb4 373e
00000160: 1329 54be dc88 383d 7884 ba3d e164 bcbe
00000170: 6dd5 3abe cc65 7e3e 6f45 b0bd 8ea5 9dbe
00000180: 8d1d 6abd e6a0 393e a05a 3abd ac98 5f3c
00000190: aa63 993d 0b4d 10bd 1f6f b13d 3a5a 06be
000001a0: f57f 953d cb57 c8bd d45c a63d cafc 06bf
000001b0: f615 a6be b9d3 073e 307b 0d3e 8e7b 0dbe
000001c0: b160 453e 7a66 aebe 17c7 5f3e eef8 183e
000001d0: b8fe 823d 90d9 44be ff2b babe 684c 273c
000001e0: 5e6e 653d 0d98 e6bd 89f9 6fbe e838 71bd
000001f0: b329 5a3e f9c2 f1be 1d42 e53c afc9 8dbe
00000200: c0c6 ae3d cf40 043e 884d 80be 6029 1b3e
00000210: 86ca 8f3d 76fb 3d3e 39c1 7abd 5460 a2be
00000220: 28cb 11be f496 e2be ef65 903d 9713 fabd
00000230: bed3 14be 9afb 9e39 c031 41bd 247d 143f
00000240: 52a0 693c f133 82be 700b 18be a078 d0be
00000250: 9d44 efbd c7ec 4dbe b41b 243e 8f86 c93d
00000260: 130f 773d 8ded a0be 0dbb b73e dd32 393c
00000270: a2da 8bbd dd47 283e 59bd 863d 87cd f73d
00000280: a301 92bd 546e 70be 3486 fa3b 831e b93e
00000290: 918a 6f3d 8ddc 8bbd da44 35be 2b0d 93bd
000002a0: 5bcf 133e 71cf f3bd d4f0 88be 3f90 ca3d
000002b0: 2e07 efbe e20a cb3c cd86 8b3d a324 9ebc
000002c0: 98d2 0fbe 565a cfbc 20b0 dabd 3e2e 5f3e
000002d0: 7d41 cabe b191 8f3d 4dc8 50be 1bdc 063e
000002e0: 6c06 47be 088f 58bd f487 88be 8258 b2bc
000002f0: 0110 783e 4377 a2bd 4bf3 e43e 1642 863d
00000300: 0af6 98bd 78bd 0e3e 7bcc 33bb dde8 143e
00000310: 8d25 8f3d f474 92be 8947 16be 053d 7fbe
00000320: d62c 8b3c e8af 273e 1356 5abe 69c1 42be
00000330: d37b ffbe 921a bfbe 4ba7 82be c9ff a9bd
00000340: 9c19 dd3d bf49 063e 713a 0fbe 7256 80be
00000350: f511 68bd ba16 c93e 5f0f 66be 2b42 0ebb
00000360: 657e 223e ecf8 8cbd 41e2 303d a602 99be
00000370: e841 6d3e d076 ad3e d4cb a53e 95b5 85bd
00000380: e660 8dbe 96fb 3e3d 959a 6dbe dda6 b5bd
00000390: 9d6d e13d c53c bcbd 0d79 813e 73b2 e4be
000003a0: c928 33be decb 2bbe 7e65 8a3d ea50 4cbc
000003b0: ca73 753e 5b35 983d b394 623e 1c09 edbd
000003c0: c9f5 893d 60aa 19be 0411 28be dad6 c93d
000003d0: 67da d3be ff10 99be 8f4f 123e 3c03 51be
000003e0: 91ac 23be 5012 cfbd ed8f 90be 106d 183d
000003f0: 1d87 453e 870b b73d 3c5a b5bd 83f6 89be
0.043240655 -0.14157932 0.011152824 0.19946234 -0.20586462 0.28616926 0.010587101 0.1707729
0.2192207 -0.026316687 -0.2968962 -0.05485607 -0.18370967 -0.1969551 -0.3412994 -0.060230844
0.23335098 -0.20964722 -0.10650724 0.17174158 -0.3353458 -0.09013667 -0.07202962 0.060248543
-0.29676428 0.09701479 -0.055727508 0.08909249 -0.13370597 -0.094087735 -0.22521038 0.06343005
-0.30899534 0.033564474 -0.24438283 -0.17482853 -0.2600881 -0.3956164 0.08081997 -0.13850851
0.17808758 -0.24204947 0.009637873 -0.35561752 -0.008794601 -0.306677 -0.23797175 -0.10786251
0.07138517 -0.08216128 -0.17617975 -0.2609348 0.043697707 -0.02782218 -0.08140868 -0.17914447
0.20535114 0.00494594 -0.12812957 0.22613284 0.25697553 0.087117866 -0.25136977 0.38112116
-0.3073984 -0.22202687 -0.3224548 -0.230844 0.10800732 -0.035338875 0.16287 -0.33916762
-0.18932743 -0.30941013 -0.19925362 -0.21832238 0.13680628 -0.048389092 -0.1592381 -0.19718486
-0.22711992 -0.13582766 -0.022448068 -0.3182877 0.06814162 -0.27197134 0.14311439 0.17940061
-0.20718794 0.045052394 0.09107298 -0.36795714 -0.18245478 0.2484352 -0.086069934 -0.3079037
-0.057157088 0.18127784 -0.045496583 0.01364724 0.074897125 -0.035229724 0.08663773 -0.13120356
0.072997965 -0.0978237 0.08123174 -0.52729475 -0.3243863 0.1326436 0.13816524 -0.13816664
0.19275166 -0.34062558 0.2185329 0.14938709 0.0639624 -0.19223619 -0.3636169 0.010211088
0.056013457 -0.1125947 -0.23435034 -0.05889216 0.2130497 -0.47219065 0.027985627 -0.27692935
0.08534002 0.12915348 -0.25059152 0.15152502 0.0702105 0.18552956 -0.061219428 -0.31714118
-0.14237654 -0.44255793 0.07050692 -0.12210768 -0.14533898 0.00030323566 -0.047166586 0.5800345
0.014259415 -0.25430253 -0.14848113 -0.4071703 -0.11683009 -0.20109855 0.16026193 0.09840118
0.06031711 -0.31431237 0.35884896 0.011303631 -0.0682881 0.16433664 0.06579084 0.12099748
-0.071292184 -0.23479587 0.007645393 0.3615609 0.058481757 -0.06829176 -0.17702046 -0.07180246
0.14434569 -0.11904801 -0.26746237 0.09890794 -0.46685165 0.024785463 0.068128206 -0.01930458
-0.14045179 -0.02531163 -0.106781244 0.21794984 -0.3950309 0.0701021 -0.20388909 0.13169901
-0.19436044 -0.05287078 -0.26666224 -0.02177072 0.24224855 -0.079329036 0.44716868 0.06555574
-0.07468803 0.13939464 -0.0027435112 0.14541955 0.06989584 -0.28604853 -0.14675726 -0.24925621
0.016989153 0.16375697 -0.21321897 -0.19019093 -0.49899158 -0.3732496 -0.2551826 -0.0830074
0.107959 0.1311407 -0.13987137 -0.25065953 -0.05665775 0.39275151 -0.22466801 -0.002170692
0.15868528 -0.068834156 0.043184523 -0.29884833 0.23169672 0.3387971 0.3238207 -0.06528775
-0.2761299 0.04662665 -0.232035 -0.08869717 0.11007235 -0.09191278 0.25287667 -0.44667396
-0.17496027 -0.16776988 0.06757639 -0.012470463 0.23969951 0.07432052 0.22127037 -0.11574003
0.06736333 -0.15006399 -0.16412741 0.09855433 -0.41377565 -0.2989578 0.14288162 -0.2041139
-0.15983798 -0.10110915 -0.28234807 0.037213385 0.19289823 0.089377455 -0.088551015 -0.26945886

network_body._body_endoder.seq_layers.2.bias f4 [256]
00000000: 2d12 db3c f838 11bd 90bb 1dbe 8a4c 6ebd
00000010: 5b2d 98bd c0aa 593a 7bc2 93bc aa68 f93d
00000020: ebf8 0a3d 9ada 10be fa7f 0bbc 19ed 04bd
00000030: edab 803d 2092 5c3d 920a 1ebe 6c2f 97bd
00000040: bbf3 bd3d a566 2dbe e370 86bd 3e67 18bd
00000050: 2424 e23b fd31 723b 101a 79bd d7c8 f7bd
00000060: 31db 13be fdb6 11be 3a30 edbd 10b3 e43d
00000070: ec77 82be 735f 333e cdd2 aa3c 51d7 1f3d
00000080: 0716 c7bd 90f5 673e 393c c0bb 7773 97bd
00000090: 1ba8 453c 39a0 7c3d 5295 42bd acfe fa3c
000000a0: 9c47 a83d 59e7 c43b 9276 433c 62fa 58bd
000000b0: c9a9 dabd c6a8 7bbd 54d3 67be 12bc 4f3d
000000c0: 8ee7 b3bd 78ee 233c 36e8 8fbd 4f4b 603b
000000d0: 9272 16be 819b 75bd ab0b 45bd 665f 36bc
000000e0: 412f 0bbe a76d fe3d 421b 293d da84 b63d
000000f0: 743f 553c 47e0 b23e 3c18 c0bd fa48 ae3c
00000100: 149f 0a3d 0cb9 16bd 3737 31bd 1e66 5d3e
00000110: 82cf 913d 8a7e 5dbd bf49 e53d 9b52 03be
00000120: b4a4 c33d e4ca c73b 5af3 a6bd 686a d6bd
00000130: ccf5 8abc 628f 693c b72d 7fbd e777 bebd
00000140: 6dc7 69bc bbf7 d93c 7dcd 4e3c baa4 0bbe
00000150: 54ac 833d 66b9 263d 217a 3d3c f7dc ad3b
00000160: dd27 d83c 0b3a 8fbe 2a23 a8bd 5f33 033e
00000170: 4430 a23d fa32 79bd 3346 41bd 5659 92be
00000180: b42a 9a3c 1e08 b5bd 50ed f7bc c50d 6bbc
00000190: cc9b 0b3d ccfd 16bc fe84 0cbe c16c 4fbe
000001a0: e3e2 9fbd d684 1b3d a56e 4a3d 62ff 3bbe
000001b0: 62f8 af3c 50ca 3ebd b0ee 13bd 447a 91bd
000001c0: 8fae 91be 04ea 39bd 2345 723d 630c b03c
000001d0: 532f 4e3e 2c64 cf3d 5e4a a9bc 8311 ccbc
000001e0: 6b3b 1e3e d2d3 af3c 20c9 42bc 0f16 0e3e
000001f0: d7b7 c13d f5bd 61bd be95 9c3d 6ca0 d2bd
00000200: 51da a1bd bef0 653c 994a 483d e410 61bd
00000210: 8f74 003e a5ea e03c 067e 21be 1061 a6bd
00000220: 4dac 813c 2a45 98bd 9255 f5bd 306b 97bd
00000230: b3ea b5bd 312c b4bd 2141 2abd 4747 f9bc
00000240: b613 aa3c 61d2 8fbd 76dd 08bd 831b 3fbd
00000250: cc2a 1cbe dc96 1b3d e1c5 c33d 369b 93bd
00000260: ca1f 9c3d ca88 933d 3310 d1bd fd28 c2bd
00000270: 0a51 573e 2642 583e 6e1b 76be 3265 963c
00000280: 2582 6bbd ace6 b93d ab1d 903d 6136 153d
00000290: 6865 903d 124e 133d cba7 5ebd a050 4f3c
000002a0: ae4e b9bd d046 d23d 997b 4e3e 42b9 ebbc
000002b0: f9e7 6ebd c835 05bc 1a4f debc 5194 e03d
000002c0: 9075 463d cd6c 27bd eb75 eabb 4e79 69bc
000002d0: 1230 adbd 2e5b a4bd a230 1fbd 4930 3e3d
000002e0: 0fba e43c 524e 89bc 0b93 36bd f6d7 0bbd
000002f0: 5bb0 39bd b688 dbbd ea10 cf3c 4e9f fcbd
00000300: 64cd dabc 1471 1c3d f1d9 913b ccd3 ee3d
00000310: a4e0 eabd 1d31 b63c 9138 fc3d 24d2 3c3d
00000320: c9ab 04be a34d 04bd 947e 0dbe a516 2dbe
00000330: 1365 dbbc ee58 5e3c abf3 83bd f033 9a3d
00000340: 76ab 41bc 41b9 d33b 9142 e8ba 1d44 8abd
00000350: 1d0f 35bd cc61 04be ffd0 42bd 9bd0 91bd
00000360: 5d0c c9bc ce9c 953d d6af 4ebe 8dcf 2b3c
00000370: 375a 043e d4c8 de3a 31e0 f5bc 6ecd c9bc
00000380: 2c60 e1bc 564f ebbc c649 04be a521 10be
00000390: 35e1 433d 1305 ad3c 095b 6c3e e691 373d
000003a0: de75 323e 4138 89bd 5ed8 33be 69de 283b
000003b0: 38a8 ba3c d8bd 3d3e 9942 c6bc de87 c7bc
000003c0: f153 0abe 5ecc f6bd eeda 233e 585c a7bc
000003d0: 841b 03be 4d6a edbd b508 a8bd e900 48bb
000003e0: a9fd 0abe 50be ecbd 92e4 923d 7368 73bd
000003f0: 6e75 62bd b7f1 f5bd 0e2d 1dbe 8aa7 1bbd
0.026742065 -0.03545472 -0.1540358 -0.058178462 -0.07430526 0.0008303337 -0.018037071 0.12178166
0.033928793 -0.1414589 -0.008514399 -0.032452676 0.06282792 0.053850293 -0.1543372 -0.07382092
0.092750035 -0.16933687 -0.065645 -0.037207834 0.006901281 0.0036956065 -0.06081587 -0.12098854
-0.14439084 -0.1422996 -0.11581464 0.11166966 -0.25482118 0.1751688 0.02085247 0.0390237
-0.09720998 0.22652268 -0.005866554 -0.0739507 0.012064005 0.061676238 -0.047505684 0.030639015
0.082167834 0.006009024 0.011930125 -0.05297316 -0.10676915 -0.06144025 -0.22639209 0.050716467
-0.087844 0.010005586 -0.070267126 0.0034224575 -0.14692143 -0.059962753 -0.04810683 -0.011131143
-0.13592245 0.12423258 0.04128576 0.08912058 0.013015617 0.34936735 -0.09379622 0.021275032
0.033843115 -0.03679757 -0.043265548 0.21620986 0.07119657 -0.054075755 0.111957066 -0.1282448
0.09552899 0.0060971845 -0.081518844 -0.10469514 -0.016962908 0.0142553765 -0.062299456 -0.09300213
-0.014268738 0.026607385 0.012622234 -0.13637057 0.06429353 0.040704153 0.011564762 0.005305882
0.026386196 -0.2797397 -0.08209832 0.12812565 0.07919362 -0.06083963 -0.047186088 -0.28583783
0.01881919 -0.08839439 -0.030264527 -0.014346545 0.034084126 -0.009215783 -0.13722607 -0.2025633
-0.07806947 0.03796848 0.049421925 -0.1835914 0.021480743 -0.04657966 -0.036116302 -0.071033984
-0.2845349 -0.04538919 0.059147965 0.021490281 0.2013524 0.10126528 -0.020665344 -0.024910694
0.15452354 0.021463308 -0.011888772 0.13875602 0.09458893 -0.055112798 0.076457486 -0.10284504
-0.07902969 0.014034448 0.048899267 -0.05494775 0.12544464 0.027455637 -0.1577073 -0.08123982
0.01582923 -0.07435067 -0.11979212 -0.07393491 -0.08882656 -0.08797491 -0.041566018 -0.030429495
0.020761352 -0.070225485 -0.033414327 -0.046657097 -0.152507 0.037985668 0.09559227 -0.072073385
0.07623251 0.07203825 -0.10208168 -0.09480474 0.21027008 0.21118984 -0.24033901 0.0183588
-0.057497162 0.090772 0.07036909 0.036428813 0.07050592 0.035963126 -0.05435924 0.0126535
-0.0904821 0.10267413 0.20164336 -0.028774861 -0.058326695 -0.008130498 -0.027137328 0.10965789
0.04845196 -0.040875245 -0.00715517 -0.014250113 -0.08456434 -0.08025204 -0.03886474 0.046432767
0.02792075 -0.016760979 -0.044573825 -0.034141503 -0.0453342 -0.10719435 0.02527662 -0.123350725
-0.026709266 0.038193777 0.0044510295 0.11661491 -0.11468628 0.022240216 0.12315477 0.046098843
-0.12956156 -0.032300603 -0.13817817 -0.1690317 -0.026781594 0.013571007 -0.0644296 0.075294375
-0.011820665 0.006461293 -0.0017720034 -0.06751273 -0.044203866 -0.12927932 -0.047562595 -0.071198665
-0.024542028 0.07305299 -0.20184264 0.010486496 0.12925039 0.0016997107 -0.03001413 -0.02463409
-0.027511679 -0.028724354 -0.12918767 -0.14075334 0.047822196 0.021120584 0.23081602 0.044816874
0.17427775 -0.06700183 -0.17563006 0.0025767332 0.022785291 0.18529451 -0.024201678 -0.024356779
-0.13508584 -0.12050699 0.16001484 -0.020429775 -0.12803465 -0.11592541 -0.08204786 -0.003051812
-0.13573326 -0.11559737 0.071725026 -0.059425782 -0.05528777 -0.12008994 -0.15349218 -0.038001575

action_model._discrete_distribution.branches.0.weight f4 [7, 256]
00000000: d35e ccbb 9371 0abd 23a7 98bb fa0c 4cbe
00000010: 7950 843d 1ff7 29be 6be5 1d3d f227 32be
00000020: 723e 37be 3abb 2cbd f3ae 10be 2a68 8c3d
00000030: f547 75be 8140 40be 72af 163e bf08 8fbb
00000040: 8647 933b 9da2 853d d7ef 07be 0e04 01be
00000050: da5f b3be 2c6f 223d 8d62 16be 511c 31be
00000060: 7a9a e63c a1dc 743c b993 613d 3363 e0be
00000070: 2abf 873e 1a69 bdbe fd33 ac3d e570 5d3e
00000080: eaf1 c5bd b38f fabe f14d e03d 0d66 81be
00000090: 0f0a a33b 6af2 1b3c b708 043e 2ee2 9ebd
000000a0: 7ec2 2e3d 7590 33bd 1315 0f3e 878f 6c3d
000000b0: 15f9 f6bd 23af 893c d7a0 293d 17cd d43d
000000c0: 1dce 93be 707f 95bd 03cc 813e 900b 1cbd
000000d0: bec6 6b3c dc30 383d 079d b53d 8963 253d
000000e0: 67fa d43d 9620 a4bd 6ee7 7d3d 1814 913c
000000f0: 9212 efbe 8bcc e0be 6c6b b43d b957 813d
00000100: e21a b4bd b31a 153e d54a 2d3d c948 d1be
00000110: f775 833e adf3 823b a2e8 e4be 0ee5 2fbd
00000120: a73b 00be ee1b 8b3d 9a2f 103d 6a82 91be
00000130: 58af 69be e9fb 543d ed49 30be 52f4 ea3d
00000140: 55b0 8cbd 4347 40be 5aaf 39be 66e1 f73d
00000150: f0e6 923c b982 983d 8800 7bbe 36df d3be
00000160: 8283 9cbd a41b 523e 39ee 333d 9adc 47be
00000170: 8ea3 e7bc c37f 54be d10e c93d abf0 b63d
00000180: 16ad 3f3d a1af 2b3e a170 31be f7f5 a23d
00000190: 1324 5e3e 044a 7f3c 90b8 323e bfd6 493e
000001a0: 029d f63d 05b1 7c3d 9df1 92bd 7a9e d03e
000001b0: af95 b53c 2cbd 3e3e abfa d5bd 494e 903c
000001c0: 4eb2 5d3e 8ecf 853d 53fd 2e3d d549 95be
000001d0: 1e7e ccbe 6d6a 543d 3a13 dabd b448 753c
000001e0: d4e6 20be 1156 3bbd 45bb a5bd 15cc 1cbe
000001f0: 9167 c5bd b3ad 363a bc03 093c d221 123e
00000200: aed1 e6bb 9a0c 47be 16f7 e73d f86f ab3b
00000210: 8a31 3dbe ca0b 10bc 0866 253d a973 8dbd
00000220: 53fc 3d3d 109f 793e 43ca dc3d 4c9e 8ebe
00000230: 7567 3ebc f4fc 89bd dcc6 10be 6f5c ad3d
00000240: 2f71 a8be 9818 f43d 3e4b 62be b61b 8a3d
00000250: 10de c43d 3e5d b83d 12c0 32be 17e0 0dbe
00000260: 5c7c 2e3d 6eb5 bfbd a2ec 063e cdc1 a23c
00000270: 62cd 68be f93a f3be d1b6 ff3d b6f5 62bd
00000280: 90a6 d0bd b164 69bd be5a c0bc fd60 9e3d
00000290: 84d9 08bc ec44 46be 1808 d9bc dbc1 48be
000002a0: 75be 73bc 4125 8fbe 6f35 edbe 2947 14bd
000002b0: ab3d cabd 78a4 77be 5c76 21be bb21 14be
000002c0: 257f 8dbe 322a a1bd 7046 07be 1df2 d93c
000002d0: a495 ddbd 1166 f63c d3d0 fcbc e0d1 debd
000002e0: abd8 a93c dfa2 f83d a99f dcbb 48e9 073d
000002f0: ab4d 76bd 9131 ca3c 7cc7 03be f42f 963d
00000300: 23e0 b1bd 50c5 58bd 46bb ed3d 2148 bdbe
00000310: 7c2f 9bbc 6806 0ebe b67a 7ebe 10df e5bd
00000320: ebfd 81be 8f74 4ebe 2b49 eb3d fe06 333d
00000330: 98a5 9b3e f37f 67be 4802 64bd 791e 27be
00000340: 133d 8bbd 07f9 98bc a708 8f3e af63 5abe
00000350: cc1c 583d b63e 83bd 73af 8b3d 9efd ccbd
00000360: ce38 493d 05ba 3c3d 17a8 fc3c c48e cf3b
00000370: e2e4 93be 0733 adbd 94d3 b43d d25f 20be
00000380: cca5 0b3e 8d50 f93b 6b67 81be 16f9 f13d
00000390: 1bdf 28bd 03b3 07be 4ce3 8ebe 7b05 1cbe
000003a0: 2670 01bf 95b8 febb ac51 ca3d 4f00 153d
000003b0: f7b0 c7bc 86cf bfbe 8645 dfbd a66d cbbd
000003c0: 83d3 853e 1420 bd3d 4934 cbbe 4ad8 26be
000003d0: b5e7 30bd 8c4c e2bd 1a9f 6bbc befd 67be
000003e0: 53ad 333e 8989 28bc bb34 dabe da35 a23c
000003f0: 2bd3 a3bb a151 833d 11ea 83be e6d0 08bb
-0.00623689 -0.03379972 -0.004658596 -0.19926825 0.064606614 -0.16598175 0.03854887 -0.1739805
-0.17894915 -0.04217074 -0.14129238 0.06855805 -0.2395323 -0.18774606 0.14715365 -0.0043650563
0.0044946102 0.06525157 -0.13275085 -0.12599203 -0.35034066 0.039656803 -0.14686032 -0.17295958
0.028149832 0.01494518 0.05507252 -0.43825683 0.26513034 -0.3699425 0.084083535 0.21625097
-0.09665282 -0.4893776 0.10952366 -0.2527317 0.0049755643 0.009518245 0.1289395 -0.07757984
0.04266595 -0.043838937 0.13972883 0.057754066 -0.120592274 0.016807145 0.041413154 0.1039068
-0.2886819 -0.072996974 0.2535096 -0.038096964 0.014390646 0.04496847 0.08867841 0.040378127
0.10399323 -0.08014028 0.061988287 0.017709777 -0.46693856 -0.43906054 0.088095516 0.0631556
-0.0879419 0.14560966 0.042307694 -0.40875843 0.25675938 0.0039963336 -0.44708735 -0.042943053
-0.12522756 0.067924365 0.035201646 -0.2841981 -0.22820795 0.051998053 -0.172157 0.11472382
-0.0686957 -0.18777184 -0.18133298 0.12103538 0.017932385 0.07446808 -0.24511921 -0.41381234
-0.076422706 0.20518357 0.04392836 -0.19517747 -0.028276231 -0.20751862 0.09817279 0.089326225
0.046795927 0.16766216 -0.17328121 0.0795707 0.21693449 0.015581612 0.17453218 0.19710825
0.120416656 0.061692256 -0.0717499 0.40745908 0.022166101 0.18626851 -0.10448202 0.017615454
0.21650049 0.065337285 0.042722058 -0.29157892 -0.3993997 0.051859308 -0.106481984 0.014970947
-0.15713054 -0.045736376 -0.080923595 -0.15312226 -0.09638894 0.0006968632 0.008362707 0.14270714
-0.0070440387 -0.19438401 0.11326425 0.0052318536 -0.18475929 -0.008791873 0.040380508 -0.06906826
0.046383213 0.24377084 0.10780766 -0.27855146 -0.011621346 -0.067377 -0.14138359 0.08464896
-0.32898852 0.119187534 -0.22099015 0.06743567 0.096126676 0.090021595 -0.17456082 -0.13855015
0.042599067 -0.09360777 0.13176206 0.019867802 -0.22734597 -0.4750593 0.12486041 -0.05541011
-0.10188019 -0.056980792 -0.02348077 0.07733343 -0.008352641 -0.19362229 -0.026493117 -0.196052
-0.014876951 -0.2795811 -0.4632983 -0.036200676 -0.098750435 -0.24183834 -0.15767807 -0.14465992
-0.27636066 -0.07869376 -0.13210464 0.026604706 -0.10819557 0.030077966 -0.030861294 -0.10879874
0.020733198 0.1214044 -0.0067329 0.03318146 -0.060132664 0.024681838 -0.12869066 0.07333365
-0.08685329 -0.052922547 0.11607985 -0.36969092 -0.01894354 -0.13869631 -0.24851498 -0.112241864
-0.25389037 -0.20161651 0.11488565 0.04370784 0.30399776 -0.22607403 -0.055666238 -0.16320218
-0.06798758 -0.018673433 0.2793629 -0.21327089 0.052761838 -0.064084455 0.06820574 -0.10009311
0.04912644 0.04607584 0.03084187 0.0063341577 -0.2888556 -0.08456998 0.08829418 -0.15661553
0.13637465 0.0076084794 -0.25274214 0.118150875 -0.041228395 -0.13251881 -0.2790779 -0.15236466
-0.5056175 -0.0077734687 0.09878859 0.036377247 -0.024376376 -0.37463015 -0.109019324 -0.09933023
0.26137933 0.09234634 -0.39688328 -0.16293445 -0.043189723 -0.110497564 -0.0143811945 -0.22655389
0.17546587 -0.010286697 -0.42618355 0.019801069 -0.0049995384 0.06412054 -0.25764516 -0.0020876466

action_model._discrete_distribution.branches.0.bias f4 [7]
00000000: d9c9 a2be 7d15 ef3c e392 64be a3bc 2c3d
00000010: ff2b 843d 3ba5 a83d 8aed 9c3d
-0.31794623 0.029185051 -0.22321658 0.042172085 0.06453704 0.0823464 0.076624945
