results/puzzle_experiment_3/PuzzleBehavior/PuzzleBehavior-31999936.onnx (onnx, 342923 bytes, 6 tensors)

network_body._body_endoder.seq_layers.0.weight f4 [256, 65]
-0.6053828 0.058466792 -0.37224466 -0.25987574 0.00092708453 0.02120269 0.1487786 -0.11680242
0.2995993 -0.86693317 -0.08487234 0.00049375766 0.21221861 0.13946028 0.08886367 0.013966164
-0.34109727 0.063062906 -0.0902018 0.1746589 -0.05998809 0.10954328 0.033049572 -0.057848677
0.00066950923 0.008697014 -0.05882151 -0.32398596 0.20914385 -0.17751151 -0.21095215 0.21043906
0.18433735 0.0427033 -0.13639937 -0.18546313 -0.28106326 0.026970666 0.20738985 -0.13234036
0.037202388 0.030701727 0.19580854 -0.37792775 -0.026586454 -0.17573285 -0.052599218 0.1947323
0.1450003 -0.06681435 -0.123803146 0.02714452 -0.18988718 -0.07540537 0.05485451 -0.008560376
0.18219869 0.008218547 -0.11079817 0.124155715 -0.07445783 -0.23376735 -0.5040909 0.09926111
0.13917178 -0.870224 0.09366545 -0.24354453 0.10784859 -0.21643272 0.04111746 0.1598769
0.10422992 0.41643506 -0.5183292 0.020022564 0.27641848 -0.28595704 0.15107223 -0.17843197
0.106434844 -0.085100316 0.18777086 -0.13334346 0.13803397 0.15930013 -0.14443997 0.17047185
-0.108718425 0.35321385 -0.21799815 0.35497823 0.14988253 -0.070835404 -0.20615572 -0.0945881
0.11722952 0.1008267 0.16600162 -0.09068305 -0.08567906 -0.3947046 0.1702716 -0.012303705
-0.34654623 0.04831979 -0.20748764 0.027820028 -0.61642647 0.05053737 -0.08079251 0.05984143
0.07686452 0.24905285 -0.0027220452 0.05359105 -0.16799676 -0.021411747 -0.014782696 -0.4957119
0.05314321 0.052125737 -0.45183864 0.07585335 -0.1350285 -0.06006967 -0.003797093 -0.7578082
-0.055504523 -0.011789565 0.3151935 -0.048045527 0.2011152 -0.10618582 0.09978561 -0.03261051
0.07886065 0.11404493 -0.032687612 0.039771255 -0.065668896 -0.15782279 0.2883896 0.12401113
0.101418115 0.118392795 0.21045856 0.14488421 -0.054366324 -0.050511595 0.19461705 0.36637565
-0.14434572 0.18355861 -0.23953034 -0.06671407 -0.027397806 0.21753016 -0.32071263 -0.16073222
-0.2375506 -0.02451056 -0.022569848 0.103158586 -0.050200548 0.12855306 0.18039466 -0.10228138
0.13088064 0.12532991 0.09912675 -0.07253672 -0.3384873 -0.2311562 -0.105130486 0.09773107
0.24920163 -0.21909817 -0.29875624 0.040006887 0.06632898 -0.18812029 -0.25329378 -0.18293142
0.08439305 0.18950923 -0.080033414 -0.5008934 0.03596652 -0.072017185 -0.45196086 -0.09236374
-0.46719283 -0.03973393 0.041006282 0.017141167 0.22325566 0.29290184 -0.007728668 -0.12954567
-0.013801269 -0.1507269 -0.057784 -0.37413266 0.13004358 -0.15386534 0.20620959 -0.06454965
-0.06352989 -0.14724407 -0.12097342 -0.065505676 -0.31540108 0.15240401 -0.017777335 0.16783209
-0.44214767 -0.28275898 0.033049125 -7.382208e-05 0.19253275 -0.34707537 -0.16322155 -0.12089084
0.480945 0.06323454 -0.13496462 -0.084531575 -0.19724573 -0.2084945 0.06727663 -0.054831773
0.0749452 -0.031414624 0.044377215 0.033465866 0.18350962 0.0032401348 0.11607722 0.22652489
-0.10067271 -0.10542362 0.40557167 -0.031061739 0.033414785 -0.025398606 0.20503937 -0.15907875
0.10471939 -0.03182908 0.14361124 -0.0089618005 0.22486347 -0.014508159 -0.077030316 0.22592165
00000000: 5efa 1abf e07a 6f3d da96 bebe 6f0e 85be
00000010: 9707 733a 44b1 ad3c 6b59 183e 1b36 efbd
00000020: 1465 993e 55ef 5dbf 8dd1 adbd 846f 013a
00000030: d64f 593e adce 0e3e 28fe b53d 56d2 643c
00000040: 4da4 aebe 2027 813d b9bb b8bd c8d9 323e
00000050: 12b6 75bd 3a58 e03d fd5e 073d bcf2 6cbd
00000060: 0182 2f3a ec7d 0e3c d3ee 70bd 7de1 a5be
00000070: ce29 563e 94c5 35be d703 58be 567d 573e
00000080: eec2 3c3e a8e9 2e3d 47ac 0bbe 0cea 3dbe
00000090: 86e7 8fbe 96f1 dc3c 015e 543e 3b84 07be
000000a0: 8861 183d 3082 fb3c 0982 483e bf7f c1be
000000b0: d6cb d9bc 50f3 33be 4772 57bd e767 473e
000000c0: f57a 143e f6d5 88bd 818c fdbd 2f5e de3c
000000d0: c971 42be 216e 9abd 1faf 603d d240 0cbc
000000e0: 4b92 3a3e 16a7 063c 27ea e2bd 5a45 fe3d
000000f0: 597d 98bd b560 6fbe 1a0c 01bf 6949 cb3d
00000100: 0c83 0e3e 00c7 5ebf acd3 bf3d bd63 79be
00000110: b9df dc3d 8aa0 5dbe c86a 283d c5b6 233e
00000120: 7f76 d53d fa36 d53e 39b1 04bf 5c06 a43c
00000130: b986 8d3e f668 92be aeb2 1a3e dfb6 36be
00000140: 83fa d93d 1349 aebd 0147 403e 308b 08be
00000150: c758 0d3e 931f 233e 12e8 13be 2c90 2e3e
00000160: c4a7 debd 72d8 b43e e83a 5fbe b5bf b53e
00000170: ce7a 193e 2712 91bd 7c1a 53be 68b7 c1bd
00000180: 0816 f03d 3b7e ce3d 54fc 293e 09b8 b9bd
00000190: 8178 afbd b916 cabe ae5b 2e3e 7b95 49bc
000001a0: 826e b1be f9ea 453d a477 54be d4e6 e33c
000001b0: 20ce 1dbf 4600 4f3d 8b76 a5bd 4a1c 753d
000001c0: 256b 9d3d b607 7f3e 5764 32bb 4a82 5b3d
000001d0: 5807 2cbe b067 afbc 1f33 72bc f3cd fdbe
000001e0: b2ac 593d cc81 553d 6557 e7be 0059 9b3d
000001f0: e944 0abe 9d0b 76bd a6d8 78bb b8ff 41bf
00000200: b658 63bd 0529 41bc 0b61 a13e 63cb 44bd
00000210: 25f1 4d3e f477 d9bd 665c cc3d 9992 05bd
00000220: b181 a13d 6390 e93d 72e3 05bd 2fe7 223d
00000230: 6a7d 86bd 4c9c 21be cda7 933e 8cf9 fd3d
00000240: 4db4 cf3d ec77 f23d 7382 573e 875c 143e
00000250: 39af 5ebd 3fe5 4ebd b149 473e 9795 bb3e
00000260: 5dcf 13be caf6 3b3e 7147 75be 63a1 88bd
00000270: 5d71 e0bc 3ac0 5e3e 7234 a4be fd96 24be
00000280: 7740 73be 5fca c8bc 67e4 b8bc cf44 d33d
00000290: 179f 4dbd 6aa3 033e 61b9 383e e678 d1bd
000002a0: 9305 063e 7c56 003e f702 cb3d 228e 94bd
000002b0: 354e adbe 36b4 6cbe a74e d7bd 3a27 c83d
000002c0: b62e 7f3e 455b 60be 94f6 98be 43de 233d
000002d0: 7dd7 873d 9ba2 40be b9af 81be 6052 3bbe
000002e0: 43d6 ac3d b50e 423e 8fe8 a3bd 8d3a 00bf
000002f0: a151 133d bf7d 93bd 6a67 e7be 3329 bdbd
00000300: e633 efbe 0cc0 22bd 34f6 273d a26b 8c3c
00000310: 229d 643e 3bf7 953e c440 fdbb 9fa7 04be
00000320: b81e 62bc 2758 1abe eaae 6cbd 518e bfbe
00000330: 252a 053e e08e 1dbe 9b28 533e 9b32 84bd
00000340: f51b 82bd 26c7 16be eac0 f7bd d727 86bd
00000350: 407c a1be cc0f 1c3e c6a1 91bc 2ddc 2b3e
00000360: 2e61 e2be c9c5 90be 855e 073d edd0 9ab8
00000370: 4e27 453e ddb3 b1be 8d23 27be 9e95 f7bd
00000380: 6c3e f63e 1c81 813d 2a34 0abe e41e adbd
00000390: c9fa 49be 957f 55be 54c8 893d 4897 60bd
000003a0: de7c 993d 9fac 00bd e2c4 353d 8113 093d
000003b0: f2e9 3b3e 7158 543b e5b9 ed3d 24f6 673e
000003c0: 7e2d cebd 57e8 d7bd 17a7 cf3e 3075 febc
000003d0: f1dd 083d bd10 d0bc d7f5 513e 8ae5 22be
000003e0: 1f77 d63d 365f 02bd d30e 133e 84d4 12bc
000003f0: 9c42 663e a1b3 6dbc 12c2 9dbd 0158 673e

network_body._body_endoder.seq_layers.0.bias f4 [256]
0.011724362 0.008324379 -0.043561645 0.1440975 -0.086893894 0.15390125 0.0761309 -0.018460352
0.043584913 -0.01840235 0.00091369165 0.1438184 0.011882833 0.13650018 -0.0075188703 -0.23246108
0.06738949 0.003239467 -0.095552474 0.003267594 -0.06961672 0.09261366 -0.05627812 -0.06200462
-0.016616914 0.06279 0.04508012 0.11464405 0.09406744 -0.045457523 0.10835341 0.13950695
-0.016684178 -0.09552884 0.1000493 -0.0029647185 0.008783141 0.03901853 0.031519648 -0.01784032
0.06544916 0.08421247 -0.13916923 0.02899181 0.016871916 0.06702849 -0.017426422 -0.04948368
0.02443959 0.026955813 0.037133347 -0.04866279 -0.055723228 0.07225695 0.13177188 -0.02930664
0.14841156 0.052197233 -0.0103995325 0.11941202 -0.095062956 0.120118484 0.05812944 0.11594248
-0.10032171 0.04435165 -0.06959682 -0.10733953 0.11470297 0.018051693 -0.016272627 -0.07963742
-0.113594055 -0.019080894 -0.122849315 0.06675972 0.007725294 0.016776154 -0.101931386 0.016792914
0.098460965 -0.001566906 0.08680077 -0.05039354 -0.08159738 0.020523878 0.08235171 -0.049292598
0.09919347 -0.008285507 -0.044225283 0.035673924 -0.101597145 0.14562511 -0.15367205 0.025828253
-0.009412639 0.05316036 0.097358964 0.06575902 0.11416417 0.16271694 -0.21298401 0.06330953
0.038902912 -0.18561582 0.0055850213 0.08963042 0.011330564 0.06846487 0.085590795 -0.057060163
0.105030246 0.019865943 0.07952937 0.14537495 0.061871372 0.033518158 -0.02541947 0.03914289
0.051454805 -0.008887554 0.037934802 0.05074323 0.07200886 0.022571756 0.15552215 0.028063271
0.018838355 0.11536999 -0.006874155 0.043773223 0.0948383 0.037706133 -0.04105916 -0.028473463
-0.2418698 -0.037937626 -0.09796992 0.018677423 -0.007865975 -0.011590788 -0.12996396 0.08772588
-0.12410509 0.060334373 0.016177744 -0.027769985 0.014916624 0.10185818 0.00013400475 -0.05074368
-0.014476144 -0.03832836 0.06703783 0.005176465 -0.037520908 0.07045952 -0.01947649 -0.022896053
-0.01433006 -0.031699818 -0.056554627 -0.028946916 0.0049736663 -0.049225572 -0.010387725 -0.030844556
0.08405739 0.02249264 -0.008386887 -0.1084138 -0.14100891 0.040517244 0.074505046 0.058021765
-0.030556133 0.041406907 0.11701751 0.011158442 0.020371301 -0.110673 0.14620095 -0.0019840375
-0.063672274 -0.24198253 -0.029594298 0.048015002 -0.091849804 0.012425191 0.03718103 -0.14211076
0.098294206 -0.082321726 -0.0031656325 0.049850814 0.00074748386 -0.019572528 -0.021467166 0.0055590514
0.10873885 0.053093873 0.010837569 0.03907397 0.04994959 -0.124340504 0.09779769 -0.039108854
0.077644095 0.14860806 0.08680403 -0.090117455 -0.018446857 0.032524936 0.1675156 -0.07513996
0.07965321 0.077833995 0.05133053 0.042078868 -0.040664155 -0.025660375 0.13739674 -0.04392851
-0.008906763 0.030913338 0.09862199 0.074616686 -0.028067887 0.031888828 0.1796309 -0.026367716
0.070092596 -0.042869207 0.121573925 -0.041652985 0.07776039 -0.08595466 0.009888602 -0.013221097
0.03183402 -0.037579466 0.02015757 0.045643214 0.056198426 0.023463102 -0.0835912 0.059451535
0.10427186 0.09469634 -0.024494944 -0.044207104 0.03618781 0.032938655 -0.029763734 -0.028745353
00000000: 8a17 403c fa62 083c b26d 32bd 4c8e 133e
00000010: 6df5 b1bd 4a98 1d3e 84ea 9b3d 2a3a 97bc
00000020: 1886 323d 86c0 96bc cf84 6f3a 2145 133e
00000030: 37b0 423c b4c6 0b3e db60 f6bb 470a 6ebe
00000040: 8003 8a3d 3d4d 543b 04b1 c3bd 2125 563b
00000050: 3693 8ebd 3bac bd3d e383 66bd 8ef8 7dbd
00000060: 3220 88bc 0b98 803d efa5 383d 80ca ea3d
00000070: 6ea6 c03d ab31 3abd 65e8 dd3d e9da 0e3e
00000080: 42ad 88bc a0a4 c3bd a6e6 cc3d b94b 42bb
00000090: 2ae7 0f3c e5d1 1f3d bf1a 013d dd25 92bc
000000a0: 360a 863d 9677 ac3d 6182 0ebe 3b80 ed3c
000000b0: f936 8a3c 3c46 893d dbc1 8ebc 66af 4abd
000000c0: 8935 c83c 70d2 dc3c 2319 183d a252 47bd
000000d0: 0a3e 64bd 74fb 933d 35ef 063e 7b14 f0bc
000000e0: 33f9 173e c4cc 553d cd62 2abc 4a8e f43d
000000f0: 5eb0 c2bd ae00 f63d 2319 6e3d 4073 ed3d
00000100: 7875 cdbd 13aa 353d c788 8ebd d4d4 dbbd
00000110: 64e9 ea3d 25e1 933c 2c4e 85bc f218 a3bd
00000120: 00a4 e8bd 894f 9cbc 6c98 fbbd 52b9 883d
00000130: 7724 fd3b 256e 893c 67c1 d0bd 4b91 893c
00000140: e7a5 c93d a460 cdba 9ac4 b13d 7569 4ebd
00000150: 871c a7bd b121 a83c 03a8 a83d 09e7 49bd
00000160: f225 cb3d efbf 07bc 9225 35bd d21e 123d
00000170: 2a12 d0bd c01e 153e 355c 1dbe c695 d33c
00000180: 7837 1abc adbe 593d 2364 c73d aaac 863d
00000190: e8ce e93d 459f 263e 7b18 5abe 6da8 813d
000001a0: a958 1f3d 1312 3ebe 8e02 b73b 2790 b73d
000001b0: d4a3 393c 4f37 8c3d 3a4a af3d ebb7 69bd
000001c0: 191a d73d e7bd a23c 4be0 a23d 2cdd 143e
000001d0: d66c 7d3d 564a 093d 7e3c d0bc 4c54 203d
000001e0: 46c2 523d 1a9d 11bc 8661 1b3d 22d8 4f3d
000001f0: 6279 933d 67e8 b83c 3341 1f3e f2e4 e53c
00000200: e552 9a3c 1a47 ec3d 9740 e1bb 8d4b 333d
00000210: 953a c23d bf71 1a3d a62d 28bd 2e41 e9bc
00000220: b8ac 77be 7c64 1bbd 74a4 c8bd 6501 993c
00000230: 4ae0 00bc 4ae7 3dbc 4615 05be a0a9 b33d
00000240: cf2a febd 2d21 773d 3087 843c e17d e3bc
00000250: db64 743c 059b d03d a083 0c39 9bd8 4fbd
00000260: 592d 6dbc 33fe 1cbd 214b 893d 569f a93b
00000270: 86af 19bd 154d 903d 298d 9fbc 8190 bbbc
00000280: a1c8 6abc abd7 01bd d3a5 67bd 1522 edbc
00000290: 23fa a23b c1a0 49bd 4731 2abc b9ad fcbc
000002a0: 4826 ac3d 7c42 b83c 2769 09bc 0e08 debd
000002b0: a464 10be 69f5 253d 1a96 983d 3ba8 6d3d
000002c0: db50 fabc 4a9a 293d e0a6 ef3d e6d1 363c
000002d0: b7e1 a63c 87a8 e2bd b4b5 153e a006 02bb
000002e0: 9c66 82bd 45ca 77be be6f f2bc 61ab 443d
000002f0: c01b bcbd 0793 4b3c 234b 183d 7c85 11be
00000300: 794e c93d 4b98 a8bd 8076 4fbb 5e30 4c3d
00000310: cbf2 433a 9156 a0bc e9db afbc b428 b63b
00000320: 79b2 de3d f678 593d 0f90 313c 070c 203d
00000330: f197 4c3d 3ca6 febd 284a c83d 9b30 20bd
00000340: de03 9f3d b62c 183e 50c6 b13d 808f b8bd
00000350: dd1d 97bc de38 053d 3689 2b3e fbe2 99bd
00000360: 3921 a33d 6e67 9f3d f63f 523d e45a 2c3d
00000370: 758f 26bd b535 d2bc bbb1 0c3e 62ee 33bd
00000380: aced 11bc f83d fd3c 53fa c93d a2d0 983d
00000390: a0ee e5bc dc9d 023d 2af1 373e 1c01 d8bc
000003a0: b58c 8f3d 9f97 2fbd c0fb f83d 529c 2abd
000003b0: d740 9f3d ff08 b0bd ce03 223c 4d9d 58bc
000003c0: 6464 023d edec 19bd 7d21 a53c 61f4 3a3d
000003d0: 5230 663d b135 c03c dd31 abbd 7483 733d
000003e0: 7c8c d53d 28f0 c13d 9fa9 c8bc 8212 35bd
000003f0: ab39 143d afea 063d 13d3 f3bc 607b ebbc

network_body._body_endoder.seq_layers.2.weight f4 [256, 256]
0.036837716 -0.09880247 -0.109726064 0.16041751 -0.11941796 0.16545129 0.018970074 0.2374287
0.27200285 -0.022032242 -0.23130678 -0.012404726 -0.21243563 -0.19183086 -0.3565654 -0.03124128
0.23176716 -0.08844747 -0.039793506 0.22490811 -0.25945994 -0.12468082 0.026999984 0.061833587
-0.19860482 0.11342529 0.036739357 0.17334709 -0.21116248 -0.07099161 -0.16178401 0.07417927
-0.30896512 0.09593168 -0.22991465 -0.117888674 -0.29709747 -0.41184452 0.11281782 -0.059868373
0.16088952 -0.23318014 0.09001465 -0.29701307 0.011089996 -0.29459715 -0.16881111 -0.09278033
0.09483711 -0.0441604 -0.06782881 -0.12351638 0.054635223 0.025520166 -0.085904054 -0.2501849
0.2646352 0.045115333 -0.0646799 0.1998137 0.2605068 0.007362532 -0.13279958 0.37952238
-0.22739692 -0.30504712 -0.13702773 -0.19520712 0.12968214 0.014564282 0.12096596 -0.24488115
-0.1641046 -0.3054766 -0.0475471 -0.10995943 0.21532111 -0.028340017 -0.10576759 -0.20256081
-0.19804758 0.016074995 0.05332098 -0.23128225 0.06977263 -0.23083146 0.13306974 0.1656935
-0.23830926 -0.042164125 0.07058615 -0.25882402 -0.040578127 0.2790682 -0.04529838 -0.4395314
-0.08220836 0.1633025 0.0026076846 0.09947513 0.11735956 -0.024535874 0.105337605 -0.2402725
0.15590137 -0.122155294 0.1135458 -0.42336074 -0.28781858 0.12751852 0.18772003 -0.09332333
0.1734253 -0.31812906 0.31072256 0.21330546 0.0475417 -0.22147766 -0.25999478 -0.061214335
0.019120026 -0.047493674 -0.31651896 -0.038009863 0.08615414 -0.4849828 0.043086402 -0.18961541
0.09115572 0.09660636 -0.2332844 0.08169528 0.11991037 0.21285759 -0.044421252 -0.21093935
-0.16146344 -0.26706544 0.09241495 -0.124929555 -0.035584588 -0.012865111 0.029138172 0.5577496
0.039649893 -0.23895563 -0.07954961 -0.28821445 -0.16026224 -0.21873936 0.24826309 0.118138105
0.09932153 -0.23870938 0.36439317 0.073451675 0.025242973 0.1932929 0.0826289 0.16946737
0.02547974 -0.2141616 0.07229051 0.2763287 0.13338833 -0.06564998 -0.1824736 -0.14502758
0.069490075 -0.12222468 -0.1645967 0.17756116 -0.32264906 0.069874264 0.15467954 -0.08884796
-0.13971183 0.04883065 -0.15640996 0.26188603 -0.35721803 0.11199478 -0.25851974 0.2359135
-0.049049933 -0.05387432 -0.24837637 -0.043663304 0.13552795 -0.093059324 0.47469074 0.15698028
-1.3928953e-08 0.18158014 0.03374047 0.21979569 0.082648516 -0.27104503 -0.044742066 -0.22338258
0.052770443 0.168849 -0.097080976 -0.25395286 -0.42115173 -0.32515156 -0.18324399 0.05322607
0.1454672 0.17464505 -0.13863403 -0.3135998 0.017396498 0.27796173 -0.13188605 0.079090394
0.16158046 -0.11080769 0.11786008 -0.23093176 0.29912516 0.28071773 0.37796506 -0.068514034
-0.34523866 0.12676139 -0.1401613 -0.035863377 0.1827395 -0.07009835 0.26509392 -0.31452367
-0.22523527 -0.17965315 -0.04994306 0.15849343 0.240756 0.19706954 0.2694788 -0.11658533
0.09494409 -0.11330011 -0.28993338 -0.007519982 -0.33585855 -0.31104946 0.12180599 -0.12651597
-0.15849142 -0.09621605 -0.262563 0.010012005 0.21475744 0.18647435 -0.08643303 -0.15975918
00000000: 25e3 163d f358 cabd 0fb8 e0bd 7d44 243e
00000010: 6791 f4bd 106c 293e 2167 9b3c 8220 733e
00000020: f543 8b3e f67c b4bc afdb 6cbe 313d 4bbc
00000030: ba88 59be 4f6f 44be bd8f b6be b6ed ffbc
00000040: 5f54 6d3e f223 b5bd 84fe 22bd 504e 663e
00000050: efd7 84be a858 ffbd 122f dd3c 3745 7d3d
00000060: 105f 4bbe 854b e83d 027c 163d e681 313e
00000070: fa3a 58be 0d64 91bd b5aa 25be 4deb 973d
00000080: ad30 9ebe d477 c43d bf6e 6bbe 9e6f f1bd
00000090: 291d 98be 49dd d2be 070d e73d 8a38 75bd
000000a0: 39c0 243e c6c6 6ebe 9a59 b83d 1912 98be
000000b0: d1b2 353c 70d5 96be d2dc 2cbe 9d03 bebd
000000c0: f539 c23d 89e1 34bd d5e9 8abd 28f6 fcbd
000000d0: 2fc9 5f3d ab0f d13c 77ee afbd 3c18 80be
000000e0: 447e 873e dbca 383d e576 84bd f69b 4c3e
000000f0: 2661 853e 6541 f13b 9dfc 07be c250 c23e
00000100: bdda 68be 232f 9cbe ff50 0cbe 60e4 47be
00000110: 65cb 043e 079f 6e3c 00bd f73d 20c2 7abe
00000120: 090b 28be 6e67 9cbe bfc0 42bd 6932 e1bd
00000130: 237d 5c3e 5329 e8bc ae9c d8bd 1a6c 4fbe
00000140: fccc 4abe b5af 833c 1a67 5a3d 41d5 6cbe
00000150: f4e4 8e3d 155f 6cbe 6f43 083e 8fab 293e
00000160: 5807 74be 4ab4 2cbd 798f 903d 9584 84be
00000170: 4035 26bd 07e2 8e3e cb8a 39bd 420a e1be
00000180: db5c a8bd c538 273e b0e5 2a3b 9eb9 cb3d
00000190: 365a f03d 75ff c8bc 3ebb d73d ff09 76be
000001a0: 9ca4 1f3e 8e2c fabd b38a e83d bdc2 d8be
000001b0: f55c 93be 3794 023e ae39 403e 4d20 bfbd
000001c0: 6796 313e d0e1 a2be 0717 9f3e bf6c 5a3e
000001d0: 16bb 423d 0acb 62be 091e 85be e2bb 7abd
000001e0: 9aa1 9c3c ba88 42bd c60e a2be 3bb0 1bbd
000001f0: 9571 b03d aa4f f8be 5e7b 303d 8b2a 42be
00000200: daaf ba3d 8ed9 c53d 1be2 6ebe db4f a73d
00000210: 9193 f53d 57f7 593e 0ff3 35bd 7c00 58be
00000220: ac56 25be cdbc 88be 0d44 bd3d 11db ffbd
00000230: 25c1 11bd 30c8 52bc 2db3 ee3c aec8 0e3f
00000240: ed67 223d c9b0 74be e8ea a2bd d890 93be
00000250: c91b 24be 36fd 5fbe ae38 7e3e 64f2 f13d
00000260: 1669 cb3d 3b70 74be be91 ba3e d56d 963d
00000270: 5aca ce3c 93ee 453e 5739 a93d db88 2d3e
00000280: e3ba d03c 2e4d 5bbe 0c0d 943d f57a 8d3e
00000290: f396 083e 7f73 86bd 5cda 3abe 1c82 14be
000002a0: d050 8e3d ef50 fabd 0a8c 28be 98d2 353e
000002b0: 4232 a5be 3d1a 8f3d 5064 1e3e ebf5 b5bd
000002c0: 9e10 0fbe a602 483d ef29 20be ed15 863e
000002d0: 48e5 b6be 855d e53d b35c 84be 4f93 713e
000002e0: 95e8 48bd 52ab 5cbd 6056 7ebe 4bd8 32bd
000002f0: d7c7 0a3e e395 bebd aa0a f33e 70bf 203e
00000300: 2f4c 6fb2 25f0 393e 7233 0a3d 1f12 613e
00000310: a043 a93d 6ac6 8abe 7543 37bd 67be 64be
00000320: d225 583d c1e6 2c3e 64d2 c6bd 1c06 82be
00000330: 33a1 d7be 447a a6be 50a4 3bbe 9403 5a3d
00000340: 5bf5 143e 27d6 323e 14f6 0dbe 2790 a0be
00000350: 1a83 8e3c 0051 8e3e 230d 07be 25fa a13d
00000360: 5975 253e 24ef e2bd a060 f13d 6079 6cbe
00000370: ef26 993e 3cba 8f3e a384 c13e 1651 8cbd
00000380: 1fc3 b0be bdcd 013e 7286 0fbe 7ae5 12bd
00000390: 1020 3b3e b98f 8fbd 64ba 873e 3f09 a1be
000003a0: 13a4 66be fff6 37be 1891 4cbd 1a4c 223e
000003b0: be88 763e 99cc 493e 20f9 893e 4ac4 eebd
000003c0: 0c72 c23d e309 e8bd 2672 94be 2e6a f6bb
000003d0: a7f5 abbe e041 9fbe 6b75 f93d 678d 01be
000003e0: 934b 22be ec0c c5bd a86e 86be 6509 243c
000003f0: 60e9 5b3e 22f3 3e3e cd03 b1bd e997 23be

network_body._body_endoder.seq_layers.2.bias f4 [256]
0.053933058 -0.06700167 -0.16149464 -0.039933614 -0.08930582 0.019945526 -0.007906642 0.08199916
0.04561912 -0.12615752 0.036172006 -0.027283145 0.07156207 0.011389622 -0.09812387 -0.059592124
0.017805759 -0.15480885 -0.019915793 -0.02472152 0.0024435325 0.04468308 -0.025854455 -0.10730255
-0.06497421 -0.11790519 -0.09282731 0.075148456 -0.2639516 0.11755171 -0.00092022505 0.06377804
-0.022913916 0.28538454 0.01942722 -0.025921185 -0.006628322 0.11376158 -0.0794061 -0.028443301
0.08831241 0.02510384 0.06349772 0.0141277285 -0.07176836 -0.007824204 -0.18489623 -0.032084968
-0.11764367 0.025225494 -0.12782751 0.020462006 -0.06970779 0.0057766493 -0.043500967 0.04018084
-0.12800094 -0.008852135 0.09714466 0.10861117 0.06918836 0.27991372 -0.040000845 -0.034143995
0.047217067 0.054491658 0.015669294 0.1989551 0.039910268 -0.0846869 0.18348667 -0.036804505
0.08262943 -0.048819125 -0.07504197 0.057944734 -0.0050929724 -0.054550238 0.004577065 -0.043722507
0.016876426 -0.032877382 0.01764678 -0.10280952 0.0907099 -0.016345786 -0.030642364 0.025595717
0.026895601 -0.21922503 -0.06957973 0.09011965 0.061301023 -0.049220394 -0.09262905 -0.24704713
0.02173534 -0.04557958 -0.029629642 -0.022788262 -0.02103774 -0.03695815 -0.08731229 -0.13393804
-0.09753201 -0.019882467 0.080279395 0.017015029 0.008574467 -0.04035393 0.055876635 -0.001128507
-0.26651952 -0.04214878 0.06107633 0.0847924 0.23148803 0.031370964 -0.0061935815 -0.04396946
0.10084062 0.060400654 -0.0009933196 0.09035703 0.03744963 -0.05379553 0.09845274 -0.076475404
-0.048818324 -0.02046399 0.049462546 -0.029240629 0.14842334 0.02382551 -0.07759055 -0.03166132
0.0381652 -0.043340396 -0.13662222 -0.067819834 -0.08199407 -0.08052159 -0.035067 -0.07592692
0.03421022 -0.10272385 -0.011910978 -0.07033989 -0.07899975 0.06715175 0.09359135 -0.08989223
0.11608097 0.03553089 -0.03275938 -0.04697973 0.15344472 0.21101834 -0.21393867 0.010125071
-0.034071986 0.10395067 0.016871529 -0.008317899 0.073854685 0.050048213 -0.08967963 -0.032649215
-0.04386384 0.10830276 0.18325163 -0.010343168 -0.058608368 -0.025983177 0.01657027 0.092369854
0.057971664 -0.056555327 -0.023869473 -0.013335432 -0.101313606 -0.10769038 0.02068914 0.002401594
-0.038762435 0.06280811 -0.054079495 -0.037760623 -0.07615533 -0.060213447 0.060312044 -0.14718194
0.054270707 0.04082857 0.031921692 0.16839072 -0.13419352 -0.0046825046 0.15273872 0.054892335
-0.056477316 0.009162536 -0.095921926 -0.070294276 0.010176392 -0.019504886 -0.01578661 0.03413584
0.0024100053 -0.007626821 0.053462166 -0.07162381 -0.008329419 -0.10374879 -0.0114992 -0.10140099
-0.034465704 0.034041155 -0.18381873 0.0608915 0.15871117 0.016745286 -0.05037769 0.05973214
-0.0050447546 0.018348362 -0.14167853 -0.15888686 0.061929543 -0.021248775 0.17022733 -0.008852785
0.13558635 0.003420714 -0.11196997 0.04830787 0.008322021 0.1767187 -0.0051812017 -0.039885487
-0.09920673 -0.060059287 0.14527412 -0.055593394 -0.12074135 -0.10179516 -0.006556461 0.0394655
-0.10431439 -0.109718814 0.0816931 -0.034993317 0.0038900187 -0.11931163 -0.06280685 -0.10683725
00000000: e9e8 5c3d 2c38 89bd da5e 25be 6e91 23bd
00000010: f8e5 b6bd cd64 a33c dc8a 01bc 2def a73d
00000020: 1ddb 3a3d 702f 01be 1929 143d e780 dfbc
00000030: 228f 923d 8a9b 3a3c 2bf5 c8bd df16 74bd
00000040: 62dd 913c 3686 1ebe 7226 a3bc c984 cabc
00000050: ac23 203b 9b05 373d b9cc d3bc 70c1 dbbd
00000060: 3311 85bd 4778 f1bd 3f1c bebd 6fe7 993d
00000070: aa24 87be f3be f03d 423b 71ba 109e 823d
00000080: f7b5 bbbc ec1d 923e d525 9f3c aa58 d4bc
00000090: 6532 d9bb d5fb e83d aa9f a2bd ed01 e9bc
000000a0: 23dd b43d 91a6 cd3c 180b 823d fd77 673c
000000b0: 4afb 92bd 1731 00bc 7055 3dbe 876b 03bd
000000c0: 2aef f0bd b2a5 ce3c 37e5 02be f09f a73c
000000d0: f5c2 8ebd 0c4a bd3b 122e 32bd aa94 243d
000000e0: ae12 03be 8c08 11bc c8f3 c63d 886f de3d
000000f0: a0b2 8d3d da50 8f3e edd7 23bd 93da 0bbd
00000100: af66 413d a532 5f3d e45c 803c e3ba 4b3e
00000110: f378 233d 5370 adbd eee3 3b3e 52c0 16bd
00000120: 9e39 a93d 90f6 47bd 9baf 99bd 7557 6d3d
00000130: f3e2 a6bb 1270 5fbd 34fb 953b 5f16 33bd
00000140: 6e40 8a3c 6faa 06bd fb8f 903c cc8d d2bd
00000150: 1dc6 b93d 99e7 85bc b205 fbbc 1cae d13c
00000160: 2a54 dc3c 877c 60be d17f 8ebd a790 b83d
00000170: c816 7b3d 539b 49bd 4db4 bdbd ecf9 7cbe
00000180: 500e b23c a7b1 3abd ddb9 f2bc 73ae babc
00000190: 5757 acbc 6e61 17bd c9d0 b2bd 0e27 09be
000001a0: ddbe c7bd 8ee0 a2bc 8669 a43d 1a63 8b3c
000001b0: ec7b 0c3c 2a4a 25bd e6de 643d 69ea 93ba
000001c0: 3f75 88be 33a4 2cbd 2c2b 7a3d a3a7 ad3d
000001d0: 330b 6d3e d77e 003d 87f3 cabb 5219 34bd
000001e0: 8785 ce3d ad66 773d 4632 82ba 1b0d b93d
000001f0: c964 193d b458 5cbd 97a1 c93d 239f 9cbd
00000200: b9f5 47bd 19a4 a7bc 3d99 4a3d 0b8a efbc
00000210: 4afc 173e b72d c33c cbe7 9ebd 4daf 01bd
00000220: 1d53 1c3d b385 31bd b2e6 0bbe 20e5 8abd
00000230: 82ec a7bd 81e8 a4bd 6aa2 0fbd 937f 9bbd
00000240: 0420 0c3d e260 d2bd 4326 43bc 5c0e 90bd
00000250: 9fca a1bd db86 893d d2ac bf3d 6b19 b8bd
00000260: dcbb ed3d d788 113d b32e 06bd d16d 40bd
00000270: 9d20 1d3e 3115 583e bd12 5bbe a0e3 253c
00000280: 118f 0bbd 17e4 d43d 2936 8a3c cc47 08bc
00000290: 2041 973d 5bff 4c3d f4a9 b7bd 2fbb 05bd
000002a0: 92aa 33bd d6cd dd3d 51a6 3b3e 6476 29bc
000002b0: 540f 70bd acda d4bc 60be 873c 682c bd3d
000002c0: b273 6d3d 8fa6 67bd ea89 c3bc db7c 5abc
000002d0: 827d cfbd c68c dcbd 457c a93c 1064 1d3b
000002e0: 5cc5 1ebd 8aa1 803d 7682 5dbd e2aa 1abd
000002f0: 53f7 9bbd 60a2 76bd c309 773d ddb6 16be
00000300: f64a 5e3d dc3b 273d 52c0 023d 9e6e 2c3e
00000310: 076a 09be b26f 99bb 8a67 1c3e c9d6 603d
00000320: c254 67bd 761e 163c b772 c4bd 72f6 8fbd
00000330: e2ba 263c b6c8 9fbc ec52 81bc 06d2 0b3d
00000340: 2ef1 1d3b 69ea f9bb 25fb 5a3d 81af 92bd
00000350: 1e78 08bc 3f7a d4bd 2467 3cbc 52ab cfbd
00000360: e92b 0dbd bd6e 0b3d fa3a 3cbe 5e69 793d
00000370: 2e85 223e 692d 893c d658 4ebd b0a9 743d
00000380: 784e a5bb 4e4f 963c 2d14 11be 3db3 22be
00000390: d5a9 7d3d e911 aebc 1350 2e3e 460b 11bc
000003a0: 26d7 0a3e 0f2e 603b 8350 e5bd 79de 453d
000003b0: 1659 083c bff5 343e 12c7 a9bb f75e 23bd
000003c0: e62c cbbd ba00 76bd bdc2 143e e6b5 63bd
000003d0: 3e47 f7bd fb79 d0bd 95d7 d6bb 93a6 213d
000003e0: c8a2 d5bd 42b4 e0bd b64e a73d 2755 0fbd
000003f0: afef 7e3b a859 f4bd e1a0 80bd 7dcd dabd

action_model._discrete_distribution.branches.0.weight f4 [7, 256]
-0.11462077 -0.029404756 -0.11836053 -0.08320259 0.078159384 -0.25883925 0.0289331 -0.16802531
-0.08932653 -0.042186793 -0.1672819 0.014360571 -0.16999722 -0.18127847 0.06463534 0.06261188
0.05187047 -0.1008895 -0.06914684 -0.06711084 -0.25187844 0.03873553 -0.12847377 -0.082736686
-0.016183112 0.058022168 0.0898615 -0.32095385 0.19268073 -0.45122346 0.027986763 0.22519766
-0.055861477 -0.39383775 0.14381336 -0.29621974 0.09225941 -0.08200832 0.09428887 -0.16208957
0.13044554 0.06963466 0.22496782 0.12921612 -0.03838191 -0.04137003 0.020040726 0.16621217
-0.16031915 0.00938962 0.27855647 0.04947443 -0.008235675 0.12700878 0.18259557 0.08157632
0.16873805 0.04920092 -0.121509016 0.073120244 -0.3212104 -0.35585433 0.08461694 0.17308284
0.001945649 -0.04348114 0.09107112 -0.32890475 0.18933667 0.034141738 -0.43564227 -0.075035214
-0.19214922 0.1728308 -0.067339055 -0.29115686 -0.17499581 -0.002068923 -0.18074518 0.08176395
-0.13997295 -0.02700133 -0.14466982 0.066993706 0.03926884 0.090451606 -0.3044523 -0.42189404
-0.115144484 0.13581996 -0.021144023 -0.2898639 0.06705659 -0.11101886 0.22637914 0.14932427
0.08799018 0.11548599 -0.17042316 0.10676552 0.13809572 -0.040586263 0.10898705 0.28233364
0.10900172 0.014807298 -0.1603947 0.3070629 -0.059862703 0.18783939 -0.0020126542 -0.027166773
0.16669513 -0.0607839 0.16844904 -0.29994366 -0.42110053 0.048026185 -0.15017264 0.07024953
-0.19044077 -0.148506 -0.0251247 -0.18345253 -0.081148 -0.027129099 -0.16259551 0.2096453
0.028717909 -0.19743569 0.20832874 0.13454199 -0.22229832 -0.052727856 0.07119062 -0.04703351
0.040020004 0.1596337 0.12245746 -0.18033315 -0.06534903 -0.14668922 -0.023534665 0.03840864
-0.31265482 0.05452848 -0.1304295 0.063595295 0.04464962 0.13317935 -0.12666507 -0.06781572
-0.055014685 0.0015719923 0.032414485 0.02268054 -0.18828072 -0.36369714 0.24335489 0.070937425
-0.010820437 -0.023050299 0.07209192 0.3008179 0.044834096 -0.101754405 -0.03070878 -0.19986929
0.02026791 -0.33056223 -0.42389408 0.021658998 -0.06222741 -0.15842187 -0.10346813 -0.14778201
-0.28805277 0.0049377913 -0.10374263 0.054031096 -0.059657153 -0.01321877 0.021233348 -0.1427013
-0.08701373 0.0028633296 0.021121968 0.043023985 -0.0519732 0.08026816 -0.060295712 -0.041330766
-0.13375364 -0.0179177 0.06512042 -0.31811213 -0.03164926 -0.17235324 -0.15612637 -0.12674128
-0.20300373 -0.23956126 0.14739321 0.06825139 0.25797942 -0.2354323 -0.049738366 -0.1818438
-0.010728786 -0.026516171 0.25408882 -0.10738442 0.12935449 0.018248321 0.042118307 -0.01242049
-0.0049052625 0.038081665 0.10381242 -0.056477934 -0.2998332 -0.12903476 0.16383877 -0.109325714
0.10471645 0.09414744 -0.22012204 0.0741405 0.046174977 -0.06419421 -0.2590708 -0.1485171
-0.3757508 0.038722247 0.100000255 0.055244908 -0.021455066 -0.28765798 -0.1744808 0.072859704
0.24323498 0.08735959 -0.30477542 -0.110200435 -0.09264831 -0.17634647 0.041148797 -0.15512128
0.19084005 -0.07616963 -0.3930356 -0.011440288 -0.046355642 0.042130787 -0.23516068 0.04704998
00000000: 4bbe eabd 3ee2 f0bc 0167 f2bd 1f66 aabd
00000010: 0712 a03d 9486 84be 1c05 ed3c d40e 2cbe
00000020: d4f0 b6bd 0fcc 2cbd f24b 2bbe 9a48 6b3c
00000030: c013 2ebe 10a1 39be 885f 843d a83a 803d
00000040: 2176 543d 279f cebd dc9c 8dbd 6871 89bd
00000050: 36f6 80be 26a9 1e3d a18e 03be da71 a9bd
00000060: 7292 84bc a7a8 6d3d 4e09 b83d 1054 a4be
00000070: 194e 453e c306 e7be 7f44 e53c 379a 663e
00000080: 01cf 64bd 1aa5 c9be cf43 133e 1daa 97be
00000090: 80f2 bc3d faf3 a7bd 861a c13d cffa 25be
000000a0: 8493 053e 9e9c 8e3d f75d 663e 3b51 043e
000000b0: 5a36 1dbd 9f73 29bd 732c a43c 8633 2a3e
000000c0: b42a 24be ecd6 193c f49e 8e3e b3a5 4a3d
000000d0: edee 06bc 970e 023e 55fa 3a3e 7c11 a73d
000000e0: abc9 2c3e e786 493d b8d9 f8bd 11c0 953d
000000f0: b175 a4be 8a32 b6be a54b ad3d a13c 313e
00000100: 2605 ff3a 4819 32bd 7f83 ba3d 3466 a8be
00000110: 79e1 413e 35d8 0b3d 810c dfbe 10ac 99bd
00000120: c4c2 44be 8ffa 303e 0fe9 89bd 8312 95be
00000130: 1a32 33be c596 07bb 4415 39be dc73 a73d
00000140: 1255 0fbe e531 ddbc 5324 14be ff33 893d
00000150: 5dd8 203d b13e b93d 2ce1 9bbe 7f02 d8be
00000160: dfd0 ebbd 6314 0b3e 3b36 adbc 0b69 94be
00000170: f754 893d db5d e3bd efcf 673e 76e8 183e
00000180: 3234 b43d eb83 ec3d 6983 2ebe e2a7 da3d
00000190: f768 0d3e c83d 26bd 9a34 df3d 098e 903e
000001a0: 4b3c df3d 4f9a 723c 823e 24be 5937 9d3e
000001b0: 9832 75bd f858 403e bce6 03bb da8c debc
000001c0: 21b2 2a3e 8af8 78bd e87d 2c3e 3792 99be
000001d0: 7d9a d7be 1bb7 443d dbc6 19be fcde 8f3d
000001e0: e802 43be f511 18be 51d2 cdbc fbda 3bbe
000001f0: ec30 a6bd d83d debc 707f 26be 42ad 563e
00000200: d241 eb3c 952c 4abe 2154 553e 60c5 093e
00000210: 2ca2 63be 2af9 57bd 63cc 913d 36a6 40bd
00000220: 04ec 233d 0477 233e faca fa3d 41a9 38be
00000230: b6d5 85bd b335 16be c5cb c0bc 6152 1d3d
00000240: 4b14 a0be 4159 5f3d 508f 05be 403e 823d
00000250: 85e2 363d 2b60 083e 7db4 01be f8e2 8abd
00000260: 1457 61bd 4f0b ce3a 0dc5 043d 8acc b93c
00000270: a9cc 40be 8336 babe 0632 793e a447 913d
00000280: 3448 31bc fbd3 bcbc eea4 933d ce04 9a3e
00000290: f5a3 373d 9d64 d0bd fb90 fbbc 89aa 4cbe
000002a0: e308 a63c 743f a9be a508 d9be 366e b13c
000002b0: 2be2 7ebd 5839 22be 19e7 d3bd 2b54 17be
000002c0: a77b 93be 32cd a13b 0477 d4bd b64f 5d3d
000002d0: 0f5b 74bd 8a93 58bc 8ff1 ad3c 4a20 12be
000002e0: 4134 b2bd b3a6 3b3b fa07 ad3c eb39 303d
000002f0: dae1 54bd a263 a43d a3f8 76bd 734a 29bd
00000300: b7f6 08be 24c8 92bc db5d 853d 98df a2be
00000310: a8a2 01bd 5e7d 30be 97df 1fbe 77c8 01be
00000320: 36e0 4fbe 8c4f 75be 3fee 163e 62c7 8b3d
00000330: e115 843e 2a15 71be 75ba 4bbd 4335 3abe
00000340: cac7 2fbc 7138 d9bc ee17 823e 5dec dbbd
00000350: 8175 043e 817d 953c 3f84 2c3d 507f 4bbc
00000360: 53bc a0bb 85fb 1b3d 9b9b d43d 6855 67bd
00000370: bd83 99be b021 04be 5ac5 273e 29e6 dfbd
00000380: 9475 d63d 5fd0 c03d ac67 61be f9d6 973d
00000390: f921 3d3d 4178 83bd eea4 84be de14 18be
000003a0: 6962 c0be 389b 1e3d efcc cc3d 7c48 623d
000003b0: 89c2 afbc e847 93be 18ab 32be 7837 953d
000003c0: 9712 793e 96e9 b23d 860b 9cbe c4b0 e1bd
000003d0: 66be bdbd 2b94 34be a48b 283d 1dd8 1ebe
000003e0: 936b 433e d3fe 9bbd f63b c9be 0c70 3bbc
000003f0: 6adf 3dbd 5591 2c3d f6cd 70be 7bb7 403d

action_model._discrete_distribution.branches.0.bias f4 [7]
-0.27724138 0.02704273 -0.16048476 0.0019201485 0.051229745 0.11335407 0.022420341
00000000: 95f2 8dbe b788 dd3c 1e56 24be 7ead fb3a
00000010: 48d6 513d 2e26 e83d ddaa b73c
