results/puzzle_experiment_3/PuzzleBehavior/PuzzleBehavior-30999936.onnx (onnx, 342923 bytes, 6 tensors)

network_body._body_endoder.seq_layers.0.weight f4 [256, 65]
000000 13 f8 1a bf 3a f0 48 3d 9c f2 d1 be e6 51 82 be
       -0.6053478 0.049057223 -0.4100541 -0.2545311
000010 97 07 73 3a d1 38 5e bb 6b 59 18 3e 34 c1 e3 bd
       0.00092708453 -0.0033908377 0.1487786 -0.11120835
000020 cc 04 9b 3e 13 89 5d bf d2 9e bd bd db b7 9f 3b
       0.30277097 -0.86537284 -0.09258808 0.004874212
000030 69 50 60 3e ad ce 0e 3e e9 84 ae 3d 56 d2 64 3c
       0.21905674 0.13946028 0.08521444 0.013966164
000040 cb 9a ab be 4d 84 62 3d 2e c2 f8 bd e2 e1 2f 3e
       -0.33516535 0.055301953 -0.12146412 0.17176011
000050 f0 de c1 bd b2 f1 18 3e fd 5e 07 3d d7 e2 29 bd
       -0.0946635 0.1493595 0.033049572 -0.041476097
000060 01 82 2f 3a cd 67 1b ba f2 9e 8e bd 80 55 a6 be
       0.00066950923 -0.0005928248 -0.0696391 -0.32487106
000070 56 1d 4f 3e aa 93 36 be 33 df 5f be 56 7d 57 3e
       0.20226035 -0.17829767 -0.21862487 0.21043906
000080 0a c3 3c 3e a8 e9 2e 3d 1e d6 15 be 26 43 3d be
       0.18433776 0.0427033 -0.1463246 -0.18482646
000090 2a 9a 86 be 10 9f 85 3c 3f 78 46 3e 1b 18 f4 bd
       -0.26289493 0.016311198 0.19381808 -0.1191866
0000a0 88 61 18 3d 30 82 fb 3c 09 82 48 3e 43 34 cd be
       0.037202388 0.030701727 0.19580854 -0.40078935
0000b0 de 88 a1 bc 82 08 52 be 9f 1e 44 bd b1 3f 40 3e
       -0.019718584 -0.20511058 -0.047880765 0.18774296
0000c0 a3 56 02 3e f6 d5 88 bd cf 85 f9 bd 2f 5e de 3c
       0.12728362 -0.06681435 -0.12183725 0.02714452
0000d0 3d c9 44 be 6c b1 9e bd 36 89 20 3d 4a f3 57 bc
       -0.19217391 -0.07748684 0.039193355 -0.013180563
0000e0 a1 b5 28 3e e6 da ef 3c 27 ea e2 bd 30 02 0b 3e
       0.16475536 0.029279184 -0.11079817 0.13575053
0000f0 59 7d 98 bd 40 5d 87 be 9b bc f4 be 53 ef a6 3d
       -0.07445783 -0.26438332 -0.47800145 0.08151116
000100 61 50 dd 3d 2e 10 54 bf 90 d6 b6 3d c9 3e 8a be
       0.10806347 -0.8283719 0.08927643 -0.27001026
000110 8e ac cb 3d 8a a0 5d be c0 a5 16 3d c5 b6 23 3e
       0.099450216 -0.21643272 0.036779165 0.1598769
000120 72 7d d7 3d 8c a2 d6 3e 8d 4c 01 bf ec 0b 9b 3c
       0.10521974 0.41920888 -0.5050743 0.018926583
000130 bc 85 8c 3e 6e 26 82 be ae b2 1a 3e 09 c4 3d be
       0.2744578 -0.25419945 0.15107223 -0.18531813
000140 83 fa d9 3d fb 0d b9 bd 13 ca 34 3e fd 49 1c be
       0.106434844 -0.0903587 0.1765521 -0.152626
000150 ab b8 12 3e 20 6b 2c 3e 10 d1 17 be 2c 90 2e 3e
       0.14328258 0.1683774 -0.14825845 0.17047185
000160 9f 13 bd bd 72 d8 b4 3e 93 47 70 be 8c 8a a8 3e
       -0.09232258 0.35321385 -0.23464803 0.32918203
000170 85 6b 29 3e 7b 2f 90 bd a6 ca 55 be 4f c7 c0 bd
       0.16544922 -0.07040306 -0.20878085 -0.09413015
000180 08 16 f0 3d 84 7e ce 3d 54 fc 29 3e 4f 47 df bd
       0.11722952 0.10082725 0.16600162 -0.10902273
000190 2d d3 a9 bd 32 cd bd be 91 f9 2a 3e 5f dd ae b9
       -0.08292232 -0.37070614 0.16696765 -0.000333528
0001a0 a9 4a a8 be f9 ea 45 3d a4 77 54 be d4 e6 e3 3c
       -0.3286946 0.04831979 -0.20748764 0.027820028
0001b0 07 c6 26 bf 5f c0 1d 3d 92 01 98 bd e2 5a 82 3d
       -0.65145916 0.038513537 -0.074221745 0.06364991
0001c0 42 86 98 3d 44 66 6c 3e 57 64 32 bb e0 8a 40 3d
       0.07447483 0.23085886 -0.0027220452 0.04700744
0001d0 58 07 2c be 70 9d d4 bc 43 9f 8e bc 74 c3 03 bf
       -0.16799676 -0.025953978 -0.017409926 -0.5147011
0001e0 24 a1 44 3d 83 66 55 3d f1 5d e0 be 00 59 9b 3d
       0.04800524 0.052099716 -0.43821672 0.07585335
0001f0 b5 34 16 be 9d 0b 76 bd b1 d0 0e bd 5f 9f 3e bf
       -0.14668544 -0.06006967 -0.034866992 -0.7446193
000200 6e ee a9 bd 6c 62 3e bd c2 5d 99 3e 76 72 57 bd
       -0.0829743 -0.04648058 0.29954344 -0.052599393
000210 c7 25 49 3e 64 e2 0f be 66 5c cc 3d db 36 f2 bc
       0.19643317 -0.14051205 0.09978561 -0.029567173
000220 b1 81 a1 3d 30 47 d5 3d 47 c8 24 bd 1f 26 f1 3c
       0.07886065 0.104139686 -0.04023006 0.029437123
000230 14 a7 a9 bd 4a dd 19 be fb 72 8e 3e 8c f9 fd 3d
       -0.08283821 -0.15025821 0.27822098 0.12401113
000240 3a 08 b7 3d ec 77 f2 3d 38 65 6b 3e 37 a6 fd 3d
       0.08937116 0.118392795 0.2298783 0.123852186
000250 73 a6 75 bd e7 25 80 bd 5e 87 59 3e c4 99 c7 3e
       -0.05997319 -0.06257229 0.21243045 0.389845
000260 5d cf 13 be 27 de 4c 3e 71 47 75 be 68 73 81 bd
       -0.14434572 0.2000662 -0.23953034 -0.0632084
000270 39 23 3b bd 02 21 54 3e 4a bd a1 be 8a d0 2d be
       -0.045687888 0.20715716 -0.3158973 -0.16974083
000280 2c f3 55 be 5f ca c8 bc 05 e3 b8 bc cf 44 d3 3d
       -0.20893544 -0.02451056 -0.022569189 0.103158586
000290 3e c8 84 bd 45 ef db 3d 84 11 33 3e 67 cc c0 bd
       -0.06483506 0.107389964 0.1748715 -0.09413987
0002a0 8f aa 00 3e 23 27 02 3e f7 02 cb 3d 22 8e 94 bd
       0.12565063 0.12710242 0.09912675 -0.07253672
0002b0 35 4e ad be 51 04 75 be 39 da f4 bd 13 ae c6 3d
       -0.3384873 -0.23927428 -0.11955685 0.09701171
0002c0 54 5f 7e 3e 75 c7 5e be 4a 16 a4 be 43 de 23 3d
       0.24841052 -0.21755774 -0.32048255 0.040006887
0002d0 c3 bf 76 3d 9b a2 40 be e9 72 81 be a5 55 4d be
       0.060241472 -0.18812029 -0.25282982 -0.20052202
0002e0 cb 11 b6 3d 5d 2f 32 3e 67 cd a4 bd 7d 21 02 bf
       0.088901125 0.1740088 -0.0804699 -0.5083235
0002f0 a1 51 13 3d cd b9 5b bd 6a 67 e7 be 7a 73 a9 bd
       0.03596652 -0.05364399 -0.45196086 -0.082739785
000300 6b 72 fc be c8 ca 71 bd 34 2b 5c 3d 54 49 04 3c
       -0.49306044 -0.059031278 0.05375214 0.008074123
000310 b5 bc 67 3e 60 0f 97 3e 0f 34 11 bb 9f a7 04 be
       0.2263058 0.29503918 -0.0022156273 -0.12954567
000320 6d 15 48 bc 27 58 1a be 5b a4 46 bd aa bf c5 be
       -0.01221214 -0.1507269 -0.048496585 -0.3862279
000330 e5 aa 00 3e f6 9b 09 be b8 8f 55 3e 1a a4 fb bd
       0.12565191 -0.134384 0.20855606 -0.12287159
000340 f5 1b 82 bd e8 38 14 be ea c0 f7 bd 64 7c dc bd
       -0.06352989 -0.14474833 -0.12097342 -0.10765913
000350 80 d0 9d be 53 65 1a 3e 57 e0 af bc 4f 4e 1e 3e
       -0.30823135 0.15077715 -0.021469278 0.1545956
000360 46 2f ef be c9 c5 90 be 51 c4 88 3c ed d0 9a b8
       -0.46715754 -0.28275898 0.016695173 -7.382208e-05
000370 05 9b 2b 3e d4 44 af be da 49 1f be ec ca e7 bd
       0.16758354 -0.342322 -0.15555516 -0.11318001
000380 ed db f6 3e c4 f4 11 3d 2a 34 0a be 81 1d ad bd
       0.48214665 0.035633817 -0.13496462 -0.08452893
000390 c9 fa 49 be 7c 83 58 be 72 59 44 3d 94 a1 5f bd
       -0.19724573 -0.21143907 0.047936864 -0.054597452
0003a0 02 fd 95 3d dc da e9 bc a0 5b c3 3c 81 13 09 3d
       0.07323648 -0.028546743 0.023847401 0.033465866
0003b0 f2 e9 3b 3e 71 58 54 3b f9 d7 f6 3d d8 80 67 3e
       0.18350962 0.0032401348 0.12052912 0.22607744
0003c0 ea d6 dd bd 46 54 d4 bd eb 44 d2 3e bd e8 3b bd
       -0.10832007 -0.103676364 0.41068205 -0.045876253
0003d0 f1 dd 08 3d 19 65 0e bd d7 f5 51 3e 0d 8d 14 be
       0.033414785 -0.034764383 0.20503937 -0.14506932
0003e0 a2 33 c4 3d f9 ee a9 bc be cf 06 3e 4a f6 55 bc
       0.09580161 -0.020743834 0.13165185 -0.013059208
0003f0 49 bc 5a 3e a1 b3 6d bc 7c 17 b1 bd 01 58 67 3e
       0.21360888 -0.014508159 -0.086470574 0.22592165

network_body._body_endoder.seq_layers.0.bias f4 [256]
000000 88 1c a3 bb 5e fa b2 3a 77 25 49 bd f6 f0 06 3e
       -0.0049777664 0.0013654938 -0.049107995 0.13177857
000010 f4 a8 b6 bd 47 1d 14 3e ed 22 95 3d fa 94 a9 bc
       -0.08918944 0.14464293 0.07282052 -0.02070092
000020 09 72 03 3d 82 59 8b bc 35 29 64 3c b3 7c 05 3e
       0.032091174 -0.017010454 0.01392584 0.1303585
000030 c5 86 97 3c 5e 2a 11 3e 79 1d c5 bb 8d 30 76 be
       0.01849688 0.14176318 -0.0060154763 -0.24041958
000040 69 d5 82 3d a6 9c 00 3c 7b 6c b5 bd 61 7a b0 bb
       0.06388361 0.007849848 -0.08858582 -0.0053856825
000050 8e 02 5a bd 29 57 c4 3d fa 63 65 bd 4c cf 40 bd
       -0.053225093 0.09586937 -0.05600355 -0.047072694
000060 9f f7 00 bc db a7 6b 3d 5f c6 4d 3d 39 4c ef 3d
       -0.0078715375 0.057533126 0.05023801 0.1168446
000070 c3 a6 bb 3d e4 63 56 bd eb c2 f9 3d 56 d2 0a 3e
       0.09162667 -0.052341357 0.12195381 0.135568
000080 bc 86 6d bc ca 5d be bd 98 16 d8 3d 94 63 82 bc
       -0.014497455 -0.092952326 0.105511844 -0.015916623
000090 10 87 93 3c de 3c 30 3d f0 d6 d1 3c 22 74 95 bc
       0.018008739 0.043026797 0.025615185 -0.018243853
0000a0 08 d9 7f 3d c6 37 a8 3d 60 72 0f be a9 d5 dd 3c
       0.062462837 0.08213763 -0.14008474 0.02707942
0000b0 0b e1 3e 3c 02 4f 82 3d 15 e8 d6 bb cf 44 46 bd
       0.011650334 0.06362726 -0.006558428 -0.048405465
0000c0 1f b4 ff 3c 33 ea 0b 3d 75 a2 02 3d c0 32 5d bd
       0.031213818 0.034158897 0.031893212 -0.054003477
0000d0 20 df 68 bd 4e 18 9c 3d 50 3b 05 3e 2d d3 f0 bc
       -0.056853414 0.07621823 0.13010907 -0.029397571
0000e0 de e8 14 3e 23 00 5f 3d 5a d1 82 bc e1 c6 d2 3d
       0.14541957 0.05444349 -0.015968967 0.102918394
0000f0 99 83 c8 bd b7 38 f2 3d ea 8d 7c 3d 03 b6 e6 3d
       -0.09790725 0.11827224 0.061658777 0.11265185
000100 0f 36 b7 bd f2 f3 4a 3d 4b 2a 8d bd 0e ab de bd
       -0.08945858 0.04954905 -0.06892832 -0.1087247
000110 8b f6 e7 3d 79 4a e3 3c fa 4e ae bc 00 34 94 bd
       0.11326321 0.027745472 -0.021277893 -0.07236481
000120 bc b4 e8 bd 95 10 74 bc 5a 69 eb bd a4 e3 95 3d
       -0.11362597 -0.014896532 -0.114947036 0.0731881
000130 c6 f9 ea 3b dd eb 66 3c 0d cd dc bd bd f2 ba 3c
       0.0071708886 0.01409432 -0.10781298 0.022820825
000140 52 de c7 3d 67 1a eb 3b 73 50 a2 3d d6 bd 61 bd
       0.09759201 0.0071747783 0.07925501 -0.055112682
000150 56 50 9f bd e8 41 ca 3c 6e 06 b3 3d 1c 6a 55 bd
       -0.07778995 0.02468963 0.08741461 -0.052103147
000160 3e 32 b6 3d ad 5b 12 bc 86 3f 1d bd d3 28 06 3d
       0.08896302 -0.00893299 -0.03839066 0.032753777
000170 85 0b b6 bd 86 72 0d 3e 98 30 24 be 42 73 e9 3c
       -0.08888916 0.13813218 -0.16034162 0.028497342
000180 60 1d 85 bc eb 2b 46 3d 0a 79 c8 3d 6e 1a 71 3d
       -0.016249359 0.048381727 0.09788711 0.058863096
000190 11 c6 e6 3d 52 22 2b 3e 4f 6e 70 be a3 54 88 3d
       0.11268247 0.16712311 -0.2347958 0.06656768
0001a0 4b e6 3e 3d 82 95 42 be 8a 56 06 bc 6f 25 ca 3d
       0.046606343 -0.19002345 -0.008199343 0.09870421
0001b0 f5 bf 51 3c 31 39 80 3d ca 92 a0 3d 07 b8 4d bd
       0.012802114 0.062609084 0.07840498 -0.05022433
0001c0 7a 0e d1 3d eb 2c c7 3c dc 9e a7 3d 6d 95 06 3e
       0.10207839 0.02431341 0.08184597 0.13142939
0001d0 b7 e6 7b 3d eb df 16 3d a9 e1 64 bc 2b 9f de 3c
       0.061499324 0.03683464 -0.013969817 0.027175507
0001e0 5a a6 2d 3d a2 74 c6 b7 11 60 1a 3d 17 5b 42 3d
       0.042394973 -2.365775e-05 0.037689272 0.04745015
0001f0 17 97 81 3d 3e 42 0b 3d 1d d1 20 3e 83 6a 07 3d
       0.06327646 0.03399872 0.1570477 0.033060562
000200 c3 00 89 3c 38 e8 e0 3d f7 4a f0 bb 1c d1 38 3d
       0.016723996 0.10981792 -0.0073331553 0.045121297
000210 57 48 bb 3d d4 5b 33 3d b6 bd 29 bd 5a 26 af bc
       0.09144657 0.043788746 -0.041440688 -0.021380592
000220 f6 fe 75 be ea 39 22 bd d8 12 e1 bd 28 6a 33 3c
       -0.24023041 -0.039606012 -0.10989922 0.010950603
000230 b9 4a 9f 3b 3a ea e3 bb 0c de 07 be 18 96 a8 3d
       0.0048612026 -0.006955412 -0.13268298 0.08231753
000240 3a 96 e4 bd ec cc 87 3d 2b 93 91 3c db dc b7 bc
       -0.11161466 0.066308826 0.01777037 -0.02244418
000250 42 b2 f3 3c 8e b4 d4 3d 9c 2a ca 3a 92 77 63 bd
       0.029748086 0.103860006 0.0015424076 -0.055533953
000260 19 15 68 bc 95 ba 2d bd 7e 73 70 3d c2 be e7 3a
       -0.014165186 -0.042414267 0.058703892 0.0017680752
000270 ac 91 08 bd d6 7a 74 3d aa db db bc c0 46 a4 bc
       -0.03334205 0.059687458 -0.026838142 -0.020053267
000280 59 53 27 bb b8 85 b2 bc fc 0a 65 bd 04 f1 13 bd
       -0.0025531857 -0.021792278 -0.05591868 -0.036118522
000290 64 1b 09 bb 1e 58 5c bd bb ba 27 bc 54 c8 9a bc
       -0.0020920867 -0.053794973 -0.010237391 -0.018894352
0002a0 e0 30 97 3d 64 5d 04 3d 9f c2 b9 bb cd c9 de bd
       0.07382369 0.032315627 -0.0056689526 -0.10878334
0002b0 4f e0 07 be 88 14 32 3d 1e d6 7d 3d 16 6c 80 3d
       -0.1326916 0.04347661 0.061971776 0.06270616
0002c0 cc 1c af bc f6 10 5f 3d 7b 93 ed 3d c1 57 f2 3b
       -0.021376036 0.054459535 0.11600395 0.007395715
0002d0 8b 55 af 3c f3 34 d0 bd ec 2a 15 3e 98 e9 79 bc
       0.021403095 -0.10166349 0.14567155 -0.015253447
0002e0 1b 20 5e bd 74 1d 7d be 28 18 0b bd 88 fd 4a 3d
       -0.054229837 -0.24718267 -0.033958584 0.049558192
0002f0 74 f8 b7 bd d6 cb 63 3c c6 d1 fa 3c 8b 1b 06 be
       -0.089829355 0.013903579 0.030617606 -0.13096444
000300 2f 6c c0 3d 86 95 ac bd aa e0 05 bc ce 54 36 3d
       0.093956344 -0.08426957 -0.00817124 0.04451447
000310 41 b9 47 3c 21 91 b1 bc c9 ff 82 bc 08 cb 5e 3c
       0.012190164 -0.021675648 -0.015991108 0.013598211
000320 05 1c dd 3d 25 3f 06 3d d2 fa 1f 3c a0 4d 3c 3d
       0.1079636 0.032775063 0.00976439 0.045972466
000330 db 6c 80 3d d5 67 ca bd 90 13 bf 3d aa d3 14 bd
       0.062707625 -0.09883086 0.09329903 -0.03633467
000340 55 f1 a1 3d 68 0e 12 3e ba 30 b9 3d b3 c5 bd bd
       0.079073586 0.14263308 0.09042497 -0.09266224
000350 66 57 ca bc 30 7b 13 3d 97 fd 30 3e c2 bc 9a bd
       -0.024699878 0.036006153 0.17284237 -0.07555534
000360 ac 7e a0 3d a0 ab 9d 3d 80 00 53 3d 3a c7 10 3d
       0.07836661 0.076987505 0.05151415 0.035346247
000370 0f 66 24 bd 18 ad f7 bc 26 2c 04 3e 89 29 56 bd
       -0.040136393 -0.030233905 0.12907466 -0.052285705
000380 e5 c2 cd bb 90 ac 14 3d cd 81 ce 3d 5d 2b 9e 3d
       -0.0062793368 0.03629738 0.10083351 0.07723115
000390 c0 08 f0 bc 5b 5c 10 3d b6 8f 2b 3e 51 06 bb bc
       -0.029301047 0.035244327 0.1675404 -0.02283016
0003a0 32 5b 93 3d 18 71 18 bd 67 45 f8 3d e5 09 16 bd
       0.071951285 -0.03721723 0.121226124 -0.03663053
0003b0 e7 04 a3 3d 4d d6 a2 bd 81 83 13 3c 23 ba 9c bc
       0.079599194 -0.07951031 0.009003521 -0.019131726
0003c0 a9 1d e2 3c bf 1f 23 bd d7 35 97 3c 48 a8 45 3d
       0.027602034 -0.039825197 0.01845829 0.04825619
0003d0 c7 0c 53 3d 07 55 07 3d 22 e9 bd bd a5 7b 93 3d
       0.051525857 0.033040073 -0.09272982 0.07201318
0003e0 5c 6e c2 3d 35 0a c9 3d 40 26 c8 bc 8e bd 3f bd
       0.09493706 0.098164 -0.024432302 -0.046811633
0003f0 48 4e 91 3c 1a a8 d7 3c bf fd db bc 73 9a 05 bd
       0.017737523 0.026325274 -0.026854394 -0.032617997

network_body._body_endoder.seq_layers.2.weight f4 [256, 256]
000000 f8 ce e7 3c 6e b4 cc bd bb ea bf bd 6a 07 13 3e
       0.028296933 -0.09995352 -0.09370943 0.14358297
000010 b0 8c ec bd a7 b7 1b 3e 3c 5f 85 3c 00 a5 70 3e
       -0.115502715 0.15206777 0.016280763 0.23500443
000020 dc d6 87 3e 22 04 30 bd 59 e2 73 be eb 7f 42 bc
       0.26531112 -0.04297269 -0.23816814 -0.011871318
000030 e3 85 65 be 3c 41 51 be 98 49 b7 be 89 55 03 bd
       -0.22414355 -0.20435041 -0.35798335 -0.032063995
000040 96 97 6b 3e 64 f1 ba bd ef 78 09 bd f3 32 6d 3e
       0.23007044 -0.09128073 -0.033562597 0.23163967
000050 42 1e 80 be 36 92 f4 bd ab 30 c6 3c 9c 09 8c 3d
       -0.25023085 -0.1194195 0.024193129 0.0683777
000060 93 11 42 be 38 e3 f9 3d 43 cf a2 3b 9f cc 2e 3e
       -0.18952017 0.12201542 0.004968555 0.17070244
000070 02 7a 54 be 6c 45 88 bd 12 04 26 be a3 0f 93 3d
       -0.20749667 -0.06653866 -0.1621249 0.07180717
000080 79 6b 98 be ff fc dd 3d fa bf 64 be 60 96 e1 bd
       -0.29769495 0.10839271 -0.22338858 -0.1101501
000090 b1 62 95 be 14 0a cc be d9 a6 f7 3d b9 58 50 bd
       -0.29176858 -0.3985144 0.120923705 -0.050865863
0000a0 fb e8 1f 3e 87 47 78 be 38 52 ae 3d 4c f8 92 be
       0.15616219 -0.24246036 0.08511776 -0.2870506
0000b0 31 0f 1b bc b7 ae 97 be 73 87 2f be 57 b2 b8 bd
       -0.009464071 -0.29625484 -0.17141514 -0.090183906
0000c0 7f 2b d7 3d 4e f5 2f bd 63 56 5f bd 85 fb c3 bd
       0.10506343 -0.04295855 -0.054525744 -0.09569458
0000d0 ba e5 6f 3d 45 4e 9f 3c 1c 57 ba bd fe 44 7f be
       0.058568694 0.019446502 -0.09098646 -0.24928662
0000e0 28 72 78 3e e8 ec 0b 3d 0a 12 73 bd 50 f6 40 3e
       0.24262297 0.03416148 -0.059343375 0.18843961
0000f0 0c 1d 87 3e 41 19 04 bc 35 55 0d be 79 9f bd 3e
       0.26389349 -0.008062662 -0.13802035 0.3703573
000100 0d f4 71 be d9 a6 a4 be b7 53 f3 bd 8f 71 37 be
       -0.23628254 -0.32158545 -0.11881202 -0.17914413
000110 66 54 02 3e b0 9d 9f 3c a3 24 f3 3d a9 bb 62 be
       0.12727508 0.019484371 0.11872222 -0.22141899
000120 ca c1 1f be 70 7f 8f be 17 89 bb bc b4 be e0 bd
       -0.15601268 -0.28026915 -0.022892518 -0.10973874
000130 06 e3 5d 3e 7f 13 10 bd 2c 0a ad bd f5 0f 4e be
       0.21668634 -0.035174843 -0.08449206 -0.20123275
000140 ed 74 4f be 6f 39 d1 3c 4f ff 76 3d 79 9b 6b be
       -0.20259447 0.025540082 0.060302075 -0.23008527
000150 c0 ca 8e 3d 47 c7 64 be 56 eb 13 3e 5b db 2e 3e
       0.06972265 -0.22341643 0.14445242 0.17075865
000160 f8 da 6c be f4 e9 01 bd 2d d3 99 3d 85 ac 86 be
       -0.23130405 -0.031717256 0.07510982 -0.26303497
000170 b8 8f ab bc 20 cf 89 3e 9d 7d c7 bc 15 08 e3 be
       -0.020942554 0.26915836 -0.02435189 -0.44342104
000180 0d fa ab bd d1 da 25 3e c8 b2 38 3c 6d 70 b7 3d
       -0.08397303 0.16196753 0.0112730935 0.089569904
000190 8a cc fe 3d 08 ca bf bc 9a 18 fb 3d 08 a3 69 be
       0.124413565 -0.023411766 0.12260552 -0.22816098
0001a0 df a6 19 3e 40 7d ca bd f8 62 f9 3d df d8 df be
       0.15005063 -0.09887171 0.1217708 -0.43720147
0001b0 a8 00 8e be 0a 22 04 3e 8a e1 30 3e fd df af bd
       -0.27734876 0.1290361 0.17273536 -0.08587644
0001c0 b1 87 2f 3e 34 b4 99 be 2d d1 96 3e 43 60 50 3e
       0.17141606 -0.30020297 0.29456463 0.20349221
0001d0 b4 5b 30 3d 23 d0 64 be 02 47 8a be cc 56 9b bd
       0.043056205 -0.22345023 -0.270073 -0.075849146
0001e0 f0 9d 1a 3c da 34 0f bd 71 a9 9c be 8c cf 1d bd
       0.009437069 -0.034962513 -0.30598024 -0.03852801
0001f0 5f 74 aa 3d 21 02 f4 be 31 9c 29 3d 4d 11 37 be
       0.08322977 -0.47657874 0.04140872 -0.17877693
000200 85 2d ba 3d 46 da c2 3d a4 10 67 be 30 69 9c 3d
       0.090907134 0.095142886 -0.22564942 0.076372504
000210 2b ab dd 3d c2 16 52 3e fd 9f d5 bc d1 49 4f be
       0.10823663 0.20516494 -0.026077265 -0.20243002
000220 9f be 18 be 76 a6 7b be 62 ad be 3d 4d b2 f5 bd
       -0.14916466 -0.24575219 0.09310414 -0.11996899
000230 85 64 1c bd ae b2 82 bb 43 78 dd 3c 2f bb 0b 3f
       -0.0381818 -0.0039885854 0.027034884 0.54582494
000240 70 50 4c 3d 97 8f 74 be 6f 20 a1 bd 80 7c 96 be
       0.0498814 -0.238829 -0.07867514 -0.2939186
000250 ab c7 14 be c4 52 58 be d6 e0 81 3e 99 ab fb 3d
       -0.14529292 -0.21125323 0.2536685 0.12288589
000260 75 98 ca 3d 5c e4 81 be c2 10 b7 3e 9b 6a 83 3d
       0.0989236 -0.25369537 0.35754973 0.06416818
000270 6a f6 4d 3d 5f 15 4d 3e f6 5b c5 3d a5 04 2d 3e
       0.050283827 0.20027684 0.09636681 0.16896303
000280 e0 36 07 3d 1b 97 55 be 80 54 a5 3d fc cd 89 3e
       0.033011317 -0.20858423 0.08072758 0.26914966
000290 cd c9 04 3e 68 6e 3d bd ec b9 2e be f5 43 1a be
       0.12967606 -0.04624787 -0.17063111 -0.15064986
0002a0 d4 25 84 3d c6 0a 06 be 3e 5f 20 be f8 14 2d 3e
       0.06452528 -0.13090047 -0.15661332 0.1690253
0002b0 4c aa 9d be bd 35 a5 3d eb d2 18 3e 99 74 c0 bd
       -0.3079399 0.080668904 0.14924209 -0.09397239
0002c0 8a 67 1b be 08 1d 50 3d a7 bd 32 be 08 0f 85 3e
       -0.15176216 0.050808936 -0.17455159 0.2598803
0002d0 cd 99 ae be 87 14 d2 3d fe a1 82 be 50 d4 7d 3e
       -0.34101716 0.102578215 -0.25514215 0.24788022
0002e0 66 8f 66 bd bf 98 28 bd 9c f5 72 be 46 d5 20 bd
       -0.0562891 -0.041161295 -0.23726505 -0.039265893
0002f0 2b e6 0a 3e c8 0b ab bd b0 34 f0 3e 40 9a 30 3e
       0.13564365 -0.083518565 0.46915197 0.17246342
000300 0c 56 e0 ba 01 de 34 3e 91 7f 30 3d 73 ab 69 3e
       -0.0017115488 0.17662813 0.043090407 0.22819309
000310 e4 24 b1 3d b1 3a 88 be 80 fb 2b bd e6 3e 57 be
       0.086496145 -0.26607278 -0.041987896 -0.21020088
000320 a6 73 37 3d 4f 45 26 3e f8 21 b2 bd e8 de 79 be
       0.044788025 0.16237377 -0.08697885 -0.24401438
000330 50 1e da be 91 e2 a5 be 4a 01 43 be 28 ac 7d 3d
       -0.42601252 -0.3239942 -0.1904346 0.06193176
000340 2b 74 0f 3e 1b 06 29 3e e2 b6 02 be 8f 2c 99 be
       0.14009158 0.16506235 -0.12765077 -0.29916808
000350 cf 8e 82 3c 8e 04 89 3e 43 c3 08 be 94 85 9f 3d
       0.015937237 0.26761287 -0.13355736 0.0778915
000360 c4 13 15 3e a6 84 e6 bd 47 9d f5 3d a2 41 7b be
       0.14558321 -0.112557694 0.11992889 -0.24536756
000370 18 ba 9b 3e 6e 85 97 3e 57 86 c1 3e cf b5 9b bd
       0.30415416 0.29593986 0.37797806 -0.076030366
000380 af 59 ad be e4 1b e6 3d 20 c6 18 be 42 9d 29 bd
       -0.33857486 0.112357885 -0.14919329 -0.04140974
000390 c0 36 3a 3e 7f a6 96 bd e8 75 86 3e c0 a8 9f be
       0.18184948 -0.07355975 0.2626183 -0.31183434
0003a0 f5 94 5e be 05 55 20 be 05 3e 68 bd 20 af 24 3e
       -0.2173651 -0.15657432 -0.05669977 0.1608243
0003b0 62 aa 64 3e b0 84 4e 3e a5 f7 81 3e 70 0f d7 bd
       0.22330621 0.20167804 0.2538425 -0.10500991
0003c0 12 ab a9 3d af a5 d9 bd 2b 89 95 be d5 ac 2f bc
       0.08284582 -0.10627305 -0.29206213 -0.010722359
0003d0 55 62 ad be c2 31 9d be 4d 6d f3 3d bd 1b 03 be
       -0.33864084 -0.30702025 0.11886082 -0.1280355
0003e0 e5 17 3c be c2 9a cc bd 0a 5e 7f be c1 a8 4e 3c
       -0.1836849 -0.09990455 -0.24938217 0.012613476
0003f0 d0 7b 58 3e be 86 3b 3e 40 17 ca bd d0 9c 11 be
       0.2114098 0.18313119 -0.09867716 -0.14219975

network_body._body_endoder.seq_layers.2.bias f4 [256]
000000 f7 a7 40 3d a3 e4 85 bd 4a 4a 2f be 2c 15 49 bd
       0.047035184 -0.065377496 -0.17118183 -0.049092457
000010 7e 63 af bd d8 29 96 3c 33 a9 9f bc 45 a5 a2 3d
       -0.085638985 0.0183305 -0.01948986 0.07941679
000020 5b 52 46 3d 0a 1e f5 bd 2e cf f6 3c 60 91 7e bc
       0.048418384 -0.1196862 0.030128088 -0.01553759
000030 91 28 8c 3d 09 9b 55 3a bc 74 01 be 3e 38 d7 bc
       0.06843675 0.0008148407 -0.12642187 -0.026271936
000040 41 13 ea 3c 26 5a 2c be 51 64 22 bc 3f 41 9e bc
       0.028573634 -0.16831264 -0.009911613 -0.019318221
000050 fc b8 31 bc f2 2e 2f 3d b3 a7 5a bc 6c 2b ea bd
       -0.010847326 0.04276938 -0.013345647 -0.11434063
000060 62 4e 89 bd f7 80 f2 bd 30 04 b5 bd 2c bc 81 3d
       -0.067044035 -0.11841004 -0.08838689 0.06334719
000070 b5 7f 82 be 48 97 d4 3d f9 f1 a7 3b bc 76 a1 3d
       -0.25488058 0.10380417 0.005125281 0.07883975
000080 75 8d b5 bc a9 ac 94 3e 25 cf ee 3c 8f ba 12 bc
       -0.022162179 0.2903798 0.029151509 -0.008955612
000090 0a 8e 1a bc 90 15 fa 3d 18 13 93 bd fc 24 00 bd
       -0.009433279 0.12211144 -0.07181376 -0.03128527
0000a0 96 b3 a8 3d 0f d0 b2 3c 86 57 6e 3d 49 a5 2f bc
       0.08237378 0.021827726 0.058188938 -0.010720559
0000b0 81 c4 85 bd 23 22 f0 3b 9e c3 30 be af f7 f3 bc
       -0.06531621 0.007328288 -0.17262122 -0.02978119
0000c0 d8 5e d4 bd 14 51 c5 3c 6a a2 00 be 9f 6d d3 3c
       -0.103696525 0.024086513 -0.12561956 0.025809107
0000d0 e9 72 8d bd 49 4c 80 3b 58 e4 50 bd 48 a8 5a 3d
       -0.06906683 0.003915344 -0.050999016 0.05338314
0000e0 65 14 f4 bd 4d fd a1 bc a9 30 c9 3d 92 cc e7 3d
       -0.119179524 -0.019774104 0.09823734 0.113183156
0000f0 e2 85 a3 3d e0 8c 98 3e 59 41 dc bc 0a df 71 bd
       0.079845205 0.2979498 -0.026886629 -0.059050597
000100 45 b3 28 3d 42 11 5e 3d 8f 10 60 3b 93 43 51 3e
       0.04118659 0.054215677 0.0034189557 0.20435934
000110 90 50 b7 3c b4 aa 9e bd 12 5d 3a 3e b4 42 2f bd
       0.022377282 -0.07747403 0.18199566 -0.042788222
000120 53 f4 b7 3d 6d 94 30 bd d9 70 b4 bd 56 b9 87 3d
       0.08982148 -0.0431103 -0.088105865 0.06627147
000130 55 fa 08 bc a7 33 96 bd 8b 97 53 3b 0e 40 66 bd
       -0.008360465 -0.07334071 0.0032286372 -0.05621343
000140 e2 ff fb 3c d9 d2 0b bd c5 33 0b 3d 7d e4 bf bd
       0.030761663 -0.034136627 0.03398492 -0.093697526
000150 95 77 bd 3d bb a1 df bc 59 c7 f3 bc 47 12 03 3d
       0.09251324 -0.027298799 -0.029758142 0.031999853
000160 ac 2a c0 3c 8d 0f 55 be 06 d8 9c bd c3 37 ba 3d
       0.023457848 -0.20806713 -0.07658391 0.09092667
000170 8b a3 73 3d e0 b3 88 bd cb 88 b1 bd 47 6c 76 be
       0.05948214 -0.066749334 -0.08668669 -0.24064742
000180 5c a3 c8 3c 90 d4 3b bd 93 5f 08 bd 80 24 da bc
       0.024491958 -0.045857012 -0.03329427 -0.026628733
000190 84 18 18 bd 01 89 05 bd 1c a7 7e bd d8 0e 0b be
       -0.037132755 -0.03260136 -0.062171087 -0.13579881
0001a0 07 9f c1 bd 5c a0 c9 bc 50 64 a2 3d 9d 32 b6 3c
       -0.0945416 -0.024612598 0.07929289 0.022240931
0001b0 79 8f 6c 3b f8 5c 2f bd 53 94 58 3d 09 70 a1 bb
       0.0036096259 -0.04281327 0.052875828 -0.0049266857
0001c0 49 da 86 be 43 8a 4a bd 8b 7a 88 3d 8b 02 a2 3d
       -0.26338413 -0.049448263 0.06663998 0.07910641
0001d0 ea e1 78 3e 01 14 96 3c df b9 1e bc 2a 3f 32 bd
       0.2430493 0.018320085 -0.00968787 -0.04351727
0001e0 0b be d4 3d 5c 1f 64 3d f7 95 53 3c e8 30 bc 3d
       0.1038781 0.05569397 0.012914172 0.091890156
0001f0 11 c4 19 3d 48 c3 a8 bd e7 95 d5 3d c2 c6 68 bd
       0.0375405 -0.08240372 0.10428982 -0.056830175
000200 2c c8 2c bd 99 21 cd bc 5e be 28 3d 3d b1 a0 bc
       -0.042183086 -0.025040435 0.041197173 -0.019615764
000210 0a d9 11 3e ec 6a 50 3b 86 99 9d bd ef 91 a7 bc
       0.1424295 0.0031802012 -0.07695298 -0.020455329
000220 01 22 1d 3d 83 52 6c bd a7 58 12 be 8d ed 97 bd
       0.038362507 -0.057695877 -0.1429163 -0.07418356
000230 45 d2 88 bd 04 bf c0 bd 7e 42 42 bd fe ac a2 bd
       -0.06680731 -0.09411433 -0.047426693 -0.07943152
000240 3b 28 0d 3d a9 c1 e0 bd f4 6b 4f bc c4 06 99 bd
       0.034462195 -0.10974438 -0.012660015 -0.074719936
000250 ca 4a a3 bd 4a ca 89 3d f4 5c c4 3d 99 62 c6 bd
       -0.07973249 0.06728037 0.09588042 -0.09686775
000260 5f b6 cc 3d 94 bc 23 3d 84 20 17 bd af b7 63 bd
       0.09995722 0.039974764 -0.036896244 -0.055595096
000270 b7 c6 0a 3e e2 68 60 3e 96 38 50 be 7d 51 70 3c
       0.13552366 0.2191501 -0.20334086 0.014667866
000280 32 ba e8 bc e1 6a b0 3d c0 32 3f 3c b4 aa cf bc
       -0.028409097 0.086141355 0.011669815 -0.025349952
000290 0e bd a5 3d 68 85 53 3d 51 b2 b0 bd d2 e0 90 bc
       0.080927 0.051640898 -0.08627761 -0.017685328
0002a0 be 2d 39 bd 4f 2d de 3d f7 6d 48 3e d8 99 86 bc
       -0.04520964 0.10848486 0.19573198 -0.01643078
0002b0 8e 48 07 bd 76 6f d2 bc 5a 64 b5 3c 85 98 c3 3d
       -0.033028178 -0.025687914 0.022142578 0.09550575
0002c0 29 94 a6 3d 92 f1 2b bd aa 33 e3 bc 43 78 78 bc
       0.08133728 -0.041978426 -0.027734596 -0.015165391
0002d0 e2 22 da bd 19 4d c5 bd bf 1a ba 3c bc 31 32 bb
       -0.106511846 -0.09633846 0.022717832 -0.0027190289
0002e0 db 09 24 bd 01 99 45 3d 36 99 86 bd e5 c8 27 bd
       -0.04004846 0.04824162 -0.065721914 -0.040963072
0002f0 0a 45 91 bd 16 00 79 bd 74 dc 6c 3d c8 96 0c be
       -0.07093246 -0.060791098 0.057827428 -0.13729393
000300 61 d5 4f 3d 37 76 cc 3c fc 08 f5 3c a3 96 39 3e
       0.050740603 0.024958713 0.02991151 0.1812387
000310 c7 86 07 be 14 a9 0a bc 7b 6b 16 3e 25 7a 5b 3d
       -0.13235007 -0.008463163 0.14689438 0.053583283
000320 5e a1 7c bd bb c6 91 3c ab 1f bb bd cd df 74 bd
       -0.06167733 0.017794957 -0.091368996 -0.059783746
000330 77 5d 9f 3c 35 80 43 bd e8 13 c2 bc b3 f9 3f 3d
       0.019453747 -0.04772969 -0.023691133 0.04686899
000340 d0 0c 0c bc 7e 2e c0 3b 99 28 33 3d 06 c4 3f bd
       -0.008547977 0.0058649173 0.04373989 -0.046817802
000350 54 c5 dd bb 9c 2e e1 bd e0 23 1c bc fc eb c8 bd
       -0.006767908 -0.10995218 -0.009530038 -0.098106354
000360 e6 81 28 bd 7f 33 55 3d 3d 6c 2e be db 12 92 3d
       -0.041139506 0.052051064 -0.17033477 0.07132503
000370 16 d4 17 3e b6 73 8f 3c 35 1c 58 bd 13 9f 4f 3d
       0.14826998 0.01751123 -0.052761275 0.050688814
000380 0c 22 b2 bc f8 cb 7a 3c 99 61 0a be 0e 53 20 be
       -0.02174475 0.015307419 -0.13513793 -0.15656683
000390 15 4a 2f 3d aa 0a 4e bc f8 c7 30 3e 61 4b 7a bc
       0.04279526 -0.012575785 0.17263782 -0.015276761
0003a0 8b e8 dd 3d bf 84 87 bb d7 47 de bd a1 39 50 3d
       0.1083537 -0.0041356976 -0.10853546 0.05083621
0003b0 35 33 c9 3b 8f ad 41 3e f3 88 0b 3c 52 41 28 bd
       0.0061401376 0.18913864 0.008516538 -0.04107792
0003c0 c8 6a cb bd bf 8c 65 bd 2e 23 1e 3e 7e 32 88 bd
       -0.09932476 -0.05604243 0.15443107 -0.066502556
0003d0 49 03 f2 bd 05 fb dc bd da 13 84 bc 52 fe 27 3d
       -0.11817033 -0.10790066 -0.016122747 0.041014023
0003e0 10 49 c7 bd a6 8a d4 bd ef 15 a8 3d 67 00 43 bd
       -0.097307324 -0.103780076 0.082073085 -0.047607806
0003f0 1a 42 4d 3b f7 1e 15 be a9 49 88 bd d4 b8 de bd
       0.0031319917 -0.14562593 -0.066546746 -0.10875097

action_model._discrete_distribution.branches.0.weight f4 [7, 256]
000000 c8 9d f6 bd 8b e9 05 bd 69 40 b7 bd 01 f4 81 bd
       -0.12041813 -0.032693427 -0.08947832 -0.06345368
000010 89 75 85 3d eb a4 86 be 30 2a 3c 3c cd 92 39 be
       0.06516559 -0.26297697 0.011484668 -0.18122406
000020 c7 ee c8 bd b7 ca d1 bc 65 38 30 be 7f bb 3c bb
       -0.09811168 -0.025609357 -0.17209013 -0.002879828
000030 9e ee 21 be c7 2b 3c be 7d fc 55 3d e6 a0 4a 3d
       -0.15813681 -0.18376075 0.052242745 0.04946985
000040 14 d0 05 3d e4 f2 87 bd e7 12 a5 bd c7 04 88 bd
       0.032669142 -0.066381246 -0.08060246 -0.06641536
000050 4e e5 91 be cd 5e 5c 3d 3c 1b 0e be a5 76 a6 bd
       -0.28495258 0.053801347 -0.13877577 -0.081280984
000060 a2 25 0b bd 46 06 26 3d e8 7b d1 3d b6 97 9e be
       -0.033971436 0.040533327 0.10228711 -0.3097512
000070 db 76 33 3e e1 0b dc be 3e 69 1e 3d 96 2f 66 3e
       0.17525809 -0.42977813 0.038674586 0.2247909
000080 49 ba 82 bd 5a 88 d0 be 87 1a e4 3d c3 b1 9b be
       -0.06383187 -0.40729028 0.11137872 -0.3040906
000090 ee fd a2 3d 4e 2a a4 bd 50 4a e0 3d fa 1b 08 be
       0.079585895 -0.080158815 0.10951674 -0.13291922
0000a0 a4 a6 05 3e e5 cc 82 3d dd c3 44 3e 62 2f c3 3d
       0.1305185 0.06386737 0.19215341 0.09530522
0000b0 2d 19 c3 bc 7e 55 35 bd 7a 9e 23 3c 02 f1 1a 3e
       -0.023815716 -0.044270985 0.009986514 0.15131
0000c0 59 13 0c be a2 cc ab bc f6 03 65 3e 88 15 5d 3a
       -0.13679256 -0.0209716 0.22364792 0.00084336894
0000d0 b2 be 66 ba 6a bf 00 3e 30 0b 3f 3e 1d 03 84 3d
       -0.00088022195 0.12573019 0.18656611 0.06445906
0000e0 0e 09 15 3e 59 93 5d 3d 60 8c ef bd b5 a2 80 3d
       0.14554235 0.0540956 -0.11696696 0.06281034
0000f0 46 d7 a6 be c4 53 ba be a1 6f 90 3d aa 11 28 3e
       -0.32586116 -0.36392033 0.070525415 0.16412988
000100 72 59 bf bb e7 a0 14 bd 70 5e ad 3d d3 f0 aa be
       -0.00583952 -0.03628626 0.08465278 -0.3338686
000110 be e6 3a 3e ec c1 0e 3d 4d 5e d7 be e2 8a bf bd
       0.18252084 0.034852907 -0.42064133 -0.09352662
000120 f9 1a 6a be cd 02 2f 3e b8 46 01 be 67 04 91 be
       -0.22861852 0.17090912 -0.12624633 -0.2832367
000130 0f d1 3e be 2c 1b 82 bc 75 e5 2a be d8 cd 58 3d
       -0.18634437 -0.015882097 -0.16689093 0.052930683
000140 40 d6 14 be a8 33 0a bd 82 2a 0c be 6e 7b 63 3d
       -0.14534855 -0.03374067 -0.1368809 0.055537634
000150 4f ee bb 3c 04 89 a3 3d 3c bd 9c be 53 51 c9 be
       0.022940783 0.07985118 -0.30613124 -0.39319858
000160 94 a0 04 be 0e 1a 02 3e 42 58 a5 bb 33 2b 8b be
       -0.1295188 0.12705252 -0.0050459215 -0.27181396
000170 34 0b 62 3d e7 98 d9 bd 3d 79 64 3e cb 86 0e 3e
       0.055186465 -0.10624867 0.22311874 0.13918607
000180 a1 25 c6 3d 02 0d 07 3e a1 f8 16 be 28 e3 dd 3d
       0.09675146 0.13188556 -0.14743282 0.10834342
000190 5d 6b 08 3e cf b2 93 bc fb 52 d2 3d a8 8a 59 3e
       0.13322206 -0.018029599 0.102697335 0.212443
0001a0 96 70 f0 3d 45 58 2c 3d 90 a5 10 be 3b 85 a3 3e
       0.11740224 0.042076368 -0.14125657 0.31937584
0001b0 bd 2e 53 bd e4 fe 3e 3e 38 e8 56 bc 84 9e 4c bd
       -0.051558245 0.1865192 -0.013116889 -0.04995586
0001c0 89 6b 2c 3e 75 25 bc bd 6b 66 21 3e 66 48 87 be
       0.16837896 -0.09186832 0.15761726 -0.26422423
0001d0 2e 13 dc be 4d 01 2a 3d 0c 79 0c be e0 dc 5e 3d
       -0.42983383 0.041505147 -0.1371805 0.05440986
0001e0 28 c1 2e be 86 28 25 be e5 49 1d bc 33 80 21 be
       -0.17065871 -0.1612874 -0.009600137 -0.1577156
0001f0 dd 88 bf bd 0c 2d ed 3c 46 61 2a be 77 e8 4b 3e
       -0.093522765 0.028952144 -0.1663867 0.19912897
000200 cb 8c ad 3c 28 44 51 be 7b 18 58 3e bc 9d b8 3d
       0.0211853 -0.20436156 0.21103089 0.090144604
000210 62 2b 7c be ae de cc bc 9f de 5c 3d ce 1b 4a bd
       -0.24625924 -0.025008526 0.053923246 -0.049342923
000220 56 24 f2 3c 8d 08 21 3e 13 71 15 3e 7d 39 27 be
       0.029558342 0.15725918 0.14593916 -0.16330524
000230 6b bc 39 bd 74 41 0e be 6b 59 18 bc a7 35 18 3d
       -0.045345705 -0.13892156 -0.009298663 0.03716054
000240 b7 19 9f be ec 0c 78 3d 06 23 f1 bd 85 8a 96 3d
       -0.31074306 0.0605592 -0.11774258 0.07350639
000250 39 72 10 3d d4 b5 02 3e 3f b7 fc bd ce a8 2e bd
       0.03526518 0.12764674 -0.12339639 -0.042641453
000260 60 f8 9d bd 2b db db bc e0 66 e2 3b ac 58 a1 3c
       -0.077133894 -0.026837906 0.0069092363 0.019695602
000270 30 e3 4b be 1d 98 b8 be 16 4b 7b 3e 92 ea 10 3d
       -0.19910884 -0.36053553 0.24540362 0.035379954
000280 a6 b8 93 bc 4d a7 87 bd a7 a2 6f 3d 9f b3 8a 3e
       -0.018032383 -0.06623707 0.058504727 0.27090165
000290 4c 24 22 3d ed ce b5 bd fe be 0e bb bb af 4e be
       0.039585397 -0.088773586 -0.002178132 -0.20184223
0002a0 e4 8d 07 3d 4f df 97 be ad 89 e0 be a9 e5 e7 3c
       0.0330943 -0.29662558 -0.43855038 0.028307753
0002b0 51 dc b2 bd dd bd 27 be 46 c6 ea bd 56 77 2d be
       -0.08733428 -0.16381021 -0.11463599 -0.16940054
0002c0 0f 7a 94 be 60 a7 77 bc 67 99 f2 bd 0f 23 12 3d
       -0.28999373 -0.015115589 -0.118456654 0.035677966
0002d0 14 2c 8d bd f4 aa 4c bd 70 97 50 3c e5 33 08 be
       -0.06893173 -0.04996772 0.012731418 -0.13301046
0002e0 66 19 81 bd 43 55 29 bc d3 bf da 3b 58 f3 f0 3c
       -0.063036725 -0.010335269 0.0066756993 0.02941291
0002f0 9f 34 aa bd d7 e0 a4 3d 51 c9 6a bd 51 0c b9 bc
       -0.08310818 0.08050697 -0.057320897 -0.02258888
000300 39 23 18 be 6a aa 81 bc 43 27 01 3d 22 9b b2 be
       -0.14857186 -0.01582833 0.031531584 -0.34883982
000310 83 9e 69 bc d1 e0 26 be bc 02 23 be 1f d1 18 be
       -0.014258984 -0.16296698 -0.15919012 -0.14923523
000320 fc cc 4c be 74 65 7e be 4d 0a 08 3e f1 32 4e 3d
       -0.2000007 -0.24843389 0.1328518 0.05034155
000330 bc 9f 90 3e 4b f3 4d be e4 8a 95 bd 77 d5 49 be
       0.28246868 -0.2011234 -0.07301882 -0.19710337
000340 bb d8 c1 bc 62 8e f2 bc d7 12 87 3e 7d 85 07 be
       -0.023662915 -0.029608909 0.2638156 -0.13234515
000350 b0 85 e6 3d 7f af d2 3c ab 4a c0 3c 88 aa d1 bc
       0.112559676 0.025718449 0.023473104 -0.025594011
000360 59 3e 16 3c ce 10 bc 3c 5f 44 d1 3d 14 90 1c bd
       0.009170138 0.022957232 0.10218119 -0.03822334
000370 6b b7 98 be b6 2f e7 bd 4a 09 1b 3e 22 2f bd bd
       -0.29827437 -0.11288397 0.15140262 -0.092375055
000380 c2 8b d6 3d 45 2d ac 3d 9d 53 41 be 7c 5b a5 3d
       0.104758754 0.08407072 -0.18879552 0.0807409
000390 73 74 31 3d af be 90 bd 5b 4a 8b be b7 78 30 be
       0.043323945 -0.0706762 -0.27205166 -0.17233549
0003a0 e8 c7 bc be 87 28 2b 3d dd 4a c8 3d f0 2b 25 3d
       -0.36871266 0.041786697 0.09779904 0.040325105
0003b0 0b 99 01 bd 77 bb 98 be e5 47 28 be 30 11 68 3d
       -0.031640094 -0.29830524 -0.16433676 0.056657016
0003c0 83 5d 40 3e d5 3c 99 3d b8 b0 9d be 12 b7 0f be
       0.18785672 0.07482306 -0.30798888 -0.1403468
0003d0 9d 58 da bd af 5c 28 be 86 8f 58 3d 41 c2 f5 bd
       -0.10661433 -0.16441606 0.05287125 -0.119999416
0003e0 b4 aa 3c 3e dc cb 88 bd a3 72 c9 be fd 6b 8d 3c
       0.18424493 -0.06679508 -0.39345273 0.017263407
0003f0 47 1c 93 bd 7b a9 12 3d 24 6d 52 be 90 9f 55 3d
       -0.07183128 0.03580616 -0.20549446 0.052154124

action_model._discrete_distribution.branches.0.bias f4 [7]
000000 47 04 90 be 3d 45 06 3d e4 6b 25 be 88 66 a0 bb
       -0.28128263 0.032780875 -0.16154438 -0.004895035
000010 89 c1 45 3d 34 4d e2 3d 07 cf f4 3c
       0.048280273 0.110498816 0.029883875
