results/puzzle_expirement_7/PuzzleBehavior/PuzzleBehavior-19499968.onnx (onnx, 342923 bytes, 6 tensors)

network_body._body_endoder.seq_layers.0.weight f4 [256, 65]
0	0x3e988931	0.2979217
1	0xbe39375e	-0.18087527
2	0x3cdeac48	0.02718176
3	0xbe82b595	-0.2552916
4	0x3da5a48d	0.08088026
5	0x3c8af29b	0.016961386
6	0x3e08dd11	0.1336558
7	0x3d98a039	0.07452435
8	0xbe1bd90e	-0.15219519
9	0xbea22672	-0.31669956
10	0x3dffb3c4	0.124854594
11	0x3d48a4e8	0.04898539
12	0x3e45b33b	0.19306652
13	0x3e22e546	0.15907773
14	0x3eaf0645	0.3418447
15	0xbe3de30c	-0.18543643
16	0xbe96bf16	-0.29442662
17	0x3ce2a5bf	0.027666925
18	0xbe425fc5	-0.18981846
19	0xbde32b4b	-0.11092242
20	0x3e128b3b	0.14310925
21	0xbe8d135e	-0.27553838
22	0x3d28512d	0.04109304
23	0x3dcd132f	0.100134246
24	0xbd4d2f84	-0.050094143
25	0x3cad1b8e	0.021131303
26	0x3cf030f9	0.029320227
27	0x3e506938	0.20352638
28	0xbd0d5e45	-0.03451373
29	0x3d4f636e	0.050631933
30	0x3e2967a7	0.16543446
31	0x3c3cafc9	0.01151652
32	0x3e318a34	0.17337877
33	0x3c9fb0c6	0.019493472
34	0x3da138ac	0.078721374
35	0xbd933611	-0.07188047
36	0xbe5ebbc9	-0.21751322
37	0x3bbd10e7	0.005769837
38	0xbde55984	-0.111987144
39	0x3dfae744	0.12251142
40	0x3d91b002	0.07113649
41	0xbe2fb9f7	-0.17160784
42	0xbe1cb9a9	-0.15305199
43	0x3d2db3e7	0.042407896
44	0x3ef3c958	0.4761455
45	0x3e232cc2	0.15935043
46	0x3e6c1462	0.2305465
47	0xbd2235d5	-0.03960212
48	0xbe95cea6	-0.29259223
49	0x3e2fe094	0.17175514
50	0x3c612c1d	0.013743428
51	0xbd266a39	-0.040628646
52	0x3d3cc4b3	0.046086024
53	0x3e291de0	0.16515303
54	0x3e309ef8	0.17248142
55	0x3d86551d	0.06559203
56	0x3df557f0	0.11979663
57	0x3def8475	0.11695186
58	0xbced7026	-0.02898414
59	0x3d9dccea	0.077051
60	0x3d1c2176	0.03811785
61	0xbe507076	-0.203554
62	0x3e90f84c	0.28314435
63	0x3dc53d21	0.096308
64	0xbce590f9	-0.02802323
65	0xbc8d7c50	-0.01727119
66	0xbdc8b7d8	-0.098006904
67	0xbd3d0643	-0.04614855
68	0xbee10d8c	-0.43955648
69	0xbde6de7f	-0.112729065
70	0xbda32d79	-0.079676576
71	0x3dce7690	0.10081208
72	0x3de4783c	0.111557454
73	0xbe58cb16	-0.21171221
74	0x3c442ec3	0.0119740395
75	0x3e73e45e	0.23817584
76	0x3e805b02	0.25069433
77	0xbe9cdbad	-0.3063635
78	0x3da22632	0.079174414
79	0xbd40e8bd	-0.047096957
80	0x3e005e6d	0.1253602
81	0x3e80e07a	0.25171262
82	0xbe3b0dd8	-0.18267
83	0x3dba1cde	0.09087537
84	0xbd13c8f5	-0.03608032
85	0x3e8d9969	0.27656105
86	0x3d78f4ed	0.060780454
87	0x3e2e704a	0.17035022
88	0x3d2ae41b	0.041721445
89	0x3dbb4d24	0.09145573
90	0x3ed92328	0.42409635
91	0x3e7734a1	0.2414117
92	0xbe2d37f3	-0.16915874
93	0x3da00a9c	0.078145236
94	0xbe3e766e	-0.18599865
95	0x3d7c1a20	0.061548352
96	0x3c914c7e	0.01773667
97	0x3d91cde3	0.07119348
98	0x3e030758	0.1279577
99	0x3ca3cf3f	0.019996284
100	0x3ead9340	0.33901405
101	0xbddff252	-0.10934891
102	0x3cb96522	0.022631232
103	0xbe0011ef	-0.12506841
104	0xbe907616	-0.28215092
105	0x3e5e07cc	0.21682662
106	0x3dd9b93a	0.10631032
107	0x3e20e3c9	0.15711893
108	0xbe7c6bda	-0.24650517
109	0xbdd30faf	-0.10305726
110	0x3e2542ca	0.1613876
111	0x3e141e39	0.14464654
112	0x3b4da517	0.0031378919
113	0xbe1a200d	-0.15051289
114	0xbd2633a5	-0.040576596
115	0x3c817ad5	0.015805641
116	0x3e578629	0.21047272
117	0xbc59d2f9	-0.013294929
118	0x3e36ca70	0.17850661
119	0x3d1a8f6b	0.03773443
120	0x3e0ff795	0.14059289
121	0xbe2f93e3	-0.17146258
122	0x3cf3d413	0.02976421
123	0x3b5333fa	0.0032227025
124	0xbd3aa023	-0.045562875
125	0xbd95ad19	-0.073084064
126	0x3d419333	0.04725952
127	0x3dda8ad2	0.10671009
128	0xbd9540ba	-0.07287736
129	0xbe378c24	-0.17924553
130	0x3dc50668	0.096203625
131	0xbe420d81	-0.18950464
132	0xbe0e8038	-0.13916099
133	0xbd50eda8	-0.051007897
134	0x3c9f9e8d	0.019484783
135	0xbe33a43d	-0.1754312
136	0xbcb766b4	-0.02238784
137	0xbe38f82b	-0.18063419
138	0x3e78e1f3	0.24304943
139	0x3d99abe2	0.07503487
140	0x3daadfa7	0.083434395
141	0xbe349b3b	-0.1763734
142	0xbd9693a6	-0.073523805
143	0x3eb7b9ba	0.35883886
144	0xbe0b25e1	-0.13588668
145	0xb9b87c9d	-0.0003518806
146	0x3e02f816	0.1278995
147	0x3e0de433	0.13856582
148	0x3def628d	0.11688719
149	0x3e279a20	0.16367388
150	0xbdae74f2	-0.08518399
151	0xbdc607f9	-0.096694894
152	0x3d6987a9	0.05701414
153	0xbe0b4aeb	-0.13602798
154	0x3e57e367	0.21082841
155	0x3da5fdb0	0.08105028
156	0xbe8f5ccc	-0.28000486
157	0x3ea3868a	0.31938583
158	0xbe6c672b	-0.2308623
159	0x3daac968	0.083391964
160	0x3d388202	0.04504586
161	0xbdbd29be	-0.09236477
162	0x3d69b243	0.05705477
163	0x3cd544e5	0.026033828
164	0x3e0394be	0.1284971
165	0x3e0bf550	0.13667798
166	0x3e3f7657	0.18697487
167	0xbd2fd557	-0.042928066
168	0x3cf96255	0.030442396
169	0xbd722b82	-0.059123524
170	0x3d05048e	0.032475047
171	0xbd983dd5	-0.074336685
172	0x3e02f5f4	0.12789136
173	0xbecf92b8	-0.40541625
174	0x3e716ec0	0.23577404
175	0x3e5b77b1	0.21432377
176	0xbe1979a4	-0.14987808
177	0x3eceb7d0	0.40374613
178	0x3c427607	0.01186896
179	0x3d2d8436	0.042362414
180	0xbddc749a	-0.107644275
181	0x3dd76b12	0.10518469
182	0x3e9930c6	0.29920024
183	0xbdd0dbd4	-0.10198179
184	0x3d99eafc	0.07515523
185	0x3e03a073	0.12854175
186	0xbd61bd5c	-0.055112228
187	0x3f11847f	0.568428
188	0x3d8ca1d6	0.06866805
189	0xbe634033	-0.22192459
190	0x3d893de3	0.06701257
191	0xbd5bf8ce	-0.053704076
192	0x3f090b14	0.5353253
193	0x3d49f47d	0.049305428
194	0xbe0d323a	-0.13788691
195	0x3d8ea1c3	0.06964447
196	0x3da41121	0.080110796
197	0x3dd28319	0.10278911
198	0xbdcc14f5	-0.09964935
199	0x3cff251a	0.031145621
200	0xbd61bcf5	-0.055111844
201	0x3e6d55df	0.23177288
202	0xbc252389	-0.010079273
203	0xbf045f15	-0.51707584
204	0x3d899485	0.06717781
205	0x3ea49112	0.3214193
206	0x3e79210c	0.24329013
207	0xbcdf942a	-0.02729233
208	0x3d8a7487	0.06760507
209	0xbe2f3857	-0.17111336
210	0xbd2a3a9d	-0.041559804
211	0x3e29e17a	0.16589919
212	0xbdba1554	-0.09086099
213	0x3dae56fc	0.08512685
214	0xbdd55998	-0.10417479
215	0xbd590a09	-0.052988086
216	0xbeb78fdb	-0.3585194
217	0x3d1dc485	0.038517494
218	0x3e8d8438	0.27639937
219	0x3e16caea	0.14725843
220	0x3e5ed654	0.21761447
221	0xbe4557b1	-0.19271733
222	0x3e23e8b5	0.1600674
223	0x3e12afed	0.14324923
224	0xbe2823a5	-0.16419847
225	0xbd428304	-0.047488227
226	0x3d3b6ba8	0.045756966
227	0x3cc15f58	0.023605034
228	0xbc47e8f8	-0.01220154
229	0x3c978ff2	0.018501256
230	0x3e0554e1	0.1302066
231	0x3df1105d	0.11770699
232	0xbdc12b1b	-0.0943205
233	0xbda0e899	-0.078568645
234	0x3dae9b9e	0.085257754
235	0xbdcef2f9	-0.10104937
236	0xbdb609a2	-0.08888556
237	0x3d181474	0.03712888
238	0x3e51fb25	0.2050596
239	0x3d9c36ab	0.076276146
240	0xbe2e4307	-0.17017756
241	0x3e0983b3	0.13429146
242	0x3e075ad4	0.13218242
243	0x3ea5afcd	0.32360688
244	0x3d9f1a70	0.077687144
245	0x3ddaa152	0.10675301
246	0xbc0b4ae6	-0.008501744
247	0xbdf7b031	-0.12094153
248	0x3ee8ac99	0.45444182
249	0xbe32c78b	-0.17458932
250	0x3e0930e2	0.13397554
251	0xbe0bb08d	-0.13641568
252	0x3dafb973	0.085802935
253	0x3da6aa8a	0.081379965
254	0x3dc0ccd9	0.094140716
255	0xbe002014	-0.12512237

network_body._body_endoder.seq_layers.0.bias f4 [256]
0	0x3d85dada	0.06535883
1	0x3d1a580d	0.037681628
2	0x3ccc06ae	0.024905529
3	0x3dc1a105	0.0945454
4	0xbd1e9a61	-0.038721446
5	0x3dbc8145	0.09204344
6	0x3dc1e0bc	0.09466693
7	0x3dda3e91	0.10656465
8	0x3ab99ec0	0.0014161691
9	0x3db38e7b	0.0876741
10	0x3d3189d6	0.04334434
11	0x3cc9a950	0.024616867
12	0x3dbd8498	0.09253806
13	0x3e0435c3	0.12911133
14	0x3d827bb2	0.06371249
15	0x3da40d8c	0.08010396
16	0xbc48bbe6	-0.01225183
17	0x3c49d711	0.012319342
18	0xbd04bfb1	-0.032409374
19	0x3d048e3e	0.032362215
20	0xbc2385c3	-0.009980622
21	0xbd54f013	-0.051986765
22	0x3d5ce63d	0.05393051
23	0x3dbbbf29	0.0916732
24	0x3df2a7ec	0.11848435
25	0x3e298ce3	0.1655765
26	0xbcc9e443	-0.024644976
27	0x3be2608a	0.006908481
28	0x3b4713bb	0.003037675
29	0x3dd2a4a3	0.10285308
30	0xbd64cad4	-0.055857494
31	0xbb2d80af	-0.0026474406
32	0xbd1eeaf2	-0.03879828
33	0x3dcc3ec5	0.0997291
34	0x3d977b58	0.07396573
35	0xbd7eb1ad	-0.062181164
36	0x3d20bf54	0.039244965
37	0x3de27518	0.1105749
38	0x3d7f1ff6	0.06228634
39	0x3e0f63f3	0.14002971
40	0x3d5c0e58	0.053724617
41	0x3da40d06	0.080102965
42	0x3d9dc54c	0.07703647
43	0x3d1df4be	0.038563482
44	0x3d96bd26	0.07360296
45	0xbc46589d	-0.012106088
46	0x3cf89fc2	0.030349616
47	0x3d9cfbcd	0.07665215
48	0x3dc2ab1c	0.09505293
49	0x3dc10d8a	0.094264105
50	0x3e03d83b	0.12875454
51	0x3d81a58a	0.06330402
52	0xbd8d1380	-0.06888485
53	0xbd399a9a	-0.045313455
54	0x3d3965e7	0.045263197
55	0x3cace43b	0.021104923
56	0x3d30f142	0.04319883
57	0x3dad9b8a	0.08476932
58	0xbcdad3d3	-0.026712334
59	0x3dc5e531	0.096628554
60	0x3dd8af66	0.105803296
61	0x3da053d1	0.07828487
62	0xbd50658a	-0.050878085
63	0x3d78fa15	0.06078537
64	0xbcb96be4	-0.022634454
65	0x3d509caf	0.050930675
66	0x3e00b6c0	0.12569714
67	0xbc88d5db	-0.016703537
68	0x3cf00720	0.029300272
69	0xbe0c37df	-0.13693188
70	0xbc99d1ab	-0.018776735
71	0x3dd9c8ec	0.10634026
72	0xbd811009	-0.063018866
73	0x3d15a80b	0.03653721
74	0x3d43c72c	0.047797367
75	0x3c7019a5	0.014654552
76	0x3d6cd8fc	0.05782412
77	0x3c019e52	0.007911282
78	0x3d2a469f	0.041571256
79	0x3cce9f0e	0.025222328
80	0x3cf1df0d	0.029525304
81	0xbd537a8d	-0.051630545
82	0xbd4232f2	-0.047411866
83	0x3d92fe63	0.07177427
84	0x3d7eaa6c	0.062174246
85	0x3c5a52a3	0.013325366
86	0x3d820667	0.063488774
87	0x3db526dc	0.088453025
88	0x3ab2c71b	0.001363966
89	0x3e03439f	0.12818764
90	0x3de92ea1	0.11385847
91	0xbc8e7ce1	-0.017393531
92	0x3dd7eabc	0.10542819
93	0x3c7048b3	0.01466577
94	0x3db5c5e3	0.088756345
95	0x3da5fdbc	0.081050366
96	0x3d4fa064	0.05069007
97	0xbd8d6d44	-0.069056064
98	0x3db94f30	0.09048307
99	0x3e0d1798	0.13778532
100	0x3b617286	0.0034400537
101	0xbc91506c	-0.017738543
102	0xbb2b4a17	-0.002613669
103	0xbd822729	-0.063551255
104	0x3b364b46	0.0027815863
105	0x3ca1ea5d	0.019765073
106	0x3d95f416	0.07321946
107	0x3e01361c	0.12618297
108	0x3d9e1430	0.07718694
109	0x3d4a447c	0.049381718
110	0x3e17dea1	0.1483102
111	0x3d6c6b42	0.057719477
112	0xbd57a902	-0.052651413
113	0x3d9160bd	0.070985295
114	0x3bc70b4a	0.006074344
115	0xbd497213	-0.049181055
116	0x3df8e4d0	0.121530175
117	0x3b9f3d66	0.004859614
118	0x3b93d452	0.0045113945
119	0xbd8ecc80	-0.06972599
120	0x3dba7f84	0.09106353
121	0x3cf89c9b	0.030348113
122	0xbc01df5e	-0.00792679
123	0xbbe24304	-0.0069049615
124	0xbd755cc0	-0.059902906
125	0xbdbcc17c	-0.09216592
126	0xbc2a735e	-0.010403482
127	0x3b8cbea8	0.004295189
128	0xbd086d27	-0.03330722
129	0x3d34150e	0.04396539
130	0xbc106b01	-0.008814574
131	0x3d9dfc8a	0.07714184
132	0xbd44b14a	-0.04802064
133	0x3dc8eec3	0.09811165
134	0x3de57eae	0.11205803
135	0x3c0172fc	0.00790095
136	0x3da77637	0.081768446
137	0xbd947e16	-0.072506115
138	0xbd0ec84a	-0.03485898
139	0x3e1b101e	0.15142867
140	0xbd37e08f	-0.04489189
141	0xbd3f3577	-0.046681847
142	0xbd87a3fc	-0.066230744
143	0x3e0af08d	0.13568325
144	0x3d807e9e	0.0627415
145	0x3d00df18	0.03146276
146	0xbd06d298	-0.03291568
147	0x3dbc523d	0.09195373
148	0xbd96cd05	-0.07363323
149	0xbccb4540	-0.024813294
150	0x3dd7d87c	0.10539338
151	0xbd85b357	-0.06528347
152	0x3d8489de	0.064716086
153	0x3d4661e0	0.048433185
154	0xbd6d07ba	-0.057868697
155	0x3d8e2e9c	0.06942484
156	0x3d8bc40f	0.068245046
157	0x3e04adf8	0.12956989
158	0xbd66fc75	-0.056393106
159	0x3d1dc898	0.03852138
160	0xbd425f70	-0.047454298
161	0x3db48150	0.08813727
162	0x3d938ce1	0.07204605
163	0x3c58fa92	0.013243334
164	0xbd709372	-0.058734365
165	0x3d1f606a	0.038910307
166	0x3dc69698	0.09696692
167	0x3b1ac84b	0.002361792
168	0x3cab4338	0.020906076
169	0x3dcaefd3	0.09909024
170	0x3daa4cbe	0.08315419
171	0xbcaefaf6	-0.021359902
172	0x3d850923	0.06495883
173	0xbc4a6402	-0.012352945
174	0xbd24297f	-0.040078636
175	0x3d1b87c6	0.03797128
176	0x3e201a6a	0.15635076
177	0x3d5b9cbc	0.05361627
178	0x3c706af4	0.014673937
179	0xbccd27d6	-0.02504341
180	0x3c3f1694	0.011663098
181	0x3dba3c26	0.09093504
182	0x3d8f5799	0.0699913
183	0x3d8573b8	0.06516212
184	0x3df819d3	0.121143006
185	0xbd452eb6	-0.04814025
186	0xbd5b17af	-0.053489383
187	0x3daa46be	0.08314274
188	0x3ca5c852	0.020237122
189	0xbd20c155	-0.039246876
190	0xba9771f3	-0.0011554345
191	0x3dbbb325	0.091650285
192	0x3e19de30	0.15026164
193	0x3d213980	0.039361477
194	0x3d517726	0.05113902
195	0x3d655f70	0.05599922
196	0x3dd977dc	0.106185645
197	0x3d968c40	0.07350969
198	0x3e0f20a8	0.13977301
199	0x3d81f354	0.06345239
200	0x3c390209	0.011291989
201	0x3b0fb103	0.0021925576
202	0x3d1c97cc	0.038230702
203	0xbcdf6356	-0.027269047
204	0xbd625f2c	-0.055266544
205	0xbcf93515	-0.03042082
206	0x3dfe223f	0.12408876
207	0x3ced99a1	0.02900392
208	0xbc2d853a	-0.010590846
209	0x3e06588c	0.13119715
210	0x3dd180e9	0.10229666
211	0x3d805e71	0.06268013
212	0x3cc5f375	0.02416394
213	0x3bac648a	0.0052610086
214	0x3d445698	0.047934145
215	0x3cb29d86	0.021803629
216	0xbd3728e0	-0.044716716
217	0x3cab639b	0.020921519
218	0xbd5c27ac	-0.05374877
219	0x3d79aa20	0.06095326
220	0xbc4abb0f	-0.0123737
221	0xbc0b5f02	-0.008506538
222	0x3dae12d3	0.08499684
223	0xbc8735a6	-0.016505074
224	0x3d2f7b56	0.04284223
225	0x3c94d9f1	0.018170329
226	0x3dc40691	0.09571565
227	0xbd49fbe7	-0.0493125
228	0x3db2e902	0.08735849
229	0x3cbf9391	0.023385795
230	0x3da7e67b	0.081982575
231	0x3cbbef2e	0.022941198
232	0x3d962d6f	0.073328845
233	0xbce4a24e	-0.027909424
234	0xbdf2dda7	-0.11858683
235	0x3d6f259b	0.058385473
236	0x3d45c0c7	0.04827955
237	0xbd5033a1	-0.050830487
238	0x3d83d379	0.064368196
239	0xbd328bb4	-0.043590263
240	0x3df3ee58	0.11910695
241	0x3dca3703	0.09873774
242	0x3d3d1dc8	0.04617098
243	0x3ddc4039	0.10754437
244	0x3dc3fc60	0.09569621
245	0xbd06ce44	-0.032911554
246	0x3d99bcaf	0.07506692
247	0xbd84b4d2	-0.06479801
248	0xbd37c933	-0.044869613
249	0x3dda5b24	0.10661915
250	0xbc811086	-0.01575495
251	0xbd0b2a52	-0.033975907
252	0x3d8b897d	0.06813333
253	0xbc0c4dd6	-0.008563479
254	0xbd61a69d	-0.055090535
255	0x3cd1db58	0.025617287

network_body._body_endoder.seq_layers.2.weight f4 [256, 256]
0	0x3e9280f1	0.28614
1	0x3d44b7f4	0.048026994
2	0x3e040a5c	0.12894577
3	0x3cf2b8a5	0.029629061
4	0x3e0e2f54	0.13885242
5	0x3e73dc77	0.2381457
6	0xbe2c8004	-0.16845709
7	0x3d4a858c	0.049443766
8	0xbd1ccebf	-0.038283106
9	0x3e430e8d	0.1904852
10	0x3e864882	0.26227194
11	0x3d34482a	0.044014134
12	0xbe0ab17e	-0.1354427
13	0x3e5bad39	0.21452798
14	0xbcda56a9	-0.02665265
15	0x3d199937	0.037499633
16	0xbe1aa30e	-0.15101263
17	0x3db5e2d6	0.08881156
18	0xbdd6da45	-0.1049085
19	0xbe9af99c	-0.30268562
20	0x3bac2854	0.005253831
21	0xbdc29ee5	-0.09502963
22	0x3e61a419	0.22035255
23	0x3e42fc62	0.19041589
24	0xbe6c1e4b	-0.23058431
25	0xbdd9df5d	-0.10638306
26	0xb8c494d2	-9.373728e-05
27	0xbde02e4b	-0.1094633
28	0xbdd2b83a	-0.10289045
29	0x3e10afdb	0.14129584
30	0xbd506b33	-0.050883483
31	0x3e7e8b52	0.24857834
32	0xbe5c45b8	-0.2151097
33	0x3e44d14b	0.19220464
34	0xbd6dfb3c	-0.058100924
35	0xbcd1d238	-0.025612935
36	0x3df41a83	0.11919119
37	0xbe28a710	-0.1646998
38	0x3e73cee1	0.23809387
39	0xbe81a225	-0.2531902
40	0x3db2a783	0.087233566
41	0x3e714d03	0.23564534
42	0xbd700d90	-0.058606684
43	0xbe553fd5	-0.20825131
44	0x3e0c95db	0.1372904
45	0xbcf3b001	-0.029747011
46	0xbe3e6224	-0.18592125
47	0xbe1134a4	-0.14180237
48	0xbe5f42a7	-0.2180277
49	0x3e83f871	0.25775483
50	0x3d7d9b09	0.06191543
51	0xbdf5571d	-0.11979506
52	0xbe40218d	-0.18762799
53	0xbe366ca1	-0.17814876
54	0xbe320b1d	-0.17387052
55	0x3e0d535c	0.1380133
56	0xbdb0a36f	-0.086249225
57	0xbe359d16	-0.17735705
58	0xbdc55784	-0.09635833
59	0xbd1f8075	-0.038940866
60	0x3d8056af	0.062665336
61	0x3da8ff1d	0.08251784
62	0xbd2b0887	-0.04175618
63	0x3dc6859e	0.09693454
64	0xbda69ed9	-0.081357665
65	0xbe601864	-0.21884304
66	0x3e365092	0.17804173
67	0x3e3a01ab	0.18164699
68	0x3e02c9f0	0.12772346
69	0xbde3b6ba	-0.11118837
70	0x3e15c200	0.14624786
71	0x3d9f40d9	0.077760406
72	0xbd735789	-0.059409652
73	0xbe378c23	-0.17924552
74	0xbd09b926	-0.033623837
75	0x3dbe6bf9	0.09297938
76	0x3d95cc6b	0.0731438
77	0xbe516f6f	-0.20452665
78	0xbd46f7c4	-0.04857613
79	0x3c0fb633	0.008771467
80	0x3df3886c	0.11891255
81	0xbe932876	-0.28741807
82	0xbe46b8ad	-0.19406386
83	0xbe5799e3	-0.21054797
84	0x3e065fb6	0.13122448
85	0x3d94deee	0.07269083
86	0x3dae73ff	0.08518218
87	0x3deed482	0.116616264
88	0xbe5cccbe	-0.21562478
89	0x3df97906	0.121812865
90	0x3e4f7ad5	0.202617
91	0x3d184ad1	0.037180725
92	0x3e09e429	0.13465942
93	0xbd80a6c3	-0.06281807
94	0x3da8d914	0.08244529
95	0xbc329539	-0.010899835
96	0xbdd867c0	-0.10566664
97	0x3d70b777	0.058768716
98	0x3d59aa5c	0.053140983
99	0x3de53d6f	0.11193358
100	0x3e299da6	0.16564044
101	0x3d0c8650	0.034307778
102	0xbe48043f	-0.1953287
103	0x3df8271b	0.12116834
104	0xbe923fa9	-0.28564194
105	0xbcbfbe85	-0.023406276
106	0xbd031bf6	-0.032009088
107	0xbeb656bf	-0.35613057
108	0x3d0cdf8e	0.034392886
109	0x3d769428	0.060199887
110	0x3dc26d8c	0.09493551
111	0xbda38266	-0.07983856
112	0xbd88c70d	-0.06678591
113	0x3b5e24c8	0.0033896435
114	0xbd53af4a	-0.05168084
115	0x3d178d1d	0.03699981
116	0x3e8f9fd5	0.2805163
117	0x3d3b8b99	0.045787428
118	0x3cf5053d	0.029909724
119	0xbd5fc901	-0.05463505
120	0x3bd08d2b	0.006364485
121	0xbe13db2b	-0.14439075
122	0x3da674e5	0.081277646
123	0x3e168a95	0.14701302
124	0x3d1998b0	0.03749913
125	0xbdd9b8ec	-0.10630974
126	0xbe3bbe52	-0.1833432
127	0x3df1f2ab	0.11813863
128	0xbe853039	-0.26013353
129	0xbe80e20c	-0.2517246
130	0x3e2ba994	0.16763908
131	0x3da8c3c6	0.08240466
132	0x3c9d89c8	0.019230738
133	0x3d02e15a	0.031953193
134	0xbcfef404	-0.031122215
135	0xbe785d7e	-0.24254414
136	0x3de57ed9	0.11205835
137	0xbde22aac	-0.11043295
138	0xbb162e6d	-0.0022915856
139	0xbd40b499	-0.04704723
140	0xbd3e7f7c	-0.046508297
141	0x3c87a46a	0.01655789
142	0xbe64c772	-0.22341707
143	0x3d57dd8c	0.052701518
144	0xbd3636d1	-0.04448587
145	0x3e3660e0	0.17810392
146	0x3cb1378c	0.021632932
147	0x3e32246a	0.17396703
148	0x3d895809	0.067062445
149	0x3c1c90bd	0.009555993
150	0xbdc6f80e	-0.097152814
151	0x3cfab867	0.030605508
152	0x3d95ae6e	0.073086604
153	0x3dabdf04	0.08392146
154	0xbc9f3f8c	-0.019439481
155	0x3e51b1bc	0.20477957
156	0xbd6042d2	-0.054751225
157	0xbe0ad79e	-0.13558814
158	0x3d955703	0.07291987
159	0xbdc6ea7d	-0.09712694
160	0x3e0d031b	0.13770716
161	0xbea4b124	-0.32166398
162	0x3c1fe6f6	0.009759655
163	0xbe19ff49	-0.1503879
164	0xbe22753f	-0.15865038
165	0x3e3a486b	0.18191688
166	0x3e966dd1	0.29380658
167	0xbe998cac	-0.29990137
168	0xbdde375d	-0.108504035
169	0x3a88c8d9	0.0010435834
170	0xbd111db7	-0.03542873
171	0xbdf2d269	-0.11856539
172	0xbd8212dc	-0.063512534
173	0xbe2e65fb	-0.1703109
174	0x3d3feb98	0.04685554
175	0x3e47f84c	0.19528311
176	0xbe0e0610	-0.138695
177	0x3e3f1bcf	0.18662952
178	0xbb9aff9c	-0.004730178
179	0xbdd122a9	-0.10211689
180	0xbe1a07e9	-0.1504208
181	0x3e9e29b0	0.3089118
182	0x3d98df86	0.07464509
183	0x3dd0c1d4	0.1019322
184	0x3d47108e	0.048599772
185	0xbe077e4a	-0.13231769
186	0xbd8572c1	-0.06516028
187	0x3e5c4386	0.21510133
188	0xbdb761f8	-0.08954233
189	0x3da01d5c	0.078181
190	0xbe0b534b	-0.13605992
191	0x3d12740a	0.035755195
192	0xbe0ee322	-0.13953832
193	0x3e4cc663	0.19997554
194	0x3e775722	0.24154332
195	0x3cc75eff	0.02433729
196	0xbaec9eb1	-0.0018052665
197	0x3e22036f	0.15821622
198	0x3e2f0f70	0.17095733
199	0x3d158399	0.036502454
200	0xbd32a2af	-0.04361218
201	0xbe9070e4	-0.2821113
202	0xbdb0884f	-0.08619749
203	0xbd2ad8cf	-0.04171067
204	0x3e040c22	0.12895253
205	0xbdc2f29c	-0.0951893
206	0x3e9ce30b	0.3064197
207	0xbdc95969	-0.09831507
208	0xbdb1e0eb	-0.08685478
209	0x3e96af14	0.2943045
210	0x3cfd818e	0.030945566
211	0x3d98fe1c	0.074703425
212	0xbe32ec21	-0.17472889
213	0x3d678fcb	0.056533616
214	0xbcac9472	-0.021066878
215	0x3dcd7c04	0.1003342
216	0xba7328e9	-0.00092758104
217	0xbdf5a759	-0.1199481
218	0x3cc6d526	0.024271559
219	0xbc5deed7	-0.013545713
220	0xbd24d49f	-0.040241834
221	0xbe795511	-0.24348857
222	0x3cd90d0e	0.026495483
223	0x3d2cc71e	0.04218208
224	0x3de50dde	0.111842856
225	0xbc2c01b1	-0.01049845
226	0x3e54b78a	0.2077314
227	0x3cdb3419	0.02675824
228	0x3af983d7	0.0019036484
229	0xbd04fbe6	-0.03246679
230	0xbebe893a	-0.3721407
231	0xbdc44b7b	-0.09584709
232	0xbcf06887	-0.029346718
233	0xbd650a7d	-0.055918206
234	0xbe29198d	-0.16513653
235	0x3c62c7fc	0.013841625
236	0xbd13b7fb	-0.03606413
237	0xbdaf308e	-0.08554183
238	0x3df13abf	0.11778783
239	0xbe00b9f4	-0.12570935
240	0x3e854cbf	0.26035115
241	0x3e3a063f	0.18166445
242	0x3d4b2915	0.049599726
243	0x3de6db84	0.11272338
244	0xbbc2411d	-0.0059281723
245	0xbe11c54e	-0.14235422
246	0xbdcc23fb	-0.099678
247	0xbe09a18c	-0.13440531
248	0xbdbb6575	-0.09150211
249	0x3e53700d	0.20648213
250	0xbd9780f1	-0.073976405
251	0x3d776f02	0.0604086
252	0xbe43bbd5	-0.19114621
253	0xbe3b9397	-0.1831802
254	0x3e871f6d	0.26391163
255	0xbe2c5c39	-0.16832055

network_body._body_endoder.seq_layers.2.bias f4 [256]
0	0x3d527369	0.051379595
1	0x3e7c6ba9	0.24650444
2	0x3e6d5eb8	0.23180664
3	0xbc948ce1	-0.018133583
4	0xbda7b384	-0.08188537
5	0xbd0f83c8	-0.035037786
6	0xbdd5bc99	-0.10436363
7	0xbc3ba481	-0.011452795
8	0xbbeae3c1	-0.0071682637
9	0xbd9f84f0	-0.07789028
10	0xbc10d7bc	-0.008840498
11	0x3dade23a	0.08490415
12	0xbd26001d	-0.04052745
13	0xbd8a6cdc	-0.067590445
14	0xbd8b5ebe	-0.0680518
15	0xbd810819	-0.06300373
16	0xbdbe04d0	-0.09278262
17	0x3b935f87	0.0044974717
18	0x3e1e1d35	0.15440829
19	0xbcbe3153	-0.023216879
20	0x3d37e998	0.044900507
21	0xbd56f26f	-0.052477296
22	0x3cd2cc07	0.025732053
23	0xbd82c5f7	-0.06385415
24	0x3dc85915	0.09782616
25	0xbb20a60f	-0.002451304
26	0x3b324159	0.0027199595
27	0xbdc09f42	-0.09405376
28	0xbdbf02a7	-0.09326678
29	0x3dc3cc45	0.09560446
30	0xbc88215a	-0.016617466
31	0xbd1cd076	-0.03828474
32	0xbc5cc4a1	-0.013474614
33	0xbbcdc3f3	-0.0062794625
34	0xbdb9a481	-0.0906458
35	0xbd1245e5	-0.035711188
36	0x3e0320a6	0.12805423
37	0x3d4376f1	0.047720853
38	0x3e116c0f	0.14201377
39	0xbc02f94c	-0.007994007
40	0xbc07c78c	-0.008287322
41	0xbc95c851	-0.018283995
42	0xbbd124f5	-0.0063825794
43	0x3dec2e79	0.115323015
44	0xbd58fdf9	-0.052976582
45	0x3db76307	0.08954435
46	0xbb6f200e	-0.0036487612
47	0x3c69bca4	0.014266167
48	0x3d527120	0.051377416
49	0x3d97baef	0.07408702
50	0x3d5951d0	0.053056538
51	0xbb8b48e3	-0.004250632
52	0xbd3271d6	-0.043565594
53	0x3c481cae	0.012213869
54	0xbccb66ef	-0.024829356
55	0x3d467845	0.04845454
56	0xbd52c922	-0.051461346
57	0xbcc6eb03	-0.024281984
58	0xbccc1151	-0.0249106
59	0xbcb3db88	-0.021955267
60	0x3d58a9a1	0.052896146
61	0xbdb9f0bd	-0.0907912
62	0xbb9d4b54	-0.0048002396
63	0xbca11600	-0.01966381
64	0x3d281d1d	0.04104339
65	0x3d8e7abd	0.06957004
66	0x3b99112e	0.0046712374
67	0xbc21c6c3	-0.009874049
68	0xbaa821b3	-0.0012827426
69	0x3e120cf1	0.14262749
70	0x3c844426	0.016145777
71	0x3e02d925	0.12778147
72	0xbd287ffe	-0.041137688
73	0x3d65e960	0.056130767
74	0x3d8f0df5	0.06985084
75	0x3d5b652c	0.053563282
76	0x3d2d5e06	0.042325996
77	0x3e01825e	0.12647387
78	0xbcbdf5ef	-0.02318856
79	0x3d28a6c1	0.041174654
80	0xbb58e3a0	-0.003309466
81	0x3cb1fbb9	0.021726476
82	0xbc094d47	-0.008380241
83	0x3d79042a	0.060794987
84	0xbc920feb	-0.017829856
85	0x3d4df911	0.050286356
86	0xbd8599f9	-0.065235086
87	0x3d78edb6	0.060773574
88	0xbceac7ee	-0.028659787
89	0x3de57aad	0.11205039
90	0x3d6ba816	0.057533346
91	0xbdd2d15c	-0.102938384
92	0x3e07cce0	0.13261747
93	0xbb1610da	-0.0022898228
94	0xbb86c5f2	-0.0041129524
95	0xba571f56	-0.00082062685
96	0x3cc01f73	0.023452496
97	0x3d83c3fb	0.06433865
98	0x3c52e952	0.012873011
99	0x3e4c8e91	0.1997626
100	0x3c6c4ea3	0.014423045
101	0x3e13e7a8	0.14443839
102	0xbd1564e3	-0.036473166
103	0xbd797264	-0.060900107
104	0xbda612f8	-0.08109087
105	0x3d69d229	0.05708519
106	0xbd8f091f	-0.069841616
107	0x3da6ae5e	0.08138727
108	0xbc8ec682	-0.01742864
109	0x3e08292c	0.13296956
110	0x3d9acc9f	0.075585596
111	0xbc8abd56	-0.016935986
112	0xbc7f7854	-0.015592653
113	0x3d93dfe0	0.07220435
114	0x3e1dbad3	0.15403299
115	0x3d40e7c5	0.047096033
116	0xbd2de1b4	-0.042451575
117	0x3c1a436f	0.0094154915
118	0xbc39c4b2	-0.0113384
119	0x3d0fcef8	0.03510949
120	0xbd155f5a	-0.036467887
121	0xbb22541a	-0.0024769367
122	0xbce79c52	-0.028272782
123	0x3d03dd4c	0.032193467
124	0x3c499287	0.012303001
125	0xbcca9730	-0.024730295
126	0xbd0458e1	-0.032311324
127	0xbd8152ab	-0.06314596
128	0x3d3d1f79	0.046172593
129	0xbd625f74	-0.055266812
130	0x3e09f5bd	0.13472648
131	0xbc9fdd75	-0.019514779
132	0xbdb49f6b	-0.08819469
133	0xbcd4531e	-0.02591854
134	0xbbabe144	-0.0052453596
135	0xbd6875f5	-0.056753118
136	0x3c261cb9	0.010138684
137	0x3d113fe5	0.035461325
138	0xbd15fdfc	-0.03661917
139	0x3da5362d	0.08066974
140	0xbdb262e7	-0.087102704
141	0x3df8c0bd	0.12146137
142	0x3d0494ed	0.03236859
143	0xbcd95e88	-0.026534334
144	0xbd87de87	-0.066342406
145	0xbcec1b4c	-0.02882161
146	0xbcd0bfe2	-0.025482122
147	0xbce73535	-0.028223613
148	0x3dad60b9	0.08465714
149	0xbd71c855	-0.059028942
150	0x3d698d22	0.05701936
151	0xbcf35cec	-0.029707395
152	0xbd040f93	-0.032241415
153	0x3d812122	0.06305148
154	0xbd03b373	-0.032153558
155	0xbc1ff133	-0.009762096
156	0xbd12ca54	-0.035837486
157	0xbd903ae3	-0.07042482
158	0x3cd339f4	0.02578447
159	0xbdc0488d	-0.09388838
160	0xbd79a385	-0.06094696
161	0xbdb232ce	-0.087010965
162	0xbc4597a0	-0.012060076
163	0xbd5c4d68	-0.053784758
164	0xbc29ae49	-0.010356494
165	0xbd98a896	-0.0745403
166	0x3ca35027	0.01993568
167	0xbd99368d	-0.07481108
168	0x3d0bde2a	0.03414742
169	0xbacb218c	-0.0015497669
170	0x3d54c108	0.0519419
171	0x3e24aad9	0.16080798
172	0xbd177b16	-0.03698262
173	0xbc1110e7	-0.0088541275
174	0x3d8873d4	0.066627175
175	0xbc80c1d5	-0.015717426
176	0x3aa7e692	0.0012809804
177	0x3d7cf19c	0.061753854
178	0x3d8531dd	0.06503651
179	0xbd0626ba	-0.032751776
180	0x3dbf0001	0.093261726
181	0xbcb0fc6f	-0.021604745
182	0x3d103e5c	0.03521572
183	0x3da6fb8e	0.08153449
184	0x3d90c863	0.07069471
185	0x3cb3f8eb	0.02196928
186	0xbd5fc950	-0.054635346
187	0x3a985b4a	0.0011623886
188	0xbd61801e	-0.055053823
189	0xbd534c58	-0.05158648
190	0xbc5d8772	-0.013521062
191	0xbbcb9f2f	-0.0062140445
192	0xbcb59625	-0.022166321
193	0xbc6d4eec	-0.0144841485
194	0xbd955833	-0.07292213
195	0x3ae2800e	0.0017280595
196	0x3ae29a1f	0.0017288363
197	0x3d291adb	0.041285377
198	0x3dcaf95a	0.09910841
199	0xbba9abb8	-0.005177941
200	0x3d8401fd	0.06445692
201	0x3d56cfd7	0.052444305
202	0x3dacfb63	0.08446386
203	0xbd802e32	-0.06258811
204	0x3bc8a78f	0.00612349
205	0x3d2d4080	0.04229784
206	0xbc96b6c4	-0.018397696
207	0xba786d25	-0.0009476713
208	0x3dd274b7	0.10276168
209	0xbd0541ea	-0.032533564
210	0xbd806b66	-0.062704846
211	0xbd260987	-0.04053643
212	0xbcfa83a7	-0.030580355
213	0xbae4e6a7	-0.0017463759
214	0xbcad7215	-0.021172563
215	0xbd308b35	-0.04310151
216	0xbd1c6845	-0.038185377
217	0x3d96fdfa	0.07372661
218	0x3d124793	0.03571279
219	0x3d66a6a3	0.05631126
220	0xbd246fe5	-0.040145773
221	0x3d952228	0.072819054
222	0x3c6648cd	0.014055443
223	0xbd580e78	-0.052748173
224	0x3df40268	0.119145215
225	0xbd352e06	-0.044233344
226	0xbbfc726c	-0.00770407
227	0xbccc55d2	-0.024943266
228	0x3c3d2aea	0.011545876
229	0xbdb87c3b	-0.0900807
230	0x3cba3a66	0.022732925
231	0xbbffc6d8	-0.0078056864
232	0x3c858c17	0.016302152
233	0x3dd8e637	0.10590785
234	0xbd9355d3	-0.07194104
235	0xbd7f101b	-0.06227122
236	0xbd240ef3	-0.04005332
237	0xbcf5ae16	-0.029990237
238	0xbd836c19	-0.06417102
239	0x3dde265a	0.10847159
240	0x3c2473f0	0.010037407
241	0x3cb0346e	0.021509375
242	0xbc99c621	-0.018771233
243	0x3b0dabd0	0.00216173
244	0x3c86183b	0.016368976
245	0x3d2a2b5d	0.04154526
246	0xbdd6a70d	-0.10481081
247	0x3db815b2	0.08988513
248	0x3d73ff77	0.059569802
249	0xbd8abc43	-0.06774189
250	0xbd3d6805	-0.04624178
251	0x3c7b7eb8	0.015350036
252	0xbd9be5e2	-0.07612206
253	0x3e535525	0.20637949
254	0x3d4383e5	0.047733206
255	0xbd277b0c	-0.04088883

action_model._discrete_distribution.branches.0.weight f4 [7, 256]
0	0xbdaca68a	-0.08430202
1	0xbec7d522	-0.39029795
2	0x3e5ff41b	0.21870463
3	0xbc8d05f5	-0.017214755
4	0x3db2c350	0.08728659
5	0xbd600236	-0.05468961
6	0x3e0dab69	0.13834919
7	0x3e3a64d0	0.1820252
8	0xbc5146f2	-0.012773262
9	0x3e24ccb5	0.16093715
10	0x3b9a2cb0	0.004705034
11	0xbd429b8f	-0.047511633
12	0xbe5bf347	-0.21479522
13	0x3dfcfa5c	0.1235244
14	0xbbb40e73	-0.0054948865
15	0x3dd346a5	0.10316209
16	0x3df07001	0.11740113
17	0x3daf7ea2	0.08569075
18	0xbe4a53f5	-0.1975859
19	0xbd5218ec	-0.0512933
20	0xbdd0186c	-0.10160908
21	0x3d6d968d	0.058004905
22	0xbc4b6785	-0.012414818
23	0x3d5de0d5	0.054169495
24	0x3bde9a1b	0.006793273
25	0xbd9bfaf4	-0.07616225
26	0x3d9419f5	0.072315134
27	0xbc51c64c	-0.012803625
28	0x3d2b7825	0.041862626
29	0xbe07a40a	-0.1324617
30	0x3dcabf98	0.09899825
31	0xbe0e4d2d	-0.13896628
32	0x3d2e4389	0.042544875
33	0xbdd23f73	-0.10266008
34	0x3ce0fb9f	0.027463732
35	0x3cf2ea2b	0.029652676
36	0x3d092598	0.033483118
37	0x3e145104	0.1448403
38	0xbe761111	-0.24029948
39	0xbe180643	-0.14846139
40	0xbde5f295	-0.112279095
41	0xbd268cfc	-0.040661797
42	0x3cbfce7d	0.023413891
43	0x3d64913d	0.055802573
44	0x3df187aa	0.11793454
45	0xbbfc4c25	-0.007699507
46	0xbe1ae186	-0.15125093
47	0xbd99acc6	-0.07503657
48	0xbe426ad2	-0.18986061
49	0xbc26c575	-0.010178913
50	0xbcb639b1	-0.022244306
51	0xbe567cb5	-0.2094601
52	0xbd2e2d05	-0.042523403
53	0xbd4e292e	-0.05033224
54	0x3e31085a	0.17288342
55	0xbc8e6bb9	-0.01738535
56	0xbd82715a	-0.06369276
57	0x3dd84bf4	0.10561362
58	0xbce95fc2	-0.028488044
59	0x3b21cab5	0.0024687473
60	0xbe796e7b	-0.24358551
61	0xbde8ae86	-0.11361413
62	0x3ca72c7e	0.020406958
63	0xbc9f13b2	-0.019418571
64	0xbcffa2d7	-0.031205578
65	0xbb8ad3fe	-0.004236697
66	0xbd813d64	-0.063105375
67	0xbd66aeab	-0.05631892
68	0x3d303a1f	0.04302418
69	0xbcbeba93	-0.023282325
70	0xbdd95cea	-0.10613425
71	0xbe74c325	-0.23902567
72	0x3d188b6e	0.037242346
73	0xbe02756a	-0.12740102
74	0xbcc105bf	-0.02356231
75	0xbd97aef5	-0.07406417
76	0x3e3b32c8	0.1828109
77	0xbe737bfc	-0.23777765
78	0xbdd6eade	-0.10494016
79	0xbd8b7d40	-0.06810999
80	0x3d4bb16e	0.049729757
81	0xbdca8cd1	-0.0989014
82	0xbd318e7e	-0.04334878
83	0xbd261c3d	-0.040554274
84	0x3d382c4d	0.044964124
85	0xbe4a45c0	-0.1975317
86	0x3de1e8c1	0.110307224
87	0xbcf1d9e5	-0.029522846
88	0x3d412fe3	0.04716481
89	0xbe357790	-0.1772139
90	0xbd9100a4	-0.070802
91	0x3e5c8d47	0.21538268
92	0xbd5a5ff5	-0.053314168
93	0xbc8be885	-0.017078647
94	0xbd30e328	-0.043185383
95	0x3c87476d	0.01651355
96	0xbdc66584	-0.09687331
97	0xbcc390e2	-0.023872796
98	0xbe1bb4c3	-0.15205674
99	0xbe133ca8	-0.14378607
100	0xbdc404b6	-0.09571211
101	0xbeac70b4	-0.33679736
102	0xbbe75528	-0.007059712
103	0x3d02be4c	0.031919762
104	0x3d0fbfa3	0.03509487
105	0x3cc3c5d8	0.02389805
106	0x3d820166	0.06347923
107	0xbdb31faa	-0.08746274
108	0x3ddb61f4	0.107120425
109	0x3d20593f	0.03914761
110	0xbddf9385	-0.10916809
111	0xbddaad8f	-0.10677635
112	0xbd80c83f	-0.06288194
113	0xbe47aa5a	-0.19498578
114	0xbc4bdc49	-0.012442657
115	0xbdbfbbd4	-0.09361997
116	0x3d5406f5	0.051764447
117	0xbd91c264	-0.07117155
118	0xbcbe8d51	-0.023260744
119	0x3d613ee6	0.054991625
120	0xbd8d475f	-0.068983786
121	0x3b04a3ec	0.0020239307
122	0xbdc0c6a9	-0.094128914
123	0xbd1dec01	-0.03855515
124	0xbda5b0bb	-0.08090349
125	0xbd34d78d	-0.044150878
126	0xbd5926ce	-0.053015523
127	0x3cc9e4d4	0.024645247
128	0xbdcfe761	-0.10151554
129	0xbbebacf4	-0.0071922485
130	0xbe611fa8	-0.21984732
131	0xbda5f023	-0.08102443
132	0x3e01f6c8	0.12691796
133	0xbc9c4238	-0.019074544
134	0xbbf95b09	-0.007609729
135	0x3cf1a966	0.02949972
136	0x3d93ebb5	0.07222692
137	0xbcd6387f	-0.026149986
138	0xbbe9efd7	-0.007139187
139	0xbe06c609	-0.13161482
140	0x3d29d165	0.04145946
141	0xbe2f50ef	-0.17120717
142	0xbd217a80	-0.039423466
143	0x3d813cd2	0.06310429
144	0xbd0ab465	-0.033863444
145	0xbe067159	-0.13129176
146	0xbe212f17	-0.1574062
147	0xbe21b767	-0.15792619
148	0x3e25e894	0.16202003
149	0xbc8f09c7	-0.017460717
150	0xbe214863	-0.1575027
151	0x3dfb9302	0.12283899
152	0x3d351fe6	0.044219874
153	0xbd9e90ca	-0.0774246
154	0xbd9a2f58	-0.07528561
155	0xbb632ab0	-0.0034662895
156	0xbd57845a	-0.052616455
157	0x3e16d781	0.14730646
158	0xbdaf1ecf	-0.08550798
159	0x3dd672b9	0.104711
160	0xbdc302df	-0.09522032
161	0x3e56c58b	0.20973794
162	0xbd844aa7	-0.06459551
163	0x3dad86e6	0.084729955
164	0x3dc77f35	0.0974106
165	0x3dd26f89	0.1027518
166	0x3d8088df	0.06276106
167	0x3e270bc6	0.16313085
168	0xbebba9ea	-0.36653072
169	0x3d9f1b19	0.0776884
170	0xbdb7dd3d	-0.08977745
171	0xbe8c3a7e	-0.27388376
172	0x3e027c3d	0.12742706
173	0xbc13fa92	-0.009031909
174	0xbdfdc909	-0.1239186
175	0xbe716b2d	-0.2357604
176	0xbe1014a4	-0.14070374
177	0xbda99385	-0.0828009
178	0x3df4001e	0.11914085
179	0x3d7c6ce4	0.061627284
180	0xbda8c592	-0.082408085
181	0xbd07d152	-0.033158608
182	0x3c8e5176	0.017372828
183	0xbe0826f2	-0.13296106
184	0xbe4abcbc	-0.19798559
185	0x3cd48ddd	0.025946552
186	0x3e079d77	0.13243662
187	0xbe25ba23	-0.16184287
188	0x3c5450ed	0.012958747
189	0xbca674b3	-0.020319318
190	0x3cebf8f1	0.028805228
191	0xbe13321d	-0.14374585
192	0xbd9ca826	-0.07649259
193	0xbd5aaf26	-0.05338969
194	0xbdc9abc1	-0.098472126
195	0x3deea50d	0.11652575
196	0xbe303636	-0.1720818
197	0xbd94f19c	-0.07272646
198	0xbd9dc8b7	-0.07704299
199	0xbcb1c2b5	-0.021699289
200	0xbdf72054	-0.12066713
201	0xbe5741b9	-0.21021165
202	0x3d9db3c0	0.077003
203	0x3e6c5f4b	0.23083226
204	0xbd32221d	-0.043489564
205	0xbeb5dc61	-0.35519698
206	0x3ddc8365	0.10767249
207	0xbce8293b	-0.028339973
208	0xbda8d0a8	-0.08242923
209	0xbda198db	-0.07890483
210	0x3cb97f3b	0.022643676
211	0xbc5a47e4	-0.013322804
212	0xbcb09bbc	-0.021558635
213	0xbdc5f83e	-0.09666489
214	0xbd8903eb	-0.066902004
215	0xbdd4e302	-0.10394861
216	0x3c8b627b	0.017014733
217	0xbe27ff48	-0.16405976
218	0xbb9cc7d9	-0.004784566
219	0xbe82fd2c	-0.2558378
220	0x3cca4931	0.024693104
221	0xbd860fd1	-0.065459855
222	0xbe4d4159	-0.2004446
223	0xbd3255d4	-0.043538883
224	0x3d599bd9	0.053127144
225	0xbd98299e	-0.07429813
226	0xbdf8882f	-0.1213535
227	0xbdab8999	-0.08375854
228	0xbe189961	-0.1490226
229	0x3e20fad2	0.1572068
230	0xbe791baa	-0.24326959
231	0x3ca2c7d7	0.019870682
232	0xbd998dcc	-0.07497749
233	0xbe94cc73	-0.29062232
234	0x387b5fad	5.993217e-05
235	0x3d2456bb	0.040121775
236	0xbe3f009d	-0.18652578
237	0x3dc45765	0.09586982
238	0x3e2a2887	0.16617022
239	0x3d31aba5	0.043376584
240	0xbcc24839	-0.02371608
241	0xbe22e376	-0.15907082
242	0x3c4f82d0	0.0126654655
243	0xbc558a48	-0.013033457
244	0xbd03b303	-0.03215314
245	0xbddda408	-0.10822302
246	0x3e3ae6d6	0.1825212
247	0xbcabd872	-0.020977233
248	0x3bc9eab0	0.00616201
249	0x3da62262	0.08112027
250	0xbcff551d	-0.031168515
251	0x3ccf67b5	0.025318006
252	0x3e594cab	0.21220653
253	0xbeb4d402	-0.35318
254	0xbe052370	-0.130018
255	0x3e003e58	0.12523782

action_model._discrete_distribution.branches.0.bias f4 [7]
0	0xbeb6ad0a	-0.35678893
1	0x3cd7b669	0.026332097
2	0xbcd70476	-0.026247244
3	0xbc24e9d0	-0.010065511
4	0x3d41cced	0.047314573
5	0x3cc30a49	0.023808615
6	0x3c9fd6f0	0.01951167
