results/puzzle_expirement_7/PuzzleBehavior/PuzzleBehavior-21999936.onnx (onnx, 342923 bytes, 6 tensors)

network_body._body_endoder.seq_layers.0.weight f4 [256, 65]
000000 15 eb 8d 3e 3e a6 45 be 9d dd 93 3d 60 a5 54 be
       0.27718416 -0.19301698 0.07220004 -0.2076621
000010 8d a4 a5 3d 02 92 2c bc 42 ba 0a 3e 87 69 c0 3d
       0.08088026 -0.010532858 0.13547614 0.09395128
000020 15 fc 15 be 79 8b a6 be ba 47 ed 3d 7a 41 76 3d
       -0.14646943 -0.32528284 0.115859464 0.060121037
000030 b8 50 62 3e 46 e5 22 3e a1 e2 9c 3e 74 27 3a be
       0.22101104 0.15907773 0.30641654 -0.18179113
000040 76 09 8e be 18 be 14 3d 40 90 39 be 69 4f ec bd
       -0.27741593 0.0363141 -0.18121433 -0.11538584
000050 4a 9b 16 3e 76 f2 9a be 2d 51 28 3d 86 c1 96 3d
       0.14707676 -0.30263108 0.04109304 0.073611304
000060 12 ea 20 bd b4 01 06 bc e7 05 16 3c 00 db 4c 3e
       -0.039285727 -0.008179117 0.009156681 0.20005417
000070 db 4a 23 bd 7b 4e 57 3d 9e d8 33 3e c9 af 3c 3c
       -0.03986631 0.05256508 0.17563102 0.01151652
000080 68 e3 14 3e ec 39 55 3c 30 18 8a 3d 66 18 89 bd
       0.14539874 0.013014298 0.06742895 -0.06694107
000090 0d 80 5e be 56 f2 ec bb c5 0c 8e bd 58 0e 14 3e
       -0.21728535 -0.007231037 -0.06936029 0.14458597
0000a0 02 b0 91 3d 2f 55 45 be c2 0e 27 be 28 35 d1 3c
       0.07113649 -0.19270776 -0.16314223 0.025538042
0000b0 48 5b ed 3e 29 cd 1b 3e 10 ef 73 3e c1 88 8e bd
       0.46358705 0.15214981 0.23821664 -0.069596775
0000c0 d6 68 b1 be 94 e0 2f 3e 23 19 02 bc dd 84 8d bd
       -0.34650296 0.17175514 -0.007940563 -0.06910107
0000d0 62 6a 7b 3d 43 c0 40 3e 23 50 21 3e 44 81 7b 3d
       0.06138075 0.18823342 0.15753226 0.061402574
0000e0 06 44 22 3e c1 44 87 3d 26 70 ed bc fb a4 b8 3d
       0.15846261 0.06604911 -0.02898414 0.090158425
0000f0 96 92 25 3d 6e d2 54 be d8 34 8e 3e da 61 db 3c
       0.040423 -0.20783398 0.27774692 0.026780058
000100 b4 d2 06 bd 0c 74 86 bc 36 03 e2 bd b5 91 f5 bc
       -0.032915786 -0.016412757 -0.11035769 -0.029976705
000110 54 54 df be 7f de e6 bd b4 03 ff bd 57 6e e2 3d
       -0.43619025 -0.112729065 -0.12451878 0.11056202
000120 9c b2 e4 3d 2b 95 62 be 36 15 c4 3c 26 79 5f 3e
       0.111668795 -0.22127216 0.023935895 0.21823558
000130 6c a6 97 3e b3 2a 94 be 32 26 a2 3d 3b 4f a9 bd
       0.29619157 -0.28938827 0.079174414 -0.08267065
000140 96 dc 2e 3e 76 0f 7c 3e e3 67 57 be 11 e0 d8 3d
       0.17076334 0.24615273 -0.21035723 0.10589612
000150 21 1e ec bc ac c2 a9 3e 3f e7 85 3d 4a 70 2e 3e
       -0.02882296 0.33156335 0.06538247 0.17035022
000160 13 8a a9 3c 9e 61 83 3d c4 e9 d6 3e 50 2f 89 3e
       0.020695722 0.064151034 0.41975224 0.2679391
000170 10 95 29 be 3d bd 82 3d ed be eb bd 92 1b 6a 3d
       -0.16560769 0.063837506 -0.115110256 0.0571552
000180 7e 4c 91 3c 5d 66 23 3d 1c ce 08 3e 38 27 13 bc
       0.01773667 0.039892543 0.13359874 -0.008981518
000190 8e 18 a1 3e 57 02 ee bd 1d 43 3a 3c da 43 e1 bd
       0.31464046 -0.1162154 0.01136854 -0.1099927
0001a0 05 de 89 be cc 07 5e 3e 67 97 cc 3d a8 a0 12 3e
       -0.269272 0.21682662 0.09989815 0.14319098
0001b0 97 a6 6e be 8a 69 b5 bd 40 08 12 3e 46 7c fe 3d
       -0.23305736 -0.088580206 0.1426096 0.12426047
0001c0 69 83 76 3d 91 8d 1b be a5 33 26 bd b2 c1 a8 3c
       0.060183916 -0.15190722 -0.040576596 0.020600174
0001d0 e3 32 56 3e fb 7e 05 bd a6 73 28 3e 85 84 73 3c
       0.20917849 -0.0325918 0.16450366 0.014863138
0001e0 98 ef 14 3e 0b 54 ef bd 47 b4 6b bc fa 33 53 3b
       0.14544523 -0.11685952 -0.014386243 0.0032227025
0001f0 c1 83 d8 3c a5 38 32 bb 3e a6 5e 3d d8 06 f3 3d
       0.026430013 -0.0027194407 0.05435776 0.1186654
000200 6f 8c 09 be 74 a1 39 be d5 5a b1 3d b2 47 55 be
       -0.13432477 -0.18127996 0.08659903 -0.20828131
000210 6b 00 1a be af 7a 24 bd 8d 9e 9f 3c 9e bd 6f be
       -0.15039222 -0.040156063 0.019484783 -0.23412177
000220 ce 96 52 3c b0 83 23 be af 8d 82 3e bf f3 9b 3d
       0.012853337 -0.15968204 0.2549872 0.0761485
000230 2d 03 8c 3d 41 4c 87 be 38 9a cb bd ba b9 b7 3e
       0.06836543 -0.26425365 -0.09941524 0.35883886
000240 08 0d 45 be 31 26 e9 3a bc 5a e3 3d 5d 9b 11 3e
       -0.19243252 0.0017787871 0.111012906 0.14219423
000250 13 c9 c3 3d cc 63 36 3e 75 10 f7 bd f9 47 11 be
       0.09559836 0.17811507 -0.12063686 -0.14187612
000260 a9 87 69 3d a6 e3 22 be 23 74 56 3e 87 70 a9 3d
       0.05701414 -0.15907153 0.2094274 0.08273416
000270 b8 f6 8e be da 06 ab 3e ec e4 83 be da 30 82 3d
       -0.27922606 0.33403665 -0.2576059 0.06356974
000280 67 c1 5d 3d be 29 bd bd b0 ba ff 3c 65 59 85 3c
       0.05413952 -0.09236477 0.03121695 0.016277978
000290 c5 67 e5 3d ab ec f6 3d ce ec 53 3e 52 23 54 bd
       0.11201433 0.120568596 0.20695803 -0.051791497
0002a0 34 8c 15 bb e4 5f 41 bd 8e 04 05 3d ce 43 ee bd
       -0.0022819163 -0.04721059 0.032475047 -0.116340265
0002b0 e1 24 e5 3d e2 27 ca be 69 b7 7d 3e 48 02 51 3e
       0.11188675 -0.39483553 0.24776997 0.20411026
0002c0 a3 51 29 be ca 21 be 3e e5 57 12 bb 36 84 2d 3d
       -0.16535048 0.37135154 -0.0022330221 0.042362414
0002d0 0d 52 b0 bd d5 76 9c 3d ce cc 97 3e 74 58 f6 bd
       -0.086094 0.07639853 0.2964844 -0.1202859
0002e0 c3 69 61 3d 1f 2d 13 3e ff 5a 50 bd 0e b7 0e 3f
       0.055032503 0.14372681 -0.05086803 0.5574807
0002f0 d6 a1 8c 3d a6 e4 83 be 73 7a a0 3c 93 fc a9 bd
       0.06866805 -0.25760382 0.019589638 -0.08300128
000300 de c2 09 3f cb b7 7b 3d bd 11 26 be 79 04 57 3d
       0.5381297 0.061454576 -0.16217704 0.0524945
000310 84 07 95 3d f1 01 16 3e 79 23 ac bd 1a 25 ff 3c
       0.07276824 0.14649178 -0.08405203 0.031145621
000320 a2 a1 39 bd 62 a2 4a 3e 71 f4 be ba 11 90 02 bf
       -0.04532016 0.19788507 -0.0014568699 -0.5100108
000330 69 29 82 3d 22 6b 9a 3e 5b 27 89 3e 11 68 31 bc
       0.063555546 0.3015986 0.26787838 -0.010828034
000340 87 74 8a 3d d3 ea 2d be 8a e1 34 bd 44 80 4d 3e
       0.06760507 -0.1698411 -0.044160403 0.2006846
000350 19 66 bc bd a5 2d de 3d df c1 e6 bd 31 5f 57 bd
       -0.09199161 0.1084855 -0.11267447 -0.052581016
000360 73 26 c7 be 85 c4 1d 3d 20 7b 86 3e 91 24 ff 3d
       -0.38896522 0.038517494 0.26265812 0.12458146
000370 94 2c 52 3e 5f 88 50 be 25 d8 2b 3e 32 c9 0b 3e
       0.20524818 -0.20364521 0.16781671 0.13650969
000380 57 59 0d be 77 cb 0c bd a8 6b 3b 3d 5c 57 48 3c
       -0.13803612 -0.034373727 0.045756966 0.012227859
000390 d8 21 e9 3c b2 41 07 3d d6 54 0e 3e fe db f2 3d
       0.02845852 0.033021636 0.1389955 0.118583664
0003a0 ef a3 a7 bd a7 e3 8e bd c5 61 ab 3d f9 f2 ce bd
       -0.08185565 -0.06977015 0.083682574 -0.10104937
0003b0 72 35 bf bd 09 05 7d 3d 4d 6b 30 3e 5c 54 9e 3d
       -0.09336366 0.06177238 0.17228432 0.07730934
0003c0 68 e5 2d be 0f 98 fa 3d 36 f7 e9 3d d0 5e 98 3e
       -0.16982043 0.12236034 0.11424105 0.29759836
0003d0 70 1a 9f 3d f7 55 a2 3d 37 dc 22 3c b9 5f 89 bd
       0.077687144 0.07926553 0.009940199 -0.06707711
0003e0 e6 f2 f5 3e 70 d5 3e be 7b b1 10 3e f4 de 0e be
       0.4803688 -0.18636107 0.14130203 -0.13952237
0003f0 63 65 02 3d 8a aa a6 3d 0d 09 0d 3e 88 84 81 bd
       0.03183497 0.081379965 0.13772984 -0.063241065

network_body._body_endoder.seq_layers.0.bias f4 [256]
000000 34 40 36 3d 84 a7 a8 3c b0 06 4c 3c a2 8b b2 3d
       0.044494823 0.02058769 0.012452766 0.08718039
000010 91 c2 92 bd a3 59 8f 3d c9 ed c0 3d 45 2b bc 3d
       -0.07166017 0.06999519 0.09420354 0.091879405
000020 4e b1 0e 3c a9 4b b3 3d 64 25 0d 3d a7 ef 97 3c
       0.008709265 0.087546654 0.034459487 0.018546892
000030 4e ed d2 3d 9b c1 f7 3d 01 f8 a5 3d 3d 71 64 3d
       0.102991685 0.12097474 0.081039436 0.055772055
000040 82 0e d9 bb 1f 60 55 3c d3 ec fe bc b7 60 0a 3d
       -0.006624044 0.013023405 -0.031118786 0.03378364
000050 a1 02 b4 bc 64 f5 21 bd 03 ae 46 3d cf 9c c8 3d
       -0.02197391 -0.039540663 0.048505794 0.09795534
000060 fd aa 00 3e b4 bc 3a 3e 18 a1 b2 bc 46 42 80 3c
       0.12565227 0.18236047 -0.021805331 0.015656602
000070 2d 79 7a bb b7 45 dc 3d 55 00 88 bd 2c f1 33 bc
       -0.00382192 0.107554846 -0.06640688 -0.010982793
000080 09 77 0e bd 2d dd bf 3d 0d 8d 8a 3d 5d 2e 62 bd
       -0.03478149 0.09368358 0.067651846 -0.055219997
000090 6d 76 cf 3c 16 d4 e2 3d ff 9c 46 3d 40 54 17 3e
       0.025325025 0.110756084 0.048489567 0.14778233
0000a0 62 7c 4e 3d 6b f2 83 3d 17 27 b5 3d 51 d4 5c 3d
       0.05041159 0.06442722 0.088453464 0.05391342
0000b0 27 02 8b 3d c5 bf 29 3b 6b f2 08 3d c4 9a 92 3d
       0.0678752 0.0025901657 0.033434313 0.071584255
0000c0 a8 2a d7 3d 3d df b8 3d 8d ff fa 3d a5 13 86 3d
       0.10506183 0.09026954 0.12255774 0.06546716
0000d0 d0 56 88 bd 65 53 4c bd 4c d2 5a 3d 56 b5 35 3c
       -0.06657183 -0.04988422 0.05342321 0.011090597
0000e0 75 27 54 3d a3 6f a8 3d 8f bf 08 bd ea 14 c8 3d
       0.05179544 0.08224418 -0.03338581 0.09769614
0000f0 67 a9 d4 3d ae 9c ae 3d 1c 0f 2f bd 36 6d 8d 3d
       0.103838734 0.08525978 -0.04273902 0.06905596
000100 54 14 75 bc 3f 8b 74 3d a3 76 e2 3d 06 6b c6 bc
       -0.01495846 0.059703108 0.110577844 -0.024220955
000110 b1 13 23 3c 79 c3 f6 bd ba 89 eb bc 1a 3b c3 3d
       0.009953425 -0.12049002 -0.028752197 0.09532757
000120 32 9e 84 bd 5d 8e 34 3d e0 c2 7e 3d a7 c6 82 3c
       -0.06475486 0.04408108 0.062197566 0.015963865
000130 c5 f2 53 3d f4 96 27 3c d9 af 3b 3d ff 56 8e 3c
       0.051745195 0.010228861 0.045822 0.017375467
000140 e3 b9 22 3d a2 3a 44 bd 53 4e 18 bd ee ce 8c 3d
       0.039728057 -0.04790748 -0.03718407 0.06875406
000150 ca 89 46 3d 24 1b e3 ba 5f 9f 6f 3d 77 a9 99 3d
       0.04847125 -0.0017326814 0.058501597 0.07503026
000160 ac f9 73 3b f8 05 f1 3d 85 de db 3d 2e 40 d8 bc
       0.0037227673 0.117687166 0.107358016 -0.02639779
000170 4a ab af 3d 10 d2 8b 3c e9 4a b1 3d 72 c1 91 3d
       0.08577593 0.017067939 0.08656866 0.07116975
000180 ca 29 5b 3d a0 02 9a bd 75 de 83 3d 2e a4 07 3e
       0.05350665 -0.07520032 0.06438915 0.13246223
000190 44 67 b9 bb a6 5e 95 bc 7b 87 50 3c a2 1a 7b bd
       -0.005658062 -0.018233608 0.012727614 -0.061304696
0001a0 1e 35 54 3c 2a a1 88 3c 2c 6e 96 3d ed dd 0e 3e
       0.012952117 0.016678412 0.07345232 0.13951845
0001b0 12 20 b1 3d dc 6e 3d 3d f7 e5 11 3e 59 05 7a 3d
       0.08648695 0.046248302 0.14247881 0.061040256
0001c0 04 e2 4f bd fb 2f 8f 3d 4c 88 15 3b 7c f9 39 bd
       -0.050752655 0.069915734 0.0022816835 -0.045403942
0001d0 bb 37 ed 3d 9b 6c 18 bc 87 16 67 bb d9 d7 82 bd
       0.11582895 -0.009303237 -0.003526123 -0.06388826
0001e0 17 fb d0 3d 68 06 19 3d 4b dd c7 bc 82 87 bc bb
       0.102041416 0.037359625 -0.024397513 -0.0057534585
0001f0 85 09 8b bd ee a2 bc bd 92 df d6 ba dd d0 10 3c
       -0.06788925 -0.09210764 -0.0016393533 0.008838859
000200 c4 78 91 bc 3f 23 61 3d dd 9d ac bb 15 ef 76 3d
       -0.01775778 0.054965254 -0.005267842 0.0602866
000210 5d 22 33 bd 72 78 b9 3d 60 e2 cd 3d 87 64 b6 3b
       -0.043733943 0.09056176 0.10052943 0.005566183
000220 de 37 8b 3d c6 92 71 bd ca 6a 41 bd 9d d0 14 3e
       0.06797765 -0.058977865 -0.047220983 0.14532705
000230 b5 31 2e bd 4c c9 28 bd ff 03 73 bd 00 3a 05 3e
       -0.042527873 -0.041207597 -0.059329983 0.13010406
000240 3e 72 6d 3d 1a 62 c3 3c 7b 75 2b bd c8 51 ab 3d
       0.057970278 0.02385049 -0.041860085 0.08365208
000250 e6 6f 9b bd 72 c5 c9 bc 1b 6d c4 3d 51 0b 8a bd
       -0.07589702 -0.024630282 0.09591123 -0.0674044
000260 3e ed 76 3d 82 71 51 3d bb 78 5d bd f4 c5 54 3d
       0.060284846 0.05113364 -0.054070216 0.051946595
000270 d9 58 99 3d 04 3a 12 3e 90 b3 91 bd a2 23 45 3d
       0.074876495 0.14279944 -0.07114327 0.048129685
000280 aa 88 42 bd c1 6e b4 3d d5 82 41 3d 04 fd 0d 3c
       -0.047493614 0.08810187 0.04724391 0.008666281
000290 67 ea 5e bd 1d eb 12 3d 32 47 b1 3d ea 3d 2b 3c
       -0.054422762 0.035868753 0.086561576 0.010451773
0002a0 df 57 aa 3c 0e a1 b4 3d 35 35 a0 3d 81 a3 a2 bc
       0.020793853 0.08819781 0.078226484 -0.019853355
0002b0 f0 50 4c 3d de c9 18 bc dc f0 33 bd 6e 9f 16 3d
       0.049881876 -0.009325473 -0.043930873 0.036773138
0002c0 f5 13 16 3e 97 bc 2a 3d 37 9a 9b 3a 2f d9 8d bc
       0.1465605 0.04168376 0.0011871521 -0.017315475
0002d0 10 1e 33 3c 13 04 c0 3d 32 5f 64 3d 96 d2 67 3d
       0.01093246 0.09375777 0.055754848 0.056597315
0002e0 76 6d e4 3d 2b ca 36 bd fb 11 40 bd 9a 4c 8e 3d
       0.111536905 -0.044626396 -0.046892148 0.06948204
0002f0 d2 6e e0 3c 14 cc 1a bd 8b 7d 48 3c 7b 5d c7 3d
       0.027396593 -0.03779228 0.012236963 0.09734627
000300 fd a7 21 3e a6 e4 03 3d dc 3b 12 3d 4a ff 6c 3d
       0.15786739 0.032200478 0.035701618 0.05786065
000310 4a a2 e2 3d d4 26 90 3d 9e a4 20 3e 4e 45 8d 3d
       0.110661104 0.07038656 0.15687796 0.068979844
000320 93 bb 20 3c 8f cf 53 3c 77 78 4a 3d dc 87 99 bc
       0.009810346 0.012927904 0.04943129 -0.01874154
000330 2e 2a 6e bd da 97 04 bd 1e ec ec 3d ff dc 00 3d
       -0.058145694 -0.03237138 0.11568473 0.03146076
000340 5a 8f 2e b9 22 0d 0b 3e d6 aa d6 3d 24 0f 59 3d
       -0.00016647336 0.13579229 0.10481803 0.052992955
000350 68 78 b5 3c c9 03 df 3b 7b 5f 09 3d 8a d3 9e 3c
       0.02215214 0.006805871 0.033538323 0.019387979
000360 db 6b 38 bd 54 cb 1a 3d 67 f6 24 bd 3b 67 36 3d
       -0.045024734 0.037791565 -0.04027405 0.044532042
000370 5d c0 36 bc c4 c5 29 3c 83 42 9d 3d a1 b0 e2 bc
       -0.011154261 0.010362092 0.07678702 -0.027672114
000380 82 98 13 3d 60 97 b2 3c 4e 0d aa 3d 02 1b 74 bd
       0.036034115 0.021800697 0.08303319 -0.05959607
000390 15 7f af 3d 60 38 d9 3c 89 90 9c 3d 8c d0 04 3d
       0.08569161 0.02651614 0.076447554 0.03242545
0003a0 f6 6e 98 3d c3 29 91 bc e9 ac e4 bd 61 03 89 3d
       0.07443039 -0.017720109 -0.111657925 0.066900976
0003b0 c4 3b 65 3d 25 69 56 bd ea 33 7f 3d 67 64 27 bd
       0.0559652 -0.052346367 0.06230537 -0.040867236
0003c0 e3 35 eb 3d d1 9c d2 3d c3 06 17 3d cb 54 ba 3d
       0.114848875 0.102838166 0.036871683 0.09098204
0003d0 b1 30 b5 3d 6e ed f1 bc 69 75 be 3d 07 6d 3e bd
       0.08847178 -0.02953216 0.09299738 -0.046490695
0003e0 db 92 4e bd ee 08 c6 3d c6 2c bf bc 64 35 2d bd
       -0.05043302 0.09669672 -0.02333678 -0.042287245
0003f0 73 41 8c 3d 75 47 7b b9 aa 05 9e bd 77 d7 1e 3d
       0.06848421 -0.00023963845 -0.07715924 0.038779702

network_body._body_endoder.seq_layers.2.weight f4 [256, 256]
000000 06 ec 88 3e e9 4c 40 3d 4f 04 04 3e 12 9d 32 3c
       0.26742572 0.046948347 0.12892269 0.010901706
000010 6a 95 07 3e 78 2d 5f 3e 48 f1 33 be 22 1b 2a 3d
       0.1324059 0.21794689 -0.1757251 0.041529782
000020 d8 b7 83 bd f9 ac 2a 3e e2 e6 79 3e b8 6b 38 3d
       -0.0643155 0.16667546 0.24404481 0.045024604
000030 6a 33 21 be e7 52 6d 3e 40 2c 2c bd 5a 12 02 3d
       -0.15742269 0.23176156 -0.042034388 0.031755783
000040 88 9c 17 be fe 9e aa 3d aa 63 df bd a8 81 a4 be
       -0.14805806 0.083311066 -0.10907681 -0.3213017
000050 f0 fa 00 3c 85 88 e7 bd 51 4a 68 3e 00 b3 36 3e
       0.007872328 -0.11305336 0.226846 0.1784172
000060 8c 23 81 be 1a 5e fe bd 39 c3 38 3b a8 13 eb bd
       -0.25222433 -0.12420292 0.0028192534 -0.114783585
000070 75 a6 bf bd ab 4a 13 3e ee a3 79 bd bb f0 82 3e
       -0.09357921 0.14383952 -0.06094735 0.25574288
000080 83 1e 66 be 6d 52 4f 3e 50 b3 4a bd 13 3c db bc
       -0.22472577 0.20246287 -0.049487412 -0.026762044
000090 17 33 25 3e ac 65 2c be a1 e6 78 3e 26 95 9a be
       0.1613277 -0.1683566 0.24306728 -0.30191916
0000a0 6d 4b 41 3d 5b 06 6f 3e b4 17 93 bd b3 da 5d be
       0.047191072 0.23342268 -0.071822554 -0.21665458
0000b0 ad d1 07 3e 9b 58 5a bd b2 29 58 be c3 df 1e be
       0.13263579 -0.053307157 -0.21109655 -0.15515046
0000c0 4d 8c 73 be dc 3b 6d 3e dc e7 1c 3d ab bd 22 be
       -0.23783989 0.23167366 0.038307056 -0.15892665
0000d0 8a 1a 5c be fd 75 1c be ae 54 4e be d4 3f 10 3e
       -0.21494499 -0.15279384 -0.2014949 0.14086848
0000e0 76 53 d9 bd 56 a3 39 be 11 57 a9 bd 7a 0f 49 bc
       -0.10611622 -0.18128714 -0.0826856 -0.012271756
0000f0 7b 9b 81 3d 94 e9 76 3d 30 4f 4b bd c3 43 a9 3d
       0.06328484 0.06028135 -0.049636066 0.08264878
000100 75 6b 81 bd 76 8c 81 be 5a 91 55 3e c0 3a 24 3e
       -0.06319324 -0.25302476 0.20856228 0.16038036
000110 b3 b8 01 3e f2 8c 0d be ef 1c 1d 3e 48 1d a3 3d
       0.12668113 -0.13823298 0.15343069 0.07964569
000120 58 bc ae bd b9 1a 2d be 44 05 00 bd ee 7e 9b 3d
       -0.085320175 -0.16904725 -0.03125502 0.07592569
000130 d9 b4 7a 3d fa 82 54 be ec 89 28 bd 9c 9f 26 3c
       0.061207626 -0.20753089 -0.041147158 0.01016989
000140 d1 7b bb 3d bf 8b 97 be d6 b8 6c be e3 31 6a be
       0.091544755 -0.29598805 -0.23117384 -0.22870593
000150 fd 03 ff 3d 6c 9e ce 3d 20 70 98 3d 44 de cb 3d
       0.124519326 0.1008881 0.07443261 0.09954503
000160 a3 51 78 be 9c 5d e1 3d 0e bf 42 3e 05 61 14 3d
       -0.24249892 0.11004183 0.19018194 0.036225338
000170 f9 19 00 3e ec 43 99 bd 16 df 93 3d 1f 65 f2 bc
       0.12509908 -0.07483658 0.07220285 -0.029589234
000180 49 67 00 be de 62 80 3d f5 77 5b 3d 80 7f f5 3d
       -0.125394 0.062688574 0.053581197 0.11987209
000190 c7 a5 1a 3e 73 c7 d1 3c fe 78 39 be cb 14 08 3e
       0.15102302 0.0256078 -0.18112561 0.13289182
0001a0 97 26 a2 be 93 92 c0 bc 30 ea 0e bd ed 98 ca be
       -0.31670067 -0.023507392 -0.034891307 -0.39569798
0001b0 9b 15 f4 3c 4e d8 91 3d 97 18 a1 3d 71 42 cb bd
       0.029795459 0.07121335 0.07866018 -0.09924782
0001c0 53 34 84 bd af a9 fb 3b d7 cf 5c bd da 42 de 3c
       -0.064552926 0.00768014 -0.05390915 0.027131487
0001d0 23 b7 88 3e 8f e5 53 3d 70 3f 15 3d 72 e3 68 bd
       0.26702222 0.051732596 0.03643745 -0.056857534
0001e0 08 12 d7 bc 8d a8 2e be 4c 99 9c 3d ed f0 15 3e
       -0.026253715 -0.17056485 0.076464266 0.14642687
0001f0 ad c6 f0 3c 1c a1 c6 bd 6f 60 43 be 92 c7 07 3e
       0.029391611 -0.09698698 -0.19079755 0.13259724
000200 a3 e9 97 be 69 f9 8b be 7c 42 19 3e 43 a4 b6 3d
       -0.29670438 -0.27338722 0.14966768 0.08918049
000210 08 a9 b8 3c a1 0c 88 3c ab 75 93 bc 6f d8 6c be
       0.022541538 0.016607584 -0.018000444 -0.23129438
000220 ef b3 fe 3d ab 20 0b be 3b 26 80 3b 4e ff a7 bd
       0.12436663 -0.1358668 0.0039108074 -0.082029924
000230 d4 6f 8a bc c1 67 8c 3b 8d 6f 8a be 7d a0 1e 3d
       -0.016899027 0.0042848294 -0.27038231 0.038727272
000240 82 e3 4d bd d7 0f 27 3e 84 f0 32 3d 6a a0 34 3e
       -0.050265796 0.16314636 0.043686405 0.17639318
000250 9b cb a5 3d 43 15 29 3c 7b 70 de bd bc 9a 95 3c
       0.08095475 0.010320011 -0.10861298 0.01826226
000260 9b ef 89 3d 12 f9 ae 3d 25 7e 08 bd 6d 0a 55 3e
       0.06735154 0.085436 -0.033323426 0.20804758
000270 de 55 4b bd 28 26 14 be ee 98 80 3d d6 b0 da bd
       -0.049642436 -0.1446768 0.06279169 -0.1067826
000280 82 e7 18 3e 26 d2 ad be ce aa 84 3c 31 e4 13 be
       0.14932063 -0.33949393 0.016194727 -0.14442517
000290 ba bb 23 be 19 2a 35 3e 6d bc 9b 3e ce 76 9d be
       -0.15989581 0.1769184 0.30417195 -0.30754703
0002a0 ae 37 fd bd ae bf 57 bc 8b dd c7 bd 6a 4d 02 be
       -0.12364136 -0.013168259 -0.09759053 -0.12724844
0002b0 2b a7 b5 bd 55 6b 2d be 5e 46 5a 3d f3 d1 46 3e
       -0.088697754 -0.16935475 0.053289764 0.19416027
0002c0 c4 3a 1d be c7 96 2d 3e 13 1f 4e bc 50 14 da bd
       -0.15354449 0.16952048 -0.012580651 -0.106484056
0002d0 79 fd 28 be de 72 89 3e b1 df 80 3d ae 43 b1 3d
       -0.16502942 0.2684545 0.06292666 0.08655487
0002e0 12 f5 32 3d 07 33 11 be 2f 10 7f bd 03 7c 65 3e
       0.04369075 -0.14179622 -0.062271293 0.22410588
0002f0 e8 e5 df bd 75 f8 87 3d 90 4d 11 be 32 14 39 bc
       -0.10932523 0.06639186 -0.14189744 -0.011296319
000300 34 38 20 be d9 4b 2e 3e 4f 1f 6b 3e ed 49 93 3c
       -0.1564644 0.17021121 0.22961162 0.017979586
000310 91 9a 92 bc 73 84 2d 3e 7e 12 29 3e d0 b3 c6 3c
       -0.017895969 0.16945057 0.1651096 0.024255663
000320 16 d6 1f bd b3 79 8e be d5 09 dc bd 68 13 1b bd
       -0.039022528 -0.27827224 -0.10744063 -0.037860304
000330 30 ed 0f 3e 75 ef d3 bd e9 7d a8 3e 16 b4 d9 bd
       0.14055324 -0.10348407 0.32908562 -0.10630052
000340 47 1c d0 bd e5 17 a1 3e f5 ad ac 3c 9a 38 92 3d
       -0.101616435 0.31463543 0.021079043 0.07139702
000350 90 c3 34 be 71 52 3c 3d 35 9d 28 bc c5 12 8f 3d
       -0.17652726 0.04597706 -0.010291387 0.06986002
000360 60 e7 03 3a 53 c2 02 be ea b3 af 3c 35 6b 06 bc
       0.0005031731 -0.12769441 0.021448094 -0.008204271
000370 ad 1d 90 bd 33 71 83 be 57 f3 92 3b cb e4 9f 3d
       -0.0703691 -0.25672302 0.004484575 0.07807311
000380 d1 dd f0 3d fc 3d 53 3c bd 4f 40 3e 63 8a e9 3b
       0.11761058 0.012893196 0.18780418 0.0071270927
000390 e1 a5 2e bd 6a d4 25 bd 37 03 d7 be 7a 32 e7 bd
       -0.042638663 -0.040485777 -0.4199464 -0.112889245
0003a0 85 9a 74 bd 13 e8 8e bd ac ed 42 be ce c8 93 3c
       -0.059717674 -0.069778584 -0.19035977 0.018040087
0003b0 c8 90 4d bd 00 83 c4 bd 14 4f e9 3d 05 3e c7 bd
       -0.050186902 -0.09595299 0.11392036 -0.09728626
0003c0 6e 79 7d 3e f5 5b 2e 3e 8c f2 70 3d c6 7f dc 3d
       0.24753353 0.17027266 0.05882506 0.10766558
0003d0 8c 15 f6 bc 72 5a 1f be 97 a8 10 be 4b 67 10 be
       -0.030039571 -0.15561846 -0.14126812 -0.14101903
0003e0 6a ee ab bd 30 67 60 3e 15 6c 9a bd 62 d7 6c 3d
       -0.08395083 0.21914363 -0.07540146 0.057822593
0003f0 67 d7 43 be 96 c0 2c be fc da 85 3e c8 ca 4b be
       -0.19125138 -0.1687034 0.26143634 -0.19901574

network_body._body_endoder.seq_layers.2.bias f4 [256]
000000 74 31 f5 3c 2b c0 7a 3e ac 58 61 3e f8 4d ed bb
       0.029930808 0.24487369 0.22006482 -0.0072419606
000010 35 65 8d bd 0c 19 bb bc 36 89 d8 bd 47 42 79 bc
       -0.06904069 -0.022839092 -0.10573046 -0.015213556
000020 09 03 16 bc 06 5e be bd 76 9e 61 bc 52 55 a8 3d
       -0.009155997 -0.09295277 -0.01377069 0.082193986
000030 14 eb 19 bd 46 8d 8f bd 10 52 3c bd a3 2f a5 bd
       -0.037577704 -0.07009368 -0.0459767 -0.080657266
000040 25 9a ba bd 7c 0a f2 3a 7f 44 19 3e d8 af 1e bd
       -0.09111432 0.0018466259 0.14967535 -0.038741916
000050 51 4c 09 3d cf d9 81 bd d7 22 7b 3c ac 82 70 bd
       0.033520047 -0.06340372 0.015328131 -0.05871837
000060 11 24 bc 3d 48 95 3c bc b5 2c 21 3b 47 b3 ba bd
       0.091865666 -0.011510201 0.0024593298 -0.09116226
000070 27 9f bb bd 15 a1 b6 3d 8d 32 a6 bc 49 c1 3e bd
       -0.09161215 0.08917443 -0.020287776 -0.04657105
000080 b9 8c 60 bc b8 10 eb b8 fd b4 c5 bd 47 f2 2f bd
       -0.013705426 -0.00011208787 -0.096536614 -0.042955663
000090 16 bd 17 3e 9b e8 00 3d 02 24 07 3e 3b 60 27 bc
       0.14818224 0.03147183 0.1319733 -0.010215814
0000a0 f0 c8 04 bc 80 f8 8a bc 82 12 88 bc 69 dd cc 3d
       -0.008104548 -0.016964197 -0.016610388 0.10003168
0000b0 df 99 6d bd 37 5c d7 3d 59 5c 7c bc d9 8e 84 3c
       -0.05800807 0.105156355 -0.015402877 0.016181396
0000c0 fe f8 64 3d 25 d9 86 3d 83 9a 84 3d 68 0a 7b 37
       0.05590152 0.06584386 0.06474783 1.4963189e-05
0000d0 21 5c 43 bd 76 8a 53 3b 04 02 28 bd af 52 1b 3d
       -0.047695283 0.0032278574 -0.041017547 0.03792065
0000e0 f4 65 8a bd 0b 99 31 bc 16 c5 42 bd e5 8d 0a bd
       -0.06757727 -0.010839711 -0.047551237 -0.033826727
0000f0 b0 f8 6c 3d 32 0c b0 bd 39 ab 1a bc a6 10 e2 bc
       0.057854354 -0.08596076 -0.009440237 -0.02759583
000100 24 4e 05 3d 59 40 96 3d 31 e5 39 3c bf e5 8d bc
       0.032545224 0.07336492 0.011346147 -0.017321466
000110 c7 bd 58 3c d8 d4 ff 3d b3 85 71 3c 69 80 e9 3d
       0.01322884 0.124917686 0.014741349 0.114014454
000120 d7 f3 35 bd 03 d9 82 3d 87 87 66 3d df d6 71 3d
       -0.044421997 0.06389048 0.056281593 0.059042808
000130 c1 dc 04 3d dd 7c f2 3d 81 e6 c4 bc da b8 17 3d
       0.03243709 0.11840222 -0.024035694 0.037041523
000140 30 35 5e 3b a8 eb d6 3b e6 ee 2d bb 95 ea 81 3d
       0.0033906214 0.006558854 -0.00265401 0.06343571
000150 e3 ac 98 bc 3d 2a 29 3d 51 f8 6f bd 89 2a 0f 3d
       -0.018637126 0.041300047 -0.058586422 0.034952674
000160 cd 94 73 bc bf 91 bd 3d 2a ff 3a 3d e5 f5 da bd
       -0.01486702 0.092563145 0.0456535 -0.10691432
000170 81 85 e2 3d f4 4c 54 bb 48 30 d4 bc 30 61 9f 3b
       0.1106062 -0.00323945 -0.025901929 0.0048638806
000180 20 17 f3 3b e0 81 8a 3d 08 75 6a 3c 91 c3 4b 3e
       0.007418528 0.06763053 0.014310129 0.19898821
000190 a0 e8 05 3c a8 32 05 3e 1c 0d 38 bd 50 eb 21 bd
       0.008173138 0.13007605 -0.044934377 -0.039531052
0001a0 57 11 9a bd 4e b3 8e 3d 11 73 a2 bd f2 98 25 3d
       -0.075228386 0.069677934 -0.079321034 0.040429063
0001b0 e9 f1 b3 ba bd 55 02 3e df b2 64 3d 99 87 eb 3a
       -0.0013728711 0.12728019 0.055834647 0.0017969488
0001c0 d6 8b 95 bc 68 ed 86 3d 4c d7 04 3e 82 29 38 3d
       -0.018255156 0.065882504 0.12972754 0.04496146
0001d0 19 1c 13 bd 61 2f 54 3c 6f 80 0e bc f5 46 ff 3c
       -0.035915468 0.012950749 -0.008697613 0.031161765
0001e0 02 96 26 bd 50 b2 bf bb 48 c4 b0 bc 95 38 20 3d
       -0.040670402 -0.005850114 -0.02157797 0.03911646
0001f0 95 d8 c3 3c 83 f2 94 bc 1b dd 4a bc b7 84 88 bd
       0.023906985 -0.018182045 -0.012381817 -0.06665938
000200 8b c6 32 3d 89 ef 5f bd 80 38 11 3e 84 35 11 bc
       0.043646377 -0.054671798 0.1418171 -0.008862857
000210 6d bb bb bd 85 5b e9 bc 89 31 1f bc 98 6f 80 bd
       -0.09166608 -0.028486023 -0.0097164 -0.06271285
000220 b7 09 3e 3c 38 54 19 3d 9e 8e 12 bd 14 b6 ae 3d
       0.011598996 0.037433833 -0.03578054 0.085308224
000230 32 46 c8 bd 57 3c f9 3d ee 50 61 3d ad 50 2f bc
       -0.09779014 0.12169712 0.05500882 -0.010700387
000240 d6 93 64 bd 34 5f dd 3b 5b 90 a3 bc 1d 73 fa bc
       -0.05580505 0.006755734 -0.019966295 -0.030572468
000250 84 f5 27 3d 94 80 86 bd f4 3c 45 3d a2 86 07 bd
       0.041005626 -0.06567493 0.048153833 -0.03308738
000260 b5 7a 33 bd 1e 0f 95 3d 04 b1 aa bc bc a9 a8 bb
       -0.043818194 0.07278274 -0.02083636 -0.005147187
000270 6a 2c 51 bd dd d0 9c bd 51 fd a3 3c fa e4 ef bd
       -0.051067747 -0.07657025 0.020018252 -0.11713596
000280 9a 19 8a bd dd 13 a4 bd b2 15 89 3c d8 cc 60 bd
       -0.06743164 -0.08011601 0.016733978 -0.054882854
000290 db c7 a9 bc 30 9e 96 bd 40 76 9f 3c ac 1c 72 bd
       -0.020725181 -0.073543906 0.019465566 -0.059109375
0002a0 4d 51 ae 3c c4 1c 5a 3c a6 53 18 3d bb 31 20 3e
       0.021279002 0.013312522 0.03718915 0.1564397
0002b0 18 28 46 bd 39 45 d4 3b 8a 90 5f 3d c5 27 92 bc
       -0.04837808 0.0064779785 0.054581203 -0.01784123
0002c0 31 40 73 3c 0d c2 55 3d b4 5c 97 3d 23 95 38 bc
       0.014846847 0.052187014 0.073907286 -0.011266026
0002d0 5f f5 c1 3d 66 20 b7 bc ae 5f 08 3d 64 b7 b0 3d
       0.09470629 -0.022354316 0.033294372 0.08628729
0002e0 c8 d6 88 3d a9 dc d3 3c 53 ee 60 bd bb 48 4b 3c
       0.06681591 0.025862055 -0.054914784 0.012407477
0002f0 c0 04 a5 bd cb 4f 61 bd db 92 4b bc 52 85 64 bc
       -0.080575466 -0.055007737 -0.01242515 -0.013947802
000300 36 9b 9b bc 14 df a4 3b f0 4e 61 bd db 5c 5b 3c
       -0.018994909 0.005031476 -0.05500692 0.013388838
000310 71 a5 1c bc ba ce ef 3c 4b a4 a5 3d 9c 0f e4 bb
       -0.009560929 0.02927338 0.08087977 -0.0069598686
000320 61 b4 58 3d 80 46 58 3d 4c 8d 84 3d a8 74 7f bd
       0.052906398 0.05280161 0.06472263 -0.06236711
000330 cd 0d 3b 3b 1a da 1d 3d 78 6b 13 bc 01 1e 00 3c
       0.0028542161 0.038538076 -0.0089977905 0.0078196535
000340 92 04 b8 3d f5 42 18 bd 2d f3 73 bd 06 02 02 bd
       0.08985247 -0.03717323 -0.059558082 -0.03174021
000350 42 b3 e1 bc 39 56 04 3a c6 bb c4 bc 68 cf 67 bd
       -0.027551297 0.00050482486 -0.024015319 -0.056594282
000360 dc 16 d2 bc 72 76 bb 3d a0 e0 13 3d 15 a8 60 3d
       -0.025645666 0.09153451 0.03610289 0.054847796
000370 71 7b 68 bd b9 4a 8e 3d 22 c0 ca 3b 67 9d 4d bd
       -0.056758348 0.06947846 0.006187455 -0.05019894
000380 05 5e d9 3d aa 80 6a bd 07 22 15 3b f4 54 ef bc
       0.10613636 -0.05725161 0.0022755878 -0.029215313
000390 aa 91 0f 3d 71 55 db bd 5a 2f 85 3c 71 31 fb b9
       0.035051025 -0.10709656 0.01625793 -0.00047911287
0003a0 24 53 9a 3c e5 77 d4 3d 53 ee a8 bd 11 25 72 bd
       0.018838473 0.103744306 -0.08248582 -0.05911738
0003b0 1d 76 1f bd 09 67 a2 bc 31 05 8b bd f4 f3 bd 3d
       -0.038931 -0.019824522 -0.067880996 0.09275046
0003c0 af c5 47 3c 60 d5 e6 3c 51 0e c5 bc f8 f1 53 3c
       0.012193128 0.028177917 -0.024054678 0.012936108
0003d0 05 d0 9c 3a 62 98 31 bb 39 70 f2 bd 31 8b df 3d
       0.001196385 -0.0027098884 -0.11837811 0.109152205
0003e0 60 d7 2b 3d 52 3a 9c bd 1a 63 c4 bc c0 24 56 3c
       0.041953444 -0.07628311 -0.023973037 0.013070285
0003f0 5c 31 9a bd 93 84 4b 3e f4 6b 06 3d 3d 0c 35 bd
       -0.07528946 0.19874792 0.032817796 -0.044201124

action_model._discrete_distribution.branches.0.weight f4 [7, 256]
000000 04 b2 d6 bd 88 2b db be 65 11 71 3e 05 a2 02 3d
       -0.104831725 -0.4280665 0.23541792 0.031892795
000010 9c 94 ca 3d 4f 08 b2 bd 0b fd 1f 3e a2 48 1d 3e
       0.09891626 -0.08692991 0.15623872 0.15359738
000020 3d 2a 14 3b ea a8 3c 3e fc 11 ab 3c fa 7c a0 bd
       0.0022608184 0.1842381 0.020882599 -0.078363374
000030 3d 2c 35 be 4c d5 f2 3d 87 24 5b ba d5 f7 05 3e
       -0.17692657 0.118570894 -0.000835963 0.13082822
000040 4f 87 ea 3d 28 09 d0 3d ab 5d 54 be 31 dd 45 bd
       0.11451589 0.101579964 -0.20738856 -0.048306648
000050 14 0a a3 bd 88 05 bf 3d c5 a7 9e 3b d2 3d c0 3c
       -0.079609066 0.09327227 0.004841777 0.023466978
000060 4c 6b d6 bb f9 ff 87 bd b7 80 c1 3d 86 0f b5 3b
       -0.0065435525 -0.0664062 0.094483785 0.005525532
000070 d6 21 aa 3d 6f 3e 19 be 0a 90 e0 3d 27 c4 9f bd
       0.08307235 -0.14965223 0.10964973 -0.07801085
000080 94 ff 54 3c 0d 73 8c bd b7 50 59 3c 5c 0a 98 3d
       0.013000388 -0.06857882 0.013263873 0.07423851
000090 d8 d9 81 bc 43 62 f3 3d cf 7a 8e be 35 09 1e be
       -0.015850946 0.11883976 -0.2782807 -0.154332
0000a0 c1 1f bd bd 5b 4d a1 bc 04 13 d5 3d 3b 67 7c 3d
       -0.09234572 -0.019690206 0.104040176 0.061621886
0000b0 78 68 17 3e 5f fb 04 3d 9b 80 1b be 73 3d 3e 3b
       0.14785945 0.03246629 -0.15185778 0.0029028326
0000c0 e3 8a 5c be 7f 92 2d 3d 18 01 07 bd 91 99 5d be
       -0.21537356 0.042376038 -0.032960027 -0.21640612
0000d0 4d d6 42 bd e2 16 32 bd 1c 2f 1c 3e e2 01 40 bd
       -0.047567654 -0.043478854 0.15252346 -0.046876796
0000e0 81 f3 b5 bd b3 7c 20 3e d1 18 8c 3b c2 3c 18 3c
       -0.08884335 0.15672569 0.0042754193 0.00929183
0000f0 3e 71 9b be cf e1 b2 bd 91 a8 b5 3d 22 0d 88 ba
       -0.30359834 -0.08734476 0.08870042 -0.001037989
000100 ce 09 7c bd 31 80 af 3c 8d 6c ba bd 8d dd 88 bc
       -0.061532788 0.021423431 -0.09102736 -0.016707206
000110 94 57 99 3d ea e9 26 bd 54 21 97 bd 95 8c 8c be
       0.07487407 -0.04075042 -0.07379404 -0.27451006
000120 b8 58 24 3d ca a2 0b be d0 66 87 3a 1a ba 40 bd
       0.04012367 -0.13636318 0.0010330323 -0.04705248
000130 85 c7 49 3e bf 15 84 be be 19 b2 bd 82 92 a0 bd
       0.19705017 -0.2579784 -0.08696316 -0.07840444
000140 69 fe 9d 3d 9d ea da bd b2 5b 24 bd 41 e2 30 bd
       0.077145405 -0.1068928 -0.04012651 -0.043184523
000150 ce 76 93 3d d0 1f 1b be 13 af 14 3e 1c 62 a2 bd
       0.072003946 -0.15148854 0.1451991 -0.07928869
000160 8c 0f 44 3b 18 2a 5e be 90 63 23 bd 64 8b 76 3e
       0.0029916493 -0.21695745 -0.039889872 0.24076611
000170 1a 11 4f bd c2 db 08 bd 7b 67 2b bd 92 9a 29 bc
       -0.05055342 -0.033412702 -0.041846734 -0.010351794
000180 dd 23 f1 bd 90 ed 7a bd 15 3a 1d be 4e 93 5e be
       -0.117744185 -0.061261714 -0.15354188 -0.2173588
000190 62 59 11 bd 4a 86 b0 be 98 57 df bb 3e 3b 14 3e
       -0.035485633 -0.34477454 -0.006815862 0.14475724
0001a0 c5 4d df 3c 96 c0 d7 3d 4e 13 d8 3d 67 28 43 bd
       0.027258763 0.1053478 0.10550557 -0.047645953
0001b0 aa b4 11 3e 96 57 14 3d 5f 79 c7 bd bc 16 0a be
       0.14229074 0.03621634 -0.097399466 -0.13485235
0001c0 4b 89 43 bd e1 90 49 be a5 15 57 bc 19 61 e5 bd
       -0.047738355 -0.19684173 -0.013127719 -0.112001605
0001d0 e4 76 c8 3d f3 1d 8c bd b2 52 eb 3a 7c 5b 07 3d
       0.097883016 -0.0684165 0.0017953722 0.03304623
0001e0 28 57 52 bd ef 66 2b 3d a0 88 05 be 3e 8a dd bb
       -0.05135265 0.041846212 -0.130404 -0.0067608645
0001f0 47 4b b3 bd 31 da 7c bd 60 12 4e bd c9 22 13 3d
       -0.087545924 -0.06173152 -0.050310493 0.035921846
000200 9b 12 af bd a8 29 7c bc 8a 1d 54 be a1 5c 4c 3d
       -0.085484706 -0.015390791 -0.20714393 0.049893025
000210 3f e5 19 3e 2f e2 c2 bb d7 01 e1 bc 2a 8c 8a bc
       0.15028857 -0.0059473733 -0.027466698 -0.016912539
000220 9d 4d 99 3d c9 63 9c bb ea 58 ce 3a 55 27 ef bd
       0.07485507 -0.0047726375 0.0015743051 -0.11677424
000230 b5 fa fe 3c 2b 79 63 be 31 8e df bd 20 42 33 3d
       0.031125406 -0.2221419 -0.10915793 0.043764234
000240 3b 19 bb bc 6c 73 c3 bd 27 c6 12 be 30 85 23 be
       -0.02283918 -0.09543499 -0.14333402 -0.15968776
000250 42 25 20 3e 1a 8c 64 bd e5 4a 52 be 88 59 02 3e
       0.15639213 -0.055797674 -0.20536382 0.12729466
000260 f3 9d 90 3d 57 86 a6 bd bb 78 68 bd 6b db aa 3c
       0.070613764 -0.08131092 -0.056755763 0.02085658
000270 fe 2c f0 bc 6c 9f 1e 3e 16 9b 4d bd 98 38 42 3e
       -0.029318329 0.15490502 -0.05019673 0.18966901
000280 40 c5 13 be 6c e4 5a 3e d3 fd 16 3d d6 09 cb 3d
       -0.14430714 0.21376199 0.03686316 0.099139854
000290 49 4d 12 3e 55 25 21 3e 65 2a 74 3d c1 81 56 3e
       0.14287294 0.15736897 0.059610743 0.20947935
0002a0 e8 ba ae be d2 16 bc 3d 0a ca 00 be a0 69 9a be
       -0.34126973 0.0918404 -0.12577072 -0.3015871
0002b0 a6 ff 4f 3e 1a 43 fe bc 30 89 12 be b2 47 9a be
       0.20312366 -0.031037856 -0.14310145 -0.30132824
0002c0 c9 db 9f bd e0 b3 0b 3c 46 2b c1 3d 81 b8 50 3d
       -0.078055926 0.008526772 0.09432082 0.050957207
0002d0 80 ed 01 be 01 8f 8b bd ae 26 a6 3c 9f a6 0e be
       -0.12688255 -0.06814385 0.020282116 -0.13930748
0002e0 a0 87 3d be 09 92 10 3d d8 7f 08 3e 0b 12 41 be
       -0.18508768 0.03529552 0.13330019 -0.18854539
0002f0 69 78 bf 3c 64 d9 b9 bc eb 9c b4 3b a9 b5 37 be
       0.023372846 -0.022686668 0.00551187 -0.17940392
000300 80 a3 e2 bd 64 9e f4 3b 66 cd 76 bd 32 d4 2a 3e
       -0.110663414 0.0074651707 -0.060254477 0.16682509
000310 65 f3 45 be 50 4f aa bd f1 70 3b bd ae 3d 36 bd
       -0.19331129 -0.08315909 -0.045762006 -0.044492416
000320 d5 8f ab bd fb 20 30 be a7 c4 4d 3d e0 74 79 3e
       -0.08377043 -0.17200081 0.05023637 0.2436099
000330 08 2d cc bc bf 88 a7 be 8a 04 1b 3e 21 b4 3c bc
       -0.024923816 -0.32721516 0.1513845 -0.011517555
000340 fe 9c ab bd 1f 04 3f bd 4e f5 8e 3c 62 c9 a1 3d
       -0.08379553 -0.04663479 0.017450955 0.07899739
000350 05 0e c7 bc 79 44 37 be 63 46 1f bd 42 07 1e be
       -0.024298677 -0.17897214 -0.038885485 -0.15432456
000360 b4 4b 55 bb 70 f4 8a be f0 55 76 bc ec c8 80 be
       -0.0032546343 -0.27139616 -0.0150351375 -0.2515329
000370 33 0c 07 3d 9b b2 37 bc 2d 1a 36 be b7 20 26 bc
       0.03297062 -0.011212016 -0.17783423 -0.010139636
000380 e1 60 1c 3d 68 72 1b bd 54 cd 1f be 19 b1 dd bc
       0.03817833 -0.037950903 -0.1560567 -0.027061986
000390 e7 de 79 be 61 f7 0f 3e fb fb 73 be e2 0e fc 3c
       -0.24401437 0.14059211 -0.23826592 0.030768815
0003a0 1b ce 52 bd 3f cd a3 be 92 d4 8f 3c 7b 15 e0 3d
       -0.05146609 -0.31992528 0.017557416 0.10941597
0003b0 1f 50 4b be 6b 85 3e 3e 4e ff 23 3e a9 14 8d 3c
       -0.19854783 0.18605582 0.1601536 0.017221766
0003c0 2b 37 03 bb c8 c4 4b be 98 f5 80 3d 49 8b 35 bd
       -0.0020021896 -0.19899285 0.06296843 -0.044322286
0003d0 cb 6e 12 3b 6e 4c a3 bd 81 0e 51 3e 89 85 83 bd
       0.002234387 -0.07973562 0.20415689 -0.06421954
0003e0 c0 3f 59 3d 67 e2 c5 3d 44 64 39 3c 41 09 69 bc
       0.053039312 0.096623234 0.011315409 -0.014223398
0003f0 8a c7 6b 3e 79 71 bd be a7 99 e3 bd 63 d8 11 3e
       0.23025337 -0.37000635 -0.11113291 0.14242701

action_model._discrete_distribution.branches.0.bias f4 [7]
000000 09 d9 c4 be c3 81 af 3c 7a 28 db bc 31 8d 90 3a
       -0.38446835 0.02142418 -0.0267527 0.0011028406
000010 64 66 21 3d 7e 36 aa 3c af be db 3c
       0.039404288 0.020777937 0.026824323
