results/puzzle_expirement_7/PuzzleBehavior/PuzzleBehavior-49499968.onnx (onnx, 342923 bytes, 6 tensors)

network_body._body_endoder.seq_layers.0.weight f4 [256, 65]
0.32754335 -0.1609045 0.10751435 -0.2859267 0.08088026 0.00361016 0.18003556 0.110981256
-0.22732088 -0.2703487 0.106785394 -0.04765073 0.16942717 0.15907773 0.29853776 -0.19492057
-0.08355583 -0.10784276 -0.19500771 -0.22597423 0.28186405 -0.24922974 0.04109304 0.047321856
5.2844513e-05 -0.17771216 0.004794653 0.23576114 -0.06680124 -0.025398795 0.122287825 0.01151652
0.058893878 0.04828301 0.044173036 -0.16690855 -0.16521327 -0.04525592 -0.12571765 0.08520012
0.07113649 -0.2317914 -0.09942345 0.03735733 0.47267148 0.13051796 0.30724207 -0.15943623
-0.31696504 0.17175514 -0.10733617 -0.08316964 0.03916223 0.3791484 0.22217347 0.05283968
0.1244485 0.08988924 -0.02898414 0.0403898 0.06647187 -0.24872036 0.27423343 0.037045218
-0.058267258 0.003142547 -0.18877691 -0.07897827 -0.44471765 -0.112729065 -0.087162666 0.072756134
0.08288742 -0.3244051 0.1107018 0.15819746 0.14669752 -0.3021759 0.079174414 -0.17786771
0.1437396 0.33204874 -0.3844698 0.110998236 -0.040836345 0.34712705 0.09189203 0.17035022
-0.036531966 0.022557061 0.3709938 0.3170113 -0.058496352 0.031244379 -0.337223 0.099860065
0.01773667 0.011261268 0.049708452 -0.02547263 0.3257202 -0.19165362 -0.026226792 -0.20245537
-0.37807778 0.21682662 0.27773768 0.13776538 -0.2711965 -0.06461062 0.21067956 0.18206246
-0.05539939 -0.17067255 -0.040576596 0.34171164 0.22610307 -0.11540829 0.1840931 0.063708186
0.09081748 -0.27796656 -0.063971646 0.0032227025 0.23991516 0.017680299 0.2381778 0.080804825
-0.05437799 -0.08744679 0.053501517 -0.1481767 -0.26977605 0.11329859 0.019484783 -0.3325902
0.06124995 -0.09445837 0.22584945 0.048717536 0.104068026 -0.05778425 0.026957378 0.35883886
-0.3763128 0.021083059 0.095517136 0.1971445 0.04563353 0.1872381 0.022149198 -0.069393605
0.05701414 -0.27885118 0.23609014 0.051563535 -0.39056653 0.28879046 -0.26477268 0.13363697
0.097509116 -0.09236477 -0.017740631 -0.0019063262 0.07164132 0.22206365 0.25030333 -0.05199313
0.24070835 0.014644658 0.032475047 -0.0791827 0.12151632 -0.5540071 0.28636292 0.18511628
-0.19074547 0.4119098 -0.04864011 0.042362414 0.09855472 0.10559528 0.41669056 -0.083265655
0.07713019 0.19672967 0.10187432 0.47112128 0.06866805 -0.056157738 -0.028154323 -0.18568505
0.7524446 -0.06838446 -0.063368864 0.08176349 0.03606584 0.19095394 -0.08531062 0.031145621
-0.09926371 0.176419 0.11114537 -0.49570397 0.1363889 0.34248304 0.12466244 0.15679972
0.06760507 -0.3507712 -0.078698926 0.30198288 -0.19696 0.20827803 -0.16512269 -0.17334904
-0.4768591 0.038517494 0.0552421 0.11115985 0.16548297 -0.18248956 0.3404157 0.11865886
-0.28951573 -0.052445076 0.045756966 -0.1535761 0.007652819 0.12556331 0.13258284 0.21348466
-0.1555083 -0.26422584 0.15021957 -0.10104937 -0.107352845 0.06351902 0.26868767 0.091758326
-0.20706558 0.12519273 -0.10849452 0.36495507 0.077687144 -0.03444774 0.00088437914 -0.013926538
0.65797 -0.24586035 0.14104466 -0.19535328 -0.014661976 0.081379965 0.037884124 -0.05734875
00000000: c3b3 a73e 26c4 24be 7c30 dc3d fc64 92be
00000010: 8da4 a53d 6f98 6c3b 3e5b 383e 244a e33d
00000020: cec6 68be 256b 8abe 4db2 da3d 692d 43bd
00000030: 517e 2d3e 46e5 223e f1d9 983e 4299 47be
00000040: 521f abbd aadc dcbd 1ab0 47be ca65 67be
00000050: 7c50 903e 1536 7fbe 2d51 283d 90d4 413d
00000060: 5da5 5d38 2dfa 35be 771c 9d3b 5e6b 713e
00000070: 17cf 88bd 2211 d0bc 0a72 fa3d c9af 3c3c
00000080: b53a 713d 68c4 453d c9ee 343d 13ea 2abe
00000090: ab2d 29be 465e 39bd 21bc 00be 677d ae3d
000000a0: 02b0 913d ba5a 6dbe 869e cbbd 0004 193d
000000b0: ff01 f23e 80a6 053e d54e 9d3e 4043 23be
000000c0: 3e49 a2be 94e0 2f3e 11d3 dbbd d854 aabd
000000d0: 9368 203d bd1f c23e 7181 633e 6c6e 583d
000000e0: dbde fe3d da17 b83d 2670 edbc c66f 253d
000000f0: 6722 883d 8db0 7ebe 5368 8c3e babc 173d
00000100: a6a9 6ebd 31f3 4d3b bc4e 41be 5cbf a1bd
00000110: 08b2 e3be 7fde e6bd 5782 b2bd 2b01 953d
00000120: e1c0 a93d 6d18 a6be a0b7 e23d 84fe 213e
00000130: e037 163e cdb6 9abe 3226 a23d f422 36be
00000140: 7930 133e 4b02 aa3e 3ad9 c4be 0b53 e33d
00000150: 0344 27bd a3ba b13e e331 bc3d 4a70 2e3e
00000160: 8ba2 15bd 96c9 b83c e6f2 bd3e 4e4f a23e
00000170: df99 6fbd 36f4 ff3c 7ea8 acbe 6f83 cc3d
00000180: 7e4c 913c 2e81 383c 179b 4b3d faab d0bc
00000190: ccc4 a63e d940 44be 92d9 d6bc 7650 4fbe
000001a0: 6993 c1be cc07 5e3e a233 8e3e 5e12 0d3e
000001b0: 45da 8abe 9352 84bd 62bc 573e 956e 3a3e
000001c0: 79ea 62bd c9c4 2ebe a533 26bd d4f4 ae3e
000001d0: 9087 673e 2e5b ecbd e782 3c3e 7079 823d
000001e0: 84fe b93d a251 8ebe 9103 83bd fa33 533b
000001f0: 52ac 753e 46d6 903c e2e4 733e 007d a53d
00000200: 75bb 5ebd 4d17 b3bd 6824 5b3d a2bb 17be
00000210: 1620 8abe 1709 e83d 8d9e 9f3c 4349 aabe
00000220: 3ae1 7a3d 6473 c1bd 1445 673e 0a8c 473d
00000230: 9e21 d53d 2daf 6cbd b8d5 dc3c bab9 b73e
00000240: 12ac c0be 61b6 ac3c 7d9e c33d 3fe0 493e
00000250: 39ea 3a3d 58bb 3f3e 3c72 b53c 3c1e 8ebd
00000260: a987 693d 95c5 8ebe 9dc1 713e 4934 533d
00000270: 56f8 c7be 58dc 933e 4990 87be 21d8 083e
00000280: dcb2 c73d be29 bdbd cd54 91bc b1dd f9ba
00000290: afb8 923d a764 633e c227 803e c0f6 54bd
000002a0: 407c 763e 26f0 6f3c 8e04 053d 8a2a a2bd
000002b0: 8cdd f83d 69d3 0dbf 299e 923e 1f8f 3d3e
000002c0: c852 43be d7e5 d23e da3a 47bd 3684 2d3d
000002d0: 0fd7 c93d 5742 d83d 7758 d53e 2f87 aabd
000002e0: 6ff6 9d3d 8173 493e 7ca3 d03d cf36 f13e
000002f0: d6a1 8c3d a805 66bd e5a3 e6bc 3924 3ebe
00000300: 36a0 403f 270d 8cbd 89c7 81bd 9e73 a73d
00000310: c6b9 133d 6e89 433e 56b7 aebd 1a25 ff3c
00000320: c64a cbbd 2fa7 343e 2fa0 e33d e9cc fdbe
00000330: 88a9 0b3e f059 af3e 054f ff3d 1b90 203e
00000340: 8774 8a3d 4898 b3be e72c a1bd 809d 9a3e
00000350: e2af 49be d646 553e ec15 29be 6982 31be
00000360: e026 f4be 85c4 1d3d 8a45 623d c7a7 e33d
00000370: 5e74 293e 8bde 3abe f74a ae3e 6b03 f33d
00000380: 683b 94be a6d0 56bd a86b 3b3d 0e43 1dbe
00000390: 80c4 fa3b ab93 003e ccc3 073e b99b 5a3e
000003a0: 913d 1fbe 9c48 87be 29d3 193e f9f2 cebd
000003b0: cfdb dbbd 4316 823d 6e91 893e caeb bb3d
000003c0: 0009 54be 8632 003e 6032 debd 64db ba3e
000003d0: 701a 9f3d 1319 0dbd aed5 673a 222c 64bc
000003e0: b970 283f d1c2 7bbe 036e 103e b10a 48be
000003f0: c938 70bc 8aaa a63d 622c 1b3d 86e6 6abd

network_body._body_endoder.seq_layers.0.bias f4 [256]
0.0071456404 -0.050801873 0.0013814823 0.099948764 -0.17230481 0.01750428 0.112840794 0.110591225
-0.058428388 0.11491169 0.004118417 -0.07458958 0.1603642 0.09576255 0.09235779 0.08985227
-0.045865133 -0.024358585 -0.024913492 -0.013005037 -0.008270005 -0.07783917 0.0426698 0.17987601
0.12960204 0.250218 -0.037132166 -0.004428427 -0.049764443 0.1484362 -0.14270459 0.00951774
-0.010018397 0.08054583 0.010272315 -0.08188069 0.0728729 0.18660498 0.10511313 0.20885727
0.086910605 0.003539145 0.099669255 0.122347176 0.047742292 -0.07425776 0.035631582 0.08143953
0.15985861 0.09924771 0.13888444 0.09052272 -0.08631185 -0.0728846 0.041340806 0.002090074
0.086718746 0.10220222 -0.094038 0.09754325 0.054050393 0.096811734 -0.08908268 0.096248016
0.011294643 0.13654374 0.13485958 -0.09339479 -0.011612397 -0.11314175 -0.07727871 0.07377894
-0.10231877 0.066421986 0.07452724 -0.004995784 0.064217225 -0.00842044 0.008577116 0.01627702
0.025804807 -0.035435423 -0.05940187 0.12099285 -0.056433294 -0.07683655 0.032427274 0.099758394
-0.012487879 0.105582155 0.17511146 -0.07562262 0.0728153 0.067918524 0.052803107 0.12412968
-0.007391525 -0.120796226 0.02268948 0.16433415 -0.06754032 -0.042314682 0.060683053 -0.101933934
0.043991826 0.01646124 0.07418727 0.19326042 0.09468216 0.044941977 0.19239527 0.061586287
-0.13194321 0.023992775 -0.0076357317 -0.118315145 0.099138625 -0.09355056 -0.03456162 -0.0018184969
0.116389304 0.0005875347 -0.06604766 -0.14420167 -0.13697278 -0.043794032 -0.012013694 0.041422714
0.012768384 0.07092723 -0.06516151 0.056116994 -0.08544196 0.103543654 0.06817666 -0.044308353
0.06362826 -0.10524991 -0.108073786 0.1904867 -0.014487186 -0.040355396 -0.10663357 0.14301123
0.08978319 0.11156248 -0.11895501 0.083245285 -0.050964456 -0.09115244 0.11632292 -0.15408704
0.030947996 0.054178927 -0.11135714 0.014726765 0.12103308 0.18716069 -0.13065337 0.054147538
-0.09281346 0.10380982 0.15026613 0.020734813 -0.13768066 0.009393927 0.11657982 -0.031912077
-0.056458835 0.14477226 0.13731721 0.012464023 0.060419127 0.023946121 -0.10208101 0.011797577
0.17611474 0.09787639 -0.042565744 -0.01943553 -0.008389594 0.09165516 0.023405377 -0.013932207
0.09908905 -0.11394213 -0.037534613 0.06831536 0.04007039 -0.059762202 0.07012967 0.16322471
0.19961518 -0.0008214049 0.041989416 0.03448458 0.12039962 0.058085237 0.21372522 0.113517314
-0.02431221 0.0071089994 0.042609084 -0.10243194 -0.049351398 -0.0900848 0.13053142 0.09745834
-0.06471338 0.1673035 0.10782069 0.026363963 0.02178268 -0.02920403 -0.008307099 0.044254575
-0.08851171 0.03670132 -0.010693855 -0.017573725 -0.028045684 -0.022703748 0.03952532 -0.061021704
0.023382293 0.06528482 0.06512128 -0.092499435 0.086568646 0.037322477 0.12846053 0.0699544
0.1077091 -0.0679833 -0.19338639 0.10128523 0.05468689 -0.037518937 0.03595326 -0.046370175
0.119941816 0.13878343 0.007405706 0.059715685 0.06892308 -0.06819372 0.12966605 -0.09759781
-0.09638397 0.11805641 -0.056976598 -0.14488256 0.09984643 0.026182443 -0.10914791 0.028829765
00000000: fa25 ea3b a015 50bd db12 b53a f0b1 cc3d
00000010: ac70 30be 2365 8f3c 1319 e73d a77d e23d
00000020: 9b52 6fbd d256 eb3d c9f3 863b 6cc2 98bd
00000030: 8336 243e 281f c43d 1526 bd3d 7804 b83d
00000040: 14dd 3bbd a88b c7bc 6117 ccbc 1413 55bc
00000050: ea7e 07bc 256a 9fbd 87c6 2e3d 6b31 383e
00000060: 66b6 043e 931c 803e e617 18bd 571c 91bb
00000070: cdd5 4bbd a9ff 173e 2721 12be 4cf0 1b3c
00000080: 3424 24bc 36f5 a43d 364d 283c 10b1 a7bd
00000090: 633e 953d 6015 3f3e 8d45 d73d aede 553e
000000a0: 30fe b13d 00f1 673b 651f cc3d 2891 fa3d
000000b0: 6c8d 433d 7414 98bd 6cf2 113d c5c9 a63d
000000c0: fab1 233e 6242 cb3d b937 0e3e fa63 b93d
000000d0: 44c4 b0bd 8544 95bd fa54 293d 9ff9 083b
000000e0: 9999 b13d 664f d13d ff96 c0bd c1c4 c73d
000000f0: f263 5d3d 3b45 c63d fb70 b6bd ae1d c53d
00000100: 2b0d 393c 1fd2 0b3e a118 0a3e c545 bfbd
00000110: ec41 3ebc ddb6 e7bd 4d44 9ebd 6a19 973d
00000120: 818c d1bd 4008 883d bda1 983d acb3 a3bb
00000130: 5284 833d e3f5 09bc 0887 0c3c 6357 853c
00000140: 9a64 d33c bc24 11bd 604f 73bd 19cb f73d
00000150: 9926 67bd 7b5c 9dbd 76d2 043d 214e cc3d
00000160: f699 4cbc 753b d83d 6b50 333e 08e0 9abd
00000170: 3020 953d de18 8b3d 1248 583d b437 fe3d
00000180: 9b34 f2bb 0364 f7bd 4adf b93c 3647 283e
00000190: 9452 8abd 2952 2dbd cb8e 783d bdc2 d0bd
000001a0: c630 343d b9d9 863c 7fef 973d 0fe6 453e
000001b0: b8e8 c13d 1415 383d 4403 453e e741 7c3d
000001c0: 1f1c 07be 7f8c c43c 2935 fabb 364f f2bd
000001d0: 3109 cb3d 7097 bfbd 7c90 0dbd a15a eeba
000001e0: 845d ee3d c904 1a3a ff43 87bd 9aa9 13be
000001f0: 9842 0cbe 5f61 33bd 16d5 44bc ddaa 293d
00000200: 7c32 513c 4c42 913d 6673 85bd efda 653d
00000210: 32fc aebd b20e d43d 34a0 8b3d ad7c 35bd
00000220: 884f 823d 448d d7bd ca55 ddbd f20e 433e
00000230: aa5b 6dbc b34b 25bd b362 dabd 8971 123e
00000240: 40e0 b73d df7a e43d af9e f3bd 817c aa3d
00000250: 1bc0 50bd 21ae babd b63a ee3d fec8 1dbe
00000260: a786 fd3c b9ea 5d3d 360f e4bd 8848 713c
00000270: 31e0 f73d 0da7 3f3e ffc9 05be cfc9 5d3d
00000280: fc14 bebd 3e9a d43d 5ddf 193e 0edc a93c
00000290: 29fc 0cbe fce8 193c 67c1 ee3d 3db6 02bd
000002a0: 6141 67bd 2e3f 143e e29c 0c3e e735 4c3c
000002b0: 0c7a 773d a82a c43c d90f d1bd a04a 413c
000002c0: 6c57 343e 6b73 c83d 6b59 2ebd 4337 9fbc
000002d0: 8274 09bc b3b5 bb3d a2bc bf3c e943 64bc
000002e0: 33ef ca3d 7e5a e9bd e5bd 19bd ece8 8b3d
000002f0: d920 243d 36c9 74bd 25a0 8f3d 6124 273e
00000300: ec67 4c3e 8d53 57ba 18fd 2b3d b43f 0d3d
00000310: 1394 f63d c9ea 6d3d c9da 5a3e c47b e83d
00000320: 662a c7bc 9cf2 e83b dd86 2e3d d6c7 d1bd
00000330: b124 4abd 617e b8bd 07aa 053e 3d98 c73d
00000340: 7388 84bd 9c51 2b3e 18d1 dc3d 3df9 d73c
00000350: 9771 b23c 4a3d efbc 801a 08bc 4944 353d
00000360: a145 b5bd 2054 163d 4735 2fbc c6f6 8fbc
00000370: 10c0 e5bc 36fd b9bc 4de5 213d e5f1 79bd
00000380: 398c bf3c 0cb4 853d 4e5e 853d 5870 bdbd
00000390: e74a b13d 74df 183d 288b 033e 4144 8f3d
000003a0: 9796 dc3d d43a 8bbd 1507 46be a16e cf3d
000003b0: 5cff 5f3d 75ad 19bd ba43 133d a7ee 3dbd
000003c0: 0ea4 f53d 3e1d 0e3e 91ab f23b 6f98 743d
000003d0: 8b27 8d3d 26a9 8bbd 2dc7 043e 5ce1 c7bd
000003e0: f564 c5bd 8fc7 f13d 4b60 69bd 185c 14be
000003f0: 497c cc3d 907c d63c f088 dfbd 662c ec3c

network_body._body_endoder.seq_layers.2.weight f4 [256, 256]
0.16976255 0.0015502095 0.10783022 -0.11165298 -0.028464342 0.14550114 -0.15833871 0.1166149
-0.10397727 0.08502074 0.22222386 -0.10630664 -0.16096823 0.20906922 0.006303814 0.088360034
-0.10959929 0.059409037 -0.28698575 -0.46837458 0.11520656 -0.20265181 0.27633232 0.2929012
-0.26167828 -0.08556855 -0.090489276 -0.2882324 -0.093207315 0.09741811 -0.07350215 0.23942511
-0.32053274 0.22460338 -0.03612003 -0.124025114 0.11391558 -0.31298804 0.08410957 -0.41797137
-0.11880867 0.22329056 -0.06738424 -0.23913549 0.1726238 -0.03311216 -0.42208907 -0.3876649
-0.17800385 0.093104295 0.05438798 -0.2061217 -0.1455605 -0.13355263 -0.2789309 0.07011955
0.03614399 -0.20474023 -0.2918124 -0.07596082 0.02770278 -0.21918821 0.042941324 -0.1720146
-0.079671755 -0.41506112 0.109651 -0.021382546 -0.051802766 -0.32751402 0.146216 0.19924298
-0.17492418 -0.11738259 -0.012859471 0.21124718 -0.32473227 -0.11419443 -0.19903377 0.11370024
0.00069648377 -0.24319518 -0.39170134 -0.21860151 0.076181605 0.031245345 0.16019282 0.14952898
-0.2108148 -0.030757872 0.20607898 0.030568836 0.009765785 -0.19427857 0.2446249 -0.14657214
-0.28683296 0.163176 -0.007142348 0.28817096 -0.024410285 -0.1724322 -0.31373602 0.23651095
-0.41993293 0.025900055 -0.028445464 -0.36984342 -0.07295542 -0.02591655 -0.18200715 -0.09930925
-0.2427183 0.091364965 -0.18348202 -0.0102980025 0.35003996 -0.027204936 -0.018370792 -0.24586734
-0.09305328 -0.16590893 -0.17440993 0.05113779 0.022559967 -0.1815874 -0.2118001 0.20289238
-0.40283832 -0.20847455 0.16198438 0.04582704 0.054460123 0.05136853 -0.032483302 -0.27729633
-0.07052485 -0.10755488 -0.09099184 -0.10604836 -0.18545018 0.13702224 -0.4499428 0.0658241
0.028064396 0.18149635 -0.2777185 0.0032497633 0.15141343 0.08307765 -0.18029277 -0.116718404
0.06759126 0.027510462 -0.04570379 0.12861526 -0.116380535 -0.0855437 -0.19016117 -0.047435626
0.16530545 -0.33398312 0.051372435 0.05094593 -0.43716016 0.24040803 0.22833042 -0.22092338
-0.20425291 0.048416257 -0.12256331 -0.1400722 -0.41786984 -0.26688084 0.063122466 0.21358015
-0.39342633 0.21172616 0.04558452 0.0565993 -0.035025105 0.25096822 -0.021207435 -0.014873206
0.034022663 -0.32573077 -0.0034516347 0.20876262 -0.38732103 -0.17500201 -0.16231112 -0.3414812
-0.07256352 0.2987006 0.19267632 0.021802522 0.0010312924 0.17581326 0.20174573 -0.0076176566
0.062417667 -0.53557867 -0.067393616 -0.15854622 0.10297427 -0.18296766 0.46098265 -0.16758442
-0.14757001 0.41532296 0.04898297 0.06630881 -0.24387145 0.28088412 -0.15240026 0.016774544
-0.18100397 -0.08667151 0.0992097 -0.044816967 -0.09143583 -0.2820182 -0.030193638 0.02550751
0.1102235 0.015300359 0.28783798 -0.096369535 -0.04140869 -0.027884157 -0.39750087 -0.06741994
-0.11064723 -0.24179313 -0.10896833 0.071365505 -0.21534084 -0.3261324 -0.014565892 -0.34654495
0.34600753 0.15671128 0.04845364 0.036126934 0.05433983 -0.13510126 -0.1823549 -0.19699234
-0.2578257 0.17736019 -0.08428272 -0.043497596 -0.12675755 -0.18068065 0.14259991 -0.034667563
00000000: 3cd6 2d3e 6630 cb3a 17d6 dc3d 51aa e4bd
00000010: 0d2e e9bc 40fe 143e 8b23 22be cbd3 ee3d
00000020: 09f2 d4bd 5b1f ae3d a78e 633e 4cb7 d9bd
00000030: dbd4 24be 3e16 563e 3990 ce3b 1bf6 b43d
00000040: 9875 e0bd e456 733d ccef 92be cbce efbe
00000050: 6bf1 eb3d f583 4fbe 6e7b 8d3e 25f7 953e
00000060: b2fa 85be 903e afbd 7152 b9bd 3293 93be
00000070: 7ae3 bebd 2583 c73d 4c88 96bd db2b 753e
00000080: de1c a4be 6efe 653e 99f2 13bd e100 febd
00000090: 924c e93d f83f a0be a341 ac3d 5800 d6be
000000a0: f651 f3bd 48a6 643e c000 8abd efdf 74be
000000b0: 4bc4 303e 9ea0 07bd 0f1c d8be 047c c6be
000000c0: a446 36be 77ad be3d eec5 5e3d 9111 53be
000000d0: d00d 15be 05c2 08be 08d0 8ebe d79a 8f3d
000000e0: b80b 143d 6ca7 51be 6f68 95be 5991 9bbd
000000f0: f1f0 e23c e072 60be 3ee3 2f3d 9824 30be
00000100: f22a a3bd e482 d4be b490 e03d 732a afbc
00000110: 232f 54bd ebaf a7be a6b9 153e 5a06 4c3e
00000120: 531f 33be 4966 f0bd 88b0 52bc 2e51 583e
00000130: 4f43 a6be c5de e9bd 82cf 4bbe acdb e83d
00000140: 3c94 363a 2808 79be 148d c8be 13d9 5fbe
00000150: 1a05 9c3d 3df6 ff3c 9609 243e 201e 193e
00000160: d6df 57be eff7 fbbc 5e06 533e 7f6b fa3c
00000170: ac00 203c f6f0 46be f37e 7a3e 0217 16be
00000180: c5db 92be 9c17 273e 5c0a eabb 258b 933e
00000190: 14f8 c7bc 1192 30be 02a2 a0be ed2f 723e
000001a0: 7301 d7be 5a2c d43c 7606 e9bc 1e5c bdbe
000001b0: a769 95bd f24e d4bc 1560 3abe a662 cbbd
000001c0: 258b 78be 8e1d bb3d b6e2 3bbe f4b8 28bc
000001d0: 7038 b33e e3dc debc 587e 96bc a6c4 7bbe
000001e0: b892 bebd 08e4 29be 8498 32be dc75 513d
000001f0: aecf b83c 0cf2 39be 20e2 58be 05c3 4f3e
00000200: d340 cebe 5a7a 55be 3cdf 253e 22b5 3b3d
00000210: 9411 5f3d cf67 523d 360d 05bd c9f9 8dbe
00000220: 556f 90bd bc45 dcbd ee59 babd e22f d9bd
00000230: a7e6 3dbe 8f4f 0c3e e75e e6be c9ce 863d
00000240: 4ee7 e53c 2eda 393e 1f31 8ebe fbf9 543b
00000250: 1f0c 1b3e 9d24 aa3d ab9e 38be 0f0a efbd
00000260: 496d 8a3d 9f5d e13c e633 3bbd b8b3 033e
00000270: eb58 eebd 8931 afbd 9cb9 42be dc4b 42bd
00000280: d545 293e d6ff aabe e76b 523d aeac 503d
00000290: 75d3 dfbe 862d 763e 73cf 693e bd39 62be
000002a0: ad27 51be 2050 463d 7902 fbbd 166f 0fbe
000002b0: 09f3 d5be 9ba4 88be 5a46 813d c1b4 5a3e
000002c0: 2d6f c9be bece 583e d5b6 3a3d abd4 673d
000002d0: 7c76 0fbd e87e 803e 37bb adbc bfae 73bc
000002e0: 595b 0b3d 2fc6 a6be d234 62bb dec5 553e
000002f0: f14e c6be ba33 33be e334 26be a0d6 aebe
00000300: 2f9c 94bd 49ef 983e f14c 453e 349b b23c
00000310: 6e2c 873a 6408 343e 6f96 4e3e 899d f9bb
00000320: aba9 7f3d af1b 09bf aa05 8abd f159 22be
00000330: 2de4 d23d e05b 3bbe eb05 ec3e 409b 2bbe
00000340: 981c 17be 36a5 d43e 5ea2 483d eacc 873d
00000350: 70b9 79be 0bd0 8f3e d00e 1cbe c56a 893c
00000360: 1b59 39be d580 b1bd 752e cb3d ff91 37bd
00000370: b542 bbbd b164 90be a658 f7bc 20f5 d03c
00000380: dcbc e13d 5bae 7a3c 805f 933e 645d c5bd
00000390: 299c 29bd 516d e4bc 3c85 cbbe 7713 8abd
000003a0: 049b e2bd 9e98 77be ca2a dfbd 1428 923d
000003b0: 4f82 5cbe d3fa a6be c7a5 6ebc 576e b1be
000003c0: e627 b13e ec78 203e 5377 463d d6f9 133d
000003d0: 7193 5e3d fc57 0abe 3ebb 3abe 5cb8 49be
000003e0: bb01 84be e99d 353e 6b9c acbd 892a 32bd
000003f0: bbcc 01be 5904 39be b605 123e 93ff 0dbd

network_body._body_endoder.seq_layers.2.bias f4 [256]
-0.009486764 0.30057737 0.17633632 -0.0254505 -0.04367005 -0.14203116 -0.09702599 -0.0024486345
-0.08636093 -0.1563835 -0.061683547 0.08136596 -0.05271142 -0.14798209 -0.035143293 -0.10506179
-0.110220626 -0.041131213 0.1586478 -0.028005404 0.027182907 -0.116642766 0.060584325 -0.06562101
0.08833105 -0.04834931 -0.023866354 -0.07865046 -0.22518443 0.09717096 -0.009504414 0.008335045
-0.013667106 -0.05090744 -0.16078864 -0.07310318 0.15435445 0.02849109 0.1207351 -0.042132005
-0.07854116 -0.085955486 -0.002691818 0.010984043 -0.081302166 0.14647119 0.11077971 -0.0013430027
0.07098857 0.079690866 0.07434743 -0.058644626 -0.1110686 -0.018068789 -0.03656609 0.081627436
-0.06915075 -0.00064958574 -0.06257204 -0.06386487 0.06317116 -0.13452786 -0.06873965 -0.030600494
-0.037288897 0.0869201 -0.050728012 -0.030629085 -0.08503601 0.1571034 -0.018106414 0.0977169
-0.061053623 -0.00071169063 0.023946702 0.11820836 0.022494951 0.14454384 0.00016088434 0.01885678
-0.07548182 0.015329856 -0.03343419 0.013191002 -0.079953104 0.07963676 -0.08196544 0.06963748
0.028336415 0.060798008 0.08826894 -0.23482363 0.07748792 -0.095758446 -0.028370965 -0.08287458
0.004336215 0.0027219001 -0.008916351 0.23639885 -0.07520197 0.17005241 -0.094438955 -0.042084433
-0.10016672 0.08062678 -0.16625042 0.060379643 -0.027255552 0.11977742 0.113980815 -0.061604764
-0.07262701 0.03730116 0.12349964 0.14799257 -0.11875442 -0.025082348 -0.06849152 -0.018601859
-0.1402979 0.012426129 -0.0556011 0.024867509 0.060601477 -0.00012123193 -0.098038614 -0.06028643
-0.055556994 -0.077826425 0.14376767 -0.06719911 -0.10356194 -0.058768153 0.0023667682 -0.10979293
-0.030126596 0.060256723 -0.08804793 0.12625988 -0.12615857 0.16612615 0.053451516 -0.08480071
-0.13377492 -0.060039096 -0.08057737 -0.13489357 0.038110018 -0.05914485 0.022828463 -0.08652891
-0.1055123 0.0067865625 -0.055514615 -0.038147118 -0.13834313 -0.043779407 -0.028441714 -0.0909299
-0.109248675 -0.055593017 -0.055794075 -0.08015807 -0.06963511 -0.040561344 0.002722534 -0.052408446
-0.024947671 -0.05863213 0.019070372 0.17276497 -0.005438092 -0.094175525 0.043657467 -0.07660128
0.07058307 0.027788742 0.15419275 -0.0052905045 0.08356292 -0.08680567 -0.030677639 0.07022494
-0.0074808127 0.03835079 -0.06599961 -0.041688297 -0.04714992 -0.021612994 -0.057446614 -0.060119495
-0.05234442 -0.06065117 -0.039238457 -0.021729909 -0.07512414 0.05490265 0.13799374 -0.0332286
0.064984284 0.03435618 -0.0053252717 -0.0970889 -0.05110938 0.03371682 -0.031186653 0.022738794
0.07737583 -0.0013250114 -0.123281345 -0.12851751 -0.10493367 -0.07346422 -0.03719693 0.0347222
-0.19846146 0.113171734 -0.014635685 0.04862945 -0.04451955 0.037410088 -0.08380394 -0.07406203
0.06010607 -0.1806413 -0.012968294 -0.05071309 -0.0025827838 -0.20684476 0.017535374 -0.04811839
-0.058680136 0.109971784 -0.1358967 -0.10141365 -0.057169862 -0.053468868 -0.08758048 0.08175842
-0.062213507 0.049210966 -0.06781117 -0.008879249 -0.021128193 0.024898475 -0.15995137 0.09508254
0.018429197 -0.109432295 -0.07077157 0.025010098 -0.08766311 0.27200174 0.01801337 -0.04937908
00000000: 5f6e 1bbc 47e5 993e 8291 343e 917d d0bc
00000010: 5edf 32bd 9e70 11be 90b5 c6bd 4579 20bb
00000020: 00de b0bd ff22 20be e3a7 7cbd 32a3 a63d
00000030: eee7 57bd 9e88 17be 6af2 0fbd a32a d7bd
00000040: 5abb e1bd 3479 28bd 9274 223e 976b e5bc
00000050: b0ae de3c 67e2 eebd 4527 783d 4f64 86bd
00000060: e9e6 b43d ed09 46bd 5f83 c3bc 7e13 a1bd
00000070: bf96 66be 9101 c73d 67b8 1bbc b68f 083c
00000080: ffeb 5fbc 5284 50bd c7a5 24be 1fb7 95bd
00000090: 180f 1e3e 2566 e93c f743 f73d 9c92 2cbd
000000a0: 30da a0bd 6e09 b0bd 3669 30bb 6af6 333c
000000b0: c081 a6bd 8bfc 153e 79e0 e23d b107 b0ba
000000c0: 7562 913d f734 a33d 7743 983d 5935 70bd
000000d0: ef77 e3bd ff04 94bc 53c6 15bd 492c a73d
000000e0: e99e 8dbd f648 2aba c525 80bd 96cb 82bd
000000f0: e25f 813d acc1 09be 60c7 8cbd e3ad fabc
00000100: 3ebc 18bd 2a03 b23d 2dc8 4fbd d9e9 fabc
00000110: 5c27 aebd b7df 203e e753 94bc cc1f c83d
00000120: 5d13 7abd c090 3aba e02b c43c 3a17 f23d
00000130: 5547 b83c 4d03 143e 10b3 2839 8979 9a3c
00000140: 3696 9abd 142a 7b3c 4af2 08bd 131f 583c
00000150: 74be a3bd 9918 a33d 7fdd a7bd 189e 8e3d
00000160: c521 e83c 5507 793d 59c6 b43d 9b75 70be
00000170: fdb1 9e3d 011d c4bd 3a6a e8bc 26ba a9bd
00000180: cf16 8e3b e861 323b e315 12bc 8a12 723e
00000190: 7e03 9abd 3822 2e3e 3669 c1bd ba60 2cbd
000001a0: 3624 cdbd a71f a53d 8d3d 2abe a550 773d
000001b0: 0947 dfbc dd4d f53d c66e e93d 4755 7cbd
000001c0: 78bd 94bd 1ac9 183d 61ed fc3d 5d8b 173e
000001d0: 8435 f3bd 7f79 cdbc 4845 8cbd ed62 98bc
000001e0: 41aa 0fbe f696 4b3c fbbd 63bd f2b6 cb3c
000001f0: 4139 783d e63d feb8 78c8 c8bd e7ee 76bd
00000200: bb8f 63bd 7663 9fbd d537 133e b09f 89bd
00000210: 4818 d4bd e0b6 70bd c81b 1b3b 1edb e0bd
00000220: 0dcc f6bc c1cf 763d 7952 b4bd 454a 013e
00000230: b62f 01be f91c 2a3e faef 5a3d ffab adbd
00000240: 4bfc 08be 8eeb 75bd c005 a5bd 8a21 0abe
00000250: 4019 1c3d df41 72bd c202 bb3c 1236 b1bd
00000260: d516 d8bd d061 de3b 4b63 63bd 2740 1cbd
00000270: d2a9 0dbe 0952 33bd 99fe e8bc 7539 babd
00000280: c5bd dfbd 81b5 63bd 5488 64bd ea29 a4bd
00000290: da9c 8ebd a723 26bd 8a6c 323b 3daa 56bd
000002a0: 0f5f ccbc 3f28 70bd 7839 9c3c 4de9 303e
000002b0: 0632 b2bb 19df c0bd 2cd2 323d 22e1 9cbd
000002c0: db8d 903d 37a5 e33c b4e4 1d3e f85b adbb
000002d0: 0923 ab3d 2cc7 b1bd ac4f fbbc 18d2 8f3d
000002e0: 9b21 f5bb b815 1d3d ce2a 87bd 59c1 2abd
000002f0: 4620 41bd bc0d b1bc 244d 6bbd dc3f 76bd
00000300: 1a67 56bd 5c6d 78bd 81b8 20bd ec02 b2bc
00000310: afda 99bd 9ae1 603d 3b4e 0d3e b61a 08bd
00000320: 7b16 853d 11b9 0c3d 9e7f aebb 8cd6 c6bd
00000330: 1258 51bd a61a 0a3d 277b ffbc b546 ba3c
00000340: 3877 9e3d 01ac adba ee7a fcbd 189a 03be
00000350: 77e7 d6bd 6974 96bd cf5b 18bd de38 0e3d
00000360: 7b39 4bbe 95c6 e73d 83ca 6fbc ad2f 473d
00000370: 225a 36bd 523b 193d 66a1 abbd d5ad 97bd
00000380: c831 763d 08fa 38be f878 54bc 87b8 4fbd
00000390: ec43 29bb 1dcf 53be 58a6 8f3c ca17 45bd
000003a0: 955a 70bd e338 e13d 8128 0bbe f6b1 cfbd
000003b0: f22a 6abd 2c02 5bbd 655d b3bd f570 a73d
000003c0: 97d3 7ebd 7091 493d 95e0 8abd 457a 11bc
000003d0: 0815 adbc e3f7 cb3c 4bca 23be a2ba c23d
000003e0: d4f8 963c 0a1e e0bd aff0 90bd fae1 cc3c
000003f0: b788 b3bd d043 8b3e c690 933c b841 4abd

action_model._discrete_distribution.branches.0.weight f4 [7, 256]
0.088833265 -0.53524643 0.23908904 0.059198454 0.122240245 -0.0068844724 0.15278415 0.19226721
0.034243245 0.14456148 -0.09540606 -0.104598 -0.14088324 0.1549709 0.056404617 -0.027141625
0.10691635 -0.034915082 -0.14747882 -0.08127454 -0.16116786 -0.006993067 -0.09370115 -0.028158102
-0.1602973 -0.14713173 0.074765556 0.028569635 0.23007797 -0.04962705 0.19643933 0.008109525
0.11225521 -0.038118586 0.012262544 -0.00065207144 -0.0820794 0.08313893 -0.39625204 -0.076602645
-0.18989123 -0.13655835 0.11996377 0.04559247 0.17381006 -0.04769158 -0.16500266 0.10351225
-0.099346206 0.14017674 -0.047358543 -0.07705974 -0.019346809 -0.078228466 0.18468422 -0.026988849
0.101128474 0.3133064 0.062405065 -0.08040914 -0.18245961 0.13353287 0.17947891 0.24758933
-0.13080363 0.023047967 -0.14645267 -0.010347723 0.046528075 -0.03742896 -0.22836849 -0.27466702
0.060990985 -0.13119467 0.09865127 -0.048615806 0.05641494 -0.13861564 -0.045141716 -0.106337816
0.07070077 0.04036392 0.11498758 -0.060787063 0.14193936 -0.16014966 0.1543855 0.05338226
-0.1562696 -0.35823664 -0.015646832 0.36833283 -0.17365363 -0.0062800297 0.053327113 0.007445461
-0.16166039 -0.14035079 -0.21133731 -0.24601048 -0.0794044 -0.35189438 0.08851534 0.32630405
0.11090735 -0.046579387 0.20141317 -0.02858056 0.21846208 0.022883117 -0.077811375 -0.16139184
0.002090291 -0.117660716 -0.07893184 0.021660106 0.21561162 -0.065926574 0.097313344 -0.030594964
-0.059585117 0.100690894 -0.04387924 -0.34306717 -0.14104028 -0.02203917 0.08359478 -0.00042487148
0.015685372 0.05037868 -0.22137317 0.037486758 0.074295744 0.033930924 -0.025760807 0.09886619
0.02015589 -0.37090608 0.025642436 -0.028786661 0.0066626114 -0.14828159 -0.2119801 0.13755897
0.014891551 0.04256325 0.08310999 0.1131063 0.12805286 -0.12067443 -0.1827615 0.16463368
0.09381337 -0.11303635 0.19953117 -0.124073386 -0.12490575 0.15244609 0.009245969 0.10792258
-0.40500396 0.21259934 -0.047396313 0.18823333 0.10241544 0.3146515 0.020843357 0.32280594
-0.2133928 0.089556105 -0.053036343 -0.1853535 0.17093432 0.045593984 -0.13684075 -0.119796716
-0.15654108 0.058132466 0.0072233286 0.12777723 -0.10668222 -0.023952432 -0.0030302715 -0.06394804
-0.13061029 0.10867081 0.15507028 -0.13637696 0.041856132 0.19970065 -0.06633438 -0.09221259
-0.2021287 0.12552866 -0.059821267 0.18760791 -0.21277112 -0.1197748 -0.008217376 -0.12099593
-0.14028302 -0.12701616 0.03423286 0.4807819 0.16806641 -0.40524027 0.19749026 -0.0495962
0.057074375 0.052836917 0.032930493 -0.029199505 -0.066320196 -0.0022467794 -0.12981087 -0.19395643
0.1632331 -0.20554322 -0.008349327 -0.23060118 0.097062916 -0.086876065 -0.13943012 0.21859233
-0.041864406 0.025990598 -0.20254786 0.057376545 0.033602174 0.2802389 -0.25596592 0.018745173
-0.0037895353 -0.29023343 -0.051010396 0.12470746 -0.087773755 0.18459325 0.21686375 0.06558309
-0.0071656303 -0.44348562 0.20693718 -0.026284197 -0.028215626 -0.10241119 0.31672382 -0.02629485
0.043789648 -0.053224597 -0.077649735 0.028052462 0.23345914 -0.4376011 -0.13106275 0.2609862
00000000: 37ee b53d e905 09bf c2d3 743e 147a 723d
00000010: 1859 fa3d 2497 e1bb 7373 1c3e b2e1 443e
00000020: a542 0c3d ed07 143e 4164 c3bd 7a37 d6bd
00000030: b243 10be b1b0 1e3e 8708 673d 1d58 debc
00000040: f6f6 da3d 1e03 0fbd b004 17be 4473 a6bd
00000050: 3009 25be 1926 e5bb 63e6 bfbd d2ab e6bc
00000060: fa24 24be b3a9 16be af1e 993d de0a ea3c
00000070: 8f99 6b3e bc45 4bbd 6427 493e d0dd 043c
00000080: 0fe6 e53d 3c22 1cbd d6e8 483c c6ef 2aba
00000090: 3f19 a8bd be44 aa3d 8ce1 cabe d9e1 9cbd
000000a0: d972 42be f4d5 0bbe 91af f53d 2bbf 3a3d
000000b0: 44fb 313e 3f58 43bd 75f6 28be 3bfe d33d
000000c0: 0676 cbbd 7e8a 0f3e 08fb 41bd 7fd1 9dbd
000000d0: 337d 9ebc 3f36 a0bd dc1d 3d3e b817 ddbc
000000e0: 721c cf3d b269 a03e 749c 7f3d 8cad a4bd
000000f0: b1d6 3abe d7bc 083e 52c9 373e 0f88 7d3e
00000100: 63f1 05be 17cf bc3c b0f7 15be 7f89 29bc
00000110: 3994 3e3d 1c4f 19bd 6ed9 69be 28a1 8cbe
00000120: afd1 793d e557 06be ad09 ca3d 5e21 47bd
00000130: 5a13 673d 42f1 0dbe 85e6 38bd a4c7 d9bd
00000140: 91cb 903d a354 253d 9c7e eb3d dbfb 78bd
00000150: 8d58 113e 46fe 23be 3c17 1e3e 5ba7 5a3d
00000160: 2305 20be cb6a b7be c92d 80bc 1f96 bc3e
00000170: 42d2 31be b5c8 cdbb 886d 5a3d 0ef9 f33b
00000180: 4d8a 25be 1eb8 0fbe cf68 58be 2cea 7bbe
00000190: c69e a2bd 802b b4be 8847 b53d 5311 a73e
000001a0: 6523 e33d 07ca 3ebd 413f 4e3e c721 eabc
000001b0: 86b4 5f3e 6075 bb3c 925b 9fbd e743 25be
000001c0: 43fd 083b 1af8 f0bd 04a7 a1bd 8970 b13c
000001d0: 4bc9 5c3e 8304 87bd 384c c73d 4aa2 fabc
000001e0: 860f 74bd 0737 ce3d b8ba 33bd 80a6 afbe
000001f0: dd6c 10be 7d8b b4bc bd33 ab3d 49c1 deb9
00000200: 9c7e 803c e059 4e3d a6af 62be b78b 193d
00000210: 5e28 983d 27fb 0a3d 5408 d3bc 5b7a ca3d
00000220: f71d a53c 67e7 bdbe 1610 d23c 01d2 ebbc
00000230: 0952 da3b 21d7 17be 5011 59be 42dc 0c3e
00000240: b1fb 733c cd56 2e3d 9235 aa3d 47a4 e73d
00000250: 4a20 033e 2824 f7bd d525 3bbe bb95 283e
00000260: 3921 c03d 9a7f e7bd e651 4c3e 301a febd
00000270: 96ce ffbd d41a 1c3e 687c 173c 8306 dd3d
00000280: ae5c cfbe a4b3 593e a322 42bd 3dc0 403e
00000290: 30bf d13d 001a a13e b0bf aa3c d246 a53e
000002a0: a483 5abe 3169 b73d a33c 59bd 4fcd 3dbe
000002b0: 6809 2f3e c2c0 3a3d fb1f 0cbe fb57 f5bd
000002c0: 4e4c 20be 4f1c 6e3d acb1 ec3b 09d8 023e
000002d0: 357c dabd e437 c4bc 8597 46bb 31f7 82bd
000002e0: b4be 05be cd8e de3d beca 1e3e 67a6 0bbe
000002f0: 5671 2b3d 547e 4c3e 52da 87bd f4d9 bcbd
00000300: d3fa 4ebe 968a 003e 2507 75bd 4a1c 403e
00000310: ace0 59be 7e4c f5bd 2ca2 06bc b7cc f7bd
00000320: 5aa6 0fbe 8610 02be c137 0c3d 0c29 f63e
00000330: 9a19 2c3e a77b cfbe e33a 4a3e 6325 4bbd
00000340: d2c6 693d 866b 583d 20e2 063d cd33 efbc
00000350: e2d2 87bd b43e 13bb 24ed 04be 849c 46be
00000360: 9426 273e ec79 52be 9ecb 08bc b722 6cbe
00000370: ecc8 c63d 14ec b1bd c5c6 0ebe abd6 5f3e
00000380: 037a 2bbd 3cea d43c b568 4fbe ab03 6b3d
00000390: 6fa2 093d 797b 8f3e f70d 83be 7a8f 993c
000003a0: da59 78bb 7a99 94be 47f0 50bd a066 ff3d
000003b0: bac2 b3bd 0306 3d3e 8811 5e3e 6d50 863d
000003c0: aacd eabb 8c10 e3be 57e7 533e f551 d7bc
000003d0: 7524 e7bc f5bc d1bd a029 a23e 4c68 d7bc
000003e0: c65c 333d 0902 5abd d306 9fbd 47ce e53c
000003f0: ea0f 6f3e 400d e0be 5035 06be fc9f 853e

action_model._discrete_distribution.branches.0.bias f4 [7]
-0.54837763 0.056440342 -0.04478034 -0.021619359 0.05329519 0.032801352 0.06143152
00000000: 7a62 0cbf fd2d 673d 976b 37bd 151b b1bc
00000010: 0f4c 5a3d b65a 063d 9e9f 7b3d
