results/puzzle_expirement_7/PuzzleBehavior/PuzzleBehavior-20999936.onnx (onnx, 342923 bytes, 6 tensors)

network_body._body_endoder.seq_layers.0.weight f4 [256, 65]
000000 1e 6e 95 3e f9 be 47 be 5b 01 85 3c 89 2c 57 be
       0.29185575 -0.19506444 0.016235998 -0.21013083
000010 8d a4 a5 3d e1 7c 08 bc b7 82 24 3e 65 b2 cb 3d
       0.08088026 -0.008330555 0.16065489 0.099461354
000020 c4 69 0a be a8 d9 a4 be 0e b3 08 3e 45 d1 6e 39
       -0.13516909 -0.3219731 0.13349554 0.00022775408
000030 f2 50 58 3e 46 e5 22 3e 7a a8 9f 3e 00 b3 42 be
       0.21124628 0.15907773 0.31183225 -0.19013596
000040 83 3f 96 be fc 35 36 3d fb 89 43 be 2d d7 f0 bd
       -0.2934533 0.044485077 -0.19095604 -0.117597915
000050 6a 5e e9 3d 5d 97 94 be 2d 51 28 3d 9b 47 c0 3d
       0.11394961 -0.2902173 0.04109304 0.09388658
000060 25 e7 17 bc 94 d9 a2 3c 6e 60 ee 3c 9f 87 55 3e
       -0.009271418 0.01987914 0.029098716 0.20852517
000070 80 fc 4e bd 5e 4e 91 3c 32 55 4a 3e c9 af 3c 3c
       -0.05053377 0.017737564 0.19759062 0.01151652
000080 36 39 36 3e 41 0e 39 3d 6a 2c 61 3d 44 d4 80 bd
       0.17795262 0.04517961 0.054973997 -0.062904865
000090 92 e7 60 be c2 68 80 bb 96 95 e7 bd e7 c0 28 3e
       -0.21963337 -0.003918738 -0.11307828 0.16479836
0000a0 02 b0 91 3d 8c f9 35 be 1f f4 1d be ae 2c e8 3c
       0.07113649 -0.17770976 -0.15425156 0.028341617
0000b0 96 89 ed 3e 64 e2 29 3e bd eb 68 3e 12 83 ab bd
       0.46394032 0.16590267 0.22746177 -0.08374609
0000c0 27 71 ae be 94 e0 2f 3e 9f 28 5f 3c e8 16 25 bd
       -0.34070703 0.17175514 0.013620525 -0.04030505
0000d0 07 27 80 3d d7 f2 3a 3e cc d2 29 3e cb e7 6e 3d
       0.06257444 0.18256699 0.16584319 0.058326524
0000e0 f8 c8 00 3e 2c e2 a8 3d 26 70 ed bc cb f6 b0 3d
       0.12576663 0.08246264 -0.02898414 0.08640822
0000f0 25 30 6c 3d b4 92 56 be a3 57 92 3e c9 de 30 3d
       0.0576631 -0.209544 0.28582487 0.043181214
000100 f9 90 e5 bc 76 7e 96 bc fe a0 df bd 69 4e 17 bd
       -0.02802323 -0.018370848 -0.10919379 -0.036940012
000110 d7 32 d9 be 7f de e6 bd 05 40 c9 bd 0c 7a f2 3d
       -0.424216 -0.112729065 -0.09826664 0.11839685
000120 d4 5d eb 3d 56 1a 61 be 8c f8 bf 3c 57 24 66 3e
       0.11492506 -0.21982703 0.023433946 0.224748
000130 3d fc 8c 3e 9c 0b 9a be 32 26 a2 3d ec 46 85 bd
       0.27536193 -0.30086982 0.079174414 -0.06507668
000140 af 8d 21 3e 06 fb 70 3e 33 65 47 be 6f 16 b2 3d
       0.15776704 0.23533258 -0.19472198 0.08695685
000150 c9 fc 06 bd ac d7 98 3e 32 90 63 3d 4a 70 2e 3e
       -0.03295592 0.29852045 0.055557437 0.17035022
000160 bd 42 3c 3d 42 e8 97 3d 0c 72 d5 3e 1a 1d 83 3e
       0.045962084 0.074173465 0.41688573 0.2560814
000170 29 57 20 be 24 4c 95 3d b2 3b 18 be d2 58 da 3b
       -0.15658249 0.07289913 -0.14866522 0.0066634202
000180 7e 4c 91 3c 6e fa 96 3d c0 f2 ef 3d 71 b6 bf 3c
       0.01773667 0.073719844 0.11716223 0.023402425
000190 7c af ab 3e 1d e6 eb bd 7e d6 66 3c d5 7b 05 be
       0.3353232 -0.115185 0.014089225 -0.1303552
0001a0 4d 22 8b be cc 07 5e 3e 46 5b e2 3d 59 f6 15 3e
       -0.27174607 0.21682662 0.11052565 0.14644755
0001b0 a0 dd 73 be 4e b2 c3 bd cc 59 20 3e df f6 05 3e
       -0.23815012 -0.09555493 0.15659255 0.13082455
0001c0 31 e3 f1 3c 72 90 06 be a5 33 26 bd 11 b6 80 3c
       0.029527279 -0.13141039 -0.040576596 0.015711816
0001d0 ce 3b 43 3e 33 58 b1 bc c7 70 27 3e 05 31 b0 3c
       0.19065782 -0.021648502 0.16351615 0.02150775
0001e0 3e 99 0f 3e 60 91 1b be a0 d1 83 3b fa 33 53 3b
       0.14023301 -0.15192175 0.004022792 0.0032227025
0001f0 2b 89 f8 bc 2b 1c 9f bb 67 c8 86 3d 7f db f1 3d
       -0.030338844 -0.004855653 0.065811925 0.11809444
000200 d8 f7 c3 bd 24 8c 37 be d5 2b dc 3d 1b 23 4b be
       -0.09568757 -0.17924553 0.10750548 -0.1983761
000210 12 80 08 be 6f 80 a6 bd 8d 9e 9f 3c 4c 44 43 be
       -0.13330105 -0.081299655 0.019484783 -0.19069022
000220 c5 b3 40 3b e3 d3 35 be 76 b0 82 3e 54 5e a8 3d
       0.0029404026 -0.1775661 0.25525254 0.08221117
000230 f6 98 8a 3d cb 29 72 be a3 d9 af bd ba b9 b7 3e
       0.06767456 -0.23648755 -0.08586433 0.35883886
000240 c3 fd 22 be 2c 70 07 3a 49 fc 08 3e 72 4c 08 3e
       -0.15917115 0.0005166556 0.13377489 0.13310412
000250 38 6b e5 3d 3a 08 31 3e 8d fb bf bd c6 4a 0b be
       0.11202091 0.17288294 -0.093741514 -0.13602743
000260 a9 87 69 3d 44 f2 0b be 98 0e 4e 3e f4 c4 59 3d
       0.05701414 -0.13666636 0.20122755 0.053166345
000270 d2 dd 85 be 8d b8 a8 3e 03 b7 79 be 19 91 aa 3d
       -0.26145798 0.329533 -0.2438622 0.083284564
000280 19 0f 59 3d be 29 bd bd 2b 96 5e 3d 54 c2 19 3c
       0.052992914 -0.09236477 0.05434243 0.00938471
000290 55 3e eb 3d 59 e2 fe 3d 7c 73 47 3e 86 20 45 bd
       0.11486498 0.12445516 0.19477648 -0.04812672
0002a0 98 40 bd 3c 03 0a 59 bd 8e 04 05 3d b2 7c 99 bd
       0.02310209 -0.052988064 0.032475047 -0.07494487
0002b0 4e 08 e3 3d eb 6b ce be 45 5e 87 3e be e1 57 3e
       0.11085568 -0.4031671 0.2643911 0.21082208
0002c0 13 cb 30 be 87 bd c8 3e 37 a6 b1 3c 36 84 2d 3d
       -0.17264967 0.39207098 0.021685703 0.042362414
0002d0 15 ff df bd d0 ed a0 3d 75 70 99 3e 4a 86 f7 bd
       -0.10937325 0.07857859 0.2996861 -0.120861605
0002e0 04 34 90 3d 99 3c 03 3e 72 d0 42 bd 29 4b 15 3f
       0.07041171 0.12816085 -0.04756207 0.5831781
0002f0 d6 a1 8c 3d 14 56 68 be 32 42 0c 3d f8 33 46 bd
       0.06866805 -0.22689086 0.034242816 -0.048389405
000300 f1 ee 0c 3f 8d bc b8 3d 3a 32 0d be 5b f5 8e 3d
       0.55052096 0.09020338 -0.13788691 0.069803916
000310 97 cc 74 3d bb 4d b9 3d 04 e9 7a bd 1a 25 ff 3c
       0.059765425 0.09048029 -0.061257377 0.031145621
000320 a6 eb 8b bd 98 81 5e 3e cd dd 23 bb 05 27 03 bf
       -0.06832056 0.21729124 -0.002500403 -0.51231414
000330 ff 98 9b 3d 12 97 9c 3e 3e 17 4e 3e 9b 9d 3a bb
       0.07597541 0.30584008 0.20126054 -0.0028475288
000340 87 74 8a 3d ca 25 3a be ca 20 79 bd 26 1b 34 3e
       0.06760507 -0.18178478 -0.060822286 0.17588481
000350 d5 09 9b bd d8 79 cd 3d 06 ea f9 bd 58 74 94 bd
       -0.07570235 0.100330055 -0.122028396 -0.07248753
000360 8f 65 c3 be 85 c4 1d 3d 87 ab 87 3e 48 e9 0e 3e
       -0.3816342 0.038517494 0.26498052 0.13956177
000370 76 a8 5b 3e 20 38 50 be 26 09 36 3e 2b e9 03 3e
       0.21450981 -0.2033391 0.17776927 0.12881915
000380 66 cb 35 be dc 63 75 bd a8 6b 3b 3d 81 54 cd 3c
       -0.17753372 -0.059909686 0.045756966 0.025064709
000390 7c 1c 27 3d 53 ab fd 3c b5 3f 11 3e c1 83 e8 3d
       0.04079865 0.030965483 0.14184459 0.11353255
0003a0 9e a4 b5 bd 71 d0 cc bd 65 9c b7 3d f9 f2 ce bd
       -0.08869289 -0.100006945 0.08965377 -0.10104937
0003b0 2b f6 cd bd 60 32 89 3d 9e e8 3a 3e 1d ba 81 3d
       -0.100567184 0.066990614 0.18252799 0.063343264
0003c0 94 c7 1e be f1 b2 f4 3d 99 0e bb 3d ef 21 9f 3e
       -0.1550582 0.11948193 0.09133644 0.31080577
0003d0 70 1a 9f 3d d8 f1 d7 3d ec d4 b4 3c 5b 2f be bd
       0.077687144 0.10544175 0.022074185 -0.09286376
0003e0 c1 f0 ec 3e db 0e 44 be 55 b9 0f 3e 8c 31 18 be
       0.4627743 -0.19146292 0.14035542 -0.1486265
0003f0 74 07 3d 3d 8a aa a6 3d 32 68 d0 3d 3e 84 77 bd
       0.046149686 0.081379965 0.10176124 -0.06042885

network_body._body_endoder.seq_layers.0.bias f4 [256]
000000 8f ca 5d 3d d4 b7 cb 3c 8e f3 7e 3c a2 7a bb 3d
       0.054148253 0.02486793 0.015560998 0.0915425
000010 35 e0 7a bd c7 fa 8c 3d 32 ad bb 3d 30 58 d0 3d
       -0.061248977 0.068837695 0.09163894 0.101730704
000020 06 57 09 3b 92 8b bf 3d f1 af ee 3c 10 ee a2 3c
       0.002095641 0.09352793 0.02913663 0.019888908
000030 3f 8a d2 3d c6 1a fc 3d f6 b6 b1 3d 52 03 80 3d
       0.102802746 0.12309794 0.08677475 0.06250633
000040 b8 92 13 bc eb d2 8f 3c fe b7 03 bd 8e cf 00 3d
       -0.009007148 0.017556628 -0.03215789 0.03144794
000050 e6 e6 4a bc 68 2b 33 bd 2b f0 4b 3d 7b b8 cf 3d
       -0.012384152 -0.043742567 0.04978959 0.10142609
000060 d4 e8 e4 3d 25 f1 37 3e 66 14 88 bc 3e 8f b6 3b
       0.11177221 0.17963083 -0.01661129 0.005571275
000070 2d 5b ae 3b ec 9d e8 3d cc 47 8b bd b2 a1 45 ba
       0.0053209276 0.11358246 -0.068008035 -0.0007539048
000080 3c 59 23 bd d6 32 c8 3d f8 46 8c 3d 05 72 49 bd
       -0.039880022 0.09775321 0.06849474 -0.049181003
000090 63 52 e9 3c c3 d4 de 3d 65 9f 29 3d bf 03 21 3e
       0.028481668 0.10880425 0.041411776 0.15724085
0000a0 d0 66 7e 3d 0b fc 8c 3d 41 f6 ab 3d 69 10 6d 3d
       0.06210977 0.06884011 0.083965786 0.057876978
0000b0 49 8c 8b 3d 51 98 44 bb 6f 58 0c 3d 79 b7 af 3d
       0.06813867 -0.0029998014 0.034264024 0.085799165
0000c0 46 5c e3 3d 2d 6f c7 3d 1d 4c 01 3e ce 00 88 3d
       0.11101584 0.09738002 0.12626691 0.066407785
0000d0 f6 c8 94 bd e3 38 3e bd 1d 40 5c 3d e6 bc 7d 3c
       -0.07264893 -0.04644097 0.05377208 0.015486931
0000e0 05 e6 63 3d 5d c9 ac 3d f2 da 0a bd d6 49 b1 3d
       0.055639286 0.084368445 -0.03390021 0.08656661
0000f0 18 b3 cf 3d 42 a2 a6 3d 0d 18 3c bd 12 bf 85 3d
       0.10141581 0.08136417 -0.045921374 0.065305844
000100 35 32 2d bc 1e ca 77 3d 81 5c e5 3d 95 13 9f bc
       -0.010571052 0.06049549 0.11199284 -0.019418517
000110 8d 96 70 3c f6 c1 fc bd 20 46 c8 bc e8 49 b8 3d
       0.014684332 -0.123416826 -0.0244475 0.089984715
000120 4b 3b 87 bd d3 4c 37 3d 66 7c 66 3d f7 4e 54 3c
       -0.06603106 0.044751 0.05627098 0.01295828
000130 3b 8f 4e 3d 1a 01 33 3c c7 44 3a 3d 30 07 e5 3c
       0.050429564 0.010925556 0.045475747 0.027957529
000140 bc 58 2a 3d 63 05 52 bd e0 6e 1e bd 2b aa ba 3d
       0.04158853 -0.05127467 -0.038679957 0.09114488
000150 2c ec 54 3d 2d 36 0d bb e6 73 6d 3d 44 84 9c 3d
       0.051983044 -0.0021547184 0.057971857 0.07642415
000160 52 68 9f bb 69 38 ee 3d 0d cd e6 3d 2c 47 d4 bc
       -0.004864731 0.11631853 0.11269579 -0.025912844
000170 93 13 b3 3d a5 85 7c 3c 44 c8 af 3d 95 41 9b 3d
       0.08743968 0.015412723 0.085831195 0.07580868
000180 b8 a8 4c 3d 30 d1 72 bd 01 27 8c 3d 6b 76 04 3e
       0.04996559 -0.059281528 0.06843377 0.12935798
000190 5a b4 a2 39 65 d4 96 bc 38 9a cf 3b 4d 8c 74 bd
       0.0003103342 -0.018411824 0.006335523 -0.059704114
0001a0 42 1b bd 3b d0 b5 8e 3c 1c 33 a0 3d c1 c1 12 3e
       0.0057710717 0.01742068 0.07822248 0.14331724
0001b0 08 e5 ad 3d 0e 8e 16 3d bb 32 12 3e 0e 0d 48 3d
       0.0849095 0.036756568 0.14277165 0.048840575
0001c0 f3 3b 68 bd 5f 9a 93 3d a4 d5 fe 3b 4a d5 42 bd
       -0.056697797 0.07207178 0.007776933 -0.04756669
0001d0 0c 7b f8 3d 4c 55 db bb 80 e2 a3 bb b4 69 83 bd
       0.12132844 -0.006693518 -0.005001366 -0.06416646
0001e0 b1 34 c6 3d 49 54 df 3c e7 ca af bc f6 63 73 bb
       0.09678019 0.02726187 -0.021459056 -0.0037138439
0001f0 df 21 69 bd bf 38 bf bd 12 e8 d3 bb 6c 62 4c 3c
       -0.056917068 -0.09336995 -0.006466874 0.0124746375
000200 60 5e 9c bc c6 04 5c 3d bb 6d 26 bc 9e 66 84 3d
       -0.01908797 0.05371549 -0.010157998 0.06464885
000210 ac 23 1e bd bb 93 b5 3d a6 fd cb 3d bf ec ea b9
       -0.038608238 0.08866068 0.09960489 -0.00044808348
000220 53 24 90 3d 9c b6 7b bd d0 c3 36 bd 77 1b 14 3e
       0.07038178 -0.061453447 -0.044620335 0.14463602
000230 d5 4c 40 bd a8 9b 23 bd db aa 81 bd e5 de 09 3e
       -0.046948273 -0.039943367 -0.06331416 0.13463934
000240 d9 f1 88 3d f0 01 d1 3c ec eb 1a bd 88 a7 ae 3d
       0.06686754 0.02551362 -0.03782265 0.08528048
000250 4e b6 9e bd 8c 89 83 bc 0f 8c bd 3d 4d 6f 82 bd
       -0.077496156 -0.016056798 0.0925523 -0.06368885
000260 a7 99 68 3d 2a 76 43 3d d0 2d 69 bd e8 7f 56 3d
       0.05678716 0.047720112 -0.056928456 0.052368075
000270 d0 7a 92 3d 33 7d 16 3e 2a 77 7b bd ed 54 4e 3d
       0.07152331 0.14696197 -0.06139294 0.05037396
000280 e0 f7 3e bd 11 6c ab 3d 35 af 8b 3d 4d 73 fd 3b
       -0.04662311 0.083702214 0.068205275 0.007734692
000290 7e 08 5a bd a5 77 35 3d 36 3c b8 3d 5e d6 21 3b
       -0.053230755 0.044303555 0.08995859 0.0024694423
0002a0 16 79 c0 3c 48 c8 b1 3d fb a2 b1 3d be 6d 69 bc
       0.023495238 0.08680779 0.08673664 -0.014247356
0002b0 8c 13 52 3d 7d 4d 1a bc 51 e8 3a bd 67 2e 26 3d
       0.051288173 -0.009417889 -0.04563171 0.040571596
0002c0 93 89 1d 3e 7e 0b 42 3d 63 bb d0 3b 7f 13 86 bc
       0.15384512 0.04737424 0.0063699945 -0.016366718
0002d0 c5 38 5c 3b 14 d3 c2 3d 1f d4 70 3d ef 49 5e 3d
       0.0033603173 0.09512916 0.058796044 0.054269727
0002e0 95 b8 e0 3d 6a bf 26 bd a9 52 34 bd 84 bb 9a 3d
       0.10972706 -0.04070989 -0.044024143 0.07555297
0002f0 7a d9 e6 3c 1c 6a f9 bc 49 2d c9 3b 1e bf d4 3d
       0.028179873 -0.030446105 0.0061394316 0.10388015
000300 9e c0 21 3e 2f c7 fe 3c 41 b4 34 3d 8c 5e 6e 3d
       0.15796134 0.031100838 0.044117216 0.058195636
000310 24 8e e4 3d e7 32 8b 3d fb d2 1e 3e e1 49 8a 3d
       0.11159924 0.06796818 0.1551017 0.067523725
000320 78 74 00 3c d1 7b 55 3c 3d 8c 41 3d 14 33 d4 bc
       0.007840268 0.013030008 0.047252882 -0.025903262
000330 85 11 80 bd cb e0 0a bd f4 04 ec 3d 0d 22 04 3d
       -0.062533416 -0.033905786 0.11524382 0.032259036
000340 83 ef ab bb bb f4 07 3e 2a 9d d0 3d 3d 0f 7a 3d
       -0.005247058 0.13276951 0.10186227 0.06104969
000350 a8 4a df 3c f1 cd 05 3c 9f e9 21 3d cc ae 90 3c
       0.027257279 0.008166776 0.03952944 0.017661475
000360 5f e4 32 bd d8 c0 12 3d 6a 4e 32 bd 3f 0d 3b 3d
       -0.043674823 0.03582844 -0.043531813 0.04566693
000370 31 5c a8 bc 93 6b 20 3c 64 89 aa 3d 06 a9 f3 bc
       -0.020551773 0.009791273 0.083269864 -0.029743683
000380 4b 3d 01 3d 56 f8 d9 3c 9c a4 bb 3d a6 fb 64 bd
       0.031552594 0.026607674 0.09162256 -0.055904053
000390 60 62 b3 3d b4 29 e3 3c d9 87 ac 3d af 55 00 3d
       0.08758998 0.027729847 0.084243484 0.031331714
0003a0 62 c9 96 3d 71 80 be bc 9b 08 e6 bd 3f de 70 3d
       0.073626295 -0.023254605 -0.1123211 0.0588057
0003b0 d3 fb 72 3d 5d 2c 5e bd 35 41 89 3d 6d c2 20 bd
       0.05932219 -0.054241527 0.067018904 -0.03924792
0003c0 62 e2 e4 3d a2 01 cc 3d 28 1c 01 3d 63 9e c9 3d
       0.111759916 0.09961249 0.031520993 0.09844663
0003d0 5e 52 bf 3d 74 8e e7 bc fe 2f b3 3d fd 1b 3f bd
       0.09341882 -0.02826617 0.08749388 -0.04665755
0003e0 00 12 43 bd 02 05 c7 3d 3d ac b9 bc 8d 3e 34 bd
       -0.047624588 0.09717752 -0.022665137 -0.044004966
0003f0 a5 74 a5 3d 8c 96 52 bb 57 04 9c bd 55 9a 16 3d
       0.08078889 -0.003213319 -0.07618015 0.036768276

network_body._body_endoder.seq_layers.2.weight f4 [256, 256]
000000 ac e1 8d 3e 47 82 4d 3d 78 57 05 3e d4 96 87 3c
       0.27711236 0.05017307 0.13021648 0.016551413
000010 02 d4 0c 3e a0 12 5f 3e 53 c1 35 be 6b 5b 65 3d
       0.1375275 0.21784449 -0.17749529 0.055995386
000020 70 d1 58 bd 32 92 2d 3e 3d 24 80 3e 31 e8 26 3d
       -0.05293411 0.169503 0.25027648 0.04074878
000030 9e 84 12 be e6 f0 65 3e 08 8b 3e bd 44 d8 20 3d
       -0.14308402 0.22455177 -0.04651931 0.039268747
000040 53 d2 2d be 75 32 c0 3d cb 78 eb bd 1d 0f a3 be
       -0.16974764 0.09384624 -0.11497649 -0.31847468
000050 3b b6 a4 bb 8b 51 e9 bd 07 8d 6d 3e c6 fb 3d 3e
       -0.0050266064 -0.11392506 0.23198329 0.18553075
000060 14 3e 5c be e8 54 e3 bd 87 55 80 bb 45 2f ef bd
       -0.21508056 -0.11100179 -0.0039164457 -0.11678938
000070 41 1c d4 bd 24 35 09 3e 23 06 39 bd c8 fe 75 3e
       -0.103569515 0.13399178 -0.045171868 0.24022973
000080 a1 ac 61 be 1a 84 4f 3e 9b 86 3b bd b9 74 00 bd
       -0.22038509 0.20265236 -0.045782667 -0.031361315
000090 c5 7d 06 3e bd 52 36 be ab 53 62 3e 66 de 8d be
       0.13133915 -0.17805 0.2210223 -0.2770874
0000a0 5f 8b 5c 3d b6 3b 76 3e a5 20 ad bd fd 2c 5a be
       0.053843852 0.24046215 -0.08453492 -0.21306224
0000b0 86 e8 03 3e c9 93 50 bd 36 de 50 be f4 f3 1f be
       0.1288167 -0.05092219 -0.20397267 -0.15620404
0000c0 57 34 6f be 8a 99 64 3e df 57 8e 3d 54 0a 23 be
       -0.2335981 0.22324196 0.06950354 -0.15921909
0000d0 90 ef 51 be ed 04 24 be 18 34 42 be 77 94 00 3e
       -0.20501542 -0.16017504 -0.18965185 0.12556635
0000e0 78 50 d5 bd 3b b7 2f be ba 79 c8 bd 0b 78 95 bc
       -0.10415739 -0.1715974 -0.097888425 -0.018245718
0000f0 f5 d7 71 3d f4 ca 1a 3d 8b 97 5d bd d5 2a 88 3d
       0.059043843 0.037791207 -0.0540996 0.066487946
000100 36 7e aa bd 6f 1f 86 be 3f e0 62 3e 27 b7 22 3e
       -0.08324854 -0.26195857 0.22155856 0.1589018
000110 a1 2c fc 3d f9 fd 04 be 7c 00 0f 3e 55 e2 c5 3d
       0.123132 -0.12987508 0.13965029 0.0966231
000120 17 9c a2 bd 70 be 3b be e9 36 10 bd 00 0b a4 3d
       -0.07939928 -0.18334365 -0.035208616 0.080099106
000130 70 b8 2e 3d 02 79 56 be a3 ae 33 bd a5 a2 2c 3c
       0.042656362 -0.20944598 -0.04386772 0.010536824
000140 7e 7c bc 3d e1 eb 94 be eb 99 6f be 88 c2 6d be
       0.092034325 -0.2908621 -0.23398559 -0.23218739
000150 5f 70 07 3e 43 19 b4 3d 48 54 a3 3d 88 1b de 3d
       0.1322646 0.08793881 0.0797506 0.10845095
000160 11 e0 65 be c7 12 f2 3d c0 4e 4c 3e 8f d1 22 3d
       -0.22448756 0.11819988 0.19951916 0.039750632
000170 3d 09 07 3e 42 75 a7 bd 17 62 ac 3d 2a 39 09 bc
       0.13187118 -0.08176662 0.08417147 -0.008375445
000180 3c 58 ef bd d8 c6 41 3d cb 10 84 3d b3 f2 f3 3d
       -0.11686751 0.047308773 0.064485155 0.119115256
000190 94 69 1c 3e 35 c1 65 3c 44 bc 41 be 66 e3 01 3e
       0.1527465 0.014023115 -0.18919474 0.12684402
0001a0 ac cb 9b be ff dd 16 bd ae 83 26 bd f6 5c c7 be
       -0.30428827 -0.036832806 -0.040652923 -0.3893811
0001b0 e7 a5 06 3d 0f 04 8f 3d c6 9c 9c 3d 68 4c b8 bd
       0.03287306 0.06983196 0.0764709 -0.08998948
0001c0 47 2e 99 bd 56 67 a4 3b 1e 4e 4a bd e3 5f df 3c
       -0.0747953 0.0050172014 -0.049390905 0.027267402
0001d0 4a d4 8c 3e 8f 61 74 3d 7f 3f 21 3d 37 93 80 bd
       0.27505714 0.05966335 0.039367195 -0.06278079
0001e0 b3 4c c9 bc 5e 11 25 be bb 04 a6 3d bc 7b 0e 3e
       -0.024572706 -0.16119906 0.08106371 0.13914388
0001f0 cb 5c 9d 3c 23 d6 c0 bd fb 04 30 be 7b 38 03 3e
       0.019209286 -0.09415843 -0.171894 0.12814514
000200 1c b9 8d be 56 61 88 be 45 f3 1c 3e 29 91 ac 3d
       -0.2768029 -0.2663676 0.15327175 0.084261246
000210 cf 5f 87 3c 89 f8 b0 3c c6 97 49 bc 98 2e 6e be
       0.016525177 0.021602886 -0.012304252 -0.23259962
000220 5c 6c d1 3d b9 e8 03 be 80 95 66 bb 03 4e 80 bd
       0.10225746 -0.12881745 -0.0035184324 -0.062648796
000230 56 ae 03 bd 32 9e 0e 3c ab a9 82 be 85 ee 40 3d
       -0.03214868 0.008704709 -0.2552007 0.04710247
000240 29 3e 26 bd 87 f3 2c 3e be a0 f4 3c 0e 25 27 3e
       -0.040586624 0.16889773 0.029861804 0.16322729
000250 be aa 9e 3d 29 b5 a6 bb e0 04 ea bd 3a 3b b7 3c
       0.0774741 -0.005087514 -0.11426711 0.022367109
000260 03 7e 97 3d 02 14 84 3d 4b 3e c7 bc 79 8c 55 3e
       0.07397082 0.06449129 -0.024321696 0.20854367
000270 fe d8 88 bd 52 df 15 be e8 7e 56 3d d7 87 d5 bd
       -0.06682013 -0.14635971 0.05236712 -0.104263
000280 8c b3 0c 3e f7 70 ab be 20 07 a4 3b 37 88 1e be
       0.13740367 -0.33484623 0.005005732 -0.1548165
000290 c7 c7 30 be 85 da 30 3e c3 63 94 3e 6a 15 96 be
       -0.17263709 0.17270859 0.28982362 -0.29313213
0002a0 96 b6 f7 bd 9b 65 74 bb 3d 0c bd bd 1c 9d 07 be
       -0.120953724 -0.0037292007 -0.0923085 -0.13243526
0002b0 10 93 cc bd 88 9c 40 be 64 54 29 3d fd d1 35 3e
       -0.099889874 -0.18809712 0.041340247 0.17755885
0002c0 3a 26 17 be 3a a1 3f 3e cf db ae bb 5c 7d d3 bd
       -0.14760676 0.18713847 -0.005336262 -0.10326645
0002d0 7b 9c 18 be 57 11 88 3e 1a 99 b6 3d 19 32 ca 3d
       -0.14903443 0.2657573 0.089159206 0.098728366
0002e0 c9 8f 5e 3d 45 aa 1c be c9 78 94 bd bd 54 5d 3e
       0.054336343 -0.15299328 -0.072496004 0.21614356
0002f0 c1 33 f9 bd f8 b3 8b 3d 09 5b 10 be df 43 a9 bc
       -0.121680744 0.06821436 -0.14097227 -0.020662246
000300 4e 02 1e be 74 2f 39 3e 3a 16 73 3e 2c bc 72 3c
       -0.15430567 0.18084508 0.23738948 0.0148153715
000310 91 25 d0 bc 2b 47 2f 3e e4 5b 2e 3e 0b 85 47 3d
       -0.025408538 0.17116992 0.17027241 0.048710864
000320 09 5f 22 bd 4c 88 93 be 87 11 db bd fe d0 30 bd
       -0.039641414 -0.28814924 -0.106967025 -0.04316806
000330 fa 5d 09 3e 9d d4 c3 bd ae bc a1 3e 01 63 d7 bd
       0.13414755 -0.09562037 0.31589264 -0.1051693
000340 b4 64 bd bd d9 3b 9c 3e 34 1d e3 3c d4 bf 93 3d
       -0.09247723 0.3051441 0.027723886 0.07214323
000350 48 38 3c be 4b a8 3d 3d bb 2c 02 bc ab 91 55 3d
       -0.18380845 0.046303075 -0.007945235 0.052140873
000360 64 e2 af bb 22 93 00 be 7d 52 2f 3c 6d a2 4f 38
       -0.005367564 -0.12556127 0.010700819 4.9503917e-05
000370 14 60 6f bd 53 d8 82 be 77 6e da 3a 04 af 5d 3d
       -0.058441237 -0.25555667 0.0016665001 0.054121986
000380 d9 99 e1 3d 9b bb 7e bc fc f2 40 3e 0f a6 8f 3c
       0.11015672 -0.015547658 0.18842691 0.017535238
000390 fa 75 d0 bc 98 46 10 bd 0c 74 d4 be d1 0c cb bd
       -0.02544688 -0.035223573 -0.41494787 -0.09914554
0003a0 b9 e6 2a bd 2c 1b 65 bd 1c 61 3e be 65 50 f4 bb
       -0.04172394 -0.055934116 -0.18591732 -0.007455873
0003b0 50 68 71 bd 68 ce db bd 02 b2 cc 3d cb c1 ed bd
       -0.05893737 -0.10732728 0.0999489 -0.11609229
0003c0 da 73 85 3e 1b 1f 2c 3e 5c 93 96 3d 85 09 c7 3d
       0.2606495 0.16808741 0.07352325 0.097186126
0003d0 3c 28 07 bc 2c aa 13 be d2 3f 07 be 09 58 12 be
       -0.008249339 -0.14420384 -0.1320794 -0.14291395
0003e0 f5 22 b0 bd 85 a0 52 3e 95 30 9d bd 76 53 97 3d
       -0.086004175 0.20569046 -0.07675282 0.07388966
0003f0 b1 19 4c be a6 64 4e be 7f 3b 83 3e bf 75 4a be
       -0.19931675 -0.20155582 0.2563133 -0.19771479

network_body._body_endoder.seq_layers.2.bias f4 [256]
000000 74 60 1b 3d 7f a9 80 3e 9d 6d 5b 3e c7 16 80 bc
       0.03793378 0.25129315 0.21428533 -0.015635861
000010 00 00 86 bd 41 06 1c bd bb df da bd ef eb aa bb
       -0.06542969 -0.0380919 -0.106872045 -0.0052161138
000020 2c 8d c8 bc 50 28 b0 bd c0 f9 b2 bc 02 d2 a6 3d
       -0.024481378 -0.08601439 -0.021847606 0.081455246
000030 e6 e7 d2 bc 80 34 91 bd 74 8d 7b bd 83 ee 97 bd
       -0.025745343 -0.07090092 -0.061414197 -0.074185394
000040 e0 5b 9f bd 7b b3 06 bc ce 72 1b 3e b5 49 de bc
       -0.07781196 -0.008221502 0.15180513 -0.027134756
000050 48 05 18 3d c1 a8 7b bd a0 00 e7 3c 00 c0 7e bd
       0.03711441 -0.061440233 0.02819854 -0.062194824
000060 c8 b5 d6 3d 32 eb 4a bc ea bf 2d 3c cd 9a cc bd
       0.10483891 -0.0123851765 0.010604838 -0.099904634
000070 0d dc b6 bd 97 f5 a8 3d 8c cc 25 bc c2 45 16 bd
       -0.0892869 0.082499675 -0.010119569 -0.03668762
000080 12 73 73 bc d6 f8 1d 3b c8 5a c1 bd d8 fa 31 bd
       -0.014858978 0.0024104617 -0.09441143 -0.043452114
000090 87 80 13 3e 0a 3b 58 3d 40 1f 06 3e 8f 57 bf bb
       0.14404498 0.05279068 0.13097858 -0.005839295
0000a0 55 0e 23 bc 40 84 9a bc 0d 5e a4 bc 60 cf cf 3d
       -0.0099521475 -0.01886189 -0.020064378 0.101469755
0000b0 85 27 81 bd e8 88 d7 3d b4 82 02 bc a9 7b 3d 3c
       -0.06306366 0.1052416 -0.007965732 0.011565127
0000c0 d6 ef 5b 3d 9c ef 87 3d ff cb 82 3d 45 ae 23 b9
       0.053695522 0.06637499 0.063865654 -0.00015609812
0000d0 7e 84 80 bd 64 8d d6 3b 9b ab b7 bc 07 47 5a 3d
       -0.06275271 0.006547617 -0.022420695 0.053290393
0000e0 7f b4 62 bd cf 63 6b 3b 10 b4 fb bc 63 d0 01 bd
       -0.055347916 0.0035917645 -0.030725509 -0.031692874
0000f0 64 9f 58 3d 83 32 ab bd c0 65 20 bb 55 98 17 bd
       0.05288638 -0.08359244 -0.002447471 -0.03701051
000100 40 3c 0c 3d 62 f3 91 3d b9 ae 85 39 b2 84 51 bc
       0.034237146 0.071265 0.00025497915 -0.012787985
000110 12 4b df 3b 2a bb 00 3e e3 e0 6c 3c 0a b3 f5 3d
       0.006814369 0.12571397 0.014457914 0.119970396
000120 97 cd 50 bd 61 52 40 3d e2 d6 6c 3d b8 22 77 3d
       -0.050977316 0.046953563 0.057822116 0.060335845
000130 11 e5 34 3d 19 4a f2 3d 33 df c0 bc 06 bc 22 3d
       0.044163767 0.11830539 -0.02354393 0.039730094
000140 58 b7 20 3b 8f 91 8c 3c 82 e1 db bb 9d b2 76 3d
       0.0024523344 0.017159251 -0.0067102322 0.060228933
000150 af fa ba bc d9 be 36 3d 2a 76 44 bd 04 f1 2d 3d
       -0.022824613 0.0446156 -0.047964253 0.04246618
000160 4e cd 65 bc 34 17 d4 3d e7 a0 4e 3d 35 97 e7 bd
       -0.014025999 0.10355988 0.050446417 -0.11308137
000170 c5 2c f8 3d 13 65 24 bc 5b 49 2a bc 96 93 0b 3a
       0.12117914 -0.010033864 -0.010393466 0.0005324421
000180 9b 4b 26 3c c7 b8 8e 3d 61 6c e0 3b e0 58 5a 3e
       0.010149862 0.06968837 0.0068488573 0.21322966
000190 fe ae 7b 3b 4f ee 0b 3e a3 ac a6 bc 00 90 49 bd
       0.0038403864 0.13665126 -0.020345991 -0.049209595
0001a0 ef 6d a4 bd 6e 22 91 3d 9a a3 9f bd d5 84 67 3d
       -0.08028781 0.07086645 -0.077948764 0.056523163
0001b0 69 06 ad bc 0a 4c f7 3d 48 65 72 3d db f7 73 bb
       -0.02112122 0.1207505 0.05917862 -0.003722659
0001c0 26 ba ae bc 64 89 87 3d aa 0c 0a 3e ee a3 1e 3d
       -0.021328997 0.06618002 0.13481393 0.038730554
0001d0 bb f0 1b bd 56 31 46 3c b3 cb 8a bc 57 db e3 3c
       -0.038071375 0.012096724 -0.016942834 0.02781455
0001e0 03 77 40 bd d8 1e b9 bb 5b 7c a8 bc 5c ac d7 3c
       -0.0469885 -0.005649429 -0.02056711 0.026327305
0001f0 9f 6b ea 3c 59 74 e7 bc 38 b2 8d bc bd bd 64 bd
       0.02861577 -0.028253721 -0.017296895 -0.05584501
000200 06 fd 3a 3d 49 83 51 bd 6c 3f 10 3e 22 da ea bb
       0.04565146 -0.051150594 0.14086694 -0.0071671167
000210 11 b2 b7 bd 2c 3c 0c bd 9b e4 84 3a f3 0a 77 bd
       -0.0896951 -0.034237072 0.001013893 -0.060313176
000220 96 3c 49 3c 34 b0 ec 3c 14 14 41 bd 17 9c af 3d
       0.012282511 0.028892614 -0.04713829 0.08574694
000230 02 ff d7 bd 0c 65 fb 3d e7 6c d4 3c 09 bb be bc
       -0.10546686 0.122751325 0.025930835 -0.023282545
000240 99 7a 3e bd 76 97 47 3b 07 77 6f bc f7 bd d3 bc
       -0.046503637 0.0030455268 -0.014615781 -0.025847418
000250 73 4b 50 3d 0d 91 94 bd 2e b5 39 3d 84 fb de bc
       0.050853204 -0.07254229 0.045338802 -0.027219541
000260 23 a4 07 bd 55 d7 95 3d f8 5d c7 bc 80 5d 8c bc
       -0.033115517 0.07316462 -0.0243368 -0.017134428
000270 6c b6 66 bd 18 a9 8c bd b4 8e 13 3d 6d e8 fb bd
       -0.056326315 -0.068681896 0.036024764 -0.12300191
000280 6f 79 a4 bd 41 b8 ab bd d8 b9 17 3c 51 b0 4a bd
       -0.08030974 -0.08384753 0.009260617 -0.049484555
000290 d1 a3 3d 3b d6 60 87 bd 79 b4 ac 3c 9d bc 60 bd
       0.0028936754 -0.06610267 0.02108215 -0.054867376
0002a0 38 c3 db 3c e8 0f 57 3c 11 79 10 3d 43 65 1f 3e
       0.026826486 0.013126351 0.035271708 0.15565972
0002b0 04 e1 43 bd aa be b0 b9 b9 71 7c 3d 2f 5b 79 bc
       -0.047822013 -0.00033711392 0.061631892 -0.015219494
0002c0 02 be 11 3c ae a3 37 3d 08 31 b3 3d 28 d6 6b bc
       0.008895399 0.04483383 0.08749586 -0.014394321
0002d0 91 8a b9 3d 7b d9 cf bc f1 a0 12 3d bb 27 b7 3d
       0.090596326 -0.025372257 0.035798017 0.08943125
0002e0 ee a8 7d 3d ca 97 1c 3d c1 dc 63 bd 99 d4 d8 3c
       0.061928682 0.038230695 -0.05563045 0.026468562
0002f0 a3 29 96 bd 75 ef 11 bd f6 09 41 bc 22 03 83 bc
       -0.0733216 -0.035628755 -0.01178216 -0.015992705
000300 15 34 46 bc ea bc b9 ba bf 7e 59 bd 12 a3 76 3c
       -0.012097378 -0.0014170681 -0.05309939 0.015053527
000310 66 94 6d bc cb 81 fb 3c 21 bf 91 3d 2f e3 21 bc
       -0.014500713 0.030701539 0.07116533 -0.009880825
000320 64 39 78 3d 61 90 76 3d 31 ba a0 3d d7 28 7f bd
       0.060601607 0.060196284 0.07848013 -0.062294807
000330 8a 70 d0 3b 49 9b 42 3d 45 4d 86 bb a8 e3 a2 3a
       0.006361072 0.047511373 -0.0040985667 0.0012427466
000340 8c 61 bb 3d 41 8b d6 bc 7a f8 43 bd d7 b8 1b bd
       0.09149465 -0.026189448 -0.047844388 -0.038018074
000350 bd 12 08 bd 18 fd 3c bb da ea 12 bd 45 6e 13 bd
       -0.033220995 -0.002883738 -0.035868503 -0.035993833
000360 06 9a 09 bd ef 79 a4 3d 74 6a 29 3d d7 d1 75 3d
       -0.033594154 0.080310695 0.041361287 0.060014572
000370 fc 7e 1c bd 9e bf 7c 3d 30 3f 19 3c fd ff 73 bd
       -0.03820704 0.061706178 0.009353444 -0.0595703
000380 00 ef e0 3d e4 9e 6d bd be b2 82 bc a6 e6 b0 bc
       0.10983086 -0.058012858 -0.015954372 -0.021594357
000390 ba 92 f9 3c da 3d ca bd 0d d7 3e 3c d3 09 3e 3a
       0.030465472 -0.098750785 0.011647952 0.0007249389
0003a0 e6 ad a3 3c 13 6a cc 3d c3 10 a8 bd 5e fc 6e bd
       0.019980382 0.099811696 -0.08206322 -0.058346145
0003b0 7d f3 20 bd 20 68 01 bc b4 69 82 bd 18 df e4 3d
       -0.03929471 -0.0078983605 -0.063678175 0.11175364
0003c0 16 cf 83 3c 0f be 0e 3b ad 21 ba bc 2f d0 1b 3c
       0.016089957 0.0021780764 -0.022721136 0.009510084
0003d0 c6 ac 84 3c 26 63 4e 3c b3 2c d0 bd fe 27 c0 3d
       0.016195666 0.012596881 -0.10164776 0.09382628
0003e0 5a dc 2b 3d d6 dc 7c bd cf b4 0f bd 26 00 bf 3c
       0.04195819 -0.061734043 -0.035084542 0.0233155
0003f0 18 6c 97 bd 0c ab 49 3e 88 1c 07 3d 1c 5d 3b bd
       -0.07393664 0.19694155 0.032986194 -0.045743093

action_model._discrete_distribution.branches.0.weight f4 [7, 256]
000000 2e 6c b8 bd 95 06 c9 be a3 ce 5a 3e 66 11 fe bb
       -0.09005009 -0.39262834 0.21367888 -0.007753539
000010 3e 06 d9 3d a8 44 b2 bd db 28 11 3e 45 24 10 3e
       0.10596894 -0.087045014 0.14175741 0.14076336
000020 1d 01 c9 3c 7f f7 54 3e 44 12 2b bb 19 8b 68 bd
       0.024536664 0.20797537 -0.0026103416 -0.05677328
000030 95 c5 31 be 99 10 a8 3d 14 41 bf 3c 6a 33 d0 3d
       -0.17360528 0.08206291 0.023346461 0.101660565
000040 49 3e 01 3e b1 63 a6 3d dc 92 54 be 75 a0 1f bd
       0.12621416 0.081244834 -0.20759147 -0.038971383
000050 ab 7a 5d bd 81 1b 7c 3d 72 c9 90 bc 72 55 26 3d
       -0.054072063 0.061549667 -0.017674182 0.04060883
000060 98 e7 66 bc 0e 3e c4 bd c5 43 a8 3d bc c9 b2 37
       -0.014093302 -0.095821485 0.08216051 2.1313193e-05
000070 3a da 08 3d 61 e7 10 be 49 0c 0e 3e 4b 42 be bd
       0.033411242 -0.14150764 0.13871874 -0.09289988
000080 21 f0 52 3d f5 2a ce bd 61 85 13 3d da 76 ab 3c
       0.051498536 -0.10066787 0.036015872 0.020930696
000090 26 12 5b 3c c0 f0 12 3e fb 29 77 be ca b4 1b be
       0.013371026 0.14349651 -0.24137108 -0.15205684
0000a0 8b 37 d6 bd 59 6e 39 bd 90 8a 09 3d 2e b1 63 3d
       -0.10459813 -0.04527125 0.03357941 0.055588894
0000b0 76 66 15 3e b0 7b 41 3d e2 90 08 be 8e ff f2 bc
       0.14589867 0.0472371 -0.13336518 -0.029662874
0000c0 86 1c 66 be 2c 74 0c 3d a8 e9 e9 bc c8 d0 5f be
       -0.22471818 0.034290478 -0.028553799 -0.21856987
0000d0 93 b7 78 bc 2a 5f 79 bd a2 7a 0e 3e 2d 84 22 bd
       -0.015180486 -0.06088177 0.13913968 -0.039676834
0000e0 a6 5c d9 bd 3a 84 1f 3e cb 3a 25 ba 21 75 cb bc
       -0.106133744 0.15577784 -0.00063030113 -0.024836125
0000f0 fa a3 89 be 1b 7b c3 bd aa e2 82 3d fb 45 5f 3a
       -0.26882917 -0.09544965 0.06390889 0.0008517203
000100 47 c1 5e bd 25 00 f3 3c 75 eb a6 bd 62 03 59 bd
       -0.054383542 0.029663155 -0.081503786 -0.05298174
000110 9a 90 5b 3d 84 eb f7 bb 21 f4 99 bd 53 98 83 be
       0.0536047 -0.0075659174 -0.07517267 -0.25702152
000120 ab ff 11 3d ac 34 13 be 16 44 0b bc 5d ba fc bc
       0.035644215 -0.14375561 -0.00850012 -0.030850584
000130 03 da 16 3e 52 10 64 be c8 25 b2 bd ba 6f ab bd
       0.14731602 -0.2227185 -0.086986125 -0.083709195
000140 10 0b 56 3d 8e 0c cb bd 4d 12 c8 bc f8 e5 fd bc
       0.052256644 -0.09914504 -0.024422789 -0.030993447
000150 83 df 12 3d e5 1e 30 be 0c 11 07 3e 56 a2 64 bd
       0.03585769 -0.17199285 0.13190097 -0.055818878
000160 c8 b6 df 3c 27 3d 4b be 45 e1 ed bc 2c c1 3f 3e
       0.027308837 -0.19847547 -0.029038081 0.18726033
000170 c4 94 f7 bc 1d 93 88 bc 04 70 f9 bb e2 a4 fa bb
       -0.030222304 -0.016671712 -0.0076122303 -0.00764905
000180 70 9c e2 bd c2 12 fa bc bb bc fb bd 43 ce 55 be
       -0.11064994 -0.030526523 -0.12291857 -0.20879464
000190 60 2a 96 bd 92 77 a9 be a8 96 39 bc 13 51 ac 3d
       -0.07332301 -0.33099037 -0.011327423 0.08413901
0001a0 de 20 98 3c 15 84 a4 3d 9c 74 6b 3d 3a 02 2c bd
       0.01857036 0.08033005 0.057484254 -0.04199431
0001b0 2d 87 a3 3d 36 81 8e 3c 69 02 af bd ff 63 00 be
       0.07984767 0.017395597 -0.085453816 -0.12538145
0001c0 6e b4 27 bd cb 18 3e be 6b ee 22 3c 6c 99 a5 bd
       -0.040943556 -0.18564145 0.009944539 -0.080859035
0001d0 a0 7b 44 3d b2 bd 56 bd ad db df bb 01 86 16 3d
       0.04796946 -0.052427 -0.0068316073 0.03674889
0001e0 1f c0 6e bd da bb ac 3c 83 b7 b2 bd 60 9a d3 3a
       -0.05828869 0.021085668 -0.08726408 0.001614403
0001f0 ee 32 97 bd 2f b4 83 bd 8f 6c 2d bd 20 cf 00 3d
       -0.07382761 -0.06430852 -0.042339858 0.03144753
000200 83 af bf bd a2 d8 54 3c 59 6e 49 be 27 67 74 bd
       -0.09359648 0.012991102 -0.19671 -0.059668686
000210 de ae ea 3d c0 c1 c4 bc 10 6e 5f bc 7a 8f b8 3c
       0.114591345 -0.024018168 -0.013637081 0.022529352
000220 b3 b4 8f 3d 30 75 aa 3c da 33 45 3c af c2 05 be
       0.070168875 0.020807832 0.012036288 -0.13062547
000230 bf 90 0b 3d b8 b2 53 be 4d eb 96 bd ad 49 98 3d
       0.034073588 -0.20673645 -0.07369099 0.074359275
000240 a2 44 18 bd 31 1b ef bd ae 29 07 be 02 3b 03 be
       -0.03717483 -0.11675108 -0.13199493 -0.12815478
000250 f8 ed 41 3e b0 71 74 bd 6f 81 21 be 84 53 f3 3d
       0.18938434 -0.059678733 -0.15772031 0.11881164
000260 6c 39 9f 3d 45 0b 9b bd bd 1b c7 bd d0 e7 0d 3d
       0.07774624 -0.07570509 -0.097220875 0.0346449
000270 52 ad 53 bd c7 13 37 3e 06 aa a5 bd 27 a4 01 3e
       -0.051678963 0.17878638 -0.0808907 0.12660275
000280 28 ec dc bd b6 4f 58 3e 20 0d 45 bd 22 f8 64 3d
       -0.10787231 0.21124157 -0.04810822 0.0559007
000290 f2 f8 9a 3d 9c 2a 20 3e 18 28 c6 3d 03 7d 3d 3e
       0.07567014 0.15641254 0.09675616 0.1850472
0002a0 39 91 b1 be d0 5d 59 3d 66 b3 e0 bd c0 6d 96 be
       -0.3468111 0.053067982 -0.109717175 -0.29380608
0002b0 8d dc 26 3e d8 8c df 3b 84 69 04 be a7 cc 84 be
       0.16295071 0.00682221 -0.12930876 -0.25937387
0002c0 c0 b6 cc bd 5c e9 7c bd f5 59 d9 3d 3a 31 a5 3d
       -0.09995794 -0.061745986 0.10612861 0.0806603
0002d0 0b f9 e9 bd 7c 07 22 bd cf be c3 3c 62 87 09 be
       -0.11424454 -0.03955792 0.023894696 -0.1343055
0002e0 d8 50 3c be 18 fb 45 3d f4 33 f6 3d 0a 35 42 be
       -0.18390214 0.048335165 0.12021628 -0.18965545
0002f0 26 22 da 3c 96 76 f2 3b 3f ec 91 3c 33 1a 24 be
       0.026627611 0.0073993905 0.017812846 -0.16025619
000300 fb 92 86 bd 1a 74 0e bd 8b 68 c1 bd 57 b5 12 3e
       -0.06571003 -0.03477869 -0.09443768 0.14326988
000310 40 80 3c be 7d b6 be bd 0a ee 09 bd db 7b e3 bc
       -0.18408298 -0.093121506 -0.033674277 -0.02776902
000320 e6 d1 dd bd e4 97 46 be 4c 8b 91 3d 75 27 78 3e
       -0.108310506 -0.19393879 0.07106647 0.24233802
000330 79 a2 a9 bc 5c d6 b3 be 2d d4 fe 3d 0d 6d 23 3b
       -0.020707356 -0.3512448 0.12442813 0.0024936826
000340 54 04 d7 bd 7c 4e ff bc d3 72 24 3d af b6 51 bc
       -0.104988724 -0.031165354 0.040148567 -0.012799903
000350 0c 7f 05 3c 71 00 c4 bd 27 3f ba bd 71 b7 10 be
       0.008147966 -0.09570397 -0.090940766 -0.14132477
000360 1e 8d c6 3b 2a 7e 3d be 57 13 2e 3c 2c f0 89 be
       0.006059303 -0.18505159 0.010624728 -0.2694105
000370 ac 36 2f 3d d6 54 a8 3b bb 06 42 be 7c d3 b4 bc
       0.04277675 0.0051370664 -0.1894788 -0.0220735
000380 1d 2c 9b 3d 76 c3 94 bd d6 b9 eb bd df 46 3e bd
       0.07576773 -0.07263844 -0.11510055 -0.046454307
000390 19 6a 38 be ff 33 25 3e 8a 96 6c be b8 0e b9 3b
       -0.18009223 0.16133116 -0.23104301 0.0056475066
0003a0 5f 5e b8 bd 15 fb 9d be e9 51 52 bc 83 05 1e 3d
       -0.09002375 -0.30855623 -0.012836912 0.038579475
0003b0 d3 70 45 be 74 14 dc 3d e6 4f 1f 3e df 55 ca 3c
       -0.1928132 0.107460886 0.15557823 0.02469915
0003c0 33 cd 0c bd e4 33 25 be 53 61 cb 3c 17 cd 2b bd
       -0.03437538 -0.16133076 0.024826681 -0.041943636
0003d0 f9 32 82 bc 3f 95 a3 bd d0 87 6a 3e a8 fb 34 bd
       -0.015893446 -0.07987451 0.22903371 -0.04418531
0003e0 70 3e 90 3d ed 1e 02 3e 51 be 24 bd 66 d2 82 bc
       0.07043159 0.1270711 -0.040220562 -0.015969466
0003f0 f9 b9 46 3e 5c aa a3 be 54 ea d4 bd 3f fc e2 3d
       0.1940688 -0.3196591 -0.10396257 0.110832684

action_model._discrete_distribution.branches.0.bias f4 [7]
000000 9f 2c c6 be 29 b7 0c 3d 30 e7 be bc d9 87 be bb
       -0.38705918 0.034354363 -0.023303598 -0.005814534
000010 19 16 17 3d c8 89 de 3c 14 2c 9e 3c
       0.03688631 0.027165309 0.019308127
