results/puzzle_expirement_7/PuzzleBehavior.onnx (onnx, 342923 bytes, 6 tensors)

network_body._body_endoder.seq_layers.0.weight f4 [256, 65]
00000000: f993 923e b3e4 3fbe dadd e53c de14 79be
00000010: 8da4 a53d 9bf2 8a3c 11dd 083e 4572 883d
00000020: 15fe 06be 9ec2 a4be 44b3 f93d e8a4 483d
00000030: 5b9f 543e 46e5 223e 4506 af3e 0ce3 3dbe
00000040: 4b64 8dbe a070 2f3d cdbf 45be dfbe f1bd
00000050: ed5c 103e fd27 8abe 2d51 283d 2f13 cd3d
00000060: 842f 4dbd 505f c53b 45b9 a93c 9fbe 4d3e
00000070: 8a51 46bd b92a 4f3d f6d0 3d3e c9af 3c3c
00000080: 348a 313e c6b0 9f3c 257f 873d 16c8 8bbd
00000090: 238e 64be 5018 893a 8459 e5bd 982a 173e
000000a0: 02b0 913d f7b9 2fbe a9b9 1cbe 511b f93c
000000b0: 4c9d f53e 8c83 1d3e dc54 693e 1f32 60bd
000000c0: 2ba4 a0be 94e0 2f3e 1d2c 613c 396a 26bd
000000d0: ffa5 363d 7e06 2e3e 3de3 303e be02 6a3d
000000e0: f057 f53d 7ba4 db3d 2670 edbc eacc 9d3d
000000f0: 7621 1c3d 9ccd 4fbe cd5b 933e 2c99 583d
00000100: f990 e5bc 0251 f2bc b2e6 c2bd ed74 46bd
00000110: 306b dfbe 7fde e6bd 792d a3bd 9076 ce3d
00000120: 61ac bf3d 2880 65be 361d 983c eef8 693e
00000130: 025b 803e 134e 9abe 3226 a23d bde8 40bd
00000140: 6d5e 003e d075 773e c122 4abe 1e9c 9c3d
00000150: dde5 e7bc 1bb0 8b3e de63 823d 4a70 2e3e
00000160: 1be4 2a3d 244d bb3d 4dc2 d23e 2549 7e3e
00000170: 2e23 26be 86b7 963d 2768 3ebe 5c05 d43c
00000180: 7e4c 913c e3cd 913d 5807 033e e626 7f3c
00000190: 9772 a43e 6147 fabd 4905 8d3c ef11 00be
000001a0: c41c 81be cc07 5e3e 3ab9 d93d c9e3 203e
000001b0: fc3d 7fbe 1b4b d2bd e25a 1b3e 3fe3 0e3e
000001c0: 2482 853c 8486 26be a533 26bd d57a 813c
000001d0: 2986 573e aeff 5fbc b702 283e cf10 c43c
000001e0: 9e5a 023e e393 2fbe 3187 f53c fa33 533b
000001f0: 23a0 3abd 19ad 95bd c517 723d 8c58 e03d
00000200: f7db 9fbd 248c 37be 075d cb3d 55e5 46be
00000210: 8a8a 0dbe 66cf 91bd 8d9e 9f3c 3da4 33be
00000220: b466 b7bc a012 3ebe 434e 833e a697 a63d
00000230: b107 753d 3b9b 34be f995 6dbd bab9 b73e
00000240: e125 0bbe 9d7c b8b9 94aa 063e b4e5 093e
00000250: 0e74 e33d e79c 2b3e 09d1 aebd 4cba f1bd
00000260: a987 693d eb4a 0bbe 67e3 573e 9544 8a3d
00000270: b606 84be 1e0b a83e 4f4a 75be 3fc2 aa3d
00000280: bee4 3f3d be29 bdbd 43b2 693d e544 d53c
00000290: 08c7 f03d 7abc 063e a993 473e 00a9 41bd
000002a0: 5562 f93c 8f47 55bd 8e04 053d d53d 98bd
000002b0: f4f5 023e b752 d6be 3c14 823e 2854 563e
000002c0: 89ba 27be d8c5 d43e 3a5a bb3c 3684 2d3d
000002d0: 9a74 dcbd 126b d73d 2435 9b3e e804 ddbd
000002e0: 1c77 893d 7b79 fe3d 5cbd 61bd 1f9e 153f
000002f0: d6a1 8c3d 3340 63be e33d 893d be4f 81bd
00000300: 9963 0a3f babd 953d 3a32 0dbe ec76 873d
00000310: e861 8b3d e305 d23d e374 a5bd 1a25 ff3c
00000320: f5bc 61bd df55 6d3e 3ff0 5ebc d743 05bf
00000330: fced 893d cb10 a13e 0c21 793e ba2c debc
00000340: 8774 8a3d 5738 2fbe 9d3a 2abd c178 3a3e
00000350: 5b89 a0bd 8135 c13d 1465 e5bd d9ec 4cbd
00000360: 0d00 b2be 85c4 1d3d 3884 8d3e eaca 163e
00000370: 4490 453e 7afa 5fbe c211 2c3e a72f 0a3e
00000380: dc35 28be b5c4 92bd a86b 3b3d 585f c13c
00000390: f8e8 47bc 0dd8 173d dd31 163e 1b4b ee3d
000003a0: 4fa2 b8bd 99e8 a0bd 9b1d c33d f9f2 cebd
000003b0: a209 b6bd 7414 183d 3488 3e3e 89f1 833d
000003c0: 94a8 20be b91c f93d d38f e73d b510 9f3e
000003d0: 701a 9f3d 52a1 da3d e64a 0bbc 40a0 ecbd
000003e0: 23f8 e53e be8d 31be 8c04 023e 8db0 0bbe
000003f0: 5d8b 9e3d 8aaa a63d d9cc c03d 1420 00be
0.2862852 -0.18739586 0.028059889 -0.24324366 0.08088026 0.016961386 0.1336558 0.0666242
-0.13182862 -0.3217973 0.12192395 0.04898539 0.20763914 0.15907773 0.3418447 -0.18543643
-0.2761558 0.042832017 -0.19311447 -0.11803984 0.14097948 -0.26983634 0.04109304 0.100134246
-0.050094143 0.006023325 0.020718226 0.20092247 -0.048417605 0.050577853 0.18536744 0.01151652
0.17337877 0.019493472 0.06616048 -0.06825273 -0.22319846 0.0010459516 -0.111987144 0.14762342
0.07113649 -0.17160784 -0.15305199 0.030408533 0.4797157 0.15382212 0.22786278 -0.0547353
-0.3137525 0.17175514 0.013743428 -0.040628646 0.0445919 0.16994664 0.17274185 0.05713152
0.11979663 0.107247315 -0.02898414 0.077051 0.03811785 -0.20293278 0.28780976 0.05288045
-0.02802323 -0.029579643 -0.09516658 -0.048451353 -0.43636465 -0.112729065 -0.079676576 0.10081208
0.093590505 -0.22412169 0.018568616 0.22848865 0.25069433 -0.3013769 0.079174414 -0.047096957
0.1253602 0.24166036 -0.1973982 0.076469645 -0.02830785 0.27282795 0.063667044 0.17035022
0.041721445 0.09145573 0.41163865 0.2483259 -0.16224357 0.07359223 -0.18594418 0.025881462
0.01773667 0.07119348 0.1279577 0.015573239 0.32118675 -0.12220646 0.017214434 -0.12506841
-0.2521726 0.21682662 0.10631032 0.15711893 -0.24925989 -0.102682315 0.15171388 0.13953875
0.016297407 -0.16262251 -0.040576596 0.015805641 0.21047272 -0.013671799 0.16407286 0.023933796
0.1272988 -0.17146258 0.02997169 0.0032227025 -0.045562875 -0.073084064 0.0591047 0.10954389
-0.07805627 -0.17924553 0.09929853 -0.1942342 -0.1382238 -0.07119636 0.019484783 -0.1754312
-0.02238784 -0.18561792 0.25645646 0.081343934 0.05982179 -0.1763734 -0.058004353 0.35883886
-0.13588668 -0.0003518806 0.13151008 0.13466531 0.1110612 0.16759072 -0.08535964 -0.118031114
0.05701414 -0.13602798 0.21082841 0.06751362 -0.2578637 0.32820982 -0.23954128 0.08337831
0.046849005 -0.09236477 0.05705477 0.026033828 0.11756712 0.13157836 0.19489922 -0.04728031
0.030442396 -0.052070197 0.032475047 -0.074336685 0.12789136 -0.4185998 0.25406063 0.2093054
-0.16379751 0.41557193 0.022870172 0.042362414 -0.107644275 0.10518469 0.3031398 -0.107919514
0.067121714 0.12425514 -0.055112228 0.584444 0.06866805 -0.22192459 0.06701257 -0.06314038
0.54058224 0.07311578 -0.13788691 0.066144794 0.068057835 0.10255029 -0.08078935 0.031145621
-0.055111844 0.23177288 -0.013607084 -0.5205664 0.06734845 0.31458125 0.24329013 -0.027120937
0.06760507 -0.17111336 -0.041559804 0.18210126 -0.078386985 0.09434033 -0.1120092 -0.050030563
-0.34765664 0.038517494 0.27639937 0.14725843 0.19293314 -0.21872893 0.16803649 0.1349474
-0.16426796 -0.07166425 0.045756966 0.023605034 -0.01220154 0.037071276 0.14667459 0.11635419
-0.09015333 -0.078568645 0.09527131 -0.10104937 -0.08888556 0.03712888 0.18606645 0.064425536
-0.15689307 0.121636815 0.11306729 0.31067434 0.077687144 0.10675301 -0.008501744 -0.11554003
0.44915876 -0.17339227 0.12697047 -0.13641568 0.07741425 0.081379965 0.094140716 -0.12512237

network_body._body_endoder.seq_layers.0.bias f4 [256]
00000000: 6c52 693d 248c d13c 4622 703c a858 bc3d
00000010: fe81 4fbd 5fb4 a83d 5f63 c53d d9d0 e63d
00000020: eae6 993b 3f93 bf3d 9aeb 243d 0241 b63c
00000030: 3809 c93d 314e 033e 7a79 a53d 5448 943d
00000040: 41ec 57bc 0638 833c d1e7 12bd c34b d63c
00000050: 7d34 88bc cd53 3dbd 2998 663d 3b2c cf3d
00000060: e87d f23d e27c 373e 1cb9 cebc c141 2b3c
00000070: b4f2 4a3b 353f d63d 1bb0 81bd 7380 66bb
00000080: 8b41 2cbd 5c7b d23d 40ea 903d 2d56 70bd
00000090: 97d0 2e3d 90b8 da3d 2651 5a3d 53b6 183e
000000a0: d60f 753d aecc 963d 62d1 b13d f4fe 473d
000000b0: dc8c 933d 05a7 cfbb 2836 f83c f444 ac3d
000000c0: 0983 cf3d 1689 cb3d 06e3 093e d3a5 743d
000000d0: 36d8 99bd 3ca8 34bd 51f6 3f3d ae42 ab3c
000000e0: f4de 553d f95b b53d bf4a efbc f2aa c53d
000000f0: a094 e13d fc05 ab3d cc6f 52bd 6516 703d
00000100: 8caa 8abc 0ae4 4f3d b3b4 f53d e51e b6bc
00000110: ba60 9c3c 36c3 04be c617 a6bc 852b d43d
00000120: 9af8 8bbd 8dbf 243d a3fd 553d 32a0 af3b
00000130: 2872 503d 7120 2b3c 924d 363d f83b da3c
00000140: f3ca ee3c 24c2 52bd f0b9 49bd ff3b a03d
00000150: aff0 753d 4ab3 c83b cd11 7d3d 7689 a73d
00000160: 40ea 68bb 1a3f f63d 0096 e23d 0494 dfbc
00000170: fc91 c33d 7371 813c 5944 b33d a73d 963d
00000180: 310f 623d 419f 88bd 9315 9e3d a6f0 083e
00000190: f0d3 bb3b ccb2 55bc b1e1 df3a 98a9 80bd
000001a0: 254b 4c3b 7564 7c3c 924a 993d aff9 0e3e
000001b0: 6707 9d3d 6a56 2d3d 4658 113e daeb 633d
000001c0: a63a 56bd 2d1e 9a3d 6b4d 423b 268b 38bd
000001d0: 9489 f73d 9271 1dba e414 84bb 1d27 89bd
000001e0: a2e5 bc3d 8c22 233d ecb9 83bc 7036 e23a
000001f0: c48f 7abd 3b85 bfbd db5a 12bc d4a3 773c
00000200: 3e4c fdbc 549f 463d 04c7 823a b3d6 8b3d
00000210: f03b 14bd afc1 c93d c519 dc3d 1608 0c3b
00000220: f5a5 9a3d 4b8b 7cbd fbe3 34bd 5d79 173e
00000230: ac4c 3bbd b6a7 3bbd 9336 79bd eec7 0d3e
00000240: 0305 843d 40d9 b43c 64ce 07bd aeb7 b53d
00000250: c586 9dbd f519 85bc 4f7e c23d db84 89bd
00000260: 71d6 6e3d 88be 3f3d 1864 5fbd 9a2f 743d
00000270: 3184 853d f5ca 0e3e 8eeb 81bd 06dc 323d
00000280: 32fc 40bd a8bc b53d 3cf8 8c3d b2fd 4c3c
00000290: 28f6 6dbd 0737 313d bcd2 bf3d 7e60 343a
000002a0: a531 be3c b64c bb3d 14d1 b43d b386 73bc
000002b0: 6df2 743d 8b79 86bc dab4 41bd c34e 263d
000002c0: 8c2c 213e b4e6 623d c4c7 433c 6421 92bc
000002d0: fa14 413b 4fd5 c43d 2e73 763d ca69 803d
000002e0: 488d f43d bb8c 42bd 6a02 41bd fc97 9f3d
000002f0: eca1 c63c 5aca 25bd da93 303c 2560 b83d
00000300: e70d 243e 0cf6 263d d7ff 353d 18e9 5d3d
00000310: 364a e63d 77b0 9d3d e177 233e aa1c 813d
00000320: 79e4 ca3b 61a0 013c 00b5 2c3d 754c c2bc
00000330: 3596 88bd b55b 11bd ba42 fc3d b87d c23c
00000340: e113 02bc 91f3 0c3e 948c d73d 80de 703d
00000350: 13a4 bb3c 1b04 963c 965e 3a3d c246 b73c
00000360: e2af 40bd 0aae 003d 65e3 52bd 4bf5 4a3d
00000370: d6d9 89bc d5bc 033b 4c9d ad3d 045d adbc
00000380: b28c 0e3d 9355 da3c 0c6c c23d 3a6f 76bd
00000390: b580 bb3d 9934 cb3c 01a8 b03d 1e81 cb3c
000003a0: 7c08 9d3d 94c9 a6bc eac1 e6bd cbfe 703d
000003b0: 6b9b 533d 5473 69bd 6ee3 8d3d 020d 2abd
000003c0: e195 f73d 3ddd c43d c846 243d ab5d d43d
000003d0: a3bc c53d 9b33 e7bc cd07 9d3d ff8b 6dbd
000003e0: 6d8b 3ebd 7753 d73d e721 bdbc d334 10bd
000003f0: deb9 963d f188 8539 da09 89bd 00b0 d93c
0.05696337 0.02557952 0.014656609 0.09196597 -0.05066108 0.08237528 0.09638094 0.11270303
0.0046967166 0.09354257 0.04026375 0.022247795 0.098162115 0.12822796 0.080798104 0.07240358
-0.013178886 0.016017925 -0.03586561 0.026159173 -0.01662659 -0.046222497 0.056297455 0.10115858
0.11840421 0.17918733 -0.025234751 0.010452689 0.0030967416 0.104612745 -0.063324176 -0.0035171777
-0.042054694 0.10277435 0.0707593 -0.058675934 0.042679396 0.10679734 0.053300045 0.14913301
0.059829555 0.07363258 0.08682515 0.048827127 0.07204601 -0.006337049 0.030299261 0.08411589
0.10132415 0.099382564 0.13465509 0.059728455 -0.07511942 -0.044105753 0.046865765 0.020905819
0.052214578 0.08855433 -0.029210446 0.09651746 0.11014676 0.08350751 -0.05137615 0.058615107
-0.016927026 0.050754584 0.11997356 -0.022231529 0.019089092 -0.12965092 -0.020275008 0.10359863
-0.06834526 0.04022174 0.05224384 0.005359673 0.050890118 0.010444746 0.04450757 0.026639923
0.029149508 -0.05145468 -0.04924959 0.07823943 0.060043987 0.0061248885 0.061784554 0.081805155
-0.0035540015 0.120237544 0.110637665 -0.027292259 0.09549329 0.015801167 0.08753271 0.07335978
0.05519027 -0.06671 0.07718959 0.1337305 0.005732052 -0.013043117 0.0017080811 -0.062823474
0.003117272 0.01540481 0.07484926 0.13962434 0.076674275 0.04231874 0.1419383 0.055644847
-0.052302025 0.07525287 0.0029648195 -0.045054577 0.12086788 -0.0006005998 -0.0040308107 -0.066969134
0.092234865 0.03982787 -0.016079865 0.0017258655 -0.06117226 -0.093515836 -0.008932794 0.015114743
-0.030920144 0.04849179 0.0009977524 0.0682806 -0.036189973 0.09851395 0.10747103 0.0021367124
0.07551185 -0.061656278 -0.04416273 0.1479239 -0.045727417 -0.04581424 -0.06084306 0.13845798
0.064462684 0.02207625 -0.033155814 0.08872925 -0.07691721 -0.016247729 0.09496748 -0.06714793
0.058309976 0.046812564 -0.054538816 0.05961571 0.06519354 0.1394461 -0.063437566 0.043666862
-0.047115512 0.08873874 0.068832844 0.012511658 -0.05809608 0.04326537 0.09366366 0.00068808335
0.023217032 0.09145491 0.08828941 -0.014863658 0.059801508 -0.016415378 -0.047291614 0.040602457
0.1573965 0.055395797 0.011949483 -0.017838188 0.0029461966 0.09610998 0.060168438 0.06270178
0.1194101 -0.047497492 -0.047121443 0.077926606 0.024247132 -0.04047618 0.010777438 0.09002713
0.16020928 0.040761992 0.04443344 0.054177374 0.11244623 0.076996736 0.15963699 0.06304295
0.006191787 0.0079117725 0.042164803 -0.023718098 -0.06669275 -0.03548785 0.123174146 0.023741588
-0.00793931 0.13764788 0.1052486 0.058805943 0.022905385 0.018312505 0.04550036 0.022372607
-0.047042735 0.031415977 -0.05148639 0.049550336 -0.016827505 0.0020101566 0.084772676 -0.021162517
0.034802146 0.026652133 0.094932646 -0.060164668 0.09155408 0.024805354 0.08625794 0.024841841
0.07667634 -0.020359792 -0.11267455 0.05883674 0.05166189 -0.05699475 0.069281444 -0.04151631
0.12089134 0.0961251 0.040106565 0.10369428 0.0965512 -0.02822285 0.076675035 -0.05799484
-0.046519686 0.105139665 -0.023087455 -0.035206627 0.0735967 0.00025469766 -0.06691332 0.026573181

network_body._body_endoder.seq_layers.2.weight f4 [256, 256]
00000000: 1e8f 903e ca23 3f3d adec 023e 2fa8 893c
00000010: 81d5 0b3e 4cee 653e f78b 36be ac83 243d
00000020: eb86 56bd 2aed 373e df09 7f3e 0810 263d
00000030: 1761 12be 47bf 5d3e 75f9 25bd dc3e f13c
00000040: fa18 28be e748 bc3d a41d e4bd 4161 a0be
00000050: 1625 3d3b a84c d6bd 5016 693e 6a4b 3b3e
00000060: 092a 71be 0b6c dbbd 2d16 58ba e8fd f6bd
00000070: 61fd dcbd df1e 0c3e 89a5 56bd 6642 7b3e
00000080: 9a08 66be 74c1 463e cd62 5abd b2e5 a2bc
00000090: 71d7 0b3e ee3a 38be 6c2f 663e dde6 8bbe
000000a0: f75d ac3d 3947 713e 7520 96bd e2d4 5cbe
000000b0: ca7e 083e 09de 2fbd a503 4bbe c0ca 28be
000000c0: 580c 6ebe 8bc8 6d3e 3b74 7e3d dbf5 1cbe
000000d0: bb42 4abe ea80 32be c892 3abe 825d 0b3e
000000e0: bb57 cebd 7fbc 35be 3f89 cfbd 2719 08bd
000000f0: a9af 5c3d bbd8 4e3d 9b56 49bd 3f5b b13d
00000100: 9422 a6bd cea4 75be aaa4 463e 4da0 363e
00000110: 4777 f03d ff28 f9bd 4362 0d3e 851b a13d
00000120: d38a 97bd 62bd 38be 9d0b 23bd 0f05 b23d
00000130: ca20 793d e3a0 58be 81c9 46bd 6e2c 683b
00000140: d3eb d63d 66c4 94be acf6 5dbe 0d6f 6fbe
00000150: b258 033e d238 a43d 80fc a13d d3bb e53d
00000160: 0ad4 6dbe 421b e63d 9a9a 463e b05b 1b3d
00000170: 4a94 043e 0416 adbd 5073 a33d ca6b 76bc
00000180: 70e4 00be ddcc 5e3d 44dc 623d f420 d73d
00000190: b6d3 223e e28a d93c fdda 46be 723d fb3d
000001a0: 1d97 9cbe 4b6c 13bd 8c00 1cbd 8a22 c6be
000001b0: 92d6 013d 1125 7f3d 1e94 9c3d 360d babd
000001c0: 5741 9ebd e476 403b 8be4 48bd f565 fb3c
000001d0: cc81 8a3e f508 2b3d f91e 1b3d de05 88bd
000001e0: eddb 88bc 89b1 24be fed5 a03d ab67 163e
000001f0: d1cc cf3c 328e d9bd 61a4 39be b7fd f03d
00000200: efa4 89be d1a7 86be feaf 203e 43b2 9e3d
00000210: ca33 933c 984e 8d3c aed4 e1bc 6f36 76be
00000220: bdef c93d a1a4 f2bd 8fd5 a2bb b7e3 83bd
00000230: 7b87 13bd 5458 3e3c c838 77be 76c0 433d
00000240: 7212 43bd c242 303e 2b94 c63c 54f5 253e
00000250: 5c67 8f3d df84 5cb9 094b e4bd 3add fa3c
00000260: b834 923d b270 913d 5c95 d5bc cfea 503e
00000270: 46a8 8dbd 13ea 11be 2645 773d 1008 cfbd
00000280: b0ea 093e 0840 abbe 9bea 393c 993e 23be
00000290: 730d 26be 1d0e 353e c0d9 943e 57ab 9bbe
000002a0: 6a12 f4bd 5de9 97bb 4536 7dbd 8a10 06be
000002b0: 8dab c5bd 42c3 36be 355a 1f3d e313 383e
000002c0: 791a 0ebe 0520 423e e2b8 58bc 4085 dbbd
000002d0: 31b7 1abe e17d 8f3e fb1c a33d e48e c33d
000002e0: 44d2 283d 283d 14be f1fb 99bd a8d3 5a3e
000002f0: bfc5 c8bd 96bc 943d da04 1bbe ab94 5a3b
00000300: 15d2 13be 1b80 433e 1910 703e 68b0 a33c
00000310: 4ed4 aebc 68be 263e 357e 2f3e 3131 383d
00000320: e8c4 3bbd 8dac 93be b333 cfbd 2043 2bbd
00000330: 28c9 003e e164 c3bd d19d 9d3e eb4d e0bd
00000340: 9d4a c3bd 1ba1 943e 2b32 aa3c bc2d 973d
00000350: 76a5 3dbe 9a87 4d3d c1bd 6abc 3fd0 903d
00000360: b496 3ebc c5da ffbd e16c 893c 1f69 10bc
00000370: 1226 6fbd 944d 7ebe 3bcd 153c 183d 373d
00000380: 5ecb dc3d bc35 99bc d0a6 453e 3fd6 b23c
00000390: 90ed 93bc 3aa7 12bd 8f8a ccbe e258 ccbd
000003a0: 0eef 36bd 30dc 61bd b795 36be a253 93b9
000003b0: 28df 44bd 9977 cfbd e5f3 e53d 445a f3bd
000003c0: ee8f 853e f42a 323e 4ea2 583d d0ce c53d
000003d0: d49c cabb ed21 19be 2a0a f6bd 74ab 10be
000003e0: f5c6 b5bd c97d 4c3e 1436 9dbd 05da 713d
000003f0: 6ce6 4cbe a680 4cbe c248 823e 0bb4 49be
0.2823419 0.04666499 0.12785597 0.016803829 0.13655664 0.22454184 -0.1782683 0.040164635
-0.05237476 0.17961565 0.2490611 0.040542632 -0.1429485 0.21654998 -0.040521104 0.029448919
-0.16415778 0.091935925 -0.11138466 -0.313242 0.0028861216 -0.1046384 0.22762418 0.18290487
-0.23551191 -0.10713967 -0.00082430505 -0.120601475 -0.10790516 0.13683651 -0.05240396 0.24537048
-0.22464219 0.19409734 -0.05331688 -0.019884918 0.13656403 -0.1799123 0.22479028 -0.27324572
0.0841636 0.23562326 -0.073304094 -0.21565583 0.13329616 -0.04293636 -0.19825609 -0.16483593
-0.23246896 0.23221032 0.062122565 -0.15328161 -0.19752018 -0.1743199 -0.18220055 0.13609889
-0.10075327 -0.17747687 -0.101335995 -0.033227112 0.05387846 0.05049966 -0.04915486 0.08659982
-0.08112064 -0.23988649 0.19398752 0.17834587 0.117415 -0.121660225 0.13807015 0.07866577
-0.073995255 -0.18040994 -0.039805997 0.08692371 0.060822286 -0.21155123 -0.048532013 0.0035426873
0.10494199 -0.2905609 -0.21676129 -0.23382206 0.12826803 0.0801865 0.07909489 0.11217465
-0.23225418 0.11235668 0.19394913 0.037929237 0.12947193 -0.08451465 0.079809785 -0.015040347
-0.12587142 0.05439459 0.055385843 0.10504332 0.15901074 0.026555482 -0.19419475 0.12267579
-0.3058404 -0.035991948 -0.03808646 -0.38698226 0.03169877 0.06229121 0.076454386 -0.09084551
-0.07727306 0.002936774 -0.04904608 0.030688265 0.27052152 0.04175659 0.037871335 -0.06641744
-0.016706431 -0.1608335 0.07853316 0.14687984 0.025366219 -0.10622825 -0.18129112 0.11767142
-0.26883647 -0.2629991 0.15692136 0.077488445 0.01796903 0.01724939 -0.027567234 -0.24044202
0.098601796 -0.11847807 -0.004969306 -0.064399175 -0.036017876 0.011617739 -0.24142754 0.047790967
-0.047625013 0.17212966 0.024240574 0.16206867 0.07002136 -0.00021030333 -0.11147124 0.030623067
0.071389616 0.07101573 -0.026072197 0.20402072 -0.06916861 -0.14249448 0.06036868 -0.1010896
0.13468432 -0.3344729 0.011347438 -0.15941848 -0.16216068 0.17681165 0.2907238 -0.3040416
-0.11917575 -0.0046359734 -0.061819334 -0.13092247 -0.09651861 -0.17847922 0.038904388 0.17976336
-0.13877286 0.18957527 -0.013227673 -0.10718775 -0.15108944 0.28025725 0.07964512 0.095487386
0.04121615 -0.14476454 -0.07518757 0.21369803 -0.09803342 0.072625324 -0.1513857 0.0033352773
-0.14435609 0.19091837 0.23443641 0.019981578 -0.02134147 0.16283572 0.17137988 0.044968788
-0.04584208 -0.28842583 -0.10117283 -0.041812062 0.12576735 -0.095407255 0.30784467 -0.10952362
-0.09535716 0.29029164 0.020775875 0.0738177 -0.1852015 0.050178148 -0.014327467 0.0707097
-0.01163261 -0.12492899 0.01677555 -0.008814125 -0.058385916 -0.24834281 0.009143169 0.044735998
0.10780977 -0.01870238 0.19301915 0.021830676 -0.018057615 -0.03580401 -0.39949462 -0.099778906
-0.044661574 -0.055141628 -0.17830549 -0.00028100336 -0.04806438 -0.10130233 0.1122816 -0.11882451
0.26086372 0.17399198 0.05288916 0.09658587 -0.006183246 -0.14954348 -0.120136574 -0.14127904
-0.08875839 0.19969858 -0.0767633 0.05904581 -0.20009774 -0.1997095 0.25446135 -0.19697587

network_body._body_endoder.seq_layers.2.bias f4 [256]
00000000: d191 2c3d fc7c 7d3e 7719 653e e747 56bc
00000010: a21a 97bd df71 0abd 6e02 d5bd c3f5 edb8
00000020: 3c64 92bc 7387 afbd 5645 50bc 152a a93d
00000030: 5838 08bd c52b 86bd 673d a8bd 5f72 9abd
00000040: 75a1 acbd 989b 283b cb9a 203e 0391 e1bc
00000050: 52af 203d 3602 88bd ad85 cf3c 9138 87bd
00000060: 0eba dc3d 6a6d 92bb d321 15bb b3ae cbbd
00000070: 4499 c8bd 844b b93d f4a8 25bc 57be 10bd
00000080: 8890 95bc a467 183b 1561 d0bd 1eb2 19bd
00000090: 9e66 133e 37af 523d 4aaa 0a3e 7035 d8bb
000000a0: e9b4 4fbc 2f88 adbc a284 55bc 8b1d e83d
000000b0: 6e50 9dbd dbdb e23d 7b50 c3b7 9d26 9b3c
000000c0: d213 433d f381 903d da39 683d 078e 4d3c
000000d0: a4ff 79bd 6a77 6e3c af01 bbbc 823d 5a3d
000000e0: 8741 52bd 590b 92bb c92f d5bc 48c5 99bc
000000f0: b068 533d fcfe b4bd 6d86 81bb 76ed 1bbd
00000100: 45d8 033d 6053 853d 7b86 003c 5737 fabb
00000110: cf8d 9dba 736c 023e e671 a73c 2d7e f73d
00000120: 2281 24bd 08a2 3e3d a353 833d 6757 863d
00000130: ec0c 1d3d 1259 023e 1bec b9bc 7857 383d
00000140: a81d 763b f167 b73c ad12 aeba 92d5 823d
00000150: bd21 a5bc 293c 523d 9140 8fbd 6591 5d3d
00000160: 1146 b0bc c0f9 cd3d 3671 513d 6b17 e1bd
00000170: c995 063e 632b 47bc b21c 07bc 4fb8 a1bb
00000180: 6222 b73c e4a0 853d d487 823b be9e 513e
00000190: 78ae 8d3b 53f0 123e 554a f0bc 3bfd 4abd
000001a0: 677e b3bd 32f7 903d 7c02 a5bd 5cf5 953d
000001b0: 1376 83bc 10ee 023e bfaa 8c3d 22c8 47bc
000001c0: 5add 8fbc 35d9 933d 0df1 133e 5dfa 2e3d
000001d0: 00ff 2bbd b683 e73b a2b9 7bbc 0cb8 0d3d
000001e0: 0109 3bbd a12a 41bb e194 9bbc 4c43 1b3d
000001f0: c2ad af3c bcf1 d3bc c8bf 0ebd 867d 8dbd
00000200: b237 463d 2014 39bd aa86 123e d424 8cbc
00000210: 176a c4bd 3e84 ecbc fdd6 5d3a cb1b 72bd
00000220: 6c2e 0d3c 0992 353d db31 35bd 9889 a33d
00000230: 4753 ddbd b88f f23d a765 0a3d 7233 ffbc
00000240: 7174 4abd 4906 25bb 3f7f aabc f217 d9bc
00000250: e27c 8c3d 6832 83bd ca5d 433d eb05 dfbc
00000260: 1d26 39bd 1d63 933d 66a1 91bc 02e6 7fbc
00000270: b405 2bbd 1857 8fbd 5e6d 1b3d 8151 d5bd
00000280: 16a8 9abd 4365 aebd ea44 433a 131c 54bd
00000290: 97cd de3b 610e 51bd 13b5 9a3c fb53 62bd
000002a0: d7d5 fe3c 1bb5 b63b 95ad 3b3d 02dd 203e
000002b0: e3a7 1fbd 0f56 32bb 0d11 773d 2681 98bc
000002c0: b7f0 623b d643 693d 8b52 ac3d f31f e1bc
000002d0: 373d b13d f010 d0bc 40bd 323d 5e8a b73d
000002e0: 2687 903d 0dcf 243d 2cd2 7cbd 2c50 8d3c
000002f0: 14c6 92bd 2c10 30bd d5ba 6abc f980 96bc
00000300: 23c6 aabc 2daa 15bc 86d1 76bd a0b8 033c
00000310: e2b4 39bc a6f4 e33c 3cc4 9c3d ce79 f8bb
00000320: 6a58 8a3d ad1d 7b3d 4724 9c3d f8be 76bd
00000330: a088 2b3c 6b3c 4c3d d7a0 a2bc 6e65 2d3b
00000340: 10ac c23d 0842 bfbc 3740 55bd 1110 15bd
00000350: 9c95 24bd 765d ecba c390 b1bc 422a 1dbd
00000360: 0f14 33bd abff 9b3d 2d27 4a3d bacb 853d
00000370: 8306 37bd 1885 833d cf50 7b3c 6122 56bd
00000380: 7823 f63d 1c8b 63bd 5446 1ebc 8081 93bc
00000390: e4c9 753c b792 c7bd 30d7 663c 1029 d0bb
000003a0: ff85 9e3c 6d71 cb3d d4bc 98bd 636a 6fbd
000003b0: 2f1c 26bd 2295 74bc ffe5 80bd 7ad9 d33d
000003c0: c620 6d3c 957d 15bc 701d c8bc d306 373c
000003d0: 9710 973c 34e9 eb3c e50f cabd 81d1 bb3d
000003e0: fce1 503d 4398 6ebd b6cf 23bd a0e1 c43c
000003f0: d3fa a3bd c0f0 493e 5657 373d 2297 53bd
0.04213125 0.24754709 0.22372995 -0.013078666 -0.07378127 -0.033800002 -0.10400854 -0.00011346817
-0.017870061 -0.08570757 -0.0127118435 0.0825998 -0.03325686 -0.06551317 -0.082148366 -0.07541346
-0.08429233 0.0025727507 0.15684049 -0.027534967 0.0392297 -0.06641047 0.025332296 -0.06602586
0.107776746 -0.0044686096 -0.0022755757 -0.099454306 -0.09794858 0.090476066 -0.010111082 -0.035337772
-0.018257394 0.0023255134 -0.10174767 -0.03752338 0.14394614 0.05143663 0.13541523 -0.006598167
-0.01267741 -0.021183101 -0.01303211 0.1133376 -0.07681356 0.1107709 -2.3283288e-05 0.01893931
0.047626324 0.07056036 0.056695797 0.012546069 -0.061034814 0.014554838 -0.022827951 0.053281315
-0.051332023 -0.004456919 -0.026023762 -0.018770829 0.05161351 -0.08837697 -0.0039527924 -0.038068257
0.032188673 0.06510043 0.007844563 -0.0076359916 -0.0012020412 0.12736683 0.020440053 0.12084613
-0.040162213 0.046541244 0.06412437 0.065596394 0.0383424 0.1272929 -0.022695592 0.04500529
0.0037554298 0.02238843 -0.0013280712 0.063883916 -0.02015769 0.051326904 -0.06994737 0.054093737
-0.021517785 0.10057402 0.051133357 -0.10990795 0.13143076 -0.01215634 -0.008246588 -0.0049353014
0.022355262 0.06524828 0.003983477 0.20470712 0.004323777 0.14349489 -0.02933232 -0.049557906
-0.08764344 0.07078399 -0.080571145 0.07322189 -0.016047513 0.12786126 0.06868505 -0.0121937115
-0.017561603 0.07219163 0.14447422 0.042719234 -0.041991234 0.0070652617 -0.0153640825 0.03459935
-0.045662884 -0.0029474872 -0.01899189 0.037905976 0.021445159 -0.025872104 -0.034850866 -0.06908707
0.04839296 -0.04518521 0.14309183 -0.017107405 -0.095905475 -0.028871652 0.00084625167 -0.059108537
0.008617025 0.044328723 -0.044237 0.07985228 -0.108068995 0.118438184 0.03378835 -0.03115246
-0.049427453 -0.0025180748 -0.020812629 -0.026500676 0.06859757 -0.064060986 0.047696866 -0.027224502
-0.045202363 0.07196639 -0.017777156 -0.015618803 -0.041753486 -0.06999034 0.037946098 -0.10415936
-0.07551591 -0.08515408 0.00074489287 -0.051784586 0.0067994106 -0.051039103 0.018885171 -0.05525587
0.031107826 0.0055757887 0.045819838 0.15709308 -0.03897847 -0.002721194 0.060318995 -0.01861627
0.003462834 0.05694946 0.08414181 -0.027481055 0.08654254 -0.025398701 0.043637514 0.08961938
0.070570275 0.04023652 -0.061723873 0.017250143 -0.07166687 -0.042984173 -0.014326771 -0.018372046
-0.020846432 -0.009134811 -0.06025841 0.0080396235 -0.01133463 0.027826618 0.07654616 -0.0075828796
0.06755145 0.061307598 0.07624107 -0.060240716 0.010469586 0.049862307 -0.019852085 0.0026458162
0.095054746 -0.023346916 -0.052063193 -0.036392275 -0.04018174 -0.0018033225 -0.021675473 -0.03837038
-0.0437203 0.07617124 0.049353767 0.065329984 -0.044683944 0.0642187 0.0153390905 -0.05227888
0.12018484 -0.055552587 -0.009660322 -0.018006086 0.015001748 -0.097447805 0.014089391 -0.0063525513
0.019351004 0.099337436 -0.07457891 -0.058451068 -0.04055422 -0.014928134 -0.06293868 0.10344215
0.014473146 -0.009124179 -0.0244281 0.011171061 0.018440528 0.028797723 -0.09866313 0.09170819
0.050996765 -0.058250677 -0.03999301 0.024033368 -0.08006825 0.19720745 0.044761024 -0.051657803

action_model._discrete_distribution.branches.0.weight f4 [7, 256]
00000000: f91e c2bd 2eb7 c3be 17bc 6d3e e45e a3b9
00000010: e3ae d53d 060c 8bbd cd69 1a3e 6bd6 213e
00000020: 6d23 a43b 6d85 3d3e 1e8c e5bb dc9a 89bd
00000030: baef 3fbe c17e ca3d f212 2c3c 274f d43d
00000040: fd86 053e ff55 993d e5d3 42be 66cd 1dbd
00000050: 2db2 8bbd c2f9 743d 2453 c5bc 0dfa 303d
00000060: 3dbb e9ba fa36 babd 9aa8 873d 6a8e c3bc
00000070: 2a63 083d 1314 0bbe 11da f63d 0717 07be
00000080: 492d 3b3d a459 c9bd 7426 143d 421d f13c
00000090: b2b8 973c 12e3 053e 4183 70be 0939 16be
000000a0: 3e65 d2bd e7ba 29bd 4353 213d cfbf 963d
000000b0: 84e5 0d3e 9aff 133d 7a93 12be 75ca 3abd
000000c0: 818c 54be e412 b53c 7a96 1bbd 9132 43be
000000d0: c763 aebc 3284 87bd da88 1b3e ae0a 1abd
000000e0: f604 b3bd 4ded 143e 92a0 80bc c7ce 8fbc
000000f0: 13f5 81be 777e c1bd 6a3d 3e3d 19d1 c63a
00000100: 2b28 59bd 1738 b73c 48ab 63bd 8c30 4cbd
00000110: b407 2a3d 8da7 b6bc 71a8 98bd eb18 80be
00000120: 958a 013d de5b 00be fd29 fabb 789c 20bd
00000130: 08c5 283e a47f 61be d988 bebd 233e b5bd
00000140: a227 573d c5ad c5bd 3fd1 babc 3374 e6bc
00000150: 4e3f 133d 44a7 32be a17c f23d 1917 90bc
00000160: ae57 e43c 61d1 41be ce5b 0fbd d090 483e
00000170: e0ec 18bd 3def f2bc 0711 71bc 26ed 093b
00000180: edd7 d2bd 8b18 2dbd 4273 febd c753 3dbe
00000190: 5d84 a2bd 0cab a2be 8e89 a0bc 90cf 9e3d
000001a0: 734c d53c 3390 443d 36a2 833d 121b 72bd
000001b0: 0c14 be3d 6cd1 df3c 2638 c7bd dcfd e9bd
000001c0: b710 3fbd 378b 47be ffdf 213b c958 b2bd
000001d0: 491d 683d ead1 55bd 5645 f4bb 5db6 223d
000001e0: 87f6 80bd 66cc cf3c 673b 98bd 83db b7ba
000001f0: fd1a 97bd a33d 6bbd 3157 42bd 9e39 b23c
00000200: 12c8 c3bd 5e91 d93b b0be 43be fbf9 61bd
00000210: 97d1 e93d 3e50 d7bc 512a 79bc a82d de3c
00000220: d5d7 713d b580 5d3c 1142 9fba c5cd 0bbe
00000230: af21 183d 543c 3dbe 07d0 76bd efee 933d
00000240: 1b7b 30bd e686 f6bd 0333 0fbe 13f0 0fbe
00000250: 27bc 2c3e 2d74 31bd b050 1abe 78dd f03d
00000260: 15d9 7a3d 006b 9fbd 18da 9dbd 9983 e23c
00000270: ec70 5ebd cb64 2a3e 0122 b3bd 1141 043e
00000280: ae10 c9bd 6008 5f3e c26f 43bd 32c9 813d
00000290: 8616 ac3d 09be 103e 95c8 a83d 82f8 303e
000002a0: dc33 b4be 9934 993d 729f d7bd d683 93be
000002b0: 79e3 293e 3b63 f03a a88c 00be 0ba8 71be
000002c0: ad36 ecbd b160 87bd 952b d13d ee74 9f3d
000002d0: 4054 d4bd 7661 0ebd 93c2 f63c bf4d 07be
000002e0: 6d1e 42be 3d96 223d 1307 f03d f7b3 22be
000002f0: ebe5 923c 8105 9bbb 4497 c23c 5cf1 11be
00000300: 1cb2 91bd f477 cbbc de8c bcbd acfc 083e
00000310: a19b 38be b126 c0bd ae1e 4dbd 226a f3bc
00000320: a991 f2bd a027 51be e39f 6b3d 77f1 813e
00000330: c987 00bd aa4b babe 4a86 f03d 896e 32bc
00000340: fc58 b7bd 8e11 80bd 3feb 193d 9b24 02bc
00000350: 1281 8ebb 00f1 b2bd 7c72 a7bd 47bb febd
00000360: 194b 493b f1fd 31be 8868 0ebc cc70 8dbe
00000370: ba33 f03c 46d4 a3bc f894 3dbe 7c0a d5bc
00000380: 1341 853d 5497 92bd 83f5 e6bd ab78 72bd
00000390: a7f6 1abe b532 223e 104e 69be f79e 653c
000003a0: 2241 90bd bc17 9bbe 78ac 57bc b7e5 303d
000003b0: abb3 38be 7eb9 d73d 8fea 1f3e 8f89 e53c
000003c0: 1e36 b9bc 2f2a 1bbe 8758 b63c 8a9e f9bc
000003d0: 4d54 adbc 2e58 c9bd f654 4f3e 25da 08bd
000003e0: a1a3 3f3d 0990 d73d 37f6 11bd 8e25 473c
000003f0: acdb 423e 88f3 a3be f126 dfbd 093c dd3d
-0.09478564 -0.38225693 0.23216282 -0.00031160482 0.104337476 -0.06789403 0.15079422 0.1580445
0.005009106 0.18507929 -0.0070052287 -0.0671899 -0.18743792 0.09887458 0.010502564 0.103666596
0.13039775 0.074871056 -0.19026144 -0.03852596 -0.06821094 0.0598085 -0.024087496 0.043207217
-0.0017832291 -0.09092517 0.06623955 -0.02387162 0.033297695 -0.13581876 0.120533116 -0.13192378
0.045697484 -0.09831551 0.036169484 0.029432897 0.018520687 0.13074902 -0.2348757 -0.14670195
-0.10273217 -0.04143801 0.039386045 0.07360803 0.13857085 0.036132433 -0.1431407 -0.045603234
-0.20756723 0.022103734 -0.037985303 -0.19062258 -0.021287812 -0.06617011 0.15188923 -0.03760784
-0.087411806 0.14543648 -0.015701566 -0.017554654 -0.2538229 -0.094479494 0.046445288 0.0015168517
-0.053016823 0.022365613 -0.05558327 -0.049850985 0.041511253 -0.022296691 -0.07454003 -0.2501901
0.031626303 -0.12535045 -0.0076344 -0.03921172 0.16481411 -0.22021347 -0.09303445 -0.08849742
0.05252803 -0.096522845 -0.022804854 -0.02813158 0.035949044 -0.1744662 0.11840177 -0.017589139
0.02787384 -0.18927528 -0.03499966 0.19586492 -0.037335277 -0.029655093 -0.014713532 0.0021045892
-0.10295091 -0.042259734 -0.124243274 -0.1848899 -0.079354025 -0.31771123 -0.019596841 0.07754433
0.02603743 0.04798908 0.06427424 -0.059107848 0.092811674 0.02732154 -0.09727506 -0.11425373
-0.0466468 -0.194867 0.0024700162 -0.08708341 0.056668554 -0.052202143 -0.0074545546 0.039724696
-0.06297021 0.02536602 -0.07433205 -0.0014027212 -0.073781945 -0.05743183 -0.047446433 0.02175599
-0.09559645 0.0066396436 -0.1911571 -0.05517004 0.11416929 -0.02628338 -0.015207843 0.02712138
0.059043724 0.013519456 -0.0012150427 -0.13652714 0.0371415 -0.18480045 -0.060256984 0.07223307
-0.043086153 -0.120374486 -0.13984303 -0.14056425 0.1686865 -0.043323684 -0.15069842 0.11760992
0.06124218 -0.077840805 -0.07707614 0.027650641 -0.05430691 0.16640012 -0.0874672 0.12915446
-0.098176345 0.21780539 -0.047714002 0.06337203 0.084027335 0.14134993 0.08241383 0.17282298
-0.35195816 0.07480735 -0.10528459 -0.2881152 0.1659068 0.001834012 -0.12553656 -0.2359926
-0.11533866 -0.06610239 0.10213391 0.077859744 -0.10367632 -0.034760915 0.030122077 -0.13213252
-0.18956919 0.03969406 0.11720099 -0.15888964 0.017931899 -0.0047308807 0.02375377 -0.14252228
-0.0711405 -0.024837472 -0.09206556 0.13377637 -0.18028118 -0.0938238 -0.050078087 -0.029713694
-0.11844189 -0.20425272 0.057525527 0.25379536 -0.031379495 -0.36385852 0.117443636 -0.010890611
-0.08952519 -0.06253348 0.037577864 -0.007943298 -0.0043488825 -0.08737373 -0.08176133 -0.12438064
0.0030714928 -0.17382027 -0.008691914 -0.2762512 0.02932154 -0.01999868 -0.18513858 -0.026005976
0.065065525 -0.0715777 -0.112772964 -0.05919711 -0.15133153 0.15839656 -0.22783685 0.014014951
-0.07043673 -0.30291545 -0.013163678 0.043187823 -0.18037288 0.10533427 0.15616821 0.028019695
-0.022608813 -0.1515281 0.02225901 -0.030471105 -0.021158362 -0.09831272 0.20247254 -0.033411164
0.046786908 0.105255194 -0.0356352 0.01215495 0.1902911 -0.32021737 -0.10896099 0.108024664

action_model._discrete_distribution.branches.0.bias f4 [7]
00000000: 5e9d c1be 881f 043d 174f b7bc 4c72 37bc
00000010: 8d65 233d ec73 d93c bc84 b13c
-0.37815374 0.032256633 -0.02237658 -0.011196684 0.03989177 0.026544534 0.021669738
