results/puzzle_expirement_0/PuzzleBehavior.onnx (onnx, 334731 bytes, 6 tensors)

network_body._body_endoder.seq_layers.0.weight f4 [256, 57]
000000 b2 e3 f4 bd 4f 6f 5c bd 7a b1 52 bd 45 0d f2 bd
       -0.11957492 -0.05381709 -0.051438786 -0.11818937
000010 ab 80 4c 3e dd 22 b2 3e 65 1e 0b be e6 8a 1c 3d
       0.19970958 0.34792224 -0.13585813 0.0382184
000020 2f cb 49 be 0b 20 2c be d5 17 21 3e 28 a2 14 be
       -0.19706415 -0.16809098 0.15731747 -0.14514983
000030 6f 9a e0 bd e3 c1 80 bd 3a 72 73 3e de fa cf 3d
       -0.10966956 -0.06286981 0.23774043 0.10155271
000040 f8 99 14 bd 91 67 18 3d 7d af 6d 3c 5b a2 6a bc
       -0.03627965 0.037208144 0.014507172 -0.014320935
000050 47 01 f9 3b 4a ee e2 3d 95 2e 83 be e4 57 a2 bd
       0.007599029 0.11080606 -0.25621477 -0.0792692
000060 26 89 e8 bd b8 16 40 be 5e 45 d7 3d c4 b6 2a 3e
       -0.11354284 -0.18758667 0.105112776 0.16671282
000070 58 03 ea 3c f5 1c 3e 3e 15 d7 f8 bd c7 40 fb bd
       0.028566048 0.18565734 -0.12150399 -0.12268215
000080 86 b4 13 be 3e dc 1b 3e c6 19 49 be 3b 66 b7 bd
       -0.14424333 0.15220734 -0.19638738 -0.08955046
000090 0e e5 9d be a0 f1 a1 3d b2 ac ac bd 35 37 b5 bb
       -0.30838817 0.079074144 -0.084313765 -0.005530263
0000a0 31 56 62 3e a1 d5 13 3e 03 71 8f 3d 66 5c 33 be
       0.22103192 0.14436962 0.07003977 -0.17515716
0000b0 a7 be cc 3c 2e 0a 26 3e b2 42 2d 3d f6 2e 05 3e
       0.024993254 0.1621482 0.042299934 0.13006195
0000c0 15 73 30 3d a0 91 f3 3d 04 3f 25 be 8b cf 0d bd
       0.0430785 0.1189301 -0.1613732 -0.034621757
0000d0 1f 92 ff bd a3 00 71 3e 6a 8b 74 be cb fb bf bd
       -0.12479042 0.23535399 -0.23881307 -0.093741976
0000e0 d4 af c2 bd aa 81 8c be a3 97 2c 3d ea 5e a5 bd
       -0.09506193 -0.27442676 0.0421368 -0.08074744
0000f0 ab 19 8f 3e 3a ac df 3d 6a fb 4a bd 85 b7 71 bd
       0.2794927 0.109215215 -0.049556173 -0.05901291
000100 30 0f ef 3d e4 26 fa be 30 3f 88 be be 30 d3 be
       0.11672819 -0.48857796 -0.26610708 -0.41248125
000110 20 1b 78 be 6c 37 7c be ff 4d a4 bd f4 5b 55 be
       -0.24229097 -0.24630517 -0.08022689 -0.20835859
000120 47 73 1c be 8d de 87 3d 03 43 b2 bd 5e 57 16 bd
       -0.1527835 0.06634245 -0.08704188 -0.036704414
000130 ac a5 51 bc 33 94 7a 3d 09 97 b0 bd cd 2b 05 3d
       -0.012795847 0.06117649 -0.08622558 0.032512475
000140 67 4e 8d bd 02 6d 03 bd 4b 1d d0 bd cc ee 1a bc
       -0.0689972 -0.03208638 -0.10161837 -0.009456348
000150 5c 26 23 be 54 27 c6 3c 56 87 97 ba 29 ef ba bc
       -0.15932602 0.024188675 -0.0011560719 -0.022819119
000160 02 33 dd 3e d9 c4 70 3e bc ef 99 3e 29 73 30 3e
       0.43202978 0.23512591 0.30065715 0.1723143
000170 62 a5 14 be b1 b0 29 3d 88 44 83 bc 32 82 53 3e
       -0.14516214 0.04142827 -0.01602389 0.20655134
000180 14 5a 8a bd fc f6 a0 3a e9 f1 ef bd f9 07 75 3d
       -0.06755462 0.0012280638 -0.117160626 0.059822056
000190 65 33 af 3e 6d 63 6c be b2 7c b7 bd 2c c1 35 3e
       0.34218898 -0.23084803 -0.089593306 0.1774947
0001a0 14 a9 83 3e ad 6c 34 3e f7 35 e9 3c 44 11 28 3e
       0.25714934 0.17619582 0.028468115 0.16412836
0001b0 9a d8 e6 3d 09 05 95 3d 6c 50 05 3e f8 54 5c bd
       0.11271782 0.07276351 0.1301896 -0.05379197
0001c0 6e f3 6b be 01 de 0b be fa 43 e1 bd 52 b9 c4 3c
       -0.2304208 -0.13658907 -0.109992936 0.024014149
0001d0 69 6e f6 bd 44 05 87 bd 78 54 7f bd b9 cb 16 3e
       -0.12032778 -0.06592801 -0.062336415 0.14726152
0001e0 0b 6a 07 3e b3 fe a4 be 26 3f b6 3d 66 57 04 3d
       0.13224046 -0.3222557 0.08898763 0.032309912
0001f0 4d 15 12 be af 0c 18 be b9 2f 84 3d 39 f0 30 3d
       -0.14265938 -0.14848588 0.06454415 0.043197844
000200 ca 6f b9 bb 45 73 cb 3c 6b 6f c9 bd de 3c 9a be
       -0.0056590782 0.024835238 -0.098357044 -0.30124563
000210 c5 52 20 be f2 cc 6c 3e 68 c6 fb 3d 97 7d 3c 3c
       -0.15656574 0.23125055 0.12293702 0.011504552
000220 3f 7b c8 3d 3c 82 5e 3d 53 ab 22 3b a2 8b 0d 3c
       0.09789132 0.05432342 0.0024821355 0.008639248
000230 2c 1f d3 bd 7e 38 8e be 1c 69 bb 3d f4 8f 86 3d
       -0.1030868 -0.27777475 0.091509074 0.06570426
000240 19 88 80 3e c8 06 00 3e a8 29 67 3d 03 72 a6 3e
       0.25103834 0.12502587 0.05643621 0.3250886
000250 2d 8a 9f bc c2 15 ed 3d 34 08 38 bd 0f 4d d9 3d
       -0.019475067 0.115764156 -0.044929698 0.10610401
000260 4a 2d cd bc ea 57 d4 bd cd a0 98 3e 67 b4 99 bb
       -0.02504601 -0.10368331 0.2981018 -0.004690695
000270 e9 5a 72 be 7b fa 0a bd 8c f1 e1 3d cc fc b2 3d
       -0.23667492 -0.033930283 0.110323995 0.087396234
000280 67 13 a4 3b d8 3e 42 3d 90 05 8b be 18 1f 27 bd
       0.0050071958 0.047423214 -0.2715268 -0.040801138
000290 4c e4 8c be e3 d5 46 be 14 a8 ee 3c 99 22 1f 3d
       -0.27517927 -0.19417529 0.02913288 0.038851354
0002a0 18 c1 53 3d d9 22 f1 3d d1 17 fe bd 84 13 1c be
       0.05169782 0.11774225 -0.12406886 -0.1524182
0002b0 8a 03 8e be e8 60 92 bd 21 8d 96 bd 2e 4e 0d 3e
       -0.27737075 -0.0714739 -0.07351137 0.13799354
0002c0 6f 36 75 bc b0 be e0 be 87 00 9b 3e 89 d2 51 bd
       -0.014966591 -0.43895483 0.3027384 -0.051226173
0002d0 c3 f0 67 be 2b c2 17 be 80 33 9a 3c 7b 4a 33 3e
       -0.22650437 -0.14820163 0.018823385 0.17508881
0002e0 5c 47 57 3e 81 15 e7 3d ad 28 cd 3d 9c 26 a8 ba
       0.21023315 0.112833984 0.10017524 -0.0012828889
0002f0 3b c8 9d 3d 2f 31 35 3e 57 be c8 3d 46 ff af be
       0.077042066 0.17694543 0.098019294 -0.34374446
000300 93 55 10 be 45 fd 11 bd 36 e1 1a 3e 7a 76 64 bd
       -0.14095144 -0.035641927 0.15124974 -0.05577705
000310 8b ad 55 3d 6e dc 1c be d9 7f 68 3d 80 af a9 3d
       0.052167457 -0.15318462 0.05676255 0.08285427
000320 50 80 84 bb 77 bf 61 3c 05 2e 01 3e 73 03 32 3c
       -0.0040436164 0.013778559 0.12615211 0.01086508
000330 47 5a c0 bd 24 58 3c 3e 43 d4 34 3e a5 56 8e 3d
       -0.09392219 0.18392998 0.17659096 0.0695012
000340 db 48 a5 3d 7a 79 bc bd 5a 16 7e be 67 8d 70 3e
       0.08070537 -0.09202857 -0.24813214 0.2349144
000350 36 c7 fe 3d 5a e3 18 be 73 f9 5d 3e 46 86 23 3e
       0.1244034 -0.14930478 0.21677189 0.1596919
000360 5f ce f7 bd 4a 7b b0 3b 88 2d 8f bd 51 3b 99 3c
       -0.12099909 0.005385791 -0.06991106 0.018705042
000370 9f f6 0b 3e 14 9d 51 3e b4 46 1f be 65 fe 31 3b
       0.13668297 0.20470077 -0.15554315 0.0027159688
000380 12 80 96 bc 51 c3 6d bd 46 ae 82 be 19 45 30 3e
       -0.018371616 -0.058047596 -0.25523585 0.17213859
000390 8d ff ac bd 00 c9 65 bd ed bc c4 be 02 95 4b be
       -0.0844718 -0.05609989 -0.3842539 -0.1988106
0003a0 0e 01 24 be 0a 5e 04 bd 77 cc a7 bd 42 d8 c8 3e
       -0.16016027 -0.032316245 -0.081932954 0.39227492
0003b0 42 6f d3 be 9b a1 73 be 16 6e 54 3d 57 62 bd bd
       -0.4129582 -0.23792116 0.0518628 -0.092472725
0003c0 ee 9c 32 bc 4b bd 1f 3e e0 f2 fd 3d 4e 55 b0 bc
       -0.010901673 0.15599553 0.1239984 -0.021525051
0003d0 60 02 99 3d f0 5e 8e 3d bc 37 43 bc 07 96 c8 3e
       0.07471156 0.06951702 -0.011915144 0.39176962
0003e0 ae 81 19 3e 04 77 99 bd 46 97 9d be 9c 11 69 bd
       0.14990875 -0.074934036 -0.30779475 -0.05690156
0003f0 22 51 b3 be 67 90 3e bb fa e1 0e be c5 89 9a be
       -0.35022837 -0.002907777 -0.1395339 -0.30183235

network_body._body_endoder.seq_layers.0.bias f4 [256]
000000 62 62 aa 3d 4d cb 0e 3d bf fc 7e bd 13 19 95 3d
       0.08319546 0.03486185 -0.062252756 0.07280173
000010 6b 45 0f 3d 84 d9 d6 bd 11 21 37 bd 20 c7 4c 3d
       0.03497831 -0.104907066 -0.04470927 0.049994588
000020 77 89 56 bd 0e 91 94 bb db 79 88 bc ae 20 b4 bc
       -0.05237719 -0.0045338934 -0.016659668 -0.02198824
000030 54 59 95 3c 41 c2 cb 3a c0 35 f7 3c a4 23 09 3d
       0.018231072 0.0015545563 0.030176997 0.033481255
000040 07 18 b6 3d d9 2b bb 3c 78 d4 20 bc 4f 01 05 bc
       0.088913016 0.022848057 -0.0098162815 -0.008117988
000050 d6 b2 98 bd b7 77 e7 bc 44 2b 25 bd 26 95 c7 3c
       -0.07455985 -0.028255327 -0.040324464 0.024363112
000060 b7 c0 ea bd f1 9a 1d 3d ed ae 14 bd cc 96 b4 3c
       -0.11462539 0.03847784 -0.036299635 0.022044562
000070 a1 5f 25 3d 1b 36 5f bd 80 0c ad 3d 11 ca 51 3d
       0.040374402 -0.05449496 0.0844965 0.051218096
000080 0a aa 76 bc f1 5d ad bc 96 2f 84 3d 4e 74 9a 3c
       -0.015055189 -0.021162959 0.06454389 0.018854287
000090 4d d1 8b 3d 09 2a 10 bd 6f c0 b0 3b 72 24 42 bd
       0.0682703 -0.035196338 0.0053940336 -0.04739804
0000a0 ab df 61 3c 2c db 23 3d 67 09 97 3c 6b cb 26 bd
       0.013786237 0.04000394 0.0184371 -0.04072134
0000b0 ab 50 41 3d 1b 1e 1e 3d d8 6c 02 3d 3e c6 ad 3c
       0.04719607 0.03860293 0.031842083 0.021212693
0000c0 44 2c 35 3d ad e4 c3 3c a1 b5 67 bd df 1a c9 3c
       0.044231668 0.023912752 -0.0565697 0.024548946
0000d0 b9 84 57 bd bf 91 1a bc 6f e3 a7 bd dc 4a a8 3d
       -0.05261681 -0.009434163 -0.081976764 0.08217403
0000e0 ec e4 ae 3d de 11 65 3d ee aa 67 3d f2 67 40 39
       0.08539757 0.055925243 0.056559496 0.0001834927
0000f0 4b 22 8a 3d 64 f8 d3 3d 03 72 f0 3d fb ef d0 3d
       0.06744822 0.10350111 0.11740496 0.10202023
000100 67 26 bf 3d 28 a0 a1 3c 5a 98 04 bd a7 3a 14 3d
       0.093334965 0.019729689 -0.032371856 0.036188748
000110 31 ec 49 3c 68 92 9b bd ee 68 ef bc 91 55 9a 3d
       0.012324379 -0.07596284 -0.029224839 0.07535852
000120 0c cd 8f bd fa a9 28 3b c4 05 71 3d cb 1c 18 3d
       -0.070215315 0.002573608 0.05884339 0.037136834
000130 35 81 07 bc 59 a1 9b bc ec 12 a2 bc 19 57 5b bd
       -0.008270551 -0.018997835 -0.019784413 -0.05354986
000140 af 36 87 bd 4b c3 a2 3d 3f a4 4c bd 73 62 1e 3d
       -0.06602227 0.079474054 -0.049961325 0.038668107
000150 d8 93 fa bc 73 b4 46 bb 83 65 69 bd 6a dd eb bc
       -0.030588076 -0.0030319958 -0.056981575 -0.028792102
000160 9c 53 41 bd 94 cc d7 3c 22 6b c9 3c 4b 01 01 3c
       -0.047198877 0.026342668 0.024587218 0.007873843
000170 39 6a fa 3c d9 6a 5b bd 8f cd 97 3b 65 fb ff ba
       0.030568229 -0.053568695 0.004632659 -0.0019529877
000180 e5 b0 82 3d c1 de 5f 3d 99 12 60 3d e4 0f 84 3d
       0.06381396 0.054655794 0.054705236 0.064483434
000190 bb 19 6b 3b 7a eb a2 3d 9b e9 4d bd 3d 59 14 3d
       0.003587349 0.0795507 -0.05027161 0.036217917
0001a0 81 d8 d1 bd cd bf 5b 3d bd c0 0b 3d 08 b9 02 bd
       -0.10246373 0.053649712 0.034119356 -0.03191474
0001b0 da 67 18 bb 50 83 94 3d c3 31 f2 bc e5 e8 05 ba
       -0.002325526 0.07251608 -0.029564744 -0.00051082514
0001c0 4f 0e 4d 3b b7 f5 52 3d b4 e6 89 3c 29 98 6e 3c
       0.0031289046 0.051503863 0.01683364 0.014562645
0001d0 21 f3 f4 3a 27 ab 95 3d c1 96 a1 3c 32 de 77 3a
       0.0018688181 0.07308035 0.019725205 0.0009455412
0001e0 e7 37 6d bb 56 48 a3 3d da 8d ad 3b fc 0f 4a 3d
       -0.003619665 0.07972781 0.005296451 0.04933165
0001f0 8f d7 3a 3d 8c c3 5b bd 8d 10 93 3d f9 7e a6 3c
       0.04561573 -0.053653285 0.07180891 0.020324217
000200 7c d0 d0 3c cf 71 c9 bd ff 91 96 3d 12 2d 62 bd
       0.025490038 -0.098361604 0.07352065 -0.055218764
000210 dd 93 43 3b ba 04 90 bd 14 d7 34 3b d3 aa da 3c
       0.0029842772 -0.070321515 0.0027594017 0.026692783
000220 8f 84 e8 bc 51 48 c2 3d 9f 99 e0 bc 38 a2 84 3d
       -0.028383521 0.094864495 -0.027417002 0.06476253
000230 bd f4 af 3d ad 3f 5e bd e5 fc e6 bc ba a4 32 bd
       0.08591602 -0.054259945 -0.028196761 -0.043614127
000240 b2 46 95 3b 44 21 a5 3c 0c 14 e5 bb 40 f2 1a 3c
       0.0045555467 0.020157464 -0.006990915 0.009457171
000250 7b f1 8a bc cf 84 6f 3d 34 1b 63 bd cd 8d c6 3d
       -0.01696085 0.058476266 -0.055445865 0.09695015
000260 8c 6f bb bc d9 bb 7c 3d e8 31 0d bd c7 ff 96 3d
       -0.022880338 0.061702583 -0.034471422 0.073730044
000270 63 86 2c 3d c2 17 65 bd e3 ce 97 bc ef 9a 95 bc
       0.04212035 -0.05593086 -0.018531268 -0.018262355
000280 a7 4f f1 3a 8d 57 65 3c 9c 43 86 3c 77 f1 b0 bc
       0.0018410579 0.0139979245 0.01638966 -0.021599514
000290 d0 79 98 bc a6 34 f2 3c 80 c0 57 bc 9d a6 90 bd
       -0.018612772 0.02956612 -0.013168454 -0.07063029
0002a0 4c 03 55 3d e8 2f 93 bc 33 67 4a 3d 13 f0 de 3d
       0.052005097 -0.01796718 0.049414825 0.10885634
0002b0 e3 77 d5 bc e6 80 14 bd b1 fd 70 3c 84 75 c1 bc
       -0.026058143 -0.03625574 0.014708922 -0.023615606
0002c0 9c 28 4a 3d 6a 1a aa bd d1 ee 41 bc c6 22 48 3b
       0.049355134 -0.08305819 -0.011836723 0.0030538305
0002d0 64 f3 c0 bd bd 9c 4c bc e2 34 ab bd b9 b0 32 3d
       -0.09421423 -0.012488541 -0.08359696 0.043625567
0002e0 7f 59 f4 3c 6b 50 18 bd 34 85 64 3b 86 0b a5 3c
       0.029827831 -0.037186068 0.0034869434 0.020147096
0002f0 c0 d0 e4 3d fe 17 ed 3c 7f 04 ac bc a9 41 05 3d
       0.111726284 0.028942104 -0.020998238 0.03253332
000300 f4 aa 26 3d a5 4f 9e bc 0c a8 cd 3d bc dc a9 3c
       0.040690377 -0.019325087 0.10041818 0.020735137
000310 ae ee 1b bd c6 5f 19 bd e3 64 4b bd 3b 38 0e bc
       -0.03806942 -0.037444852 -0.04965676 -0.008680399
000320 5b 2d c6 3d f5 a3 b2 3b 18 f8 8f bd 6f ed 33 3d
       0.096766196 0.005451674 -0.07029742 0.043927606
000330 87 cd 09 bd bf 26 93 3b 1a 49 2f bb 7a 1c bf 3d
       -0.03364327 0.004490703 -0.0026746453 0.09331603
000340 5f a5 25 bd 7f 61 e7 bc 4b 74 cd 3c 57 49 99 3b
       -0.040440913 -0.028244732 0.025079867 0.0046779322
000350 29 95 9a 3a 2c 29 ce bd 68 57 09 bd a3 ce b0 3d
       0.0011793721 -0.10066447 -0.033530623 0.08633163
000360 46 f8 da bc a1 d0 ac bc a5 4d c5 3c 29 f8 1c 3d
       -0.026729714 -0.021095576 0.024084875 0.0383226
000370 86 0c 07 3d 6a f7 bd 3b 4a 46 56 bd ac 43 22 bd
       0.032970928 0.0057973163 -0.052313127 -0.03961532
000380 17 e1 93 3d f9 5b 26 bb 26 eb 88 3d fc 66 b5 bb
       0.07220667 -0.002538441 0.06685476 -0.0055359583
000390 db 46 6b bd 88 c3 64 3d 7b b9 73 bd 03 db 86 3c
       -0.05744062 0.055850536 -0.05950306 0.016461855
0003a0 a0 49 1d 3d 01 cd 6a bc 47 3c a6 bc 93 0e 88 3b
       0.038400292 -0.014331103 -0.020292414 0.004152128
0003b0 45 9f a1 bc a2 de 4a bb 47 bd bd 3d 24 aa 89 bc
       -0.019729266 -0.0030955453 0.092646174 -0.016804762
0003c0 6e 38 c5 3b 63 c3 ea 3c 48 8c 55 3d 29 17 72 3d
       0.00601869 0.02865762 0.052135736 0.05910412
0003d0 69 7b a9 bc db 8e 1d 3c c5 52 19 3c 37 d7 d4 bc
       -0.02068873 0.009616579 0.009358113 -0.025981529
0003e0 77 d7 eb bc df 3a 9f 3d 0a aa 90 3c 85 73 26 bb
       -0.028789265 0.07774901 0.017659206 -0.0025398445
0003f0 6d 01 24 bd e0 56 cd bc a1 ee 8d bb 2f 5d db 3c
       -0.040040422 -0.02506584 -0.0043314253 0.026777832

network_body._body_endoder.seq_layers.2.weight f4 [256, 256]
000000 ca 26 08 3e 2b c1 ac 3c 3f c5 14 3c eb 14 fc bd
       0.13296047 0.021088203 0.00908023 -0.12308677
000010 55 d7 81 3d d9 83 c6 3d 88 04 91 3d d9 79 b3 bd
       0.063398995 0.09693117 0.070809424 -0.08763475
000020 98 60 e2 3d ef e2 89 bd 59 13 3a bd f1 95 c8 bb
       0.1105358 -0.06732737 -0.045428608 -0.00612139
000030 4b 60 0f 3d ce 20 ef bd 0a 0a 87 bd c9 d7 1d be
       0.03500394 -0.11676179 -0.06593712 -0.15414347
000040 eb 9f 22 bd 29 d0 94 bc 52 50 56 3b 97 8d 3a 3d
       -0.03970329 -0.018165665 0.0032701683 0.045545187
000050 c8 65 f0 3c 6d 99 81 3d f0 6e 0a 3e ae 58 d6 3d
       0.029345408 0.06328092 0.13518882 0.10466133
000060 dc 64 33 3e 30 ba 83 bd 4a 5b 23 3e 8a 77 7d bd
       0.17518944 -0.06431997 0.15952793 -0.06188158
000070 0c 75 0e 3c c4 54 58 3e 28 6d ce bb a3 7b 89 bd
       0.008694898 0.21126086 -0.0062996335 -0.06713035
000080 73 fe e6 3d 9d 7a a1 3d d4 d6 00 bb 45 f8 ff 3d
       0.11279001 0.07884715 -0.0019659298 0.124985255
000090 78 a7 48 bd c3 87 72 3c 09 b6 93 bd d2 a3 34 3e
       -0.048987836 0.014802876 -0.07212455 0.17640617
0000a0 91 44 f8 bd 1e c0 7b 3d 11 89 72 3d 68 f4 05 bd
       -0.12122453 0.061462514 0.059212748 -0.032703787
0000b0 5b b9 5b 3e 98 25 00 3e ba 67 31 bc 59 84 22 bd
       0.21457426 0.12514341 -0.010827953 -0.039676998
0000c0 ec 1e bc 3d 45 22 9f bc c7 da e0 bb 7f ff 0c 3e
       0.091855854 -0.01942552 -0.006862018 0.13769339
0000d0 4b 51 9d bd ed 45 43 bd be 13 88 3d 6a 79 8f 3d
       -0.07681521 -0.04767411 0.066443905 0.0700558
0000e0 f0 98 ee bd 62 58 3b bd 81 f6 f9 bc 51 44 28 3b
       -0.11650264 -0.045738585 -0.03051305 0.0025675485
0000f0 ea 07 57 3e 8f 28 3f be 26 aa ae 3c 35 53 0d be
       0.20999113 -0.18667816 0.021321367 -0.13801272
000100 5e 61 3b 3c 58 72 90 3c c0 26 28 be 17 47 15 be
       0.011436788 0.017632648 -0.16421032 -0.145779
000110 b3 71 e4 bd e5 c1 e9 bd 90 31 31 bd 39 a8 d5 3c
       -0.11154499 -0.114139356 -0.043260157 0.026081191
000120 3d e7 43 bc e5 67 94 3d e6 53 51 3e 7d 7c ab bc
       -0.011956987 0.07246379 0.20442161 -0.020933384
000130 b6 67 7a 3d eb 93 95 3d 9b 61 94 bd 94 eb 05 3e
       0.061134063 0.07303604 -0.07245179 0.13078147
000140 43 47 61 bd 16 b1 f9 3c 54 61 a2 3d 8c b2 ba bd
       -0.0549996 0.030479949 0.0792872 -0.09116086
000150 66 92 11 3e 12 2b 9c bd 01 05 a5 bd c2 f2 9d bd
       0.14216003 -0.076254025 -0.08057595 -0.07712318
000160 d3 bd 21 3e 48 06 90 be ec 5b d7 bd 4b 8f 8b 3d
       0.15795068 -0.28129792 -0.105155796 0.0681444
000170 a9 c1 50 3e 70 f9 f9 bc 55 de 2b be a1 68 92 bd
       0.20386375 -0.030514449 -0.16784032 -0.07148863
000180 62 69 b8 3d 78 de 6f 3d 86 bb ce bd 87 95 df 3d
       0.09004475 0.058561772 -0.10094361 0.10917192
000190 ff 7b 61 bd a5 03 04 be 88 91 b0 3d 9f bf 30 bc
       -0.055049893 -0.12892015 0.08621508 -0.0107878735
0001a0 03 25 3e 3e 5e 85 6e 3d 7b 11 16 3d 51 7d 38 3d
       0.18568806 0.058232658 0.036637764 0.045041386
0001b0 90 42 c5 3c 98 08 27 be 55 c8 d5 3c 6f 38 2b 3e
       0.024079591 -0.16311872 0.026096502 0.16720746
0001c0 41 c7 d2 3d 05 7b 65 3e 47 7b 20 bc 80 1f 48 3c
       0.10291911 0.2241021 -0.009795017 0.012214541
0001d0 57 f7 c9 3d 32 ed c9 bd 06 25 4c be 18 12 8c 3d
       0.098616295 -0.098596945 -0.19935998 0.068393886
0001e0 b2 73 5e 3e 8d c8 17 be cf 91 00 3e 7c a5 52 bd
       0.21723822 -0.14822598 0.12555622 -0.05142735
0001f0 e2 74 21 3d bb 3a e1 3d a8 7e 94 bc 7b c0 47 3b
       0.03941811 0.1099753 -0.0181268 0.0030479718
000200 c8 5b 6d 3d 59 27 78 3d 6c 7a d4 3d fe 74 9e 3d
       0.057948858 0.0605844 0.103749126 0.07737158
000210 30 6a 9f bd e2 5c d3 3c 54 c1 95 3d 95 30 e5 3c
       -0.077839255 0.025801126 0.07312265 0.027977267
000220 7f c0 29 3d c0 bb c7 ba ab 70 01 be cf 8e 10 be
       0.041443344 -0.0015238449 -0.12640636 -0.14116977
000230 e9 f6 c1 3d 88 0f ad 3e 66 29 e4 3a 89 4f b6 bc
       0.094709225 0.33800912 0.0017407357 -0.022254722
000240 e1 e3 ed 3c 16 cf 7a 3e 9a ae e0 3c f2 09 fe bd
       0.029039325 0.2449306 0.027427007 -0.12404241
000250 11 0e fa bb 6c 38 ea bd dc 0b a4 bd 45 12 2f bb
       -0.0076310714 -0.11436543 -0.080100745 -0.002671377
000260 77 b8 98 3c 18 6c 90 bd ce 8f e8 3c ad b8 05 be
       0.018642647 -0.07051867 0.028388884 -0.1305873
000270 23 17 16 3e ac bd 97 3d ae fe 2b 3c b2 ae b2 bc
       0.14657263 0.07409224 0.010497732 -0.021811817
000280 ff ca 88 bc 0d 64 fc bd 56 28 bf 3d 1d df ac 3d
       -0.016698359 -0.12323771 0.09333865 0.08440993
000290 f9 45 5f bd 6a e3 2e 3e 32 f8 0b be 1d 6c 11 3e
       -0.05451009 0.17078939 -0.13668898 0.14201398
0002a0 fc e0 03 3d a1 ff 3c 3e 0b 0f 51 3c 75 ee 91 bd
       0.032196984 0.1845689 0.012759934 -0.0712556
0002b0 cc b1 e6 3c 2f 5d 90 bd 21 ab 40 3d 66 d2 1b 3e
       0.028160952 -0.07049023 0.0470382 0.1521698
0002c0 a7 96 9c 3c 50 eb 27 be ef 6f df b9 e3 38 b0 bd
       0.019114805 -0.16398358 -0.00042617272 -0.086046
0002d0 e0 30 32 3c 25 08 d9 3d ce 6b 66 bb 9c af 4d 3c
       0.0108759105 0.105972566 -0.0035159471 0.012554076
0002e0 d2 83 fb 3c 9d 8c 7b bc 8a bb d3 bd 45 22 20 be
       0.030702505 -0.015353349 -0.103385046 -0.15638073
0002f0 3a c2 5f 3d 63 68 d4 bd ce a2 9a bc 97 c1 c8 bd
       0.05462859 -0.10371473 -0.01887646 -0.09802549
000300 37 27 17 bc 63 43 b9 3d 06 e9 97 3b a2 3e 0b 3d
       -0.009225658 0.09046056 0.004635933 0.03399528
000310 ec e8 df 3c 90 ae c4 bd ac 26 56 3e a2 b6 f4 3c
       0.027332745 -0.09603608 0.2091319 0.029872242
000320 c2 f8 84 39 61 1c c2 bc 05 5e fe 3d 85 5f c0 3d
       0.0002536234 -0.023695173 0.124202766 0.09393219
000330 4c a3 39 bd 8a 1d b0 bd 4e f3 e3 bd 3b fa 27 bd
       -0.045321748 -0.08599384 -0.11130391 -0.041010123
000340 b9 78 a0 3d 98 f6 95 bd d2 94 c8 3d 2c 4b e8 bd
       0.07835526 -0.07322425 0.0979401 -0.11342463
000350 5d bb 9c bd 16 59 02 bc c5 24 03 3d 39 aa ea bd
       -0.07652924 -0.00795581 0.032017488 -0.11458249
000360 1e 68 0c 3e 30 7b 77 bc 6a 16 21 bd 37 ca 68 3d
       0.13711593 -0.015105054 -0.039328016 0.056833472
000370 31 d1 23 3e 33 ac 87 3d e4 39 92 3d 80 1c db 3d
       0.15997769 0.06624641 0.07139948 0.10698795
000380 7d 6d 84 3c ab 69 f7 3c 5c 4d 8d 3c 7f 82 5c 3e
       0.01616549 0.030201754 0.017248802 0.21534155
000390 0a 4b 5e 3d 7c 56 84 be f3 ce 24 3d 02 e9 dd 3d
       0.05427078 -0.25847232 0.040236425 0.10835458
0003a0 73 3a 7f bd 2a f1 09 3e f1 96 fa bd fa 45 dc bc
       -0.0623116 0.13470903 -0.12235821 -0.026888836
0003b0 b1 3e e7 3d 8d cc 75 3d 9e 14 f5 bd f5 75 f7 3d
       0.11291254 0.060009528 -0.11966823 0.120830454
0003c0 ba 4f cb 3c 53 3b 8f bd b7 8d 3f bd 34 1a b8 3d
       0.02481829 -0.06993737 -0.04676601 0.08989373
0003d0 af a6 85 bc 8d e6 88 3c 4b 70 6f 3e 55 63 32 3e
       -0.016314832 0.016711498 0.2338268 0.17420705
0003e0 55 54 3f 3d 3f 9b 7c bd 19 27 8d 3d b2 9f bc 3b
       0.046711285 -0.06167149 0.06892223 0.005756342
0003f0 b9 e5 0f 3e b8 4c 02 be cc 85 87 3d f0 40 46 bc
       0.14052476 -0.12724578 0.066173166 -0.012100443

network_body._body_endoder.seq_layers.2.bias f4 [256]
000000 87 07 10 bd b6 93 a4 bc 95 c7 13 3c 6c cd ca ba
       -0.03516343 -0.020089965 0.009019752 -0.0015472597
000010 b2 86 b9 3b 5c 59 e0 bc 9d 35 d3 3d e6 05 cf 3c
       0.005661809 -0.02738636 0.1031296 0.025271367
000020 65 49 66 3d e4 df 38 3d b2 87 8c bd 72 c7 36 bd
       0.05622234 0.045135394 -0.06861819 -0.0446238
000030 7f 4c 03 be bc 56 21 3d 76 00 1d bc dd a9 c3 bd
       -0.1282215 0.039389357 -0.009582629 -0.09553883
000040 b5 4c ac bc a9 33 20 bc 5e b8 b3 bd 84 69 17 bd
       -0.02103267 -0.009777942 -0.087753996 -0.036965862
000050 0f 91 46 3d 87 ce 0c 3c eb 93 d2 bc 18 b8 0b be
       0.048478182 0.008594162 -0.025705298 -0.13644445
000060 89 1a 55 bb dc 86 9d 3c 66 bd 62 3d c6 6e 83 bc
       -0.0032517037 0.019229345 0.055356406 -0.016044032
000070 ac 00 50 bd f3 d4 97 3d 96 d1 47 bd 67 6c d2 3c
       -0.05078189 0.07413664 -0.04878386 0.025686456
000080 83 11 8b bc b6 97 b6 3d 18 6d 9c 3c 06 81 00 bd
       -0.016976124 0.08915655 0.019094989 -0.031373046
000090 eb 32 e5 bd 5d 30 9c 3c 2d 2b 45 3b 25 a3 bc 3c
       -0.111913525 0.01906603 0.003008555 0.023027012
0000a0 c9 a0 2f bd 19 9b 4e ba 61 51 b0 bc e5 57 68 bd
       -0.042877946 -0.0007881388 -0.02152318 -0.056724448
0000b0 99 2c f2 3c 74 52 50 3b 5e 06 42 bc e1 29 77 3c
       0.029562281 0.0031787427 -0.011842338 0.015085668
0000c0 e1 87 b6 bb 27 9e 3c 3d 83 f9 b5 3a 1e 22 54 bd
       -0.0055703972 0.046049263 0.0013883564 -0.05179035
0000d0 6b 7a ce bc c6 1b 59 3d 41 3c f9 bd 77 1f 16 3c
       -0.025204858 0.053005002 -0.12169696 0.009162775
0000e0 95 53 c2 3c b5 16 fa bb f4 aa 10 3d 73 0e 23 bd
       0.023721496 -0.0076321014 0.035319284 -0.0398087
0000f0 db cd 3a 3d 90 4e 8e 3d 77 9e bc 3b 2b c5 19 3d
       0.045606475 0.06948578 0.005756195 0.03754155
000100 d7 61 e7 3b c0 ec 1f 3d fc 8e dc bb df ef e5 3b
       0.007061224 0.03904414 -0.0067309123 0.0070171203
000110 20 94 ec ba 4c 43 92 3c 14 f2 81 bd 0c f9 07 3d
       -0.0018049516 0.017854355 -0.06345001 0.033196494
000120 29 55 e9 3b 2f 25 50 3d c6 66 a3 bd 4d 2e cb 3c
       0.0071207476 0.05081671 -0.07978587 0.024802351
000130 11 1d 3c 3d 5d 45 03 3c 6d 54 b8 bb e7 40 c4 3c
       0.045926157 0.008012143 -0.0056252987 0.02395673
000140 82 e6 88 bc 16 09 b6 bd 2b 20 12 3d 16 65 13 3d
       -0.016711477 -0.08888452 0.03567521 0.035985075
000150 44 b4 c1 3b aa fc a4 3d 4a 09 15 bd de 5d 8b 3c
       0.005911382 0.08056004 -0.036385812 0.017012533
000160 e0 00 8a 3d f0 dc 8b bd 6d 9b 46 3d b1 99 09 3d
       0.06738448 -0.0682925 0.04848807 0.033593837
000170 3c e2 07 bd da ef b2 3c e3 25 ed bc d0 32 19 bc
       -0.03317474 0.021842886 -0.02894873 -0.009350494
000180 09 73 10 3d 3e 9f 42 bd ca b1 19 3d 01 d0 71 bc
       0.035265956 -0.047515146 0.03752307 -0.014759065
000190 43 8f 4f bc 54 1c ba bb fd e4 14 bc 79 9d b1 3c
       -0.012668434 -0.0056796465 -0.009087798 0.021681534
0001a0 2b c7 17 3c 0d aa aa bd 7b 39 2a 3d 4a cf 95 3c
       0.009263794 -0.08333216 0.041558724 0.01828732
0001b0 ad 9f 9d 3c 13 8c 43 3c f8 46 a4 bc e1 fd ff bb
       0.019241178 0.011935252 -0.020053372 -0.007812247
0001c0 aa ed 4a 3d 2b 24 c3 3c 19 7c a4 3d 8f 33 68 bd
       0.04954306 0.023820957 0.08031482 -0.056689795
0001d0 e0 04 ab 3c 05 7f 74 3c 24 ae b4 3c d4 28 32 3d
       0.020876348 0.014922862 0.022055693 0.043495968
0001e0 0b e0 04 be 54 01 2a 3c f0 2c 5e bc a7 40 4c 3d
       -0.1297609 0.010376293 -0.013560519 0.049866345
0001f0 4e cd a3 bd 99 fa 47 bd 72 1f 1a 3d 04 12 90 bd
       -0.07998143 -0.048822973 0.037627645 -0.07034686
000200 bd d6 d4 bc 45 f3 42 3c ab ca f4 bb 77 6d 58 bc
       -0.025981301 0.01189882 -0.007470449 -0.013209692
000210 32 87 ce 3c 53 83 fb ba 9f 8f c1 3c b2 cf b6 bd
       0.02521095 -0.0019188918 0.023628054 -0.089263335
000220 b6 f8 87 3d 5f e2 66 3d 6c 16 b8 3c aa ce ac 3c
       0.06639235 0.056368228 0.02247163 0.021094639
000230 e9 50 80 bd 67 0f 02 be f4 d8 26 3d 1e bf 57 3c
       -0.062654324 -0.12701188 0.040734246 0.0131681245
000240 f7 3e 07 bd 9a 4a aa 3c 56 48 6b 3b a3 37 b9 bd
       -0.033019032 0.020787526 0.003590127 -0.09043815
000250 80 87 18 ba 99 53 e3 bb bc c1 1b bd 46 b4 0d 39
       -0.0005818531 -0.006937456 -0.038026556 0.00013513965
000260 a7 bf d9 bb 8e 5c 5e bd a3 6a af 3c 20 c9 63 3c
       -0.006645161 -0.054287486 0.021413153 0.013902932
000270 55 d1 13 bc f0 bc 20 3d 79 66 a5 3d 15 64 af bc
       -0.009022077 0.039242685 0.08076186 -0.021410028
000280 c0 a2 85 3c f2 4e 3e bd a3 fa 1b 3d 10 73 63 3c
       0.016312957 -0.046462007 0.038080823 0.0138824135
000290 de 74 72 bb 12 5e d3 bc ba 86 b1 3c 9e 7d cd bd
       -0.0036995928 -0.025801692 0.021670688 -0.10033725
0002a0 da c4 b6 bc fe be 68 3c 50 2f 80 3c 09 21 fd 3c
       -0.022310663 0.014205692 0.01564756 0.030899541
0002b0 f2 dd 18 3d 70 7d 2c bd ff 46 e0 bd 19 cf f8 bc
       0.03732104 -0.042111814 -0.109510414 -0.03037219
0002c0 dd 65 74 bd 24 da c2 bb f7 75 56 3c 42 85 00 bd
       -0.059667457 -0.0059464145 0.013089648 -0.031377085
0002d0 17 49 7b 3b f0 f5 b4 bb 92 0e b2 bc 81 97 c6 3c
       0.0038343125 -0.005522482 -0.021735463 0.024242165
0002e0 b1 d5 e5 3c 15 e1 52 bd c3 bc f4 bc ab a6 1b 3d
       0.028055998 -0.051484186 -0.029875165 0.038000744
0002f0 d8 19 06 bd 4f 8c 02 3d 2e 4e 84 bc 12 48 3e bc
       -0.03273949 0.03187209 -0.01615056 -0.011613863
000300 e2 0c 9d 3c 8c 71 97 bc 5d cb 56 3d f7 12 a5 bb
       0.019171182 -0.01848676 0.052440036 -0.005037661
000310 67 b9 1c bc 1a ce c7 bc 14 c9 b0 bc c5 21 3e 3c
       -0.009565688 -0.02439027 -0.021580257 0.011604731
000320 c5 c9 bd 3c 82 f4 10 3d 63 98 75 3d 53 ed 4e bc
       0.0231675 0.03538943 0.05995978 -0.012629825
000330 d4 72 08 3d c8 bc 90 3d f0 5c 08 3d 71 21 e2 bc
       0.033312634 0.07067257 0.033291757 -0.027603837
000340 73 c6 a6 3d 2a c3 19 bd c9 77 c0 bc f7 cb c9 3d
       0.0814332 -0.03753964 -0.023494618 0.09853356
000350 df 4f c5 bc 0d 5b bc bd 79 25 9e 3d 75 84 41 bc
       -0.024085937 -0.09197054 0.07721991 -0.011811365
000360 41 e6 a7 bc 54 95 bd bc 4d 88 b0 3c a5 b0 f6 bd
       -0.020495536 -0.023142494 0.021549368 -0.12045411
000370 6f 55 0d bd ec 4f a0 3b 77 35 1b 3b 68 7d 5f bd
       -0.034505304 0.00489234 0.002368299 -0.054562956
000380 b6 30 6b bc 0e b3 d2 bc 81 3e 8c 3d 91 73 62 3d
       -0.014354875 -0.025720146 0.06847859 0.055285994
000390 a6 44 f5 37 ae 32 a8 3b d6 9f 1e bd df 19 7a 3c
       2.9238243e-05 0.0051329946 -0.03872665 0.015264957
0003a0 08 e1 9a 3c ef 56 d4 3d 95 7e 47 bd cb b4 68 3c
       0.018906131 0.10368144 -0.048704702 0.014203261
0003b0 42 8b fc 3d 3b c8 98 bc fa 1d 09 bd c4 cc e4 bb
       0.12331249 -0.018650165 -0.033475854 -0.006982418
0003c0 36 cc 91 bd 53 51 0d 3d bd 86 53 3d fb c9 5d bc
       -0.07119028 0.034501385 0.05164217 -0.013536925
0003d0 35 5f 0d 3c 4f e1 12 3c 43 c1 2b 3d c3 d2 c5 bd
       0.008628656 0.008964851 0.041932356 -0.0965934
0003e0 aa 72 f8 3a 95 1e 7b 3d e7 0d 71 3d 2b 80 31 3d
       0.0018955071 0.061308462 0.05885115 0.04333512
0003f0 78 b0 63 bc 2c 47 14 bd 46 3a 30 bd 38 d3 9b bd
       -0.013897054 -0.036200687 -0.043024324 -0.07608646

action_model._discrete_distribution.branches.0.weight f4 [7, 256]
000000 dc f7 0a 3e 21 53 31 bb 46 68 e5 bb 14 4f e2 3d
       0.13571113 -0.0027057605 -0.0070009558 0.11050239
000010 00 b0 78 3d f2 14 11 bd 3f 32 27 3d 0e d0 12 bc
       0.06071472 -0.035420366 0.040819403 -0.008960737
000020 1f 30 06 3e 88 64 12 3e 10 b8 b3 bd cb 73 e6 3d
       0.13104294 0.14296162 -0.087753415 0.112525545
000030 65 47 88 bc 2e 70 9b bd 64 31 a0 3d 26 34 ae bb
       -0.016635606 -0.07589756 0.078219205 -0.005316275
000040 00 b8 1a 3b 31 b4 0f 3e fc ad b5 bc 7e bf d2 3d
       0.0023608208 0.14033581 -0.022177689 0.102904305
000050 9f 49 d9 3b db 53 41 bd 2b ad 6d 3d 8e 17 8f bd
       0.006631091 -0.04719911 0.058026474 -0.069869146
000060 c3 19 c3 bd 84 77 39 3e f1 7f 7e 3d 5d cd ab bd
       -0.09526398 0.18111998 0.062133733 -0.08388779
000070 0a 20 ec 3d ed fb b9 bd 12 60 80 3d a8 9a c2 3d
       0.115295485 -0.09081254 0.06268324 0.095021546
000080 b7 62 ae 3d 33 0c 9f 3d b9 f1 6b 3d 51 d7 13 3e
       0.08514922 0.07765999 0.05760357 0.14437605
000090 c9 ed f2 3b 25 b7 0a 3e b3 a6 9b 3d 50 e2 83 3d
       0.0074136 0.13546427 0.07600155 0.0643965
0000a0 f4 7f dd 3d 7d f3 cf 3d 38 87 b7 3d a7 38 0d be
       0.10815421 0.101538636 0.08961338 -0.13791142
0000b0 d7 3c bf 3d 0e 91 c7 bd bd 05 21 3e 9b 5b 9c 3d
       0.09337776 -0.09744464 0.15724845 0.0763466
0000c0 70 47 da bd 35 02 90 3d 78 0e c0 3c 0f 05 1d 3d
       -0.10658157 0.07031671 0.0234444 0.038334902
0000d0 35 64 ab 3d 25 24 eb 3d 57 78 b7 ba f3 ce 08 3e
       0.08368722 0.114815034 -0.0013997656 0.13360195
0000e0 5d 23 e6 3a 31 4b e0 3d 27 0d 9d 3d 26 13 21 bd
       0.0017558147 0.109518416 0.07668524 -0.039324902
0000f0 8a 5e f3 bd 41 84 25 bc b0 c4 37 bd 98 9f 49 3e
       -0.11883266 -0.010102333 -0.04486531 0.19689786
000100 d0 9b 32 bd a3 db cd bd 5f 74 75 3c f3 96 94 bc
       -0.043605626 -0.10051658 0.014981358 -0.018138384
000110 4c ca 90 3d d1 c6 13 bd 07 82 cd 3d ad 3c 25 3e
       0.07069835 -0.036078278 0.100345664 0.16136427
000120 97 30 e2 3d 22 55 d5 3c b2 57 1f bd 95 11 8e 3d
       0.11044424 0.026041571 -0.038901992 0.06936947
000130 bc 5b 12 3e 38 c0 af bd 2a 77 da bc 73 6b ec 3d
       0.14292806 -0.08581585 -0.02666815 0.11543932
000140 a5 17 4f be b0 93 e2 bd ea 34 0a 3e 10 fb a3 3d
       -0.20223863 -0.110633254 0.13496748 0.08006871
000150 d0 d3 0c 3e ef 0b 89 bd c8 5e 9f 3d 6d 62 8e 3d
       0.13752675 -0.06691729 0.0778175 0.06952367
000160 54 a3 d3 bc 3f 0c 42 bc e6 b2 a3 3c 48 03 f1 3d
       -0.025834717 -0.01184374 0.019982766 0.11768204
000170 62 a8 a9 3d df cc 2b 3d 1e 94 3b bd 78 56 aa 3d
       0.082840696 0.041943427 -0.045795552 0.08317274
000180 a6 a1 bd bd f0 45 8a bd 97 5a e6 3d df c7 17 3d
       -0.092593476 -0.06751621 0.112477474 0.037055846
000190 1a 56 cf 3c ad 90 0e 3e 91 94 00 bd 74 49 02 be
       0.025309611 0.13922377 -0.031391684 -0.12723333
0001a0 28 1a d6 bd 99 fd 24 3d 06 1a 85 bc f3 1e 55 bd
       -0.10454208 0.040280912 -0.01624776 -0.05203147
0001b0 61 45 f1 3d f7 e5 be 3d 35 29 5b bd 90 2f 8e 3d
       0.11780811 0.09321206 -0.053506095 0.069426656
0001c0 70 c3 39 bd 5d 65 22 3d 4c a7 6c 3d 40 c8 7b 3c
       -0.0453524 0.03964745 0.057776734 0.015367568
0001d0 54 12 e6 bd fa d8 d6 bc 93 73 6f 3c fb eb 09 3e
       -0.112339646 -0.02622651 0.014614957 0.13468926
0001e0 5b a6 6e bc 0f f1 aa 3d b6 8a fa bc 2d b7 f5 3d
       -0.014566029 0.083467595 -0.03058372 0.11997829
0001f0 6a 82 cf 3d 43 a2 ef 3c d8 21 1b 3d ef 15 5b bd
       0.101322964 0.029252177 0.037874073 -0.053487714
000200 c8 62 e1 3d bc af 45 3d 45 9c 9e bd a1 90 15 3e
       0.11005169 0.048263296 -0.0774465 0.14605953
000210 f6 6c 7e 3d b0 d8 22 bd e1 bd b4 bd 7f 2e 6e bd
       0.062115632 -0.03975743 -0.08825279 -0.05814981
000220 c0 82 39 3d 4f 82 26 3e 42 b0 e4 3d d5 4c a5 3d
       0.04529071 0.16260646 0.11166431 0.08071295
000230 d3 99 c5 bd 98 39 f8 bb 57 b1 b4 bd a8 df 99 3d
       -0.0964848 -0.007575225 -0.088228874 0.07513362
000240 0e 91 21 3d a3 27 b6 bd a7 2d 92 3c 5d 6f 4a 3d
       0.039444976 -0.08894279 0.017844034 0.04942261
000250 c6 87 29 3e 86 2b 1d 3e d1 60 01 3d 93 7f 62 3d
       0.165557 0.15348634 0.031586472 0.055297446
000260 b1 33 93 3d f3 c9 28 3d 09 26 e7 3d 8c 70 1f be
       0.07187594 0.04120822 0.112865515 -0.15570277
000270 3d 72 fc bd b6 5e 89 3c 9f fb 7d bd 84 ca 72 bc
       -0.12326477 0.016768795 -0.062007543 -0.014818791
000280 fe 65 0e be ae 0d e5 3c d1 06 8f bd 3b f1 0a 3e
       -0.13906094 0.027960625 -0.06983722 0.13568585
000290 6b 77 3a bc 04 fb 9a bd 8b 57 91 3d ae dc 94 3d
       -0.0113810105 -0.07567409 0.070967756 0.07268654
0002a0 47 e1 fb 3d 3b d4 74 3d 95 fa 0e 3e eb 80 ab 3c
       0.122988276 0.05977271 0.13962777 0.020935496
0002b0 1d 50 6f bc a4 20 0b 3d 46 6c 0c bc ea ad b6 3d
       -0.014606503 0.033966675 -0.008570736 0.0891989
0002c0 dd f2 be 3c 8e 67 0c 3e e1 22 21 3d 32 b9 b9 bc
       0.023309166 0.13711378 0.039339904 -0.022671316
0002d0 0b df ab 3d c2 27 98 3d 1d 8b 93 3d 15 59 d7 3d
       0.083921514 0.07429458 0.07204268 0.10515038
0002e0 99 03 2d be 74 11 1a 3d e0 48 0d 3c fa fd 8e bd
       -0.16895904 0.0376143 0.008623332 -0.06982036
0002f0 f1 c7 54 3b 0d 7b 4d 3d 20 16 11 3d 84 2e 2f bc
       0.0032467807 0.05016618 0.03542149 -0.0106922425
000300 49 98 54 bc 85 0f be bc a1 e2 50 3d 68 d4 6e 3d
       -0.012975761 -0.02320076 0.05099738 0.058308035
000310 16 dc af 3d ed 69 41 3d cd b2 6c bd b9 06 db 3d
       0.085869 0.04722016 -0.057787705 0.106946416
000320 1c b3 3b 3e bc 78 bc 3d 9c e9 b6 3d 3c 7c 69 3d
       0.18330044 0.09202716 0.08931276 0.057003245
000330 a0 a9 09 3e 0c 74 c6 3d bf 0f 19 3e fa 07 ca 3d
       0.13443613 0.09690103 0.14947413 0.09864803
000340 e2 75 6d 3d a0 7d f4 3d 85 a9 8e 3d b6 cf 04 be
       0.05797375 0.119380236 0.06965927 -0.1296986
000350 86 74 c8 bd b0 cc be bd 90 f0 72 3c 1f 39 06 3d
       -0.0978785 -0.09316385 0.014827862 0.03276932
000360 0a 1f 58 bd 60 26 a6 3d 81 63 b6 3d 5d 25 a3 bd
       -0.052763976 0.08112788 0.089056976 -0.07966111
000370 04 11 91 3d 8d 0b 6c 3d 5d 66 b3 3b 6b ae cf 3d
       0.070833236 0.057628203 0.005474849 0.101406895
000380 cd bb b8 3d ba 28 b3 3b 8d 16 34 be 8a ff 0c 3e
       0.09020195 0.0054675015 -0.17586727 0.13769355
000390 4c 00 36 3d 36 08 96 3d 18 0f 54 bd 1c 7d 64 bc
       0.044433877 0.07325785 -0.051772207 -0.013945844
0003a0 01 3a 1f 3e 93 f7 45 3d 46 ff 0a 3e 22 90 a4 ba
       0.1554947 0.04833181 0.13573942 -0.0012555162
0003b0 cc 3d f9 bd 85 a1 06 3e 02 eb be 3d 63 24 ab bd
       -0.1216999 0.13147552 0.09322168 -0.083565496
0003c0 a9 4f 2d 3d bb 19 86 bb ac 6b 67 3d 15 99 89 3d
       0.042312298 -0.004092423 0.05649917 0.06718651
0003d0 30 df 81 3d 1d 49 c5 bd 5f 50 66 bd b7 6f 33 bd
       0.06341398 -0.09633086 -0.05622899 -0.04380771
0003e0 c7 8a 06 bc 42 f3 36 bd d9 b3 9b bd 15 98 73 3c
       -0.008211798 -0.044665582 -0.076026626 0.014867802
0003f0 cc b7 31 3c 9e 15 cd 3d ed 62 9b 3d e7 6f be 3d
       0.010847043 0.10013889 0.07587228 0.092986874

action_model._discrete_distribution.branches.0.bias f4 [7]
000000 15 1f a5 3d 5f 7a 20 bc 11 50 85 bd c0 06 83 bd
       0.08062569 -0.009794801 -0.06509412 -0.06397772
000010 dd ed cd bc 08 4d d4 3c 27 5a 9c 3d
       -0.025137836 0.025915638 0.07634383
