results/puzzle_expirement_1/PuzzleBehavior/PuzzleBehavior-499968.onnx (onnx, 341899 bytes, 6 tensors)

network_body._body_endoder.seq_layers.0.weight f4 [256, 64]
0.15062581 0.17928173 -0.039813608 -0.027972737 -0.13210225 -0.008129149 0.13355006 -0.11622997
0.22875503 0.17172334 -0.055048656 -0.015237835 -0.0008618387 -0.1889219 -0.2507324 0.060285747
0.08068038 0.034447413 0.09019053 0.06292618 0.062566765 -0.2022995 0.14246902 0.043455895
0.044398032 0.024351282 -0.060494788 0.03616812 -0.10615108 0.08208734 -0.06772678 -0.13073978
-0.053276613 -0.21920504 0.008497281 0.03852847 0.26895672 0.063317 0.040168196 0.22477967
0.07573951 0.05759528 0.002775697 0.0412135 -0.0045728576 -0.15317705 -0.07207281 -0.043345593
0.24709994 -0.19846562 0.09266285 -0.08284117 0.14201592 0.035525978 0.10429915 -0.01826135
0.11230665 -0.028929397 0.0904707 -0.039140414 -0.05336616 0.01690791 -0.13867043 -0.10865748
0.0649402 -0.07442083 0.114913955 -0.24404597 -0.023892026 0.18710545 0.013807842 0.06189611
0.078422554 0.14136584 -0.0012184657 0.021769596 0.047438834 0.02522102 0.11243673 0.13129227
-0.16229334 0.12598123 -0.015002678 -0.08433968 0.15794519 -0.017291894 -0.24617468 -0.27178866
0.022474289 -0.23448777 0.00445653 -0.005360548 0.028899651 -0.07553919 0.033874143 0.15330222
-0.1268845 -0.0156065365 0.01901511 -0.047492083 -0.2648165 0.16878675 0.025903132 -0.039275926
0.09766662 0.05655523 0.1727883 -0.15237185 0.015069008 0.2202383 -0.02130756 0.01119845
-0.14892657 0.15310317 0.09050246 0.13138689 0.10190499 0.015294304 -0.19631834 0.10972119
-0.077040724 -0.040165093 0.08880096 0.078615494 0.085353635 0.008971502 -0.059648063 0.06064595
-0.1456117 0.30963823 0.18767218 -0.23438235 -0.075159304 -0.05665005 -0.014833375 0.07573059
0.0020265663 -0.06542778 -0.0110557135 -0.0075230612 -0.053990435 0.027670683 0.06790635 -0.01062185
0.006371711 -0.02442197 -0.018646462 0.23453973 0.08331632 0.061672628 -0.034705237 0.06128398
0.09307143 0.13334072 -0.09668062 -0.028578537 -0.09929781 0.045640435 0.11975251 -0.07567904
-0.054113396 0.011713766 -0.22275737 -0.13171808 -0.09753356 -0.018744512 0.08954309 0.10734155
-0.017237917 -0.1102686 -0.01212285 0.091601714 -0.049057692 -0.09329488 -0.11068736 -0.12698323
0.0758498 0.13378543 -0.07609069 0.036325317 0.14227673 0.11108083 0.010709688 0.0059034517
-0.24885476 0.069079205 0.14081833 -0.072032556 0.07731417 0.03913716 0.15230064 -0.15615222
0.24778917 -0.08967557 0.032635376 0.17581902 0.042232912 -0.092394985 0.060025178 0.029896606
-0.12383161 0.07628519 -0.05999589 -0.10683745 -0.1373231 -0.15617555 0.13422285 0.08530445
0.07085621 -0.090089306 0.024044875 0.11036226 0.122019835 -0.07465061 -0.23164232 0.019508792
-0.17123851 -0.018146396 -0.07512157 0.06446457 -0.026893577 0.21530887 0.023188032 -0.073336385
0.045621816 0.062272366 -0.21758464 0.0688263 -0.11907587 0.14152133 0.18931696 0.039030995
-0.032034446 0.1263359 -0.10124282 0.09169419 0.12145064 0.08792425 -0.22638725 0.040274877
-0.1783626 0.022617511 -0.18524957 0.104907185 0.13986434 0.26546362 -0.100930184 0.324873
-0.023189193 -0.087654516 -0.002245907 0.17409983 0.24116425 0.10130257 -0.10065325 0.028900318
00000000: a73d 1a3e a195 373e 9813 23bd 1527 e5bc
00000010: d045 07be 1f30 05bc 59c1 083e fa09 eebd
00000020: c23e 6a3e 3ed8 2f3e b37a 61bd 1da8 79bc
00000030: 04ed 61ba be74 41be ff5f 80be 30ee 763d
00000040: c13b a53d bb18 0d3d d0b5 b83d 71df 803d
00000050: 0123 803d 9a27 4fbe 66e3 113e cffe 313d
00000060: b6da 353d 577c c73c 62c9 77bd 0625 143d
00000070: bd65 d9bd 681d a83d 57b4 8abd a6e0 05be
00000080: 9438 5abd 4977 60be 2e38 0b3c 07d0 1d3d
00000090: b2b4 893e 58ac 813d 6887 243d a42c 663e
000000a0: 511d 9b3d 07e9 6b3d 78e8 353b 7dcf 283d
000000b0: e9d7 95bb 72da 1cbe e99a 93bd 268b 31bd
000000c0: c407 7d3e 923a 4bbe 05c6 bd3d a2a8 a9bd
000000d0: 9f6c 113e b083 113d cb9a d53d d498 95bc
000000e0: 0701 e63d 58fd ecbc b448 b93d b351 20bd
000000f0: 7996 5abd 7582 8a3c 9fff 0dbe d087 debd
00000100: 5eff 843d f369 98bd 0258 eb3d 30e7 79be
00000110: 36b9 c3bc 9298 3f3e 493a 623c c786 7d3d
00000120: 019c a03d 35c2 103e edb4 9fba 2756 b23c
00000130: 394f 423d 509c ce3c 3a45 e63d 7b71 063e
00000140: 3a30 26be 3901 013e cbcd 75bc 48ba acbd
00000150: 62bc 213e bba7 8dbc 3715 7cbe e227 8bbe
00000160: 001c b83c 901d 70be 1508 923b 89a7 afbb
00000170: f6be ec3c 4ab4 9abd 9dbf 0a3d 42fb 1c3e
00000180: 03ee 01be 8fb2 7fbc 93c5 9b3c 0f87 42bd
00000190: 0796 87be 6fd6 2c3e ce32 d43c cbdf 20bd
000001a0: 7005 c83d 75a6 673d 6bef 303e 5e07 1cbe
000001b0: 00e4 763c 2686 613e 318d aebc b479 373c
000001c0: 3580 18be 14c7 1c3e 5b59 b93d 498a 063e
000001d0: 90b3 d03d f694 7a3c ad07 49be 81b5 e03d
000001e0: 87c7 9dbd 2784 24bd 47dd b53d 2901 a13d
000001f0: e3cd ae3d 35fd 123c 8751 74bd e367 783d
00000200: 3c1b 15be e788 9e3e 232d 403e ed01 70be
00000210: 1fed 99bd e209 68bd af07 73bc a418 9b3d
00000220: 24d0 043b 00ff 85bd 0623 35bc 0384 f6bb
00000230: 1325 5dbd a1ad e23c 7c12 8b3d 4507 2ebc
00000240: c9c9 d03b 9510 c8bc 77c0 98bc 2f2b 703e
00000250: bfa1 aa3d 709c 7c3d 1427 0ebd e904 7b3d
00000260: 3c9c be3d 788a 083e 7d00 c6bd 891d eabc
00000270: a65c cbbd 77f1 3a3d ce40 f53d 9dfd 9abd
00000280: 02a6 5dbd 18eb 3f3c 821a 64be 1be1 06be
00000290: adbf c7bd 178e 99bc 5e62 b73d e3d5 db3d
000002a0: 8836 8dbc 81d4 e1bd eb9e 46bc ae99 bb3d
000002b0: b8f0 48bd 6311 bfbd 0eb0 e2bd e407 02be
000002c0: 2457 9b3d 0cff 083e 70d5 9bbd dbc9 143d
000002d0: feb0 113e 597e e33d b077 2f3c be71 c13b
000002e0: c8d3 7ebe 6679 8d3d ae32 103e ce85 93bd
000002f0: e456 9e3d 494e 203d b3f4 1b3e 5ee6 1fbe
00000300: 72bc 7d3e d3a7 b7bd acac 053d e709 343e
00000310: 6bfc 2c3d 9539 bdbd f6dc 753d bae9 f43c
00000320: 6d9b fdbd 693b 9c3d 40be 75bd 98cd dabd
00000330: 6d9e 0cbe 7cec 1fbe b771 093e 19b4 ae3d
00000340: 101d 913d be80 b8bd c2f9 c43c 9c05 e23d
00000350: 89e5 f93d 6be2 98bd a533 6dbe e7d0 9f3c
00000360: 2659 2fbe c0a7 94bc 56d9 99bd 0006 843d
00000370: eb4f dcbc ee79 5c3e d4f4 bd3c 6331 96bd
00000380: f1dd 3a3d 4f11 7f3d 82ce 5ebe cef4 8c3d
00000390: 0dde f3bd f8ea 103e 4edc 413e f7de 1f3d
000003a0: 8d36 03bd 335e 013e 6558 cfbd 2aca bb3d
000003b0: 1dbb f83d a111 b43d 0fd2 67be 45f7 243d
000003c0: afa4 36be 5c48 b93c 10b2 3dbe 94d9 d63d
000003d0: 9938 0f3e d9ea 873e 7cb4 cebd c155 a63e
000003e0: 43f7 bdbc 3684 b3bd 1130 13bb 3a47 323e
000003f0: c3f3 763e b977 cf3d 4b23 cebd 5cc0 ec3c

network_body._body_endoder.seq_layers.0.bias f4 [256]
-0.005697003 0.006845796 -0.0030924396 0.004021961 0.005275488 0.001091654 0.003928612 0.029151127
0.0017804826 0.004090158 0.023325404 -0.021046285 0.01214619 0.008391864 -0.009668268 0.002619559
-0.0072359643 0.006357626 -0.0018942315 -0.013018423 -0.004541637 0.020553837 0.020498933 0.0023192933
0.004642792 -0.0018616613 0.022048553 0.017535815 0.020830149 -0.004625574 -0.0005772662 0.02387577
0.004893126 0.042979956 -0.002694306 0.001371165 1.7634757e-05 0.01734153 0.00862834 0.012545492
0.011131094 0.0028089066 -0.0033860682 0.004407282 0.026072191 0.0385317 -0.0024273067 0.016776295
0.022568678 0.011924402 -0.0019168532 -0.00061364385 -0.004774538 -0.015373424 0.016751016 0.014185935
0.00613149 0.004713649 -0.0010235156 0.011402446 -0.023042949 0.017787341 0.02634118 0.00473992
0.0262 -0.004957287 -0.011386947 0.003993383 -0.0026389258 -0.003984534 0.017867414 0.016584527
0.038387537 0.012649183 0.012278143 0.00088893407 0.004413165 0.021068992 -0.0040233564 0.003295635
-0.006670368 -0.004839351 0.015526964 0.010694028 0.0069449353 0.0015032531 -0.0032977634 -0.0023988397
-0.0028902616 -0.024383483 -0.0098745935 0.026177283 -0.0052606175 0.0136996815 -0.002355066 -0.0071871113
0.008675552 0.010668193 0.010286892 0.021474624 0.028946558 0.009198989 0.009386387 0.01602645
0.029273413 0.008050075 -0.020014053 0.008755638 0.021336889 -0.006489091 0.020462623 0.017359538
-0.0026844852 0.019060718 0.0073946044 -0.0029181526 0.017431231 -0.0092584 0.0057227723 0.0011420951
-0.00325405 -0.011083442 0.0063985544 0.029219279 0.03377507 0.013159778 0.021744028 -0.005363188
-0.021233998 -0.005538512 0.009444526 0.026695905 -0.0011359374 0.008129771 0.003805921 0.02543521
0.0053069815 0.0067359842 0.03718506 0.0019787096 -0.0050419485 0.0110272765 -0.023584679 0.008374515
-3.869028e-05 0.020531146 0.009843708 0.011197052 0.010395151 -0.02063045 0.0053959815 -0.0032715977
0.008184702 0.012926135 0.010816371 -0.03556174 0.0017200013 -0.006261424 0.016529912 0.0086059645
0.01616383 0.013584283 0.0001512779 0.016256427 0.031345446 0.014725466 0.0068519805 -0.003435786
0.020971697 -0.015159207 0.0026219236 0.008793771 0.03079869 -0.0011372246 0.0099005895 0.009206019
0.008597654 0.0034263479 0.02182659 -0.002834756 0.003236083 0.011937735 0.022729626 0.027688468
-0.008397911 0.0007392289 0.033130653 0.02749711 0.011821661 0.0031779013 0.0012184734 0.0044848695
-0.02786772 0.019002536 0.0042631845 -0.006361974 0.016737865 0.006292016 0.0407366 0.007936511
-0.0028159812 -0.0064349957 0.025454627 -0.015932621 0.0068078917 0.045986388 -0.00014021946 -0.006095653
0.012826188 0.009428454 0.027394975 0.012734934 0.01865823 -0.00061157823 0.0074542165 0.0044062594
0.020063773 0.008517627 0.002794 0.021058414 0.013602936 -0.008656954 0.0007117238 0.005823068
0.010032675 0.0067306347 -0.007143725 0.007966446 -0.011478946 -0.0027275016 -0.004435849 0.009754056
0.008130518 0.00862287 0.024404317 0.033173755 0.00020752448 0.0059951493 0.019231483 0.008999196
0.0072260825 -0.012316935 -0.014857609 -0.0019741864 0.021577315 -0.0010709682 0.0083818175 -0.0032117534
0.015411576 0.0068498407 0.0112920515 -0.0004173164 0.006047781 -0.0013210248 0.0007322292 0.004626165
00000000: edad babb b352 e03b 87aa 4abb a7ca 833b
00000010: 00de ac3b d415 8f3a 96bb 803b 58ce ee3c
00000020: 155f e93a bb06 863b eb14 bf3c 4269 acbc
00000030: d000 473c 077e 093c a867 1ebc e8ac 2b3b
00000040: ab1b edbb a253 d03b dd47 f8ba 394b 55bc
00000050: 03d2 94bb 8560 a83c 61ed a73c 49ff 173b
00000060: 9022 983b fd02 f4ba 2b9f b43c 45a7 8f3c
00000070: fda3 aa3c 2192 97bb ae53 17ba 1e97 c33c
00000080: 8456 a03b c00b 303d f492 30bb aab8 b33a
00000090: 5aee 9337 d30f 8e3c e25d 0d3c 9b8b 4d3c
000000a0: 315f 363c a215 383b cce8 5dbb f66a 903b
000000b0: 5995 d53c 6ad3 1d3d 7313 1fbb 716e 893c
000000c0: f3e1 b83c 915e 433c ec3e fbba f1dc 20ba
000000d0: ba73 9cbb d0e0 7bbc 6d39 893c 206c 683c
000000e0: abea c83b f474 9a3b 7c27 86ba 53d1 3a3c
000000f0: 91c4 bcbc c2b6 913c 75c9 d73c 5551 9b3b
00000100: 62a1 d63c bd70 a2bb 5190 3abc edda 823b
00000110: d4f1 2cbb b290 82bb af5e 923c 46dc 873c
00000120: 403c 1d3d 853e 4f3c 442a 493c 5b07 693a
00000130: 509c 903b e198 ac3c 5cd6 83bb 95fb 573b
00000140: 1a93 dabb 6b93 9ebb cf64 7e3c 0136 2f3c
00000150: 5792 e33b ce08 c53a 4a1f 58bb da35 1dbb
00000160: 8b6a 3dbb dfbf c7bc 0cc9 21bc be71 d63c
00000170: 4261 acbb a174 603c 7357 1abb dc81 ebbb
00000180: e723 0e3c a5c9 2e3c 5a8a 283c 8deb af3c
00000190: 5521 ed3c 5bb7 163c 5cc9 193c e749 833c
000001a0: ccce ef3c 76e4 033c 83f4 a3bc cf73 0f3c
000001b0: b3ca ae3c 71a2 d4bb 3ba1 a73c 9735 8e3c
000001c0: 30ee 2fbb 3925 9c3c 704e f23b 7a3e 3fbb
000001d0: f1cb 8e3c 8bb0 17bc 1886 bb3b 5ab2 953a
000001e0: e641 55bb 5397 35bc f7aa d13b 455d ef3c
000001f0: ba57 0a3d 1c9c 573c 8820 b23c afbd afbb
00000200: ecf2 adbc 687c b5bb 37bd 1a3c 5fb1 da3c
00000210: bce3 94ba bb32 053c c26c 793b 805d d03c
00000220: 30e6 ad3b 88b9 dc3b 5d4f 183d 3dad 013b
00000230: ee36 a5bb c0ab 343c a834 c1bc 4335 093c
00000240: 5f47 22b8 ef30 a83c 8147 213c d773 373c
00000250: 6c50 2a3c 3101 a9bc c6d0 b03b 4d68 56bb
00000260: 2119 063c 24c8 533c 2637 313c 30a9 11bd
00000270: ab71 e13a a22c cdbb bd69 873c 0800 0d3c
00000280: 026a 843c 9d90 5e3c 5aa0 1e39 332c 853c
00000290: 1564 003d 1543 713c 9486 e03b ed2a 61bb
000002a0: d6cc ab3c 535e 78bc 94d4 2b3b c013 103c
000002b0: 894d fc3c ed0e 95ba 1536 223c d8d4 163c
000002c0: 2ddd 0c3c 948c 603b adcd b23c 50c7 39bb
000002d0: 7714 543b 7d96 433c 7b33 ba3c edd2 e23c
000002e0: 6497 09bc d0c8 413a 02b4 073d 9f41 e13c
000002f0: a4af 413c 5644 503b 2fb5 9f3a d0f5 923b
00000300: d84a e4bc 35ab 9b3c 2fb2 8b3b 1b78 d0bb
00000310: d91d 893c 412d ce3b 6cdb 263d 2408 023c
00000320: 538c 38bb a8dc d2bb 3986 d03c 2185 82bc
00000330: bc14 df3b 395c 3c3d e007 13b9 0bbe c7bb
00000340: ee24 523c cd79 1a3c 6d6b e03c 2fa6 503c
00000350: 25d9 983c 5252 20ba 8042 f43b 6262 903b
00000360: c85c a43c 848d 0b3c 8b1b 373b b282 ac3c
00000370: d9de 5e3c e6d5 0dbc fa92 3a3a 6fcf be3b
00000380: 1760 243c a88c dc3b e915 eabb b285 023c
00000390: 3012 3cbc e2bf 32bb 995a 91bb 7acf 1f3c
000003a0: dd35 053c f046 0d3c 90eb c73c 34e1 073d
000003b0: ee9a 5939 f572 c43b 588b 9d3c 5d71 133c
000003c0: c6c8 ec3b f8cc 49bc 546d 73bc 5a61 01bb
000003d0: e9c2 b03c bb5f 8cba e453 093c 487c 52bb
000003e0: d680 7c3c a174 e03b 4c02 393c 42cb dab9
000003f0: 772c c63b 3d26 adba 12f3 3f3a 1697 973b

network_body._body_endoder.seq_layers.2.weight f4 [256, 256]
0.012733925 -0.010401693 -0.00080322166 0.091281 -0.020113243 0.027021958 -0.03100843 -0.05341054
-0.123505786 -0.07489421 0.058198143 -0.022494378 0.11969564 0.089899465 0.11495357 0.07904903
0.06036208 0.1811874 0.0652653 0.039462317 0.09515087 -0.011860842 0.06159776 0.083128475
0.054074474 0.027961606 -0.022349391 -0.036347225 -0.04717165 -0.030583382 -0.014815711 -0.089268506
-0.06988538 -0.17258368 0.06866082 0.020875214 0.08358657 -0.03100203 0.010429825 -0.061948545
0.07693417 0.014704467 -0.06602081 0.08522578 0.13402498 -0.070415534 -0.053567734 -0.028833104
-0.0048795394 0.05013594 -0.049358822 -0.05885381 -0.075148396 0.11265296 -0.06304866 -0.079561725
0.014829626 0.1229634 0.061484974 -0.010735998 0.053160433 -0.099591255 0.085806586 0.05266168
0.005503358 0.0905485 0.022612302 0.016052123 0.070963815 0.0005598943 0.014139569 0.030390427
0.038976137 -0.039335098 0.0107604 0.05830251 -0.026472105 -0.03992428 0.029645404 0.027293896
0.11449679 -0.061131645 -0.04151696 -0.11753572 -0.039144985 -0.059397217 0.040523108 0.021829342
0.13272999 -0.079150036 -0.046281997 0.10393933 0.1141398 -0.1346497 -0.01757933 0.0461008
-0.024931727 0.060176775 -0.03086695 -0.06435756 0.020330219 0.007302246 0.012510299 -0.027408607
-0.012487134 0.0039303075 0.09324095 -0.1031242 0.06930047 0.0073986235 -0.05863309 0.009333685
0.06459521 0.034910873 -0.035589058 0.01008155 0.006982083 0.0026639681 0.07370734 -0.016139027
0.0029687067 0.07123153 -0.08528622 0.058789894 -0.08706097 0.060607024 -0.013114184 0.04652113
0.06693615 -0.083224006 -0.0020051063 -0.009984755 0.10905946 0.06385295 0.09234707 -0.03367176
-0.09298433 -0.056526363 -0.006357024 -0.107498705 0.066571735 -0.010382093 -0.06459089 0.010932888
-0.076654196 -0.0026562482 0.018621853 0.0316208 0.09970828 0.030016258 0.032719616 0.06638104
-0.0025456657 0.015568326 0.094248846 0.12604575 -0.11555148 -0.002380442 -0.042827707 0.04769467
-0.1493553 -0.15749928 -0.032502886 -0.07791541 -0.028623594 -0.007933917 0.045038182 -0.0036313306
0.041000962 -0.19875142 -0.02104609 0.06277993 0.01105097 0.011051162 -0.09329691 0.08027874
0.0635677 0.021226482 0.09074752 0.025436591 0.004633814 -0.059809584 -0.05786967 -0.118868664
0.10542215 -0.0978795 -0.07892088 -0.07277334 0.098353565 -0.07452379 0.031851903 0.044586815
0.038507022 -0.03938587 -0.0096370345 0.050624788 -0.074089274 -0.036772706 -0.0706498 0.055936363
-0.03116444 0.023814188 -0.16254835 -0.0053464007 0.11050166 -0.009961084 0.037266023 -0.021482885
-0.033111837 0.006424121 -0.106609255 -0.041313976 -0.09202423 0.03729962 -0.05117843 -0.052031465
0.0559476 -0.13130338 0.017185787 0.026944902 -0.009705897 0.044345763 -0.008270103 0.010244238
-0.06905376 0.15370841 0.023766382 -0.05808649 0.045803353 0.032504108 0.0051834127 0.036781166
0.03425106 -0.027966363 0.0059786243 -0.113304995 -0.06173392 -0.002658364 0.03539475 0.024084035
0.09604808 -0.08127822 0.1185034 0.06299461 -0.06940674 -0.07009276 -0.001096369 0.02809367
-0.051914435 -0.04658554 0.054506224 -0.018930323 0.014879113 0.011463372 0.042327467 -0.07037834
00000000: f4a1 503c dd6b 2abc 4b8f 52ba 88f1 ba3d
00000010: 87c4 a4bc 275d dd3c 6405 febc 03c5 5abd
00000020: 9af0 fcbd 2362 99bd 2d61 6e3d 2146 b8bc
00000030: fd22 f53d 361d b83d c76c eb3d 75e4 a13d
00000040: 3a3e 773d 3189 393e d0a9 853d 3da3 213d
00000050: 76de c23d fa53 42bc ef4d 7c3d 433f aa3d
00000060: 327d 5d3d bd0f e53c 1216 b7bc d4e0 14bd
00000070: 0f37 41bd 008a fabc 99bd 72bc 68d2 b6bd
00000080: 1120 8fbd c7b9 30be 0b9e 8c3d 7f02 ab3c
00000090: 702f ab3d f8f7 fdbc dbe1 2a3c c2bd 7dbd
000000a0: aa8f 9d3d 01eb 703c eb35 87bd db8a ae3d
000000b0: d83d 093e 0536 90bd d769 5bbd 6733 ecbc
000000c0: 8be4 9fbb 585b 4d3d 7a2c 4abd b110 71bd
000000d0: 67e7 99bd 98b6 e63d a81f 81bd 42f1 a2bd
000000e0: f6f7 723c 3cd4 fb3d abd7 7b3d 0ae6 2fbc
000000f0: c1be 593d 80f6 cbbd 5dbb af3d c6b3 573d
00000100: 8355 b43b 7e71 b93d 6f3d b93c be7f 833c
00000110: 7a55 913d dfc5 123a a7a9 673c 58f5 f83c
00000120: 71a5 1f3d d71d 21bd 644c 303c 9dce 6e3d
00000130: 07dc d8bc a487 23bd ebda f23c 7397 df3c
00000140: 4b7d ea3d 2d65 7abd b00d 2abd 91b6 f0bd
00000150: 7e56 20bd 7f4a 73bd 8ffb 253d 73d3 b23c
00000160: 5fea 073e 6a19 a2bd 3192 3dbd 25de d43d
00000170: 21c2 e93d 9ce1 09be 8702 90bc 31d4 3c3d
00000180: 9f3d ccbc ec7b 763d b0dc fcbc e5cd 83bd
00000190: 8f8b a63c ae47 ef3b fff7 4c3c 0488 e0bc
000001a0: d696 4cbc cfc9 803b 1cf5 be3d c832 d3bd
000001b0: 68ed 8d3d 2770 f23b 4029 70bd 50ec 183c
000001c0: 7e4a 843d b4fe 0e3d d5c5 11bd 162d 253c
000001d0: f5c9 e43b f895 2e3b e0f3 963d fe35 84bc
000001e0: a28e 423b d6e1 913d 8baa aebd accd 703d
000001f0: 064d b2bd 123f 783d e0dc 56bc f18c 3e3d
00000200: d215 893d 5971 aabd 1a68 03bb 1997 23bc
00000210: 915a df3d 56c5 823d 7620 bd3d 66eb 09bd
00000220: 926e bebd 3088 67bd 954e d0bb 4828 dcbd
00000230: c356 883d a719 2abc 3b48 84bd db1f 333c
00000240: e0fc 9cbd 7314 2ebb db8c 983c d084 013d
00000250: db33 cc3d a8e4 f53c 0105 063d c8f2 873d
00000260: 2fd5 26bb 4b12 7f3c 8a05 c13d 2312 013e
00000270: 41a6 ecbd 3101 1cbb 1b6c 2fbd 7c5b 433d
00000280: 99f0 18be 7e47 21be bf21 05bd 1d92 9fbd
00000290: 077c eabc 43fd 01bc f579 383d 9efb 6dbb
000002a0: a0f0 273d 7e85 4bbe da68 acbc c492 803d
000002b0: 210f 353c ef0f 353c 7312 bfbd 2e69 a43d
000002c0: c82f 823d 29e3 ad3c d6d9 b93d 6660 d03c
000002d0: 40d7 973b e5fa 74bd bf08 6dbd 6a71 f3bd
000002e0: 91e7 d73d 0c75 c8bd 45a1 a1bd 300a 95bd
000002f0: 986d c93d ee9f 98bd 2477 023d aaa0 363d
00000300: 8ab9 1d3d 1453 21bd a7e4 1dbc f05b 4f3d
00000310: 1ebc 97bd fa9e 16bd d8b0 90bd 871d 653d
00000320: 914c ffbc f915 c33c 1373 26be dc30 afbb
00000330: b24e e23d d133 23bc 42a4 183d e0fc afbc
00000340: 47a0 07bd 6f81 d23b f455 dabd d838 29bd
00000350: 3377 bcbd 7dc7 183d 79a0 51bd f21e 55bd
00000360: 5029 653d 6574 06be 35c9 8c3c 8ebb dc3c
00000370: 7c05 1fbc e7a3 353d 537f 07bc 73d7 273c
00000380: 0f6c 8dbd bd65 1d3e b7b1 c23c 19ec 6dbd
00000390: 4c9c 3b3d 0723 053d 9ed9 a93b d9a7 163d
000003a0: d74a 0c3d b719 e5bc 56e8 c33b 730c e8bd
000003b0: b5dc 7cbd f237 2ebb 16fa 103d e24b c53c
000003c0: dbb4 c43d 3275 a6bd e9b1 f23d 5103 813d
000003d0: 1f25 8ebd cb8c 8fbd 0ab4 8fba b224 e63c
000003e0: 3ba4 54bd 7bd0 3ebd eb41 5f3d c413 9bbc
000003f0: 86c7 733c ded0 3b3c 915f 2d3d 8522 90bd

network_body._body_endoder.seq_layers.2.bias f4 [256]
-0.020238327 -0.010923626 -0.009006304 0.019928126 0.004562843 0.004980831 0.008334135 0.004270054
-0.002676966 0.0059644724 1.8372451e-05 0.01961558 -0.008593965 -0.012180743 0.004850644 -0.009402254
0.005016989 0.015624126 0.020729307 -0.0108335065 0.009301519 -0.01975999 0.013372123 0.005974739
0.0027496228 0.013251892 0.0005164626 0.010270294 9.5960844e-05 -0.004264749 0.0051596602 0.015958209
0.009320049 0.016135646 0.022625256 0.0054549947 -0.004248439 0.008539673 0.011158489 0.006445348
-0.011107793 -0.0068924106 -0.00442902 0.0026206498 0.01744714 0.002631757 -0.018969107 0.0061092773
-0.0024224154 0.0072927386 0.0033077586 -0.0042443466 0.019256016 -0.012133774 0.008327158 0.023518013
-0.0077580614 0.01442881 -0.0073036733 0.0070550563 0.01607549 -0.0077150953 0.011655126 -0.0020258669
0.011952404 -0.007131007 0.008652936 0.0036994973 -0.003131253 0.0086683035 0.00070450717 -0.0003807261
0.01809666 -0.0038169466 0.022973008 0.025013572 0.017889408 -0.006829617 0.01138408 0.010495599
0.021319197 -0.009063966 0.0018351558 0.02726009 -0.0073917476 0.007685572 0.0020480715 0.0026354073
-0.001885393 0.01052489 0.0026580465 0.0116092535 0.013199781 -0.009653577 0.012144477 0.015271449
0.0025847452 0.0030280652 0.008524267 -0.0021271883 0.01428089 0.004226558 0.021131689 -0.0030305479
0.009961608 0.0015536613 0.011507325 -0.0074620014 0.012154459 -0.010643229 0.013382026 0.01570376
0.0045927595 -0.0011878125 0.0010102461 0.0033159708 -0.008586488 0.013688318 0.009150559 0.007855758
0.005966351 0.013180578 -0.00017489471 -0.0014377064 0.0026113263 -0.013174073 0.012768464 0.000162845
0.009854367 0.007378942 0.0075509325 0.0067647975 0.010741269 -0.004731089 -0.0032028109 -0.000460418
-0.0020757988 0.0052355235 0.0038665505 0.024782985 0.011091823 -0.009675023 0.012218878 -0.008229386
0.010160432 0.0010248814 0.0070526814 0.0089316545 0.0121807 0.01068705 -0.0014099735 0.009988238
0.0030020215 0.02996413 0.0025660815 0.002747317 0.0119352965 0.012199748 0.0048742816 -0.007572981
0.00477333 -0.010437247 0.016933873 -0.0018629816 0.0064723347 0.0022940338 -0.0012713544 -4.4372464e-05
0.021741701 0.015719023 0.01048158 0.008002937 -0.0101890955 0.0054320246 0.0025588097 0.0036626973
0.0054601855 0.00707699 -0.003361219 0.003566761 0.0055725025 -0.0020865332 0.01144855 0.018251894
0.007437858 -0.0045255213 0.0013737918 0.002658195 0.017279616 -0.0017821918 0.00700109 -0.004321219
0.0031353778 -0.0012146116 0.017134806 0.0006292158 0.0062794797 0.00963836 0.0029753393 -0.0019111667
0.010454103 0.0009751294 0.007459152 0.004258915 0.0046876487 -0.010968932 -0.013743514 0.00021911244
-0.012127059 0.01840601 0.0030771308 -0.00042201596 -3.4147008e-05 0.0076169996 -0.0035571412 -0.0013377693
-0.0026532856 -0.001125571 0.006022202 -0.0067374883 -0.00037343567 -0.0008130832 0.022768764 0.0009936708
0.0035423213 0.0053630685 0.012568996 0.0030505594 0.0064020343 0.011799069 0.024488285 0.0002859603
0.027293809 0.0054379147 0.024707643 0.0029197873 0.010730727 0.016369222 0.0034126171 0.0019784975
-0.0013634214 -0.011710125 0.008774433 -0.0060696444 0.014902267 0.011663204 0.0036270635 0.022286437
-0.0053670984 0.0011564136 -0.016125057 -0.004961194 0.0048996713 -0.005152912 0.014560544 -0.0032717
00000000: d9ca a5bc 02f9 32bc 2d8f 13bc 4f40 a33c
00000010: e783 953b 3d36 a33b e58b 083c cfeb 8b3b
00000020: 0970 2fbb 9f71 c33b 8a1e 9a37 dab0 a03c
00000030: b4cd 0cbc bd91 47bc 27f2 9e3b e90b 1abc
00000040: 8e65 a43b 56fc 7f3c 82d0 a93c 057f 31bc
00000050: 6665 183c b4df a1bc c016 5b3c bec7 c33b
00000060: 0433 343b 771e 593c 3863 073a bc44 283c
00000070: 963e c938 4fbf 8bbb 5e12 a93b caba 823c
00000080: 1eb3 183c e72e 843c 9a58 b93c d0bf b23b
00000090: 7d36 8bbb fce9 0b3c 18d2 363c 7f33 d33b
000000a0: 76fd 35bc bbd9 e1bb 5021 91bb 35bf 2b3b
000000b0: 4eed 8e3c 8e79 2c3b 1a65 9bbc 5530 c83b
000000c0: 63c1 1ebb edf7 ee3b fbc6 583b 2914 8bbb
000000d0: cbbe 9d3c bdcc 46bc a26e 083c d9a8 c03c
000000e0: 5637 febb d166 6c3c a753 efbb 1a2e e73b
000000f0: bfb0 833c e9ce fcbb 24f5 3e3c 68c4 04bb
00000100: 04d4 433c 39ab e9bb 0bc5 0d3c 4473 723b
00000110: b535 4dbb 8005 0e3c adae 383a 319c c7b9
00000120: 723f 943c bd25 7abb e431 bc3c 43e9 cc3c
00000130: cf8c 923c fbca dfbb 4b84 3a3c bcf5 2b3c
00000140: 99a5 ae3c 0781 14bc 9c89 f03a 8d50 df3c
00000150: 7936 f2bb 40d7 fb3b f038 063b ccb6 2c3b
00000160: 4b1f f7ba 9770 2c3c 9f32 2e3b bd34 3e3c
00000170: e543 583c 092a 1ebc a1f9 463c 1a35 7a3c
00000180: d464 293b 8172 463b 5ea9 0b3c 4c68 0bbb
00000190: 65fa 693c f07e 8a3b 5d1c ad3c 289c 46bb
000001a0: 0336 233c 39a4 cb3a 3889 3c3c ce83 f4bb
000001b0: 7f23 473c f060 2ebc 4940 5b3c 2ca5 803c
000001c0: dc7e 963b 60b0 9bba 3c6a 843a c250 593b
000001d0: 57ae 0cbc f844 603c 3aec 153c 70b5 003c
000001e0: 6181 c33b 5af3 573c f163 37b9 6c71 bcba
000001f0: c922 2b3b 11d8 57bc d232 513c 5fc1 2a39
00000200: 3674 213c 0dcb f13b d06d f73b 3cab dd3b
00000210: 26fc 2f3c 4007 9bbb 40e6 51bb 4264 f1b9
00000220: 200a 08bb c18e ab3b f465 7d3b b005 cb3c
00000230: 7aba 353c fd83 1ebc b031 483c 8cd4 06bc
00000240: f177 263c 5055 863a 2e1a e73b 1356 123c
00000250: 8f91 473c bd18 2f3c dcce b8ba b5a5 233c
00000260: 90bd 443b 5677 f53c b42b 283b 550c 343b
00000270: 438c 433c 74e1 473c 70b8 9f3b c526 f8bb
00000280: 9869 9c3b fd00 2bbc e8b8 8a3c 4a2f f4ba
00000290: e115 d43b 8057 163b 93a3 a6ba 921c 3ab8
000002a0: a71b b23c 2ec5 803c efba 2b3c c01e 033c
000002b0: 2af0 26bc 20ff b13b b4b1 273b dd09 703b
000002c0: 5beb b23b 18e6 e73b e647 5cbb 52c0 693b
000002d0: 8a99 b63b 38be 08bb b392 3b3c ff84 953c
000002e0: 46b9 f33b d34a 94bb ce10 b43a 1d35 2e3b
000002f0: fb8d 8d3c 6f98 e9ba 6669 e53b 0399 8dbb
00000300: e97a 4d3b 9a33 9fba 4b5e 8c3c f5f1 243a
00000310: 18c4 cd3b 36ea 1d3c e9fd 423b 1d80 faba
00000320: b047 2b3c d49f 7f3a e76b f43b 5e8e 8b3b
00000330: d99a 993b 09b7 33bc 7a2c 61bc 8cc1 6539
00000340: 92b0 46bc 33c8 963c b0a9 493b 0642 ddb9
00000350: 1239 0fb8 0698 f93b ed1e 69bb 1758 afba
00000360: bfe2 2dbb e587 93ba e455 c53b 26c6 dcbb
00000370: b0c9 c3b9 1725 55ba 8f85 ba3c 0f3e 823a
00000380: 4a26 683b aebc af3b 31ee 4d3c e5eb 473b
00000390: 28c8 d13b e250 413c a89b c83c f1ec 9539
000003a0: 4497 df3c 8930 b23b af67 ca3c e759 3f3b
000003b0: eecf 2f3c bf18 863c 37a6 5f3b aea9 013b
000003c0: d5b4 b2ba d3db 3fbc a4c2 0f3c dee3 c6bb
000003d0: a328 743c 0617 3f3c 07b4 6d3b 0c92 b63c
000003e0: 7cde afbb cd92 973a b218 84bc 8391 a2bb
000003f0: 6c8d a03b c2d9 a8bb 598f 6e3c 056a 56bb

action_model._discrete_distribution.branches.0.weight f4 [7, 256]
0.00050632266 0.01336566 -0.022601685 0.029368972 0.01910508 -0.021422738 -0.015551026 0.027104283
0.017510472 -0.030878041 -0.0009131964 -0.028964512 -0.0328258 -0.023598148 0.021651525 -0.014776891
0.022917017 -0.006714152 0.007900034 0.0001293657 -0.00051767385 -0.005351558 -0.009951996 0.019945957
-0.031532016 0.004991275 0.013946859 -0.017233377 -0.020772446 0.025425373 0.020925514 -0.011951729
-0.030718092 0.011835106 0.021628382 0.024380026 -0.021601573 -0.010630121 -0.012533153 -0.025660846
0.008908492 0.006282095 0.010931966 -0.015972028 0.02193727 0.02502749 0.005488369 -0.026092174
-0.0072650826 0.021963194 0.016735382 -0.017829048 -0.0065953825 0.008693111 0.030415157 0.014094244
0.01922315 -0.023247337 0.021330671 0.013341457 -0.016196925 -0.012375942 0.013443023 -0.012248088
-0.03337115 0.004740743 -0.0007464778 -0.023762625 -0.015186406 -0.030256039 -0.02064836 -0.025653888
0.0039790636 0.011522484 0.035166997 0.0040539852 0.016076772 0.010409319 0.006051423 0.009624163
0.016604051 -0.0319509 0.017343968 0.016288739 0.008503018 -0.00859064 -0.001759942 0.015883926
0.007823481 0.023332559 -0.003626294 0.03665849 0.012982518 -0.0056043146 -0.019337958 0.010328607
0.027743373 0.01995534 0.023255795 0.0072723343 0.01385877 0.029715767 -0.026823936 0.002944451
0.01552079 -0.0009852329 0.012453401 0.011529617 0.0053527206 0.012138645 -0.014438295 0.005050965
0.02950489 0.013093601 -0.010894819 0.007229495 -0.03645023 -0.010017066 -0.009430984 -0.018385936
0.00066686847 -0.011205051 0.011707201 -0.025949419 0.0152949495 0.013300592 -0.031611845 0.013106014
-0.02482135 0.0267507 0.025036108 -0.014676381 0.024261577 0.0049067023 -0.012066593 0.02832028
-0.017416265 0.007918004 -0.0063564945 -0.031159503 0.019308483 0.0009312771 0.0030266885 -0.016482038
-0.020222122 0.011271847 0.0032518406 0.027551483 0.016487751 0.027288368 0.017454593 0.0013912299
0.016779158 -0.0046754954 0.020679448 -0.019331442 0.0004699302 -0.021577109 -0.016346145 -0.014440639
0.03018407 0.00734348 -0.028758911 -0.010660535 0.018246751 -0.020787403 -0.019620877 0.019872978
0.012117487 0.023303183 -0.025400614 0.02825112 -0.013286681 0.010027981 -0.007294525 -0.0034806267
0.0136661315 -0.008893265 -0.01077532 -0.025129717 -0.03049604 0.016330885 0.03169437 0.032398276
-0.005328305 -0.023552861 0.024664257 -0.033325147 0.0049268804 0.014581146 -0.028452378 -0.00039094727
-0.012625153 -0.0065979143 -0.0023588676 0.0011582602 0.023328217 0.019091021 0.014774419 -0.0258938
0.019913921 -0.033997197 0.0022585203 0.014794691 -0.015797308 -0.0061031836 0.0072447048 0.003535015
0.00517433 -0.006222934 -0.011590112 0.023713699 0.0135602 0.021500066 -0.02368545 0.02224456
-0.033778887 0.016382227 0.012997667 0.0073010325 -0.011400246 -0.0062731667 0.002899762 0.019929163
-0.017248044 -0.018266259 -0.02378485 -0.003455911 0.0063282307 -0.017532814 0.007890048 -0.0037456017
-0.030482866 0.023331795 0.015880737 0.016880607 -0.027455132 0.00895022 -0.032970324 -0.027857482
-0.0024777541 0.0044897147 0.021306586 0.026366882 0.029801555 0.026923725 -0.012261873 0.011259814
-0.018215785 -0.0026169932 0.0059375213 0.012205234 0.025447195 -0.021182938 0.026142087 0.006676208
00000000: bdba 043a a4fb 5a3c 2b27 b9bc 3397 f03c
00000010: 4282 9c3c bd7e afbc bbc9 7ebc cd09 de3c
00000020: 1f72 8f3c f2f3 fcbc 9363 6fba fc46 edbc
00000030: 5974 06bd e750 c1bc 8a5e b13c c61a 72bc
00000040: 78bc bb3c 6402 dcbb 256f 013c 57a6 0739
00000050: 81b4 07ba 1f5c afbb b20d 23bc b465 a33c
00000060: b727 01bd d98d a33b 5e81 643c 032d 8dbc
00000070: fa2a aabc df48 d03c fc6b ab3c 2fd1 43bc
00000080: 82a4 fbbc 08e8 413c 012e b13c 9fb8 c73c
00000090: c8f5 b0bc f629 2ebc db57 4dbc b236 d2bc
000000a0: ecf4 113c 08da cd3b fd1b 333c c5d7 82bc
000000b0: cab5 b33c 7306 cd3c c7d7 b33b 41bf d5bc
000000c0: ee0f eebb 28ec b33c a418 893c 390e 92bc
000000d0: 141e d8bb 8d6d 0e3c 3529 f93c 8beb 663c
000000e0: de79 9d3c 3371 bebc a9bd ae3c 2096 5a3c
000000f0: 6aaf 84bc 77c4 4abc 2040 5c3c 34ac 48bc
00000100: 30b0 08bd 3c58 9b3b 47af 43ba d6a9 c2bc
00000110: 67d0 78bc 83db f7bc c026 a9bc 1a28 d2bc
00000120: ce62 823b cdc8 3c3c 450b 103d 4bd7 843b
00000130: 6fb3 833c d98b 2a3c 044b c63b aaae 1d3c
00000140: 3805 883c f2de 02bd f014 8e3c f66f 853c
00000150: 3e50 0b3c c1bf 0cbc dbad e6ba 021f 823c
00000160: 0f2e 003c ec23 bf3c 1ea7 6dbb 3627 163d
00000170: a1b4 543c 66a4 b7bb a36a 9ebc 5139 293c
00000180: 1246 e33c 6279 a33c f082 be3c c34c ee3b
00000190: e50f 633c 7b6e f33c dfbd dbbc b1f7 403b
000001a0: e94a 7e3c ee22 81ba 5a09 4c3c b8e6 3c3c
000001b0: e065 af3b 2be1 463c 998e 6cbc 9182 a53b
000001c0: 3db4 f13c 8b86 563c 2f80 32bc 66e5 ec3b
000001d0: d64c 15bd 9f1e 24bc 6a84 1abc 1a9e 96bc
000001e0: c9d0 2e3a 6495 37bc 8fcf 3f3c e093 d4bc
000001f0: ab97 7a3c baea 593c 6c7b 01bd 9bba 563c
00000200: 2556 cbbc 4924 db3c 8618 cd3c 3475 70bc
00000210: 37c0 c63c 67c8 a03b f6b2 45bc efff e73c
00000220: 8eac 8ebc 84ba 013c 244a d0bb 3742 ffbc
00000230: d32c 9e3c f320 743a 685b 463b 5705 87bc
00000240: dda8 a5bc 8ead 383c d51c 553b a6b3 e13c
00000250: 5211 873c db8b df3c effc 8e3c ee59 b63a
00000260: 7274 893c e634 99bb f267 a93c f95c 9ebc
00000270: f760 f639 7ac2 b0bc 5ae8 85bc 6e98 6cbc
00000280: 9544 f73c 93a1 f03b cf97 ebbc 86a9 2ebc
00000290: 367a 953c 584a aabc f6bb a0bc a8cc a23c
000002a0: 6d88 463c 51e6 be3c f314 d0bc e56e e73c
000002b0: 61b0 59bc 674c 243c e906 efbb 3a1b 64bb
000002c0: e9e7 5f3c 0fb5 11bc f88a 30bc d6dc cdbc
000002d0: d5d2 f9bc 59c8 853c f5d1 013d 0eb4 043d
000002e0: 1099 aebb eef1 c0bc b20c ca3c f37f 08bd
000002f0: ab71 a13b c2e5 6e3c f614 e9bc 0ef8 ccb9
00000300: bbd9 4ebc 5133 d8bb 3b97 1abb c3d0 973a
00000310: d11a bf3c c664 9c3c 6810 723c 3c1f d4bc
00000320: 8522 a33c a540 0bbd af03 143b 6e65 723c
00000330: 5b69 81bc 37fd c7bb fd64 ed3b b6ab 673b
00000340: 6d8d a93b c1e9 cbbb 74e4 3dbc 3b43 c23c
00000350: 9a2b 5e3c e820 b03c fd07 c2bc 393a b63c
00000360: bb5b 0abd 0534 863c 2bf4 543c 803d ef3b
00000370: 19c8 3abc 238f cdbb ef09 3e3b 7c42 a33c
00000380: c54b 8dbc 1fa3 95bc 72d8 c2bc 917c 62bb
00000390: 0c5d cf3b faa0 8fbc 4345 013c c578 75bb
000003a0: 34b7 f9bc 5222 bf3c 5218 823c 3349 8a3c
000003b0: 96e9 e0bc f2a3 123c e40b 07bd 6035 e4bc
000003c0: d161 22bb 751e 933b 268b ae3c 5cff d73c
000003d0: 6422 f43c 258f dc3c 06e6 48bc 157b 383c
000003e0: 4539 95bc dc81 2bbb 8a8f c23b 76f8 473c
000003f0: a376 d03c d787 adbc ee27 d63c 18c4 da3b

action_model._discrete_distribution.branches.0.bias f4 [7]
0.010272958 0.0136049185 0.003664643 -0.012685633 -0.0127903605 0.0026276843 0.00075365626
00000000: e94f 283c 2ae7 5e3c 822a 703b 67d7 4fbc
00000010: a98e 51bc 3a35 2c3b 0491 453a
