results/puzzle_expirement_1/PuzzleBehavior/PuzzleBehavior-13999936.onnx (onnx, 341899 bytes, 6 tensors)

network_body._body_endoder.seq_layers.0.weight f4 [256, 64]
00000000: 1983 52be 556d 313e 546a 99bd 5b9e bd3d
00000010: 2253 11be e090 6d3e 00aa 4a3e ce4f 21be
00000020: c352 983c 6756 88be 6334 133d 919c 2b3d
00000030: 6bbf b63e ac2a 8b3d 83a7 fc3d 5d9f 453e
00000040: 8408 2a3e a893 733d b118 97bc 907a 13be
00000050: 13ad 203e 7056 1fbd 04d6 8c3d 5bc9 2c3d
00000060: b4bc 4fbd e003 f2bd bd8e b7bd fc98 473e
00000070: 154b f33d eadb 823e 3167 f2bd 9531 3d3d
00000080: aaad cdbd 3d01 27be 3511 cfbc 503e f13d
00000090: 9231 6f3d 0191 e43d b916 5e3e 466f 6a3d
000000a0: a5a9 103e fcc6 533a 748b 763d 1531 10bd
000000b0: 2a06 45be 8f03 14bd ff30 1b3e 9b44 6dbc
000000c0: 3a59 8fbd 77bb b03d 99da 8b3d de58 6a3d
000000d0: a670 b0bd 2e81 17be 8e7f 8ebe 0820 aa3d
000000e0: cb47 973d 975f d3bd 955e 8ebd 8156 1bbe
000000f0: 4be6 a63b 41ef f13d ee07 9b3c eef8 86be
00000100: 96c7 a3be 6ff1 a2be 8c7f 40be a262 b73c
00000110: d322 b53c ee45 fbba d1f8 01be 0dcc ecbc
00000120: 330f 54bd bd1a 633d 5956 06bc 27af 5c3d
00000130: e4b2 023e b73a 293d cf82 b43d 1b6b 51bc
00000140: 8b9f 5f3d 3202 d03d a136 793d ba29 cc3d
00000150: 3e8d 87be c32b 6abc 1dcc 27bd 779b 90b9
00000160: cb7c 30be 9a58 ec3c b359 233e ae9d 85be
00000170: a67f e9bd 597e c23d 303f 953d 6a90 62bd
00000180: 1abb da3d cab5 0d3e 4e50 f63d a692 ef3d
00000190: 5d3f 8e3e f8ec d03d 1283 a73b 732b 133d
000001a0: b904 e53d 46a6 d0ba adb8 87be 3ca8 09be
000001b0: e679 cebd 6128 80be db58 013e 0a81 363e
000001c0: a15b d63d 209d 26bd 6268 11bd 63cb 2abe
000001d0: 35b7 84be 3442 e63d 5c8d 113c 3bc9 793d
000001e0: 8adc 1abe 9f93 e03d 4ac9 283e b900 1fbe
000001f0: 2b32 643d 7ae9 0bbe 33d8 32bc daa1 f5be
00000200: 10e3 013e 0ec7 b2bd 0f1c a3bd 7577 babd
00000210: 9d00 bcbd 0dcf 5ebe 931a 953e ade3 59be
00000220: 9e26 073e 494b 4abd ac71 df3d a708 dbbd
00000230: 5061 6ebe 47bb bc3d d8d3 51be 5595 35bc
00000240: 01da ddbd 90f8 17be 1c00 e5bc ebce 663d
00000250: ee16 0cbe 5f5c 09be d133 4abe 10c9 3bbe
00000260: 6a96 dc3d 7f3f b43d 7e79 c03d fbd2 103e
00000270: 076b 2b3d f388 3a3e 818c 69be 2995 833e
00000280: 209e 90be c1ec b0bc ce4e 5dbd b7b8 5a3e
00000290: 518d e0bd 7d79 6d3d ec09 843d 2234 4ebe
000002a0: b53b 9dbc 04ae f1bd 477d 03be ad0b d43d
000002b0: ad6d 58bd 89e5 b3bc 7079 183d 5b02 8bbc
000002c0: 3964 c6bc 19cb bdbd 9350 dc3d 8195 74bc
000002d0: 32fb 963e ef6d 59be f0ad a53d 6618 4e3e
000002e0: daa5 21be 457d 84be b588 adbd 94fe 84bd
000002f0: c589 11be f0f2 ebbd dd6b 4bbe 3463 903e
00000300: 79fa 583a 330d 05bc f172 22bd 7dd2 963e
00000310: 4b86 b03d 8ae9 84bd 8bd7 09bd 1bcd 3dbe
00000320: fe0a 1d3e c10f 003e 4974 83bd facb c93c
00000330: 6ba4 2abd b402 abbe 4bad 17be 574c 22bd
00000340: a2b3 3a3e 90f3 78bd acbd 023e 2e2f 25bd
00000350: 2315 2cbe 1519 523d 23c8 d23d 704f 4e3e
00000360: 91d7 823b 0327 1bbe 6e5f a83d 3e26 5cbd
00000370: 0faa 71bd 936f f0bd fc56 ab3d 2da9 913d
00000380: 87ee 953d b80a ae3d b161 19be 3bf1 b33c
00000390: 0489 283e 782b 40be c8b0 adbe c8b3 613e
000003a0: 9627 07bc f25d 36be cb5d 94bd e7a7 7abd
000003b0: 5a2e 63be 1999 4abd 791b bc3b e71f c6bd
000003c0: e463 cbbe de33 693e 8706 b5bd 286c 953e
000003d0: 9b28 bd3d a6b5 343c 4819 083e 482d 463e
000003e0: cc4f 2ebe 5c44 2d3d 5633 fa3c 5acd 40be
000003f0: 39b7 da3d b370 9a3e 6e28 f8bd d3d5 833d
-0.20557822 0.17326863 -0.074909836 0.092587195 -0.14191869 0.23199797 0.19791412 -0.157531
0.018594151 -0.2662842 0.03593863 0.04189736 0.35692915 0.067952484 0.12336638 0.19299074
0.16604811 0.059466988 -0.018444391 -0.14402223 0.15691023 -0.038900793 0.06876758 0.042184215
-0.05071707 -0.11817145 -0.08962772 0.19491953 0.11879555 0.25558406 -0.118360884 0.046189863
-0.100428894 -0.16309066 -0.02527676 0.11779463 0.058396883 0.1116047 0.21688356 0.057235025
0.14127214 0.0008078662 0.060191587 -0.03520306 -0.19240633 -0.036136206 0.1515541 -0.014481689
-0.069994405 0.08629506 0.068288036 0.057213657 -0.08615236 -0.14795372 -0.27831692 0.08306891
0.0738674 -0.10320967 -0.06951634 -0.15169717 0.005093371 0.11813212 0.01892468 -0.26361793
-0.3198821 -0.31824824 -0.18798655 0.022385899 0.022111332 -0.0019170621 -0.12692572 -0.028905893
-0.051772308 0.05544542 -0.008199298 0.053877976 0.12763554 0.04131576 0.08814012 -0.012781884
0.05459551 0.10156669 0.060843114 0.09968896 -0.26474947 -0.01429266 -0.040966142 -0.0002758165
-0.17235105 0.028850842 0.15952186 -0.26096863 -0.114013 0.09496755 0.07287443 -0.055313505
0.10680218 0.13838878 0.12027036 0.11697893 0.27782717 0.10201448 0.0051120603 0.03593011
0.111825414 -0.0015918694 -0.26508084 -0.13443083 -0.10081844 -0.25030807 0.12631552 0.17822662
0.104666956 -0.04067719 -0.035499938 -0.16679148 -0.25921026 0.11243096 0.0088838 0.060982924
-0.15123191 0.109656565 0.16483036 -0.1552762 0.055711906 -0.13663283 -0.010915804 -0.47975045
0.12684274 -0.08729373 -0.07964336 -0.09104816 -0.091798045 -0.21758671 0.29121837 -0.21278258
0.13198325 -0.049388204 0.10910353 -0.1069501 -0.2327931 0.09215408 -0.20490968 -0.011082967
-0.108325966 -0.14840913 -0.027954154 0.056349676 -0.13680622 -0.13414143 -0.19746329 -0.18338418
0.10770877 0.088011734 0.09398173 0.14142983 0.041850116 0.18216304 -0.22807504 0.25699738
-0.2824564 -0.021597268 -0.054030232 0.21359526 -0.10964454 0.05797719 0.06447205 -0.20137075
-0.01919351 -0.11800769 -0.12840758 0.103537895 -0.05283897 -0.021960037 0.037225187 -0.016968897
-0.024217712 -0.092672534 0.10757556 -0.014928223 0.29488522 -0.21233343 0.080898166 0.20126495
-0.15785924 -0.25876823 -0.084733404 -0.064938694 -0.14212711 -0.11520946 -0.19865365 0.28200686
0.00082770694 -0.008120823 -0.039660398 0.29457465 0.08619364 -0.064898565 -0.033652823 -0.18535273
0.15336224 0.1250601 -0.06418664 0.024633396 -0.041660707 -0.334005 -0.148122 -0.039623585
0.18232587 -0.060779154 0.12767667 -0.040328197 -0.16804938 0.05129345 0.10292079 0.2014749
0.0039929827 -0.151516 0.08221327 -0.053747408 -0.05900007 -0.11740031 0.083662 0.07112346
0.07320886 0.08498138 -0.14978673 0.021965614 0.16458517 -0.18766582 -0.33923936 0.22041237
-0.008249184 -0.17809275 -0.07244452 -0.06119528 -0.2218565 -0.04946241 0.0057405797 -0.09674054
-0.39724648 0.22773692 -0.088391356 0.2918408 0.092362605 0.0110296365 0.13290894 0.19353211
-0.17022628 0.04230152 0.030542057 -0.18828335 0.10679478 0.30164108 -0.12117086 0.06437268

network_body._body_endoder.seq_layers.0.bias f4 [256]
00000000: 7c1e 95bc f438 4ebb d5a6 59bb 6cc5 293b
00000010: 0354 533d 4a98 acbc 80a1 233c a47b 57bd
00000020: 1f7e 683d 0c44 553d 58b0 b13a f7bc 433c
00000030: 2127 08bd bafa b93c 11d3 763d 2540 bfbb
00000040: 7535 1fbc bd7b 3bbd c19b 94bc 90ec 3abd
00000050: 9698 e53b cdaa 1cbd 8248 afbb fe42 91bd
00000060: 6027 8c3a 3b62 783d 5eca 143d 80c7 973b
00000070: 03ee 9f3b 9b6f c83c 53be b13d b2c6 863d
00000080: bd52 833d 5a61 c2bc 903c 243c 8764 0fbd
00000090: b165 3c3a 9645 57bc 76d3 10bd a874 08bb
000000a0: 188c ff3c 2350 06bd d5c5 223d 8458 81bc
000000b0: 7afb 17bd 7320 2aba 34df 4a3d 741b e7bc
000000c0: 305f 27bd 2947 5a3d 86ed dd3d 931f 8e3d
000000d0: 72ea c03c a5ad 91ba f09a a9bc c718 3f3d
000000e0: 2126 b33b ebe1 2dbc 61d2 283d 1a71 fdbb
000000f0: d043 893c 3584 b6bc 8454 d9bb 61ef 1b3d
00000100: de80 9c3c 586e 693d f8f8 c8bc 949b 983c
00000110: 69f2 a0bd e21b 20bd 7c06 1ebd b9f1 603c
00000120: 2537 a2b9 d708 e6bb 276b 8d3d 412b 883d
00000130: 4e3f f43c 8ed9 82bd 09e6 81bc 1a3d 6ebd
00000140: f878 553d e98e a13c 14fe 233c a3dd c03c
00000150: 9579 22bd fdf4 b4bc 558b 863d d848 02bb
00000160: 28ca e93c 19b2 3ebd 7ec0 0a3c 994f 59bd
00000170: 060a 093d 6dd4 eebc 662f 3fbc a09d cebc
00000180: a841 36bb d7bc 23bc 2d16 243c e2da 2f3c
00000190: 1651 803c c767 763b 5eca bdbc 6b60 563d
000001a0: 22ac af3c 4bd3 3fbd d535 313d db03 9c3b
000001b0: 17f0 e9bc 11ac c63c 3b6e eabc bc6a ff3b
000001c0: eb9f b23d 291b 6f3c 49dc 0cbd 7d93 efbc
000001d0: 5f09 ce3c 5a07 6d3c 641c 26bb ec54 503c
000001e0: d6b0 d93d 4768 8db9 919a d23c 0bda 1abc
000001f0: bdf9 173d 1d4d ebbc ed47 8abc b605 11bd
00000200: 01dc a83b ddfe e73c a180 7e3c 16ed fe3c
00000210: da06 0d3d b3f4 a23d ef6c 38bd 9388 853d
00000220: 6aa0 ff3c 3479 0a3d 7e32 343d e5f4 97bc
00000230: eab6 8d3c 8a1b ea3b 1a3c 6d3d f5e2 cab9
00000240: 1075 37bd 5643 27bb 6db8 673c d14d e5bc
00000250: ad62 8cbd b253 053c 1277 053d d20f 063c
00000260: fbbc a2bd bacf 46bd 6d3f 7d3d 5630 b0bc
00000270: 7445 90bb 126e dcb9 f155 3abd 8ecc 993c
00000280: 968f 01bd 406a aebd b159 a43c dfce 6ebc
00000290: ab71 023c 0c7b 543d f2c9 f03c f8a9 bebc
000002a0: fe25 e6bd 4473 643d 1cc5 18bc dfb2 86bc
000002b0: a40e 05bc 4242 1a3d 351a 2abd 693e b5bc
000002c0: 927b 45bd 3fcc d83c d6c5 ab3c a0b2 e83b
000002d0: 6d06 6e3d c3bb 50bc d461 c438 7204 0a3d
000002e0: db21 75bc 4990 14bc 379f 6a3c b061 cebc
000002f0: e8a7 dcbc ee9e 803c b205 e13b f40b ccbb
00000300: f7f6 743a 0c8f dbba 53e7 45bd df2d 1f3d
00000310: a728 a03c 4778 edba b055 8c3d f911 77bd
00000320: 6e3f 48bd 7dfc 27bd 9c29 f63d a2ae bf3c
00000330: f372 e7bc c105 6e3b ae92 803c 6fad 6b3b
00000340: 31d8 0c3d 4c69 08bc 4fd8 3dbc f0c8 8f3d
00000350: 0b35 2abd d779 eabc 6576 7c3d f8fe a23d
00000360: 703e bd3c aaae 37bd 6253 183d 8220 e73b
00000370: eedc 353d 34cd b53d 3626 ddbc 4bf9 5f3c
00000380: 8b3d d63b 79fb 133d 8504 3ebc d788 e43c
00000390: 5eb9 443d 6948 183d 47cc 253c f9f2 d6bb
000003a0: 48c6 873d 4c99 6bbc f847 9a3c 74cd 883c
000003b0: f177 89bd c0bf 22bd 09ed 3a3d 51c7 513d
000003c0: a9f1 003b 5183 8bbc 45d0 3fbc ebff 453c
000003d0: 8ab8 313c 422a dabc 1e2a c73c 1e8b a1bc
000003e0: 3f5c adba d2a2 ebbc 3565 e83b 11a6 a8bd
000003f0: 384f d3bc ea01 993c fac3 1f3d 53ca 08bd
-0.018203013 -0.0031467052 -0.0033211012 0.0025905026 0.05159379 -0.02106871 0.009987235 -0.052608147
0.056760903 0.052066848 0.0013556583 0.011946908 -0.03324044 0.022702564 0.060259882 -0.005836504
-0.009717335 -0.045772303 -0.018140676 -0.04563576 0.007006715 -0.038248826 -0.00534922 -0.07092856
0.0010692887 0.060640555 0.036325805 0.0046319366 0.004880668 0.02446728 0.086788796 0.06580867
0.064122654 -0.023728061 0.010024205 -0.03500798 0.0007186784 -0.013139149 -0.035357915 -0.0020821486
0.031194732 -0.032791268 0.03973945 -0.015789278 -0.03710506 -0.00064898207 0.04952927 -0.028211333
-0.040862262 0.05329052 0.108363196 0.06939616 0.023549292 -0.0011114372 -0.020703763 0.04665449
0.005467192 -0.010612945 0.041216258 -0.00773443 0.016755968 -0.022279838 -0.0066323895 0.038070086
0.019104417 0.056989998 -0.02453278 0.018628873 -0.07858736 -0.03908909 -0.038580403 0.013729506
-0.00030940134 -0.0070200968 0.06905203 0.06648875 0.029815342 -0.063891515 -0.01585676 -0.05816374
0.052117318 0.019721465 0.010009307 0.023543185 -0.03966673 -0.022089476 0.06569544 -0.0019879844
0.028538778 -0.046556566 0.008468745 -0.053054426 0.033456825 -0.029154027 -0.0116690155 -0.025221646
-0.002781013 -0.009993753 0.010015053 0.010733338 0.015663665 0.0037598477 -0.023167785 0.052338045
0.021444384 -0.046832364 0.04326423 0.004761202 -0.028556867 0.02425197 -0.028617015 0.007794706
0.08721908 0.014593878 -0.034389768 -0.029245133 0.025150953 0.014467085 -0.0025346512 0.012715559
0.10629432 -0.00026971308 0.025708469 -0.0094514 0.037103403 -0.028723294 -0.01688 -0.035405837
0.0051531796 0.02831977 0.015533597 0.03111891 0.034430362 0.07956829 -0.045025762 0.0652019
0.031204421 0.033806995 0.043993466 -0.018549392 0.017299134 0.007144396 0.057918645 -0.0003869754
-0.044789374 -0.0025522313 0.014143092 -0.027991207 -0.068547584 0.00813763 0.032584257 0.008182483
-0.079462014 -0.048537947 0.061828066 -0.021507423 -0.0044028107 -0.0004204368 -0.045492116 0.018774297
-0.031631075 -0.08516359 0.0200623 -0.014575689 0.007961671 0.05187516 0.02939317 -0.023274407
-0.11237715 0.05577399 -0.009324338 -0.016442714 -0.008121166 0.037660845 -0.0415289 -0.022124486
-0.04821355 0.02646458 0.020968359 0.007101372 0.058111597 -0.012740078 9.36423e-05 0.033695646
-0.014961685 -0.009067603 0.014320186 -0.025193065 -0.026935533 0.015700784 0.006867134 -0.006227011
0.0009344662 -0.0016751005 -0.04831631 0.038862105 0.019550635 -0.001811751 0.06852281 -0.060319874
-0.048888616 -0.041012276 0.12019655 0.023398701 -0.028253054 0.0036319348 0.015694942 0.0035961529
0.034385864 -0.008325886 -0.0115872165 0.07020748 -0.041554492 -0.02862255 0.061636347 0.07958788
0.023101062 -0.044844307 0.037188895 0.007053436 0.044400148 0.0887703 -0.02699576 0.013670276
0.006538098 0.036128495 -0.011597757 0.027897282 0.048028342 0.03717843 0.010119504 -0.0065597263
0.06629616 -0.014379811 0.018833145 0.01669953 -0.0671233 -0.03973365 0.04563621 0.051215474
0.001967529 -0.01703039 -0.01170737 0.012084941 0.01084722 -0.026631478 0.024312075 -0.019719657
-0.0013226344 -0.028764162 0.007092143 -0.082348 -0.02579461 0.01867767 0.039005257 -0.033396076

network_body._body_endoder.seq_layers.2.weight f4 [256, 256]
00000000: 90be 70bc 7b4a 113d b314 073d ac18 6dbd
00000010: 37ef 34bd 38ea 4bbd ad3d d8bd f16a 893c
00000020: bb71 0d3d 78fe cf3c 6c8d bd3c 0072 1f3c
00000030: 3e3d 27bb d3e4 0a3d b4bb d4bd 1852 023c
00000040: d7fd 72bd a5bd f1bc 9888 963d da74 08bd
00000050: 74ff 38be 7714 dfbd f902 083e 653f 0e3e
00000060: 44e2 603d e423 aabc 765e 97bb 1894 ce3d
00000070: 20f5 7b3b c694 ef3d 95c6 123e b167 29be
00000080: 572a 103c 70df 3b3d ba9c 333d fbd7 a6bc
00000090: 42cd 21be 4a12 9b3a 5de4 fa3c b8b3 fbbd
000000a0: 5452 983c 0e4f 8cbc 3ae1 37be 3d42 a33d
000000b0: 245d a7bd 2b98 0bbe fd89 edbd 544d 833d
000000c0: ebc5 5bbd 8671 ac3c d21d 0a3c 55b8 dfbc
000000d0: 64c3 493c f45b 50bd 6278 8abd c6dd 603c
000000e0: 6d4c eb3d add6 1bbb 7d48 45be ab88 3fbd
000000f0: 8fd1 b2bc 5bc9 c2bb 4c98 f73d 3bbc f43d
00000100: 1722 37bc 1eb0 42bd 7c34 013d ad5a 72be
00000110: 2fee 0f3e 0d4a f93c db61 27be 26c1 62be
00000120: 4c66 273e 4691 3ebd 299e 62bc 045e 47bd
00000130: a324 c6bd cb64 1ebd 8ffc ab3d 8359 6dbd
00000140: 9079 0a3d 2be0 91bd c6e5 c43d 12b9 273d
00000150: d579 a63d 619a 593d bdee 4fbe 548b a63d
00000160: 7419 78be 360d 373d 16e5 0a3c 6ae2 d63d
00000170: 4788 0b3e 44b3 ed3d ad2e a33d 4559 013d
00000180: 4ff1 9fbd 9966 25bd a3fb f33d 97a9 583c
00000190: b7b6 03be 602c 0bbe 82d4 b3bd 88e9 1b3e
000001a0: 2c76 29be 618e 553c 1509 1bbd 9499 1ebc
000001b0: 7f18 5cbc b894 4c3d 6f97 ccbb 75b2 7f3c
000001c0: e09c 67be 4315 5abd 4742 8ebd 0481 353c
000001d0: 3e69 d43c 925b 8abd 942f eebc 097a 18bc
000001e0: 5001 053c 1b9d 883d 7212 0fbe 735f 21bd
000001f0: 18a3 03be 0550 253e 4ff7 a7bc f237 26be
00000200: ad75 8ebd 2322 983c 7119 8cbb 8837 ef3d
00000210: 705b d73d 4936 563d 2537 0dbb 5724 9cbc
00000220: 567a f03d 090e 25be 0670 6e3c 0e2a bf3d
00000230: 8226 263e 21e4 c9bd 6081 f83b 30c9 53bc
00000240: ca34 673d 8128 c43d c1a6 b7bc 55c7 cbbd
00000250: 60ef aebc 47d2 083c c3c4 a13d b55c ee3d
00000260: a8d3 3b3e bdf1 383d 3ed2 083e df0e 88bb
00000270: c867 e73b 5a82 afbc 1b11 d7bd 5fd9 853d
00000280: 1513 98bc 6eac 5ebd 757d ebbd b100 413d
00000290: 9f41 8abd fc4f 10be 7407 c43c 211a c3bc
000002a0: 1903 523d d2d2 57bd d616 4cbe 29d7 1fbd
000002b0: 6d76 c83d d294 98bd b7f0 3e3d cf3b f03d
000002c0: 343d 7d3d 7579 d63d b9ec aa3d e74f c23d
000002d0: 2605 5c3d cfda 553d c6b9 94bd 1978 bebd
000002e0: e763 423d 5462 04be dfad 4abd 21f5 28be
000002f0: 40b1 70bc c9a3 ee3c 735c 1ebd ee2b 82bd
00000300: a589 2b3d 15be 543d 73a6 1d3a 6a44 93bd
00000310: 3786 be3d bfae 933d d28b 263d a72e 333d
00000320: f44d 243d de63 843d 6680 abbd 605a 75be
00000330: 3416 c5bd f8d8 12be 47d6 5bbb a807 98bd
00000340: 1c76 2b3d 55f9 cd3c 0f49 94bd 7d5e 1abd
00000350: a33a a83c e0ab 5f3d b82d dd3c 1d47 afbd
00000360: 2145 543d 4280 3b3e 06b1 dfbc ce7c 093d
00000370: d959 b03a f98d c13d 1e6a e4bd 8d5a 3cbc
00000380: bd56 62bd e3bf 313d 10af 2dbd 6969 f63d
00000390: 7ffe d53d 842d 003e 1dde a8bc 43a0 383d
000003a0: 8486 a53d 8848 d1bd 67a9 e9bc 83bf 3c3d
000003b0: dbb4 58bc 2104 903d f76c fa3d 3bf1 613d
000003c0: 71b6 72bd 4447 20bd 3508 09be 3236 7ebd
000003d0: 75c7 8d3d f11a 43be 061a d83c f9da 8e3d
000003e0: a403 053d 8016 a63d ff02 a33c dedc bb3d
000003f0: e8f8 443d 02bd e73d 3c2c 10be 58c3 1cbc
-0.014693871 0.03547142 0.032978725 -0.057884857 -0.044173446 -0.049783915 -0.10558639 0.016774626
0.03453229 0.025389895 0.023138724 0.00973177 -0.002551868 0.03390963 -0.10387364 0.007954143
-0.05932411 -0.029509375 0.07350272 -0.033314563 -0.18066198 -0.10892575 0.13282384 0.1389137
0.054903284 -0.020769067 -0.004619415 0.100868404 0.0038445666 0.11698298 0.14333566 -0.16543461
0.008799157 0.045867383 0.043850638 -0.02036666 -0.15800956 0.0011831012 0.03062647 -0.12290138
0.018593945 -0.01712754 -0.17957011 0.07971618 -0.08172062 -0.13632266 -0.11598585 0.064112335
-0.053655546 0.021050226 0.008429961 -0.027309576 0.012314651 -0.050868943 -0.067612424 0.01372475
0.114891864 -0.002377908 -0.19265933 -0.046761196 -0.021828441 -0.0059444136 0.12089595 0.119499646
-0.011177561 -0.04753124 0.031544194 -0.23667403 0.14055704 0.030430818 -0.16345923 -0.22143993
0.16347617 -0.046525262 -0.013831654 -0.048673645 -0.09674957 -0.038670342 0.08397781 -0.057946693
0.033807337 -0.07122835 0.09614138 0.04094798 0.08128706 0.053125743 -0.20305915 0.081320435
-0.2422846 0.044690333 0.00847747 0.10492404 0.13626204 0.11606458 0.07967887 0.031579275
-0.07809698 -0.040381048 0.1191323 0.013224027 -0.12862669 -0.13591146 -0.08780767 0.15225804
-0.16548985 0.013034434 -0.03785046 -0.009680171 -0.013433575 0.049946517 -0.006243638 0.015606512
-0.22618437 -0.053242933 -0.06946235 0.011078123 0.02592909 -0.06755747 -0.029075421 -0.009306439
0.008117989 0.066705905 -0.1397188 -0.039397668 -0.12855184 0.16143806 -0.020503668 -0.16232279
-0.069560386 0.018570965 -0.004275494 0.116805136 0.10515487 0.052297864 -0.0021547761 -0.019060297
0.11742084 -0.16118635 0.014553076 0.09334193 0.16225627 -0.09857965 0.007583782 -0.012926385
0.056446828 0.09578038 -0.022418382 -0.09950129 -0.021354377 0.008350915 0.078988574 0.11638776
0.18342459 0.045152415 0.13361451 -0.0041521634 0.0070619322 -0.021424461 -0.105013095 0.06535601
-0.018563787 -0.05436366 -0.114985384 0.0471198 -0.067507975 -0.14093012 0.023929335 -0.02381617
0.051272485 -0.05269129 -0.19930586 -0.039023552 0.09788213 -0.0745026 0.046616282 0.117301576
0.061825946 0.10472385 0.083459325 0.094878964 0.053715847 0.052210625 -0.07261996 -0.093002506
0.047458556 -0.12928134 -0.049482223 -0.1649976 -0.014690697 0.029130833 -0.038662385 -0.06356035
0.041879315 0.05193909 0.00060138776 -0.07190783 0.09302943 0.072110645 0.040660687 0.043745663
0.040113404 0.06464361 -0.083740994 -0.23960257 -0.096233755 -0.1434058 -0.0033544467 -0.07423335
0.041860685 0.025143305 -0.07240497 -0.037687767 0.020535773 0.054607272 0.02699934 -0.08558486
0.05182374 0.18310645 -0.027306091 0.03356629 0.0013454511 0.09450907 -0.11153053 -0.011496198
-0.0552585 0.043395888 -0.04240328 0.12031824 0.10448932 0.12517363 -0.020613724 0.045074712
0.080822974 -0.10218912 -0.02852316 0.046081077 -0.013226713 0.070320375 0.12227815 0.055161696
-0.05925602 -0.039130464 -0.13382037 -0.062063403 0.06922809 -0.19053246 0.026379596 0.069753595
0.032474175 0.0810976 0.01989889 0.091729864 0.048088938 0.11315347 -0.14079374 -0.009568058

network_body._body_endoder.seq_layers.2.bias f4 [256]
00000000: ca72 3bbd fcf9 cd3c f390 e1bb f19a e73c
00000010: 9037 80bd a3ec 4dbd 1809 a7bd 2824 97bc
00000020: b3a5 7b3d a88b 1ebd 2bc2 14bd 84a5 acbc
00000030: b922 c7bb 59f7 d6bc d303 4dbd f76b 12bd
00000040: 61df e9bc a327 f9bc 50ec cfbc e748 20bd
00000050: 7b92 9dbd 5e32 10bd 6227 2ebc b527 84bd
00000060: 4f59 1bbd aba4 eabb 80fe 21bd eedc 053b
00000070: 3574 82bd 7e1c 8cbd ba8f e8bc 1ba7 14bd
00000080: be41 7fbc da69 5cbb 8b00 9abc 3912 aebd
00000090: f00b adbc be09 b7bc 1db7 c4bc 82a1 d0bc
000000a0: a0d6 febb 75f9 85bc 9b3d 893c 925b 26bd
000000b0: 14b0 913d 46e2 1f3d 8609 103c 42c3 babc
000000c0: b197 afbc 05f1 95ba fe33 823c 049c c4bc
000000d0: 0c5b 19bc 428f fbbc 723c b1bd 29e5 53bd
000000e0: 83a7 76bd 1525 6abc c62b 80bd c0d6 01bd
000000f0: 36ea 49bb 8a0c 52bd f78b 13bc 2ca5 783d
00000100: 0c00 03bd e7ed 24bd 0e2a 6f3c fa92 f9bb
00000110: 5f66 f7bc 5ddd 93bd 9c60 5abd a5be c9bc
00000120: 8cbe 073d a2aa f23b 5a44 51bc a95f 0ebd
00000130: bf88 28bd ca39 25bd 7a34 01bd 3243 e9bc
00000140: bec8 16bd d731 27bb e296 aebc 7755 ebbc
00000150: 0662 963c 0d82 33bc e974 d6bc 33e9 383c
00000160: 05a6 1cbb 9aea 02bc dc7d 38bc 70b2 923c
00000170: eeba 22bc ba30 16bd 72a9 09bd 5619 ffbc
00000180: b507 60bd b9c8 b73c 5680 07bd 28fd f7bc
00000190: 4008 91bc f104 b23c 1496 cbbb fcba b3bc
000001a0: 9e51 febc 6a28 19bd 2ba2 ccbb 051c acbc
000001b0: cfe6 44bd 1122 87bd 8ad2 a9bb 246a 39bc
000001c0: 4545 c3bc e624 fabb bb12 66bc 8c30 63bd
000001d0: 24e1 fcbc aff1 2bbd 292a 4dbc 0ef7 b0bd
000001e0: 9a47 1dbb 4cec 8e3d fdf6 903d b8b1 a5bd
000001f0: e7dd 23bd 964c dcbc cb06 e3bc 3c79 c6bc
00000200: 04d8 ce3b c207 f8bc 309f 463d 919e d73a
00000210: 12a7 44bd 0038 a6bd 22d9 2fbd 27de 85bd
00000220: 7700 b93c b6da bdbc be40 493c 6bb2 c4bc
00000230: 382d 2abd 4787 923c 5ba1 953c 07f9 753d
00000240: 42d8 303c dd0a ffbc a643 8cbd 2261 84bd
00000250: 4437 593c 8f65 1a3d 975c 783d dae8 15bd
00000260: 5647 8fbb 3be0 ee3c 1894 193d 76dd 033d
00000270: 3e7b 28bc d18d 8cbd 9859 c8bc 8c2b 41bd
00000280: c7d7 e4bb 6113 02bd f222 cebc 3f26 5fbd
00000290: fb18 1c3a 21a3 60bd e2a6 d9bc 4be0 36bd
000002a0: 5544 abbc ae84 f83a b127 60bd ca9f 84bd
000002b0: 9aa8 e43c 2fc9 23bd 1f7b e238 b04b 6bbd
000002c0: 1a69 163d 69d2 93bd 768f 12bc 0157 84bc
000002d0: feb2 c43c 9170 21bd 1f19 f7bc b696 85bd
000002e0: 7338 18bd f4bf 12bd a404 f8bb dcf8 1f3d
000002f0: b14a c0bc 86c5 84b9 6bfd 38bd b725 6cbd
00000300: bc1e 32bd 61d9 5d3c 89ff 76bd 141a 25bd
00000310: 7525 0fbc 3a0a 97bd 3340 8fbd bc7e 10ba
00000320: 5e6e c4bc 942d 46bd fb94 55bc cdda e2bb
00000330: 87a3 ccbc d59c 7abd 6457 4dbd c306 873b
00000340: d463 73bd 9678 9ebc 08c1 bbbc 9b30 0d3c
00000350: 0591 d7bc a5c0 2bbd b8fd 5fbd ca30 5abd
00000360: 4171 b5bd f789 d23c f5be fdbb 6efc 833c
00000370: 163d dcbc 1e18 37bd bfc3 bcbc 1922 1abc
00000380: eb03 3a3c 1b49 7fbb b130 acbc 8154 c8bd
00000390: 69c6 9dbc 5b22 93bc 5e38 1dbc eb37 22bc
000003a0: 7823 54bc d620 0abd a3d6 d8bb 78a7 65bb
000003b0: d493 b9bd 3894 2dbd 855b 673d 5bd7 f9bc
000003c0: 7338 d23c 07fb 9dbd 156c 58bd 1bbe 1fbd
000003d0: 4727 2abd c7b4 45bd 9c95 11bd 30a0 30bc
000003e0: d1d7 57bd f840 32bd 886a a3bd cec6 383c
000003f0: 932f 2bba 6b12 febc f08e c5bc c9e9 2dbd
-0.04576377 0.025143616 -0.0068837344 0.028272124 -0.06260598 -0.050274502 -0.08156031 -0.018449858
0.06143732 -0.038707405 -0.036317986 -0.021075018 -0.0060771373 -0.026240991 -0.050052475 -0.035747495
-0.028548898 -0.030414408 -0.025381237 -0.039132025 -0.076939546 -0.035204284 -0.010629507 -0.06452886
-0.03792697 -0.007160743 -0.03954935 0.0020425874 -0.06369821 -0.06841372 -0.028388847 -0.036292177
-0.015579639 -0.0033632428 -0.018799087 -0.084995694 -0.021123856 -0.022343513 -0.024013096 -0.025467638
-0.00777705 -0.016354302 0.016753009 -0.040614672 0.07113662 0.03903415 0.008791333 -0.022798184
-0.021434637 -0.0011439627 0.015893932 -0.024000175 -0.009360086 -0.03070796 -0.08654107 -0.051732216
-0.060218345 -0.014291068 -0.06258349 -0.031698942 -0.0030809767 -0.05128149 -0.009005538 0.060704395
-0.031982467 -0.040265944 0.014597429 -0.007616398 -0.030200182 -0.07219956 -0.05331479 -0.02462704
0.033140704 0.007405595 -0.012772644 -0.034759197 -0.041146036 -0.040338315 -0.031544186 -0.028474424
-0.036812536 -0.0025511885 -0.02131218 -0.028727276 0.018357288 -0.0109562995 -0.026178794 0.011286068
-0.0023902666 -0.007990504 -0.011260476 0.017907351 -0.009932263 -0.036667563 -0.03360886 -0.03114001
-0.05469485 0.02243458 -0.033081375 -0.030272081 -0.01770413 0.021730872 -0.006212959 -0.021939747
-0.031044777 -0.037392057 -0.006244918 -0.021009455 -0.04807168 -0.065982945 -0.005182569 -0.01131681
-0.023836741 -0.007633793 -0.014042552 -0.05546622 -0.030869074 -0.041978534 -0.012522259 -0.08640872
-0.0023998977 0.06978664 0.07078359 -0.08090538 -0.040006544 -0.026891988 -0.0277132 -0.02422773
0.006312372 -0.030277137 0.048491657 0.0016450455 -0.048010893 -0.0811615 -0.042931683 -0.06536513
0.02258323 -0.023175579 0.012283502 -0.024010858 -0.04154703 0.01788677 0.018265417 0.060051944
0.010793747 -0.03113311 -0.068488404 -0.06463839 0.013257805 0.03769451 0.060635176 -0.036599018
-0.0043725176 0.029159656 0.03749475 0.032193623 -0.0102832895 -0.06862987 -0.024456784 -0.04716067
-0.0069837305 -0.031756762 -0.025163148 -0.054479834 0.000595465 -0.05484307 -0.026568834 -0.044647496
-0.020906607 0.001896044 -0.054725353 -0.0647579 0.027912427 -0.039986786 0.00010799453 -0.057445228
0.036721326 -0.07217867 -0.008945337 -0.016154768 0.024011131 -0.039413992 -0.030163346 -0.065228865
-0.03716321 -0.035827592 -0.0075689126 0.03905569 -0.023473116 -0.00025324168 -0.045163553 -0.057653155
-0.04348634 0.013540597 -0.06030229 -0.040308073 -0.008736958 -0.073749974 -0.06994667 -0.0005512049
-0.023978408 -0.04838331 -0.013036008 -0.0069230557 -0.02498032 -0.061184723 -0.05013217 0.004120679
-0.059421375 -0.01934461 -0.022919193 0.0086175455 -0.026314268 -0.041931767 -0.054685324 -0.053269185
-0.08859492 0.025700552 -0.007743711 0.016111579 -0.026884597 -0.044700734 -0.023042558 -0.009407544
0.011353473 -0.0038953486 -0.021019312 -0.09781743 -0.019259648 -0.017960718 -0.0095959585 -0.009901027
-0.0129479095 -0.03372272 -0.0066173836 -0.0035042446 -0.09061399 -0.04237768 0.056483764 -0.030498197
0.025661683 -0.07713895 -0.05283745 -0.038999658 -0.041541364 -0.048268106 -0.03554307 -0.010780379
-0.052696053 -0.04351899 -0.079793036 0.0112778675 -0.00065302214 -0.031014642 -0.02411601 -0.042459283

action_model._discrete_distribution.branches.0.weight f4 [7, 256]
00000000: a147 ed39 f61f c8bc 0390 453d e1a2 19be
00000010: 32ae 993d 2135 73ba e683 153d 68df 5a3d
00000020: 892a c7bd de45 8dbc adc1 633d 53cf 823c
00000030: bc28 97bd 23b5 573d 0390 243c d2b7 15bc
00000040: 6f12 dabb ed21 8b3d 6ed9 c73c c587 e73b
00000050: 4d30 323d e436 8fbc 5b56 943d a6d1 3ebc
00000060: 2173 ec3b 6b46 4fbd f0a1 0d3d bd99 a8bc
00000070: 6ec2 f73c 21b2 f23c 6f13 623c 2786 693d
00000080: 58a2 76bd db3e 8e3d 841e 713d 1c84 523d
00000090: d219 e8bb 2207 31bd 09fc dd3c 1218 603d
000000a0: 5749 52bd faf3 613c 88d8 273d b61a 41bb
000000b0: acdb 1ebe a54b e6bd ffe5 01bd 2799 03bc
000000c0: be13 8b3d d7c1 033d d3e3 75bd 29b5 203d
000000d0: f69d 4dbd a1e8 353d 4d03 e23c 7464 69bd
000000e0: f7a7 8c3a a985 1dbc dd9d 283d e0d0 1a3d
000000f0: bde6 683b e375 bb3c 7ece bcbd 6ba1 733b
00000100: b0bd 843c e954 b6bc b46c aebd 9864 c03c
00000110: 2c18 3b3d d474 f83d 2df3 00bc c813 e4bb
00000120: ca11 d7bd 40c6 933c c344 56bd 055b a2bc
00000130: d02d 1dbd 86e2 003d 5982 d1bc 4a8a 22bc
00000140: f5b6 f0bb 53af 7b3d 407c b93d ba23 6a3d
00000150: ba2a a43c 3cda 173d 3e17 563d 7923 96bd
00000160: fa4c abbd 78f9 2d3d 72c7 4b3d bd09 05bd
00000170: 890f 5a3d b500 da3d 879e 963d c424 0ebb
00000180: 0373 573d f23e 1cbe 7864 babc 282e 893d
00000190: d766 b93d af3f debd 6cb2 91bd 5b44 793d
000001a0: c1fe 8d3d 6243 3fbd 03f8 023d 9ee2 8f3c
000001b0: ed76 573d 30f3 8c3c 803a 5d3d 2d21 fa3c
000001c0: a084 b33d 72de c8bc db73 3fbc 581f f23c
000001d0: 9eee b43c 8066 433d f2aa 84bd e092 333d
000001e0: 858a d7bb f053 11be 1e9d bfbd 65dd 5c3d
000001f0: 07e0 eebb 113f 66bd 30ed f23c 110b 6f3d
00000200: 163a 84bd 7518 a33d f9cd 7dbd 6e7d 1a3c
00000210: 7120 2b3d 294e 0f3d 2711 3bbc 1415 5f3d
00000220: 07a8 90bd 7fd8 9f39 dae7 b4bd c2af d73c
00000230: 771d 823d 2744 ec3c a1f0 2abd 57e7 0fbe
00000240: 9268 febc bbf6 2dbd 249c 963d aea4 ca3d
00000250: c2e4 ab3b b14b babd 35b8 f5bd bfca d23d
00000260: 1a31 5cbd b3b7 93bd c965 d4bd 381b 97bd
00000270: d9ec fcbc 9b91 223d 06d8 22bc fa68 843c
00000280: c5b8 5d3d 284d 713d 8faf 643d 6dc7 903c
00000290: 8806 a03b 748a 8d3d ac99 f23c 9379 4f3d
000002a0: c2f1 3a3d f27f 25bd c3cf 0a3b 3443 283d
000002b0: 4ebc 8abd 8c2c 603d 90b7 8cbc ff50 683d
000002c0: 465b e5bd 563e 473b a436 9ebd 8de8 a43d
000002d0: 7251 8fbd f55f 1b3d f1eb b23d 13af ff3c
000002e0: 9c20 153c 67e8 3c3d 849a 0abd a0bc 82bd
000002f0: abf6 d0bb 2d75 0fbd c2b3 bd3d 689f aa3c
00000300: 0c49 c83d 1817 f63d 017f 053d 6064 843d
00000310: f982 adbb 3d34 253d 66ab 7e3c 0619 4cbd
00000320: 3152 803d 3f6d 653d 848c cb3c be0c cdbc
00000330: 9af7 db3c c2b3 ba3c b83c b73b dee9 9c3c
00000340: 1aa0 833d 1095 263c 12b0 a23d 6ef2 583d
00000350: 8f5c d03d 9b35 6b3d 889f aa3b 2830 6e3d
00000360: 88d2 9f3d 3cda 84bd 6de1 28bd c22b 793c
00000370: 7db2 dd3d cf97 3f3d 9123 8d3d 4362 b23d
00000380: 383f a9bd 931e bf3d e025 12bb f448 113d
00000390: 3e19 ab3d 1bee bebc 43a4 a73d 7158 0bbc
000003a0: bd62 ce3d 4d29 efbc e1f6 58bd 1aa1 26bd
000003b0: ae18 2a3d 903d dc3c 2bfd 6dba 05cb 623d
000003c0: 3d74 293c 0188 223c bfe1 9a3d aa9b 623d
000003d0: b6d8 823d 09e4 9d3d 7d99 9a3d b978 3abd
000003e0: 8d9e eb3b 2ce5 883d b8fa 9c3d 2be0 39bd
000003f0: 90cd 6a3c c9cd fa3c 0359 88bc dcac 623d
0.0004525753 -0.024429303 0.048233043 -0.1500354 0.07503928 -0.0009277631 0.03650274 0.053435713
-0.0972491 -0.01724523 0.055604625 0.015968 -0.07380816 0.05266298 0.010044101 -0.009138064
-0.0066550295 0.0679358 0.02439567 0.0070657455 0.043503094 -0.017482229 0.072430335 -0.011646664
0.007215873 -0.050604265 0.034578264 -0.02058112 0.030244078 0.029625954 0.013798579 0.057012703
-0.060213417 0.069455825 0.058866993 0.05139552 -0.007083156 -0.043219693 0.027097719 0.054710455
-0.051339474 0.013791079 0.040977985 -0.0029465384 -0.15513486 -0.11244897 -0.031713482 -0.00803212
0.06790875 0.032167282 -0.060031723 0.039235268 -0.05019947 0.044411305 0.027589465 -0.056980565
0.001073121 -0.009614387 0.041166175 0.037796855 0.0035537921 0.022883361 -0.09219073 0.003717507
0.016203731 -0.022257285 -0.08516827 0.023485467 0.04567735 0.12131658 -0.007870478 -0.006960366
-0.1050144 0.018038869 -0.05231167 -0.019818792 -0.03837377 0.03146603 -0.02557485 -0.009920666
-0.007346029 0.0614465 0.09056902 0.057162978 0.020039905 0.03707336 0.05226826 -0.073309846
-0.083642915 0.04247424 0.049750753 -0.03247999 0.05323747 0.10644666 0.073544554 -0.0021689394
0.052599918 -0.15258387 -0.022752985 0.06698257 0.09052818 -0.108519904 -0.071141094 0.060856204
0.06933356 -0.04669512 0.031974804 0.017564114 0.05260365 0.017205805 0.054010868 0.030533398
0.087655306 -0.024520133 -0.011685337 0.029555961 0.022086438 0.047705173 -0.06477918 0.043841243
-0.006577792 -0.14192176 -0.093561396 0.053922076 -0.0072898897 -0.05621249 0.029654115 0.058360163
-0.064563915 0.07963649 -0.06196401 0.009429319 0.041778985 0.03498665 -0.011417664 0.05446346
-0.07063299 0.00030488145 -0.08833285 0.026328925 0.06353276 0.028841091 -0.041733388 -0.14053093
-0.031055722 -0.04247163 0.07354 0.098946914 0.005245776 -0.09096468 -0.11998025 0.10292577
-0.053757764 -0.07212772 -0.103709765 -0.073782384 -0.030874657 0.03968964 -0.009939199 0.016163338
0.054131288 0.058911473 0.05583149 0.017673219 0.004883591 0.069111735 0.029614292 0.05065305
0.045640714 -0.04040522 0.0021180965 0.041079715 -0.067741975 0.054729983 -0.017177373 0.05671787
-0.1119905 0.0030402145 -0.077252656 0.08052168 -0.06997956 0.03793331 0.087364085 0.031211412
0.009102013 0.046120074 -0.033838764 -0.063836336 -0.0063770614 -0.035023857 0.09262802 0.020827964
0.097795576 0.120161235 0.032591823 0.064644575 -0.005295154 0.04033302 0.015543794 -0.04982855
0.06265677 0.05601239 0.024847277 -0.02503049 0.026851464 0.022790793 0.005591955 0.019154485
0.06427021 0.010167375 0.07943739 0.052965574 0.10173904 0.05742417 0.005207006 0.058151394
0.078038275 -0.064869374 -0.041230608 0.015208187 0.108250596 0.046775635 0.068915494 0.08710148
-0.08264011 0.093320034 -0.0022300407 0.035469964 0.08354424 -0.023306897 0.08185627 -0.008504973
0.100774266 -0.029194498 -0.052969817 -0.040680982 0.041527443 0.026884824 -0.00090785575 0.055369396
0.010342655 0.009920121 0.07562589 0.055324234 0.063889906 0.0770951 0.07548807 -0.045525286
0.0071905316 0.06684336 0.07665008 -0.0453798 0.0143312365 0.030615704 -0.016644007 0.055340633

action_model._discrete_distribution.branches.0.bias f4 [7]
00000000: 2d23 53bd 3968 b8bc 64a6 84bc 8413 f2bb
00000010: 8cf7 903c 482b ab3d 8f06 753d
-0.051547218 -0.022510635 -0.016192622 -0.0073875804 0.017696165 0.083578646 0.059820708
