results/puzzle_experiment_4/PuzzleBehavior.onnx (onnx, 342923 bytes, 6 tensors)

network_body._body_endoder.seq_layers.0.weight f4 [256, 65]
000000 5f f4 1e bf 95 ab bd 3c 43 8a c8 be 9e e3 ac be
       -0.6209163 0.023153106 -0.39167985 -0.33767408
000010 97 07 73 3a 69 7b ed 3c 10 5a ee 3d b1 2b 18 be
       0.00092708453 0.02898951 0.11638272 -0.14860417
000020 c0 d2 a3 3e 79 22 1a bf fd 6c 15 be 46 18 60 bb
       0.31996727 -0.6020885 -0.14592357 -0.0034194156
000030 12 5f 27 3e ad ce 0e 3e a0 1f aa 3e 48 b0 29 3b
       0.1634486 0.13946028 0.33227253 0.0025892425
000040 b6 7a 99 be 24 12 00 3c c2 94 11 be e0 7d 25 3e
       -0.29976434 0.007816825 -0.14216903 0.16161299
000050 63 0b 89 bd aa 1c e5 3d fd 5e 07 3d 7d d8 80 3c
       -0.06691625 0.11187108 0.033049572 0.01572823
000060 af f1 d1 bc 7f 04 db 3c c7 a2 0b bd d5 2e 8b be
       -0.025627939 0.026735542 -0.034090783 -0.27184168
000070 a2 73 0c 3e a2 4f 5b be fa 59 48 be 56 7d 57 3e
       0.13715985 -0.21417096 -0.19565573 0.21043906
000080 49 7c 94 3e 50 a5 6b 3d 9e 38 0c be f3 e6 3f be
       0.29001072 0.0575307 -0.13693473 -0.18740444
000090 5e 56 ab be 9e 23 21 3d 50 4e 49 3e be ec b6 bd
       -0.3346433 0.039340608 0.1965878 -0.08931874
0000a0 88 61 18 3d 6d c1 d8 3b 25 df 38 3e 2f e0 bc be
       0.037202388 0.006614855 0.18053873 -0.36889789
0000b0 f7 5b 14 bd 33 ae 17 be fa aa e6 bd 64 8d 6d 3e
       -0.036220517 -0.14812545 -0.1126308 0.23198467
0000c0 f7 7c 71 3e f6 d5 88 bd 6a f2 cd bd ae 38 8d 3d
       0.23582827 -0.06681435 -0.100560024 0.068955764
0000d0 ca b5 45 be 52 53 ab bd 63 b8 f8 3d 40 d0 ab bd
       -0.19307628 -0.083655015 0.12144544 -0.0838933
0000e0 f6 0a 50 3e 72 3d 91 3e 27 ea e2 bd 0d 20 15 3c
       0.20316681 0.28367192 -0.11079817 0.00910188
0000f0 bd 11 bb bd d1 2a 94 be 3d ca 2b bf a2 06 0e 3e
       -0.09134243 -0.28938916 -0.67105466 0.13869718
000100 d2 19 54 3e 70 75 55 bf c8 19 84 3d 14 44 75 be
       0.20712975 -0.8338232 0.0645023 -0.23951751
000110 9d d5 ff bb 8a a0 5d be 76 2d 83 3d 98 d2 e0 3d
       -0.007807447 -0.21643272 0.06405155 0.109776676
000120 dc 71 29 3e 84 bb fe 3e 0f 8c d2 be 2f 76 a7 3b
       0.1654734 0.49752438 -0.4112248 0.005110524
000130 c2 ec 86 3e 8a 52 c7 be ae b2 1a 3e 69 cc c6 bc
       0.26352507 -0.3893016 0.15107223 -0.024267392
000140 55 ac ee 3d b8 03 b4 bd 07 62 28 3e 83 24 4a bd
       0.116539635 -0.08789772 0.16443644 -0.049351227
000150 9f 15 19 3e 6e ea 46 3e 0b e1 1b be 2c 90 2e 3e
       0.14949654 0.19425365 -0.15222566 0.17047185
000160 a0 3c 97 bd bb 2d a9 3e 6a 8f 20 be 88 ea dd 3e
       -0.0738461 0.33042702 -0.15679708 0.43342996
000170 05 42 1d 3e 1d eb 95 bd 05 1e 5a be e5 e0 c9 bd
       0.15357216 -0.07320235 -0.21300514 -0.09857348
000180 08 16 f0 3d 05 ee 58 3e 52 88 41 3e 54 1f dd bd
       0.11722952 0.21184547 0.18899658 -0.10796991
000190 45 81 d7 bd e7 a5 86 be 0f 7e 46 3e 9c c3 9c 3c
       -0.10522703 -0.26298448 0.19384025 0.019136243
0001a0 90 58 f1 be f9 ea 45 3d 43 10 a1 be 72 d9 05 3c
       -0.4713788 0.04831979 -0.3145772 0.008169519
0001b0 5f a1 10 bf d2 30 6c 3d 91 12 e7 bc 87 f9 91 3d
       -0.5649623 0.057663746 -0.028207095 0.07127672
0001c0 7d 98 df 3d ed c6 90 3e 57 64 32 bb 68 86 3b bd
       0.10917757 0.28276768 -0.0027220452 -0.045782477
0001d0 e1 d9 07 be ad b2 95 bd 87 8d a2 bc 27 bf f6 be
       -0.13266708 -0.0730947 -0.019842876 -0.48192713
0001e0 2a 02 15 3d a2 4d d5 3d de a3 21 bf 00 59 9b 3d
       0.036379017 0.10415198 -0.63140666 0.07585335
0001f0 48 cc 7d be 4e 47 99 bd 28 f6 b1 bd e5 8e 5b bf
       -0.24784958 -0.074843034 -0.08689529 -0.85764915
000200 c5 02 ab bd c6 f7 b7 3b c1 17 aa 3e a7 50 d3 bd
       -0.083501376 0.0056142537 0.33221248 -0.103181176
000210 7d 77 31 3e 5d 97 4b bd 66 5c cc 3d 6b fb a7 bd
       0.17330737 -0.0497049 0.09978561 -0.08202251
000220 c7 4e bd 3d 4f 95 05 3e 7f ae 3f bd 63 27 8e bd
       0.09243541 0.13045238 -0.04679727 -0.06941106
000230 f7 a2 9a bd 1d 4c f6 bd 6e 65 c6 3e 8c f9 fd 3d
       -0.07550614 -0.12026236 0.3874926 0.12401113
000240 32 11 43 3e 3e 79 f3 3d 52 c8 75 3e b9 ec 5e 3e
       0.19049528 0.118883595 0.24002197 0.2176999
000250 29 bd d2 bd a2 b9 9a bd 60 ec 9a 3e 5b ad 98 3e
       -0.10289986 -0.07554938 0.30258465 0.2981976
000260 5d cf 13 be 64 9d c7 3d 01 a3 67 be 74 d8 1c bc
       -0.14434572 0.09746817 -0.22620775 -0.009573091
000270 5a b6 b0 3b cc 3f f6 3d 13 7e cb be ca b3 2c be
       0.0053928318 0.12023887 -0.39744624 -0.16865459
000280 33 47 57 be 5f ca c8 bc 12 26 0b bc 50 12 de 3d
       -0.21023254 -0.02451056 -0.008492963 0.108433366
000290 e4 b9 37 3d 31 88 32 3e d2 f3 db 3d c6 09 71 bd
       0.044855013 0.17434765 0.107398644 -0.05884721
0002a0 f2 9a 5c 3e 25 6a f3 bc f7 02 cb 3d 02 0b cf bc
       0.21543482 -0.0297137 0.09912675 -0.025273804
0002b0 67 1c a9 be 2a 1b 7a be 67 d1 56 bd 23 ab 9f 3d
       -0.33029482 -0.24424425 -0.052445795 0.077963136
0002c0 a0 2f 85 3e 6f 14 8b be 51 4d 86 be 43 de 23 3d
       0.26012897 -0.27164027 -0.26230863 0.040006887
0002d0 27 6b 85 3d d5 cc 5d be 3c 2e b7 be de 87 17 be
       0.06514578 -0.21660168 -0.35777462 -0.14797923
0002e0 d2 fa 1d 3c 5a fd 5d 3e f3 49 1a 3c 48 73 63 bf
       0.00964232 0.21678677 0.009417045 -0.8884778
0002f0 a1 51 13 3d 2a 06 7d 3c c1 cc f4 be 75 69 71 3c
       0.03596652 0.015443364 -0.47812465 0.014734616
000300 aa 0b e7 be 1c 25 81 bd 63 c2 39 bd b2 a1 48 bd
       -0.45126086 -0.06305906 -0.045351397 -0.04898233
000310 7d 36 85 3e 72 e0 79 3e c2 13 a6 3e 9f a7 04 be
       0.26018134 0.24402025 0.3243695 -0.12954567
000320 01 1f 0f 3d da af 19 be e1 8b 24 be 60 ee d1 be
       0.034941677 -0.15008488 -0.16068985 -0.41002178
000330 7e 57 55 3d bd 84 06 be 97 6f 3b 3e 0c 2a 1e 3e
       0.052085392 -0.13136573 0.18304287 0.15445727
000340 f5 1b 82 bd d5 c6 7b be 6b ea e2 bd 2a 14 ec bd
       -0.06352989 -0.24587567 -0.11079868 -0.115272835
000350 c8 10 a8 be 5c 48 26 3d 83 3a 8f bd 4f 30 12 3e
       -0.32825303 0.04059635 -0.06993582 0.14276241
000360 88 09 c8 be c9 c5 90 be 03 ca 6a 3d e1 ca 09 3d
       -0.39069772 -0.28275898 0.05732156 0.033640746
000370 15 da 80 3e 77 73 cc be 41 25 62 be 1f 04 89 bd
       0.25166383 -0.39931843 -0.22084524 -0.06690239
000380 18 fd f6 3e a3 b3 c3 3d 2a 34 0a be f6 e2 29 be
       0.4823997 0.09555747 -0.13496462 -0.16590485
000390 c0 51 3e be 2b 92 48 be dd 69 f8 3d c5 53 e8 bc
       -0.18585873 -0.19587009 0.12129567 -0.028360257
0003a0 ab 9a bc 3b 95 11 74 bd 3b b7 3c 3e 81 13 09 3d
       0.0057557425 -0.05958708 0.18429272 0.033465866
0003b0 2d 8e 2c 3e bc 56 99 3c e0 1f 2e 3e 39 60 3e 3e
       0.16851111 0.018718116 0.17004347 0.18591394
0003c0 8c 89 f7 bd 78 70 94 bd 31 14 d6 3e 43 b0 66 bd
       -0.12086782 -0.07248014 0.4181228 -0.05632044
0003d0 f1 dd 08 3d 76 45 99 bd d8 dd 62 3e 48 5d b4 bd
       0.033414785 -0.07483952 0.22154939 -0.088068545
0003e0 a7 16 22 3e 72 7a a5 3d e7 92 07 3e ba 72 eb 3c
       0.15828954 0.08079995 0.13239633 0.02874123
0003f0 f4 27 89 3e a1 b3 6d bc ae dd 21 be 74 8a 6f 3e
       0.26788294 -0.014508159 -0.1580722 0.2339266

network_body._body_endoder.seq_layers.0.bias f4 [256]
000000 3c 17 a5 bb 28 42 10 3d a5 79 70 bd 00 a2 2d 3e
       -0.00503817 0.03521934 -0.05870976 0.1695633
000010 fb 59 ae bd 64 5e 08 3e 93 9e b4 3d af a2 a9 bc
       -0.08513256 0.13317257 0.08819308 -0.020707456
000020 77 0a b1 3c 0c 1d 2e bd f2 8c a9 3c 7a f0 07 3e
       0.021611435 -0.04250817 0.02069709 0.13275328
000030 cc 83 02 3c 40 02 1a 3e 5c ff 1f 3b e8 0d 6b be
       0.007965993 0.15039921 0.002441368 -0.22954524
000040 cc 07 23 3e aa 89 da bc 8a a6 20 be d3 a9 a6 bb
       0.15920943 -0.026676971 -0.1568853 -0.0050861626
000050 a4 c8 b7 bd 10 0f af 3d ea 9a 08 bd 08 6a e5 bc
       -0.08973816 0.08547795 -0.033350863 -0.028004661
000060 7d 09 d2 bc c7 4f a4 3d 95 37 4d 3b b2 52 fb 3d
       -0.02563929 0.08023029 0.0031313647 0.12271632
000070 8c e3 23 3d 32 ca 05 bc 4b d5 26 3d a2 4e c6 3d
       0.040011927 -0.008165883 0.040730756 0.09682967
000080 18 b3 e6 bc ee 5c a9 bd 4f 84 a6 3d 6d 2e 14 3d
       -0.02816157 -0.08269678 0.081307046 0.036177088
000090 7a 4d b7 3b e9 0a d5 3c c5 95 23 3d 89 01 16 bd
       0.0055939527 0.026006179 0.039937753 -0.036622558
0000a0 2f df e3 3d 78 90 a4 3d 82 f4 36 be 79 8d 49 3d
       0.11126553 0.08035368 -0.1786671 0.049207184
0000b0 98 cd 26 bd 9f 87 c0 3d 66 53 7e bc b8 65 6a bd
       -0.040723413 0.09400868 -0.015522813 -0.057225913
0000c0 e6 17 b9 3c ce 8c a8 3c 9b b3 ad 3c de ef fd bc
       0.022594403 0.020574953 0.021203807 -0.030998167
0000d0 eb 18 ad bd c8 80 be 3d e8 ad 08 3e db 7c ac 3b
       -0.08452018 0.09301907 0.1334759 0.0052639074
0000e0 54 84 c7 3d 7d c8 42 3d 7d fa 8e bc 74 42 15 3e
       0.097420365 0.04755448 -0.017453426 0.14576131
0000f0 e6 49 97 bc d0 8f 03 3e f9 89 a6 3b 9f 06 cb 3d
       -0.018467855 0.12847829 0.0050823656 0.09913372
000100 ad 76 e5 bd 94 23 b4 3c b3 13 b5 bd ad 68 1a be
       -0.11204276 0.021989621 -0.08841648 -0.15078993
000110 67 77 c1 3d 19 c4 ef 3c 5e cd 70 bb bc 45 37 bd
       0.09446602 0.029268311 -0.0036743502 -0.04474424
000120 7f f6 b1 bd a5 1f 19 bd 82 48 2c be 79 a7 10 3d
       -0.086895935 -0.037383694 -0.16824535 0.035315964
000130 fe 07 ff 3c 41 53 05 3d 2c c9 39 bd 36 7c 72 bc
       0.03113174 0.0325501 -0.045357868 -0.014800122
000140 fc 6e 23 3e 6c 9c 09 bc 95 75 61 3d 64 16 8b bd
       0.15960306 -0.00839911 0.055043776 -0.0679138
000150 bd de eb bd 82 b0 82 bc 70 9b 95 3d 52 f1 a2 bd
       -0.11517093 -0.015953306 0.07305038 -0.079561844
000160 5f 38 09 3e b0 06 47 3d 6e b3 1b 3c 27 17 fa bc
       0.1340041 0.048590362 0.009503229 -0.030528618
000170 e2 6b 0a be bd 89 45 3e 99 17 2f be df 3d 33 3b
       -0.13517717 0.19290824 -0.17098846 0.002735011
000180 d2 13 a6 bc bd 78 d0 3d 54 99 bd 3d 90 5c 74 3d
       -0.020273123 0.10179279 0.09257761 0.059658587
000190 0e ca c7 3d 7f 99 57 3e 70 3f 85 be e4 30 78 3d
       0.09755336 0.21054648 -0.2602496 0.0605935
0001a0 ad 0a 42 3d 54 32 f3 bd ea 4f 44 bd 79 cf bf 3d
       0.047373462 -0.11874834 -0.047927774 0.09365744
0001b0 bd 29 a8 3d db 93 ed 3d 96 3e 88 3d 41 31 85 bd
       0.08211086 0.11600467 0.06652562 -0.06503535
0001c0 77 86 ab 3d 8c 58 d2 bb 39 51 ab 3d 1b 0a fd 3d
       0.083752565 -0.006419247 0.08365101 0.12355443
0001d0 8e 25 e6 3c 49 9e 59 3c 04 7d 6d bd 21 c5 e8 3d
       0.02809408 0.013282367 -0.057980552 0.11365724
0001e0 cd 56 aa 3d 90 69 1c bd 08 9c 2d 3d 53 21 69 3d
       0.08317337 -0.03818661 0.04238513 0.056916546
0001f0 f2 49 d1 3d 5c a2 db 3b e2 bf 0c 3e 61 5f f6 3c
       0.10219182 0.0067027044 0.13745072 0.030074777
000200 db e9 82 3d cf f0 e1 3d b1 06 1a bc 43 49 7c 3d
       0.06392261 0.11032259 -0.009401009 0.061593305
000210 8d 68 fc 3d 50 87 8f 3d be 76 5d bc 2b d6 82 bd
       0.12324629 0.07008231 -0.01351708 -0.063885055
000220 8a d2 75 be 28 c0 72 bd 6f 66 89 bd a4 4f 4a bc
       -0.24006096 -0.059265286 -0.06708991 -0.012348089
000230 fe d6 f1 3b 8d a8 3e 3d 7c 71 da bd 0c 1f 0e 3e
       0.0073803654 0.04654746 -0.10666177 0.13879031
000240 66 c3 b5 bd dc 4e 55 3d c7 09 c7 3c a4 f2 83 bd
       -0.0887516 0.05207716 0.024296654 -0.064427644
000250 3a 45 f2 3c 32 f0 23 3e ce 31 83 bb 4e 07 80 bd
       0.029574025 0.16009596 -0.00400374 -0.06251393
000260 04 3b d9 3a 6b 1f a9 bd 1a b4 b3 3d 63 b1 a8 bc
       0.0016573374 -0.082579456 0.08774586 -0.020592397
000270 8f 3a 25 bd ce 13 78 3d 91 a4 9d bc be 0a 60 bd
       -0.04033905 0.060565762 -0.01924351 -0.054697745
000280 a0 93 11 3c 66 67 1e bd 46 d0 bf bd 74 24 fb bc
       0.008885294 -0.038672827 -0.09365897 -0.03065703
000290 27 eb 34 3c 04 59 37 3c 94 ea 28 3d b7 2d 00 bd
       0.011042393 0.011190657 0.041239336 -0.031293597
0002a0 d0 17 c9 3d 82 8b c2 3c 39 d9 95 bc c2 89 82 bd
       0.09818995 0.023748163 -0.018292056 -0.063739315
0002b0 fd eb 12 be 3b 11 08 3d c8 31 85 3d c1 24 83 3d
       -0.14347835 0.033219557 0.06503636 0.064034946
0002c0 80 1f 37 3b ba 5b 9d 3b 07 00 1a 3e 3f d0 8a 3c
       0.002794236 0.0048021944 0.15039073 0.016945003
0002d0 a1 9b d4 bb e5 2a da bd 8e b0 5d 3e 54 52 30 bb
       -0.006488279 -0.10652713 0.21649382 -0.002690454
0002e0 9d e3 87 bd cb 06 71 be 62 a9 0a bd 4a bb 57 3d
       -0.06635211 -0.23537748 -0.033852942 0.052668847
0002f0 c9 2d c9 bc be 5f 03 3c 4b 2a a4 3d b4 0c 25 be
       -0.024557965 0.008018432 0.08015879 -0.16118127
000300 fc fe fa 3d e8 fa 64 bd 0f 23 bf 3c 74 fd 4b 3d
       0.12255666 -0.055903345 0.023332147 0.04980226
000310 e2 7e dc 3c 80 ed 96 bc 20 a9 48 bb f5 ec 27 bc
       0.026915971 -0.018423796 -0.0030618384 -0.010249366
000320 75 83 01 3e 5b fc 0d 3d 2f 05 9b 3c ef 85 92 3d
       0.12647803 0.034664493 0.01892337 0.07154452
000330 90 18 6a 3d e6 fc a0 bc 47 77 83 3d 22 55 3e bd
       0.05715233 -0.019651841 0.06419235 -0.046467908
000340 b5 44 e4 3d bc b0 12 3e 00 d8 8a 3d 5e 73 ca bd
       0.11145917 0.14325231 0.0677948 -0.09885286
000350 3b 3b 34 bd 92 be df 3d 8c 0e 3f 3e 52 83 84 bd
       -0.0440018 0.1092502 0.18657893 -0.0647036
000360 b7 16 10 3e 4d ac 1f 3e 0f 78 74 3d 22 d5 16 bc
       0.14071165 0.15593071 0.05968481 -0.009206088
000370 d7 d6 53 3c 71 d6 99 3c 82 5c 21 3e b4 e0 a0 bd
       0.01292964 0.018779011 0.15757945 -0.07855359
000380 c3 30 80 3c 7c 16 e6 bc a5 36 ca 3d 78 88 79 3d
       0.015648251 -0.028086893 0.09873704 0.060921162
000390 2b b9 eb ba 35 ce 9f 3d 5c e4 60 3e d9 ba 11 bd
       -0.0017984262 0.07803003 0.21962112 -0.035578582
0003a0 2b a5 8c 3d 9e 4d 64 bc c9 72 24 3e 9a fa 4b bd
       0.06867441 -0.013934521 0.16059412 -0.04979954
0003b0 47 27 f9 3d 2b 54 de bd 5b 1f 1e bc 18 d4 02 bc
       0.12165695 -0.108558975 -0.00965103 -0.007985137
0003c0 c1 b6 b4 3c a7 aa 19 bd 3f 8e 72 3c 9a 96 09 3e
       0.0220598 -0.037516262 0.014804422 0.13436356
0003d0 b0 70 5e 3b a6 8c a7 3b 0b aa fe bc 85 9d ff 3c
       0.0033941679 0.005113202 -0.031086942 0.03120304
0003e0 bc 9d 6a 3d de aa ef 3d 0e f7 ea bb d0 91 23 bc
       0.057279333 0.11702512 -0.0071705645 -0.009983495
0003f0 92 53 94 3c 06 97 74 3c 13 df 2a ba 94 be 22 bd
       0.018106256 0.014928585 -0.0006518226 -0.03973253

network_body._body_endoder.seq_layers.2.weight f4 [256, 256]
000000 b2 6f 21 3d f8 b6 18 be f4 99 2c 3d ac 55 3d 3e
       0.03941316 -0.14913547 0.04213901 0.18489712
000010 1b 03 34 be 88 b3 9c 3e 4f 35 17 3d e3 a3 4c 3e
       -0.1757931 0.3060572 0.036916073 0.19984393
000020 ef 4e 4e 3e 01 1a 04 bd 12 ad a6 be 92 12 f8 bc
       0.20147298 -0.03225136 -0.32553917 -0.030282293
000030 92 a7 50 be e6 11 2d be 3d 5f c9 be c1 41 b9 bd
       -0.20376423 -0.16901359 -0.39330474 -0.09045745
000040 8d b4 77 3e 38 6d 3a be b8 1a f7 bd f0 43 50 3e
       0.24189968 -0.18205726 -0.12065643 0.20338416
000050 25 90 9e be 5c 47 82 bd 2c c8 82 bd 5b ea 7c 3d
       -0.3096935 -0.06361267 -0.06385836 0.061746936
000060 4a 29 98 be f7 22 ae 3d 9b 3d e2 bc 31 58 e1 3d
       -0.29719 0.08502763 -0.027617266 0.11003149
000070 de 59 27 be d4 04 de bd 97 41 68 be 87 b9 ee 3d
       -0.16342875 -0.10840765 -0.2268127 0.1165648
000080 2e f9 a2 be 04 b9 5d 3d 87 40 4d be a5 52 23 be
       -0.31830734 0.054131523 -0.20044146 -0.15949495
000090 39 8d 56 be 19 31 cf be af 5c 8f 3d 83 07 fb bd
       -0.2095231 -0.40467146 0.070001 -0.12257292
0000a0 f6 c4 24 3e de 00 68 be bb d7 4c 3d 5a 38 a9 be
       0.1609076 -0.22656581 0.050010424 -0.33050805
0000b0 a6 3f 9c bc a6 0f 86 be a1 a5 4b be 5d 24 ae bd
       -0.019073319 -0.26183814 -0.19887401 -0.085030295
0000c0 6a ec eb 3d 00 74 87 bd b2 80 1c be b7 1f 7c be
       0.11519702 -0.06613922 -0.15283468 -0.24621473
0000d0 a4 89 6d 3d e4 63 8a bc dd 93 1e bd 6f 78 44 be
       0.057992592 -0.016893335 -0.038715232 -0.19186567
0000e0 6c ec 63 3e 25 f3 fa bb 54 d5 09 be 4b ac 68 3e
       0.22258157 -0.0076583796 -0.13460284 0.22721975
0000f0 72 26 96 3e 7e 35 e4 3d ce 0b 55 be 86 3f d5 3e
       0.29326206 0.11143015 -0.20805284 0.41650027
000100 b2 c3 8e be 1b 9a 80 be 56 3b b7 be 57 ea 5e be
       -0.2788368 -0.25117573 -0.35787457 -0.21769081
000110 2a a7 f8 3d a0 9f b9 bb 8c de 1a 3e d7 7b a0 be
       0.12141259 -0.0056647807 0.15123957 -0.31344482
000120 ca 70 44 be 7f 09 a1 be b7 d3 2a be f3 ac 4c be
       -0.1918365 -0.31452557 -0.16682325 -0.1998785
000130 44 0c 1a 3e 67 47 88 bd d8 5d 0e be c6 0f 4c be
       0.15043741 -0.06654244 -0.13902986 -0.19927892
000140 af 32 4b be e2 58 01 be b4 19 62 bb 69 15 9f be
       -0.19843553 -0.12631562 -0.0034500184 -0.31071022
000150 60 c2 ac 3d 3d 65 92 be 1b 64 3e 3e 61 be 45 3e
       0.084355116 -0.28592864 0.18592875 0.19310905
000160 84 4c 6d be cc 9a a1 3d 88 0e fb 3d b3 ef b6 be
       -0.2317372 0.07890853 0.12258631 -0.3572975
000170 33 3e 1c be c5 ef 92 3e cd c0 e4 bd c1 e9 98 be
       -0.15258102 0.28698555 -0.11169586 -0.2986584
000180 0f 70 7d bd 54 26 3c 3e b6 19 5c bc 70 a1 16 3d
       -0.061874446 0.18373996 -0.013433864 0.036775053
000190 86 75 de 3d 66 3b d3 bc 2a 38 57 3d 10 d0 d5 bd
       0.108622596 -0.02578516 0.052543797 -0.104400754
0001a0 ae d6 d7 3d 01 52 0e be 53 ec 8a 3d 9e 0a 05 bf
       0.10538994 -0.1389847 0.067833565 -0.51969326
0001b0 1c ac 9a be 80 b3 da 3d 49 bc 2d 3e 51 2a 05 be
       -0.30209434 0.10678768 0.16966356 -0.13004424
0001c0 2c d2 76 3e ed 08 bb be 08 8e 7d 3e 7d 96 30 3e
       0.24103612 -0.36530247 0.24761212 0.17244907
0001d0 06 8c d8 3d 92 81 36 be df a9 a8 be 0d d5 ce 3b
       0.10573582 -0.17822865 -0.329421 0.0063120187
0001e0 f4 54 40 3d 34 14 b1 bd f1 35 5f be a7 ef 9e bc
       0.046956018 -0.086464316 -0.21797921 -0.019401385
0001f0 a8 27 55 3e a5 11 00 bf 97 89 97 3c 36 11 96 be
       0.20815909 -0.50026923 0.018498225 -0.29310006
000200 bd 33 e3 3d d5 4d ff 3d 0a 4e 89 be cd 6e 0e 3e
       0.11093853 0.12466017 -0.26817352 0.13909455
000210 a2 df ca 3d a3 17 6b 3e c5 ee 77 bd 96 c4 aa be
       0.09905936 0.22958235 -0.060530443 -0.33353108
000220 66 b3 24 be 3b fd d7 be 1c 16 52 3d 7f df 8b bd
       -0.1608406 -0.42185387 0.051290616 -0.06829738
000230 66 1d 18 be c8 39 71 3c 99 b5 bc bc be 95 14 3f
       -0.14854965 0.014723249 -0.023035811 0.5804099
000240 33 c7 90 3c 1f d5 5f be f5 12 18 be a5 90 c6 be
       0.01767311 -0.21858643 -0.14850982 -0.3878223
000250 da 81 bf bd 99 06 2a be 83 00 41 3e 27 24 11 3e
       -0.09350939 -0.1660408 0.18847851 0.14173947
000260 bc 29 e8 3d 11 d5 9a be c8 5f c4 3e 1c 1c 1f bc
       0.11336085 -0.30240682 0.38354325 -0.009711292
000270 05 02 ae bd 43 2e 53 3e 04 84 b8 3d 21 c4 16 3e
       -0.08496479 0.20623116 0.09009555 0.14723255
000280 18 d2 eb bc 50 27 62 be 17 29 5c 3d 76 00 b0 3e
       -0.028786704 -0.22085309 0.053750124 0.34375352
000290 9d 30 a6 3d 85 55 91 bd e9 37 37 be 4d 5f e0 bd
       0.08114741 -0.0709639 -0.17892422 -0.10955677
0002a0 98 f7 05 3e e3 71 9c bd 27 93 89 be af 8d a6 3d
       0.13082731 -0.0763891 -0.2687008 0.08132493
0002b0 15 69 00 bf 62 5c 79 3d d9 47 9e 3d 6f e6 02 bc
       -0.5016034 0.06087912 0.077285476 -0.00798951
0002c0 51 65 03 be 38 f1 45 3c 4f 97 c7 bd ea c2 85 3e
       -0.12831618 0.012081437 -0.09745657 0.2612527
0002d0 28 a3 c1 be 2e 6d 07 3e 5b fb 2f be ae 66 29 3e
       -0.3781979 0.13225242 -0.17185728 0.16543075
0002e0 41 87 1d be bd 16 b6 bd 9c e7 55 be 2b 4d 5f 3c
       -0.15383627 -0.08891056 -0.20889133 0.013629238
0002f0 3a d8 99 3e 45 6b a2 bd 44 31 ea 3e 1d e6 d6 3d
       0.3004778 -0.07930616 0.45740712 0.104931094
000300 a7 cf 9e bd c6 43 2a 3e bd 5a 15 3d 9a 35 38 3e
       -0.0775445 0.16627416 0.036463488 0.17989197
000310 b0 bb d1 3d fe fe 6a be d7 64 18 be 7b 98 6f be
       0.10240877 -0.22948834 -0.14882217 -0.2339801
000320 41 81 a6 3c e9 b4 24 3e f6 8b 31 be 46 63 1e be
       0.020325305 0.16084637 -0.17338547 -0.15467557
000330 ae ea fa be 98 c2 d3 be 64 03 76 be 78 73 93 bd
       -0.4900717 -0.413594 -0.24024731 -0.07199758
000340 6e e5 df 3d 62 35 30 3e 80 a9 04 be 97 51 88 be
       0.10932432 0.17207864 -0.12955284 -0.26624748
000350 84 0f 3e bd f4 a0 ca 3e e7 6d 60 be 12 4e 10 3d
       -0.046401516 0.39575922 -0.21916924 0.035230704
000360 f2 ee 44 3e fe 4a a7 bd d2 26 2b 3d 61 74 a4 be
       0.19231775 -0.081686005 0.04178507 -0.3212004
000370 c4 f8 7b 3e 85 b1 c7 3e aa 23 b2 3e a4 1e a1 bd
       0.24606615 0.39002624 0.34792835 -0.07867172
000380 17 f8 8c be ca 11 19 3d 63 02 64 be 84 2f 6a bd
       -0.27533028 0.03737048 -0.22266535 -0.05717422
000390 36 86 14 3e f3 88 cf bd 3c 5b 87 3e d1 74 e9 be
       0.14504322 -0.10133543 0.26436794 -0.45596936
0003a0 9e fc e5 bd 02 6e 1a be 27 49 a5 3d 0a 8d 3b 3c
       -0.112298235 -0.15081027 0.08070593 0.011447201
0003b0 ff 0c 80 3e 58 f5 d8 3d bc 6a 77 3e 01 da b5 bd
       0.25009915 0.105936706 0.2416181 -0.088794716
0003c0 3f 7a c0 3d dc ce e8 bd 69 d5 2c be 6f ad da 3d
       0.093983166 -0.1136758 -0.16878285 0.10677611
0003d0 a3 93 c9 be 3c bd 9f be a6 db f0 3d 06 96 1d be
       -0.3937045 -0.31199062 0.117606446 -0.1538926
0003e0 6c 49 20 be 23 bf 51 bd 6e d2 9f be f4 a8 35 3d
       -0.15653008 -0.051207673 -0.31215233 0.04435058
0003f0 37 47 63 3e 96 c3 f5 3d 3a 7e bd bd 00 e9 87 be
       0.22195135 0.12000196 -0.092525914 -0.26544952

network_body._body_endoder.seq_layers.2.bias f4 [256]
000000 5b 10 7a 3d 58 0b 24 bd fb 0b 15 be c1 53 70 bd
       0.061050754 -0.04004988 -0.14555351 -0.058673624
000010 55 74 aa bd 41 9e 61 3b 02 39 18 bc c4 12 fe 3d
       -0.0832297 0.0034426602 -0.0092909355 0.12405923
000020 9d b1 1a 3d ae d8 1f be 56 7d d3 bc a3 fa a2 bc
       0.03776704 -0.1561 -0.0258166 -0.019894904
000030 7a ac 80 3d 2d 5e 5d 3d 35 7a 0f be 34 7a 7b bd
       0.06282897 0.05404489 -0.14011462 -0.06139584
000040 24 d3 c1 3d b8 29 25 be 0c 9e 9b bd 0b 19 2c bd
       0.094641 -0.16129196 -0.075985044 -0.04201607
000050 79 8e 09 3c b2 0b 14 3c d7 a8 93 bd 77 4d 07 be
       0.008395785 0.0090359915 -0.07209938 -0.13213144
000060 bf 33 2d be 8a d8 06 be 5a f4 f5 bd d2 7a f8 3d
       -0.16914271 -0.1316854 -0.12009497 0.12132801
000070 12 6b 82 be 81 f5 1e 3e f5 95 47 3c a4 79 00 3d
       -0.25472313 0.1552334 0.012181749 0.031366006
000080 0e 41 c2 bd 12 50 6d 3e 2c c3 3b bc 66 95 ac bd
       -0.094850644 0.23175076 -0.011460107 -0.08426933
000090 46 f7 e4 3c 28 e8 82 3d e6 17 06 bd 3c 5b ac 3c
       0.02794994 0.063919365 -0.032737635 0.021039598
0000a0 e4 0f 91 3d 98 30 46 3c f7 f0 88 3c ec b8 69 bd
       0.07083109 0.012096547 0.016716463 -0.05706112
0000b0 08 3c da bd 0c bc aa bd 01 50 6c be 3d 8a 28 3d
       -0.10655981 -0.08336648 -0.23077394 0.04114746
0000c0 69 c7 ec bd 65 32 a8 bb 5a f4 a8 bd 18 ca 60 3c
       -0.11561472 -0.0051329606 -0.08249731 0.013720058
0000d0 9d 04 0f be 3e fd 96 bd 20 79 3c bd 54 c8 57 3b
       -0.13966604 -0.07372521 -0.04601395 0.0032925801
0000e0 67 e0 12 be 99 73 02 3e 78 90 0e 3d 71 7d 9c 3d
       -0.14343415 0.1273941 0.034805745 0.076411135
0000f0 f6 4c 87 bb eb 4c ab 3e 51 8d da bd 17 18 0c 3d
       -0.0041290475 0.3345712 -0.10671485 0.03420266
000100 ca 2f 91 3c f7 17 c3 bc bc cb 36 bd 11 a0 56 3e
       0.017722983 -0.023815138 -0.04462789 0.20959498
000110 ef 83 a6 3d 3d 0f 4b bd 0a eb db 3d db f5 11 be
       0.08130633 -0.04957508 0.107381895 -0.14253943
000120 dc d3 b9 3d c4 f2 da ba a4 44 a3 bd 87 20 d7 bd
       0.09073612 -0.001670443 -0.079720765 -0.10504251
000130 46 5c d6 bc b2 67 91 3b 2c 31 8a bd 63 7d d8 bd
       -0.026167046 0.0044374103 -0.0674766 -0.105707906
000140 03 fb fd bc f6 fe cc 3c 79 6f bd 3b 5a dd 07 be
       -0.03100348 0.025023919 0.005781111 -0.13268033
000150 f3 4e 57 3d 29 21 c8 3c 92 d3 e7 3b 4a 6c 87 3b
       0.052565526 0.024429874 0.0070747817 0.004132782
000160 97 b2 5c 3c 55 fa 8d be d5 0b a1 bd 37 be de 3d
       0.0134703135 -0.2773005 -0.07863585 0.10876124
000170 e8 7f a8 3d 32 ba 8f bd f6 05 59 bd 22 ac 8e be
       0.08227521 -0.07017936 -0.0529842 -0.27865702
000180 c6 ab c3 3c 63 48 d0 bd f8 0a bf bc cd bc 50 bc
       0.023885619 -0.10170057 -0.02332066 -0.012740326
000190 b5 96 3c 3d 52 ea 5b bc e3 a1 04 be 51 af 5c be
       0.046042163 -0.013422566 -0.1295238 -0.21551253
0001a0 2e ac 2e bd 22 d5 f3 3c 3b 6b 29 3d 42 04 3d be
       -0.042644672 0.029764716 0.04136203 -0.18458655
0001b0 08 c9 03 3d c1 bd 11 bd e4 0c 1d bd d2 f1 96 bd
       0.03217414 -0.035581354 -0.03834237 -0.07370342
0001c0 d0 86 90 be b9 88 56 bd e6 cc 81 3d 0c 04 ac 3c
       -0.28227854 -0.052376483 0.063379094 0.020998023
0001d0 5a 13 55 3e 03 14 d0 3d ff 70 56 bc 67 8b 07 bd
       0.20808163 0.10160067 -0.013088464 -0.03309193
0001e0 71 e3 32 3e 38 f1 8d 3c 15 b7 f1 bb e0 c5 1b 3e
       0.17469575 0.017326936 -0.0073765614 0.15212202
0001f0 21 5e a1 3d e4 38 79 bd 96 1c 71 3d d0 df e4 bd
       0.07879282 -0.06084527 0.058865152 -0.11175501
000200 b8 f5 b5 bd 2a 73 fb ba 0f 4e 38 3d 11 5e 5b bd
       -0.08884758 -0.0019184102 0.044996317 -0.053556506
000210 eb a2 dd 3d 3d 81 9c 3b 0a a0 20 be ab 05 b0 bd
       0.1082209 0.0047761486 -0.1568605 -0.08594831
000220 ca 4c d2 3a 0d f1 88 bd 38 e5 08 be 1a 83 87 bd
       0.0016044613 -0.06686602 -0.1336869 -0.066168025
000230 c6 8a c4 bd 73 e0 be bd 00 47 1d bd 39 cb e0 bc
       -0.095967814 -0.09320154 -0.03839779 -0.027440654
000240 68 f7 d8 ba bd 24 a3 bd 17 e1 36 bd 19 d2 11 bd
       -0.0016553225 -0.07965992 -0.044648256 -0.035600755
000250 c5 a2 19 be c0 ac 09 3c 8f b0 bc 3d bd 70 98 bd
       -0.15003498 0.008403003 0.092133634 -0.07443378
000260 27 04 94 3d 82 65 8f 3d db de eb bd ae 81 e3 bd
       0.072273545 0.07001783 -0.11517116 -0.11108719
000270 8d f0 56 3e 67 cd 4e 3e e0 27 7a be 6e 97 19 3c
       0.209902 0.20195542 -0.24429274 0.009374483
000280 a5 57 92 bd e8 50 a5 3d ac ab 96 3d 43 c1 09 3d
       -0.07145623 0.08072072 0.073569626 0.033631574
000290 f7 e5 52 3d 47 fc 08 3d fa 24 89 bd 43 34 79 3c
       0.051488843 0.033443715 -0.06696506 0.015210214
0002a0 b0 48 e3 bd cb 1c c1 3d a0 dd 4b 3e 00 4e e8 bc
       -0.110978484 0.0942932 0.19908762 -0.028357506
0002b0 2c 8d 6b bd 2d 3c 57 bb a3 12 f3 bc 23 0e bd 3d
       -0.05750768 -0.0032842264 -0.029671973 0.09231212
0002c0 ff 14 f7 3c 52 61 82 bd 19 2d be bb d5 57 2b bc
       0.030161379 -0.063662186 -0.005803716 -0.0104579525
0002d0 ee 15 c0 bd a1 7a 91 bd ca 23 90 bc 28 2e 28 3d
       -0.09379183 -0.07103468 -0.01759519 0.041059643
0002e0 74 d6 a0 3c ce cc c7 bb fa 91 65 bd e8 ac 13 bd
       0.01963351 -0.0060974127 -0.056047417 -0.036053568
0002f0 15 27 37 bd 50 ec ca bd af 80 be 3c 84 a1 01 be
       -0.044715006 -0.09908354 0.02325472 -0.1265927
000300 8b c3 49 bc 34 1d 2f 3d ea 11 fe 3a f2 ea fe 3d
       -0.0123146875 0.04275246 0.0019384001 0.12447156
000310 c1 84 e3 bd e7 32 40 3d 1b a5 f9 3d 02 ae 26 3d
       -0.11109305 0.046923544 0.121896945 0.04069329
000320 45 6d 0a be 83 19 06 bd 0d 31 1d be f6 5b 26 be
       -0.13518246 -0.032739174 -0.15350743 -0.16246018
000330 5e fa e0 bc 6e cb 37 bb d6 2b 88 bd 45 8e a4 3d
       -0.027463134 -0.0028044838 -0.06648986 0.08034948
000340 c9 32 59 bc 1f 10 95 ba b8 22 3f 3c cb b0 93 bd
       -0.013256737 -0.0011372602 0.011665992 -0.07211455
000350 01 28 3f bd 71 b7 13 be ba 77 90 bd 6b 13 ab bd
       -0.04666901 -0.14425446 -0.07054086 -0.08353313
000360 b7 72 5e bd 6b b7 a3 3d d5 d1 47 be c6 e4 69 ba
       -0.05430862 0.079939686 -0.19513638 -0.00089223345
000370 e8 34 ef 3d 35 44 f1 bb 96 b6 4f bd 5f fe d7 bc
       0.11680013 -0.0073628672 -0.050711237 -0.02636641
000380 dc cb 09 bd 6b 0a 3a bd 01 9d 0f be 1a ab 07 be
       -0.03364168 -0.04542009 -0.14024736 -0.13248864
000390 3c 8a 4c 3d 3a cf 4a 3c 67 9d 5b 3e 40 3b 26 3d
       0.049936518 0.012378508 0.21446763 0.04058385
0003a0 5a f7 3a 3e 88 1b 94 bd e0 77 2a be af 6c 0d bb
       0.1825842 -0.07231814 -0.16647291 -0.0021579673
0003b0 d5 ce 24 3c 6f 1b 3f 3e 26 40 cd bc 96 d7 d1 bc
       0.010059078 0.18662809 -0.025055002 -0.025615495
0003c0 88 eb 06 be 0f 0d e0 bd 13 b2 27 3e 22 a0 8f bc
       -0.13175786 -0.10939991 0.16376524 -0.017532412
0003d0 8d ef 13 be 41 ab f3 bd 5a bb bc bd 92 7d 78 bb
       -0.1444685 -0.118978985 -0.09215422 -0.0037916643
0003e0 51 bd 07 be e4 34 d9 bd f6 51 a7 3d 19 fb 81 bd
       -0.13255812 -0.10605791 0.0816993 -0.06346721
0003f0 13 16 83 bd 9b b1 08 be 15 8c 1b be 64 09 21 bd
       -0.06400695 -0.13349001 -0.15190156 -0.039315596

action_model._discrete_distribution.branches.0.weight f4 [7, 256]
000000 31 59 f2 bb 2c 42 f0 bc 4d eb 04 3c bf 65 47 be
       -0.0073958864 -0.029328428 0.008112741 -0.19472407
000010 7f 28 98 3d ab e0 1a be 5b 51 30 3d 0c 47 2f be
       0.07429599 -0.15124767 0.043046337 -0.17116946
000020 9a 5e 2c be 1b 02 5a bd 3e e9 06 be 14 36 27 3d
       -0.16832963 -0.053224664 -0.13174912 0.040823057
000030 1d 3d 77 be ad a7 4a be 26 e5 14 3e 77 b8 55 3b
       -0.24144407 -0.19790526 0.14540538 0.003261117
000040 57 57 eb bb 97 93 ac 3d 6b bc fb bd bb 62 fb bd
       -0.0071820426 0.08426588 -0.12291797 -0.12274691
000050 77 99 b1 be 80 9f 2c 3d 7c 0d 0f be 0d b9 2e be
       -0.34687397 0.0421443 -0.13969988 -0.17062779
000060 cd c1 13 3d be 73 c2 3c 94 e8 33 3d 4e 5e e5 be
       0.036073495 0.02373683 0.043922976 -0.4479851
000070 49 59 8f 3e ef 48 bb be 98 cf b7 3d 89 83 61 3e
       0.27997807 -0.3657908 0.08975142 0.22022833
000080 e5 b3 ba bd 80 8e fb be fb 2a e7 3d 27 b0 7c be
       -0.091163434 -0.49132156 0.11287495 -0.24676572
000090 1a 55 c3 3c 4c cc 93 3a 3b c4 05 3e f4 e7 9e bd
       0.02384429 0.0011276095 0.13063137 -0.07759085
0000a0 f8 c0 1a 3d 0c 78 0f bd 32 ba 13 3e c8 4d 7b 3d
       0.037781686 -0.035026595 0.14426497 0.061353475
0000b0 91 b6 00 be f6 5c b3 3c f6 fe 24 3d f7 2a df 3d
       -0.12569644 0.021894913 0.040282212 0.10896867
0000c0 2c 58 93 be c7 ff 78 bd 75 0f 8b 3e c5 4c 1c bd
       -0.28778207 -0.060790803 0.2716023 -0.03815915
0000d0 6f 97 08 3d a4 f2 53 3d dd 52 ad 3d b4 c0 3a 3d
       0.033347543 0.051745072 0.084630705 0.045593932
0000e0 7f 4a e2 3d 9e 93 b4 bd a9 65 85 3d d0 6e b0 3c
       0.11049365 -0.08817218 0.06513531 0.021537215
0000f0 21 80 ee be 35 6f e0 be 49 ee ba 3d c1 da 86 3d
       -0.4658213 -0.43834844 0.091274805 0.06584693
000100 69 4e af bd 7d b3 1d 3e 86 c7 34 3d 41 fe ca be
       -0.085598774 0.154005 0.044135593 -0.39647105
000110 fd 1c 7f 3e 9b 47 3e 3c 58 d0 e4 be 8f 29 1f bd
       0.24913402 0.011613752 -0.44690204 -0.038857993
000120 bd 5a 08 be d6 7b 68 3d e8 54 13 3d 8d e9 8e be
       -0.13315864 0.056758724 0.035969645 -0.2791256
000130 7d 47 6d be 24 0d 2f 3d 21 a8 2b be 9d 63 eb 3d
       -0.23171802 0.04273714 -0.16763355 0.11493609
000140 73 42 88 bd 22 07 44 be 57 09 35 be f9 95 0b 3e
       -0.06653299 -0.19143346 -0.17679344 0.13631429
000150 42 01 cf 3c e2 c2 94 3d 74 0d 80 be 18 bb d3 be
       0.025269154 0.072637334 -0.25010264 -0.4135368
000160 e6 a8 9b bd 73 75 63 3e 04 ea 37 3d a3 e2 4f be
       -0.07600574 0.22212772 0.04490091 -0.20301299
000170 95 8a c7 bc 18 b5 4f be 74 21 ba 3d dd 59 df 3d
       -0.024358073 -0.20283926 0.09088412 0.10905812
000180 a4 d7 25 3d a9 62 2b 3e f3 4b 2d be f3 a8 9b 3d
       0.040488854 0.16736855 -0.16923504 0.07600584
000190 42 b5 5e 3e b1 c7 44 3c a2 62 32 3e 22 10 4b 3e
       0.21748832 0.012010501 0.17420438 0.19830373
0001a0 69 c2 04 3e 5e a9 65 3d ed 7a 99 bd db bb d2 3e
       0.12964787 0.056069724 -0.07494149 0.41158947
0001b0 55 ed bf 3c c5 40 40 3e 74 bd d5 bd 7b cf 98 3c
       0.023428598 0.18774708 -0.10436526 0.018653622
0001c0 a9 d7 6a 3e 70 76 67 3d 05 be 59 3d b7 8c 97 be
       0.2293383 0.056509435 0.053159732 -0.29599544
0001d0 fb 30 c8 be 9f 64 31 3d f6 22 bf bd bf ca 7b 3c
       -0.3909987 0.04330885 -0.0933284 0.015368163
0001e0 4c da 23 be 5e 04 1f bd bc f8 de bd 1d 40 20 be
       -0.16001242 -0.038822524 -0.10887286 -0.15649457
0001f0 9f 5a d1 bd 2d 81 19 3b ed d7 1b 3c 67 9f 0b 3e
       -0.10222363 0.0023422942 0.00951193 0.13635026
000200 07 18 cc ba 03 b1 48 be 2d 02 ef 3d da a0 6a 3c
       -0.0015571126 -0.19598775 0.11670337 0.014320577
000210 79 8d 3a be 4e 69 85 bc e3 d4 4a 3d 3c 46 85 bd
       -0.1821803 -0.016285565 0.04951943 -0.06507537
000220 b7 11 4c 3d 02 bb 71 3e ef 4a df 3d 9c ab 8a be
       0.04982158 0.23606494 0.10902964 -0.27084053
000230 cb c9 e9 bb 9c 00 76 bd 8e d1 0b be b6 a8 d2 3d
       -0.0071346513 -0.060059175 -0.13654158 0.10286085
000240 02 b5 a8 be 54 48 12 3e a5 6d 60 be 37 00 9f 3d
       -0.32950598 0.14285403 -0.21916826 0.07763713
000250 12 4a b0 3d 70 51 c1 3d 5a d3 31 be e3 e9 0d be
       0.08607878 0.09439361 -0.1736578 -0.13858752
000260 d1 72 49 3d 63 d0 ae bd dd 12 09 3e b2 09 e3 3c
       0.049181763 -0.0853584 0.13386102 0.027714584
000270 0b fa 6d be 0d 8e ed be ff 26 11 3e 83 80 2e bd
       -0.23239915 -0.4639744 0.14175032 -0.042603027
000280 37 f2 c3 bd 76 d0 43 bd c2 e9 8c bc 3a ef 89 3d
       -0.09567683 -0.047806226 -0.017201308 0.06735082
000290 a5 9b 61 bc 40 ed 54 be 56 4b 0e bd a4 f4 50 be
       -0.013770019 -0.20793629 -0.034739815 -0.20405823
0002a0 dd eb bd bc 1e 18 94 be c1 c6 ea be 9d 5e 1e bd
       -0.023183757 -0.2892465 -0.45854762 -0.03866445
0002b0 b3 4f a4 bd a7 c5 7c be 3d 56 1e be 7d 7b 0c be
       -0.08023014 -0.24684773 -0.15462585 -0.13718982
0002c0 dd 8f 8c be a5 f5 8d bd 56 55 03 be ff 25 22 3d
       -0.2745351 -0.069316186 -0.12825522 0.039587017
0002d0 b3 2d f9 bd f2 5d 0b 3d 77 55 3d bd 68 b1 db bd
       -0.121669196 0.03402514 -0.046224084 -0.10727197
0002e0 9e 4a be 3c 69 a5 04 3e 6c a9 50 ba 9b 04 fd 3c
       0.02322894 0.12953724 -0.0007959816 0.030885985
0002f0 f4 ef 6a bd 23 75 cb 3c 89 5a 05 be 9a 53 bb 3d
       -0.057357743 0.024836129 -0.13022818 0.09146805
000300 f6 2e a6 bd 2d 03 4c bd a3 03 e6 3d 26 2f b8 be
       -0.08114426 -0.049807716 0.112311624 -0.3597347
000310 d5 24 61 bc 71 63 0b be 67 90 83 be fc 27 08 be
       -0.013741692 -0.13612153 -0.25696108 -0.13296503
000320 a0 7e 7c be 9c 46 46 be 58 6f ee 3d 40 12 43 3d
       -0.24657679 -0.19362873 0.11642331 0.047624826
000330 6d 4b 9e 3e a7 0e 62 be 3d ac 56 bd 7a df 17 be
       0.3091692 -0.22075902 -0.052410353 -0.14831343
000340 e8 9f 99 bd a6 80 04 bd 05 0f 93 3e 45 d6 48 be
       -0.07501203 -0.03234925 0.28722396 -0.19612987
000350 3a 76 65 3d 83 7a 7c bd 5c 28 9b 3d 2a f5 ad bd
       0.056020953 -0.061640274 0.07576057 -0.08494027
000360 ed 9f 4a 3d 08 46 40 3d 24 7c f2 3c e9 26 4c 3a
       0.049468923 0.046941787 0.02960021 0.00077877805
000370 e5 f5 90 be 7e bd a5 bd cb e6 b2 3d 72 e0 1e be
       -0.28312603 -0.080927834 0.087354265 -0.15515307
000380 1b 11 0e 3e 55 48 68 3c 4c ff 83 be 03 9d ff 3d
       0.13873713 0.014177402 -0.25780714 0.124811195
000390 06 11 12 bd 97 be 00 be 49 2f 8e be d2 2e 25 be
       -0.035660766 -0.12572704 -0.2777045 -0.16131142
0003a0 1e 22 04 bf 4d c0 8f bb 45 e1 94 3d 48 0f 0c 3d
       -0.5161456 -0.0043869377 0.07269529 0.03419426
0003b0 bc a5 b3 bc 30 56 bf be 0a 74 ee bd ae 54 cc bd
       -0.021929614 -0.37370443 -0.116432264 -0.09977089
0003c0 a2 45 88 3e 87 9c 81 3d 2a fb cb be 90 37 26 be
       0.26615626 0.06328683 -0.3984006 -0.16232133
0003d0 cc 8d 27 bd 5c 73 ea bd 27 2a 6a bc d5 2d 5f be
       -0.040906712 -0.11447784 -0.014292276 -0.21794827
0003e0 0a 93 1a 3e 78 b2 92 bc 8b 13 d3 be ad db c6 3c
       0.15095153 -0.017907366 -0.41225848 0.024274671
0003f0 2b 83 59 bb ef 8b 22 3d 7e 73 81 be a0 ae bf b9
       -0.0033189754 0.039684232 -0.25283426 -0.00036560465

action_model._discrete_distribution.branches.0.bias f4 [7]
000000 b1 76 a6 be 6c 88 f8 3c 97 b8 59 be 35 e5 4f 3d
       -0.3251243 0.030338489 -0.21261822 0.0507557
000010 26 22 6b 3d 61 9f b2 3d 7a 39 8b 3d
       0.057405613 0.08721805 0.06798072
